run_logs/q2_dagger_ant/policy_itr_0.pt (torch, 41083 bytes, 7 tensors)

_logstd f4 [8]
-3.3287587 -3.2268195 -2.9377425 -3.0646284 -3.2955046 -3.687644 -3.0491984 -3.554045
00000000: 620a 55c0 3684 4ec0 f903 3cc0 df22 44c0
00000010: 8ce9 52c0 5c02 6cc0 1126 43c0 7975 63c0

_mean_net.0.weight f4 [64, 111]
0.7533416 -0.02336996 -0.5347004 -0.7885049 -0.31085935 -0.00893078 -0.255281 -0.097183846
0.079082064 -0.080590926 0.078674845 -0.038109776 -0.15572056 0.051616758 0.05214687 0.27991146
0.087187804 -0.0779941 0.0034960283 0.08570802 -0.07713159 0.0023231448 0.31328082 0.05510141
0.24733104 0.06852457 0.006184723 -0.053147797 -0.053797346 -0.0461133 -0.08622193 -0.061598673
0.022338333 0.062468458 0.0046757692 -0.04350843 0.04171393 -0.036435578 -0.02102564 -0.052033532
-0.0298038 -0.087948956 0.04049961 0.03690666 0.018853463 0.046601877 0.040228337 0.004199369
0.010052108 0.0072478824 0.050646853 0.05032568 0.3805877 0.4679313 -0.3508118 -0.42452976
-0.051991407 0.05521555 0.01054117 0.08784808 0.04814057 -0.08112065 0.027765928 0.09120214
0.08430838 -0.0014915795 0.031488683 -0.08903591 -0.030259244 -0.29784647 -0.14642072 0.15491773
-0.16698702 0.105999105 -0.11585165 0.016725797 0.009195902 -0.08873037 -0.020387925 -0.059997328
0.08069306 -0.011650873 -0.09450933 0.022988506 0.041219108 -0.042489868 -0.008903855 0.12988605
0.29132122 -0.20234862 -0.11347496 -0.27442765 -0.030119348 0.0077632735 0.05678853 0.050813712
-0.07314796 -0.05916047 -0.06492071 -0.030506022 -0.03468455 -0.015293835 -0.091821596 0.040082633
0.053846363 -0.23557638 -0.29310456 -0.46351445 -0.31897542 0.44200784 0.4039107 0.3449205
-0.2854471 -0.6517372 -0.57336396 -0.013777054 -0.101710804 0.41481128 0.16899025 0.16257088
0.2805848 0.16353737 -0.4750117 0.12797478 0.024845839 -0.23318422 0.18850617 0.21187541
-0.12094073 -0.04011251 -0.0044473205 -0.004192875 -0.004410845 -0.2596817 0.028354075 -0.18519087
-0.017631274 -0.11758029 0.09242122 -0.007161426 -0.090338506 -0.014288737 0.061994657 0.043711487
-0.0010143871 0.066911764 -0.086599216 0.06585687 0.09421843 -0.057714954 0.020358982 -0.015305784
-0.080126956 -0.000832105 -0.031808462 -0.08107182 -0.0691622 0.002071058 0.08799323 0.033982914
-0.06315098 0.06546797 0.05899908 -0.13668504 0.4003692 0.0050745984 -0.09782518 0.082016796
-0.047288653 -0.0748418 -0.053932425 0.009531342 0.061354894 -0.017637478 -0.085358985 -0.00081248506
-0.082550764 0.005575537 0.0703727 0.040508594 -0.12431828 -0.092109166 -0.06851356 0.22574262
0.03675642 -0.11402136 -0.033567876 0.034880623 0.084807545 0.042295773 0.035855364 -0.0805418
0.06141698 0.03399295 -0.030521296 -0.045541562 0.026983768 -0.05144876 0.24104965 0.74258846
0.22810858 -0.25527397 0.01106171 -0.2941086 -0.010885458 0.059117757 0.035524484 -0.030587003
-0.0117832795 -0.041275345 -0.0766199 -0.025906198 0.0065504694 -0.048134133 -0.07110863 0.027725296
0.34468317 0.23904803 -0.21369272 0.83986425 -0.15745495 -0.3034917 0.72875863 -0.12545286
-0.46863008 -0.94554126 -0.47725582 0.14583296 0.026695179 -0.0023856275 0.18757045 -0.0040773125
0.22623971 -0.20367292 0.19829601 0.0020035468 -0.037607018 -0.23499212 0.04147356 0.08246472
-0.14812124 0.098003075 0.123464994 0.11743372 0.6936214 -0.032429878 0.5044729 0.051272556
-0.0034957374 -0.05961209 -0.06470034 -0.005989762 0.023541123 -0.08890999 -0.07287825 0.053426977
00000000: ffda 403f 5c72 bfbc 20e2 08bf 75db 49bf
00000010: f528 9fbe 6852 12bc 31b4 82be 5308 c7bd
00000020: c7f5 a13d db0c a5bd 4720 a13d ff18 1cbd
00000030: 3675 1fbe 186c 533d f597 553d 8e50 8f3e
00000040: 858f b23d 5fbb 9fbd 9f1d 653b b087 af3d
00000050: 2bf7 9dbd e73f 183b 5866 a03e 04b2 613d
00000060: 5944 7d3e 9c56 8c3d 38a9 ca3b 81b1 59bd
00000070: 9b5a 5cbd 4de1 3cbd 2095 b0bd e44e 7cbd
00000080: e1fe b63c edde 7f3d 3237 993b e535 32bd
00000090: 3adc 2a3d 793d 15bd f73d acbc 1d21 55bd
000000a0: 1927 f4bc 951e b4bd ebe2 253d 702b 173d
000000b0: 9472 9a3c 9ce1 3e3d 78c6 243d dc9a 893b
000000c0: 99b1 243c a57f ed3b 1373 4f3d 4d22 4e3d
000000d0: 64dc c23e b194 ef3e 9b9d b3be f75b d9be
000000e0: f1f4 54bd b329 623d dfb4 2c3c b2e9 b33d
000000f0: 0c2f 453d 9522 a6bd 5f75 e33c 30c8 ba3d
00000100: dfa9 ac3d 1a81 c3ba 47fa 003d 7658 b6bd
00000110: 3ce2 f7bc 557f 98be 50ef 15be c1a2 1e3e
00000120: a5fe 2abe 0f16 d93d a143 edbd 8a04 893c
00000130: 69aa 163c 45b8 b5bd 9404 a7bc c2bf 75bd
00000140: 6742 a53d 4ee3 3ebc 1c8e c1bd 6452 bc3c
00000150: 5ed5 283d db09 2ebd 7ae1 11bc d900 053e
00000160: 0e28 953e 7a34 4fbe 8f65 e8bd c881 8cbe
00000170: dabc f6bc 0f63 fe3b 179b 683d 0a22 503d
00000180: 99ce 95bd 4052 72bd 26f5 84bd c4e7 f9bc
00000190: 6311 0ebd fe92 7abc f60c bcbd b02d 243d
000001a0: 018e 5c3d ef3a 71be cd11 96be c451 edbe
000001b0: bf50 a3be da4e e23e 62cd ce3e 6b99 b03e
000001c0: 1f26 92be 40d8 26bf fbc7 12bf 27b9 61bc
000001d0: c14d d0bd 2562 d43e c80b 2d3e fb78 263e
000001e0: d0a8 8f3e 5776 273e bc34 f3be d20b 033e
000001f0: 8089 cb3c d8c7 6ebe c307 413e def5 583e
00000200: c6af f7bd 044d 24bd d4ba 91bb 6364 89bb
00000210: da88 90bb 00f5 84be ce46 e83c ada2 3dbe
00000220: 766f 90bc efcd f0bd 5647 bd3d 65aa eabb
00000230: 6503 b9bd 4f1b 6abc 1cee 7d3d d10a 333d
00000240: 2ff5 84ba 0909 893d ee5a b1bd f7df 863d
00000250: 98f5 c03d 8466 6cbd e1c7 a63c 1cc5 7abc
00000260: 9a19 a4bd 9f21 5aba 9749 02bd fb08 a6bd
00000270: e9a4 8dbd 96ba 073b cb35 b43d ab31 0b3d
00000280: 4d55 81bd 1214 863d 05a9 713d 2af7 0bbe
00000290: 31fd cc3e d148 a63b 9158 c8bd 6cf8 a73d
000002a0: bfb1 41bd a846 99bd 3fe8 5cbd 5929 1c3c
000002b0: 454f 7b3d 797c 90bc b1d0 aebd f3fc 54ba
000002c0: 6010 a9bd ffb2 b63b 901f 903d 57ec 253d
000002d0: 959a febd bba3 bcbd d650 8cbd 1329 673e
000002e0: e68d 163d 0884 e9bd 787e 09bd fcde 0e3d
000002f0: 94af ad3d 553e 2d3d 13dd 123d 19f3 a4bd
00000300: 5f90 7b3d 313c 0b3d cc07 fabc ca89 3abd
00000310: 100d dd3c efbb 52bd b8d5 763e 471a 3e3f
00000320: 4c95 693e 45b3 82be 2d3c 353c 6795 96be
00000330: ec58 32bc 7625 723d 1f82 113d 9891 fabc
00000340: a80e 41bc 5610 29bd e5ea 9cbd 3c39 d4bc
00000350: 52a5 d63b 4c28 45bd 67a1 91bd 2920 e33c
00000360: 507a b03e 02c9 743e 44d2 5abe 5801 573f
00000370: df3b 21be 4463 9bbe ed8f 3a3f b776 00be
00000380: 48f0 efbe fe0e 72bf e05a f4be 3c55 153e
00000390: d9af da3c 3058 1cbb 7812 403e fa9a 85bb
000003a0: 62ab 673e a28f 50be 1c0e 4b3e f04d 033b
000003b0: d109 1abd c6a1 70be 2ee0 293d 43e3 a83d
000003c0: 18ad 17be d6b5 c83d 37db fc3d 1781 f03d
000003d0: 2c91 313f 31d5 04bd 2325 013f 2c03 523d
000003e0: be18 65bb cf2b 74bd 9d81 84bd c445 c4bb
000003f0: 50d9 c03c 7116 b6bd 3141 95bd 3fd6 5a3d

_mean_net.0.bias f4 [64]
0.06701719 -0.18760927 -0.21885231 0.058097947 -0.06756485 0.15673798 -0.19522907 -0.10660563
-0.13854413 -0.068082914 0.105904445 0.15487173 0.14111027 -0.19063914 0.13998844 -0.21241862
0.21452199 -0.27150327 -0.10657055 0.29320377 2.1630549e-05 -0.182724 -0.124634676 -0.08803116
0.19715263 -0.022858052 0.1068255 0.13655606 -0.08854551 -0.18753384 0.008879353 0.04808207
-0.17930417 0.083201565 0.24054922 0.2801405 0.11921417 -0.04319959 -0.0902571 0.08839883
0.25958225 -0.042607784 0.14912549 -0.021900699 -0.057834517 0.06434935 -0.07263663 0.13454048
0.17406745 -0.29946402 -0.07960698 -0.32117623 -0.06544984 0.00026265136 0.0332719 -0.03910429
0.19017828 0.25981173 -0.027715646 0.019410916 -0.13244085 0.1268488 -0.06517467 0.06971797
00000000: 4f40 893d a51c 40be d21a 60be 1df8 6d3d
00000010: 715f 8abd ec7f 203e 21ea 47be 0d54 dabd
00000020: 83de 0dbe 0e6f 8bbd 6ee4 d83d b296 1e3e
00000030: 367f 103e e836 43be 2159 0f3e 4484 59be
00000040: a7ab 5b3e 7a02 8bbe a941 dabd ce1e 963e
00000050: 4073 b537 001c 3bbe 7740 ffbd ae49 b4bd
00000060: 61e2 493e cf40 bbbc 54c7 da3d 5ad5 0b3e
00000070: 5957 b5bd df08 40be b57a 113c b4f1 443d
00000080: 839b 37be 9565 aa3d 8952 763e 936e 8f3e
00000090: 8f26 f43d 0ef2 30bd b7d8 b8bd 720a b53d
000000a0: f7e7 843e 8085 2ebd 5ab4 183e 1869 b3bc
000000b0: e3e3 6cbd 98c9 833d 83c2 94bd fbc4 093e
000000c0: bd3e 323e 5953 99be fc08 a3bd 3671 a4be
000000d0: 910a 86bd 78b4 8939 1e48 083d d22b 20bd
000000e0: 18be 423e 0b06 853e ec0b e3bc a403 9f3c
000000f0: 939e 07be a7e4 013e 4c7a 85bd 4cc8 8e3d

_mean_net.2.weight f4 [32, 64]
0.07607128 0.0925312 -0.011097647 -0.054782387 0.12059944 0.008529444 0.05666194 -0.013523692
-0.035083108 0.072759785 -0.14206778 0.05143813 0.016520796 -0.015721908 -0.0629968 0.041683685
0.12317493 0.12127078 0.054750808 -0.23530859 0.015567366 0.25639433 0.08913699 -0.02433997
0.120204136 0.12966199 0.1939873 -0.047585938 -0.1252686 -0.018304825 0.13179564 -0.12926158
0.285336 0.041229956 0.05481191 0.18516932 -0.049689453 -0.0074473848 -0.035413064 -0.105272315
-0.07520828 -0.16572893 -0.04005691 0.08744225 0.034298908 -0.062505655 -0.09245141 0.20984775
0.03971774 -0.19437356 0.026919961 0.28198776 0.15456265 -0.08426283 0.11477282 -0.13266727
-0.033151407 -0.13663392 -0.08160236 0.20997897 -0.21695834 -0.14608788 -0.13434307 0.058399107
-0.03540411 0.09049517 0.007450205 -0.021590164 0.08100052 0.13081227 0.22069676 0.12147812
0.12507217 0.0640182 -0.052794777 -0.18116029 0.059956666 0.16699289 0.13630848 0.07179871
0.034771875 0.08072531 0.094380625 0.015222331 0.07110852 0.004274125 -0.056528606 0.015637774
-0.23162714 -0.056742016 -0.05940277 0.056110483 -0.008259357 0.22745608 0.22577845 0.1557956
0.07320639 0.14319089 -0.036235776 0.23343869 0.17760679 0.11235248 0.2542991 -0.02454918
-0.024087738 -0.006873682 0.011089854 -0.10595382 0.17345059 0.1602524 -0.27374247 -0.11102424
-0.10620411 0.08644844 -0.014985368 -0.005772727 -0.121115826 0.023565719 -0.12894604 0.068471864
-0.11597104 -0.11627551 0.018508531 0.09609482 -0.24001597 -0.26161513 0.16951019 0.0071428516
-0.23130362 0.05160565 -0.30101326 0.17352061 0.10530453 -0.053199906 -0.33727738 0.030983608
-0.08615422 0.12637977 0.1804346 0.07699323 -0.1103782 0.13063106 0.06557889 -0.36406708
-0.017557621 -0.13423175 -0.14150392 0.06615877 -0.12066482 -0.26441813 -0.35682592 -0.12664211
0.109986454 0.17712821 -0.11611601 0.14054482 0.04356728 -0.15534815 0.314241 -0.121809155
-0.17808683 0.4394716 0.19050126 0.20648725 0.21074806 0.1752989 -0.054468818 -0.10299606
0.021164121 -0.3406417 0.24067302 -0.058976345 -0.07545802 -0.047431163 0.0020373878 0.12802845
-0.060309384 0.12916389 -0.2865439 -0.1994489 0.04870786 -0.062479153 0.25250494 -0.18476997
0.018132024 -0.045668636 -0.10058743 0.23271519 -0.042393565 -0.057631228 0.14107813 0.12330018
-0.04969348 0.20454806 0.115272306 0.03320471 0.06458718 -0.25448126 -0.009560713 0.3113464
0.087575 -0.10985833 -0.24363172 0.051167365 0.16668192 0.18565302 -0.16189362 -0.02116533
-0.3845751 0.23654932 -0.054916926 -0.090113975 -0.10102182 0.32309464 0.1446113 -0.04647391
-0.24345295 0.07576696 -0.10965292 -0.015427804 -0.0042499616 -0.044147134 -0.4120966 0.048021905
0.18603447 0.060593322 -0.18926632 -0.45166215 -0.023883365 0.10815318 -0.046958193 0.18790315
-0.07271943 -0.06996105 -0.13122405 -0.14026609 -0.07217267 -0.19380625 -0.0150861675 -0.16729476
0.019522129 0.19975905 -0.107218415 0.30134797 -0.081800714 0.20320833 -0.0566131 0.019737002
-0.12491763 -0.116196044 -0.1028291 0.025921505 0.16091801 -0.1323482 0.03928487 -0.06710096
00000000: 42cb 9b3d ff80 bd3d e8d2 35bc 7f63 60bd
00000010: d7fc f63d 15bf 0b3c 5a16 683d 7a92 5dbc
00000020: 4eb3 0fbd 1503 953d 377a 11be cab0 523d
00000030: 9f56 873c 3bcb 80bc 7704 81bd 83bc 2a3d
00000040: 2343 fc3d d15c f83d 6242 603d bcf4 70be
00000050: 440e 7f3c 1e46 833e 748d b63d 9e64 c7bc
00000060: 962d f63d 1dc6 043e 9ba4 463e 79e9 42bd
00000070: 6946 00be 00f4 95bc 70f5 063e 265d 04be
00000080: 8f17 923e bee0 283d 7482 603d 079d 3d3e
00000090: 2b87 4bbd 3109 f4bb 4a0d 11bd 0399 d7bd
000000a0: cc06 9abd d8b4 29be b712 24bd ec14 b33d
000000b0: 037d 0c3d f702 80bd 2a57 bdbd 54e2 563e
000000c0: 12af 223d dd09 47be 4087 dc3c b360 903e
000000d0: ac45 1e3e fe91 acbd 030e eb3d eed9 07be
000000e0: c5c9 07bd c3e9 0bbe 231f a7bd ba04 573e
000000f0: 542a 5ebe 1098 15be 3b91 09be e733 6f3d
00000100: e603 11bd 8855 b93d d920 f43b dbdd b0bc
00000110: 9ae3 a53d a7f3 053e 55fe 613e 85c9 f83d
00000120: eb12 003e f91b 833d 563f 58bd 1582 39be
00000130: 1f95 753d 2f00 2b3e 7394 0b3e 340b 933d
00000140: f46c 0e3d 5053 a53d a14a c13d 1567 793c
00000150: 58a1 913d f60d 8c3b 8a8a 67bd ca1a 803c
00000160: aa2f 6dbe 516a 68bd 5250 73bd 1bd4 653d
00000170: 4152 07bc 3fea 683e 7732 673e e288 1f3e
00000180: 3bed 953d a2a0 123e f76b 14bd 8d0a 6f3e
00000190: 8ede 353e 0f19 e63d 7e33 823e 5d1b c9bc
000001a0: a653 c5bc a03c e1bb 38b2 353c 51fe d8bd
000001b0: 089d 313e 3519 243e f927 8cbe ad60 e3bd
000001c0: 8a81 d9bd e10b b13d 3085 75bc 2529 bdbb
000001d0: 930b f8bd e50c c13c 6e0a 04be fa3a 8c3d
000001e0: 3a82 edbd db21 eebd 349f 973c 5ccd c43d
000001f0: bfc6 75be 6bf2 85be 1494 2d3e 950e ea3b
00000200: dbda 6cbe 7260 533d 691e 9abe 63af 313e
00000210: e7a9 d73d 25e8 59bd 9faf acbe 56d1 fd3c
00000220: a071 b0bd b369 013e d9c3 383e a0ae 9d3d
00000230: f70d e2bd 26c4 053e 3a4e 863d 0067 babe
00000240: 00d5 8fbc 0c74 09be 67e6 10be 407e 873d
00000250: 1e1f f7bd d061 87be e3b1 b6be 78ae 01be
00000260: 9440 e13d 1961 353e 3bce edbd fbea 0f3e
00000270: 9b73 323d 9613 1fbe 32e4 a03e 1477 f9bd
00000280: 655c 36be 6c02 e13e c312 433e 6571 533e
00000290: 57ce 573e 8e81 333e b21a 5fbd 99ef d2bd
000002a0: 6160 ad3c 9768 aebe fd72 763e 2e91 71bd
000002b0: bc89 9abd 2e47 42bd b285 053b e419 033e
000002c0: f906 77bd 8a43 043e e2b5 92be 553c 4cbe
000002d0: e581 473d 24ea 7fbd 5448 813e 5734 3dbe
000002e0: 9c89 943c 090f 3bbd c800 cebd e44c 6e3e
000002f0: e0a4 2dbd b90e 6cbd c976 103e ce84 fc3d
00000300: 648b 4bbd 0c75 513e e313 ec3d a901 083d
00000310: 4946 843d 5e4b 82be 89a4 1cbc cc68 9f3e
00000320: 865a b33d 67fd e0bd 987a 79be df94 513d
00000330: aaae 2a3e d31b 3e3e 71c7 25be ea62 adbc
00000340: 07e7 c4be fc39 723e 92f0 60bd ad8d b8bd
00000350: 87e4 cebd a96c a53e fc14 143e 6d5b 3ebd
00000360: bb4b 79be b52b 9b3d b691 e0bd e6c4 7cbc
00000370: 4343 8bbb a0d3 34bd 53fe d2be 9eb2 443d
00000380: d27f 3e3e b430 783d 08cf 41be 4340 e7be
00000390: 0ca7 c3bc 6a7f dd3d 3c57 40bd af69 403e
000003a0: eded 94bd bd47 8fbd 995f 06be eaa1 0fbe
000003b0: 44cf 93bd 2575 46be f92b 77bc 514f 2bbe
000003c0: dfec 9f3c a38d 4c3e 5495 dbbd 484a 9a3e
000003d0: 2287 a7bd d815 503e 23e3 67bd 7eaf a13c
000003e0: d0d4 ffbd 31f8 edbd 1098 d2bd 5659 d43c
000003f0: b1c7 243e 4986 07be 2ce9 203d 3a6c 89bd

_mean_net.2.bias f4 [32]
-0.058892496 0.1749576 0.08425752 -0.16682154 0.052847445 -0.030573558 0.07069059 -0.025906518
0.05763452 0.095049776 -0.020941712 -0.0885856 0.036716606 -0.002590848 0.23409972 -0.07589005
-0.020768031 -0.08290747 0.063004605 -0.16641022 -0.10268149 0.036888845 0.023877947 -0.17969742
-0.22463422 -0.23242834 -0.009168306 -0.10741198 0.11386469 0.021466497 0.06610111 0.15198396
00000000: 4239 71bd 1628 333e 358f ac3d 44d3 2abe
00000010: 9076 583d 6675 fabc 3ac6 903d e839 d4bc
00000020: 2d12 6c3d 75a9 c23d f48d abbc 5e6c b5bd
00000030: 2764 163d 37cb 29bb d6b7 6f3e 3e6c 9bbd
00000040: b821 aabc 64cb a9bd 8f08 813d 7167 2abe
00000050: ac4a d2bd c218 173d af9b c33c 9a02 38be
00000060: 8306 66be b201 6ebe aa36 16bc d0fa dbbd
00000070: e431 e93d 82da af3c 0560 873d afa1 1b3e

_mean_net.4.weight f4 [8, 32]
0.061077807 -0.049877163 -0.092428036 -0.09284506 0.0583339 0.068801664 -0.0036281052 0.04162475
0.047581084 -0.010526564 -0.02640083 0.031522017 0.10539659 -0.053181123 0.080780126 0.038862757
0.005543592 0.022330776 -0.0458739 0.0344391 -0.12050976 -0.09087638 0.024199601 -0.09609487
0.17663257 0.03189983 -0.13037725 -0.03729406 0.06160725 -0.03454347 -0.032012686 -0.056845658
-0.07635818 -0.11228852 -0.042555247 -0.064251244 0.11931067 0.07987826 0.056751598 -0.07705564
0.043436483 0.013565003 -0.11152099 -0.062838696 0.016810186 0.113522686 -0.024518333 0.070981115
-0.06798143 0.23010845 -0.026680212 0.09071423 0.009693216 0.07717793 0.01572935 -0.030700374
-0.09795085 0.0023080388 -0.15250845 0.019981707 0.07606986 0.15185395 -0.07895969 0.048790783
-0.0020291382 0.17840308 0.08973802 0.04990617 0.13521223 -0.0987625 0.009302297 -0.12677191
-0.010309296 0.020921258 -0.050021455 0.024694186 -0.11718082 -0.0654446 0.06521353 -0.08048313
0.02863612 -0.22455469 -0.09311535 -0.008321162 0.00637324 0.0372201 0.0046628993 0.014605804
-0.28021842 -0.16936271 0.038075436 -0.14338604 0.041111615 -0.03543424 0.100906536 -0.08921252
-0.010800491 -0.06435327 0.048976116 -0.19537151 -0.056017805 -0.09599729 0.12110676 0.058172446
0.01995678 -0.0044317637 -0.065567754 -0.06693465 0.06496192 0.04777916 0.19207957 -0.038817048
-0.06514952 0.08319932 0.08727709 0.13294636 -0.015920663 0.08583292 -0.016558206 0.10084341
-0.062312197 0.03829092 0.008040208 -0.071525134 0.0782369 0.14707999 -0.02587964 -0.10766555
0.06544476 -0.07937972 0.10415151 -0.02987817 -0.065539874 -0.032546002 -0.0021966784 0.005786159
-0.05623977 -0.007704371 -0.046245936 -0.10955339 -0.025750063 -0.062273156 0.009346637 -0.14109857
0.06394116 -0.047894966 -0.08561326 0.10049516 0.030599698 -0.01277179 0.0074035376 -0.03252087
0.059391238 0.023314914 -0.022844898 -0.05580289 0.045292936 -0.014378595 -0.118123814 0.055843864
-0.06810673 0.014548944 0.024099316 0.013309365 0.026541704 -0.0063737384 0.010628217 0.037791878
0.012081834 -0.0033872814 0.07500713 -0.002903562 -0.017822623 0.0074171564 0.034615126 -0.0035109464
0.036707666 -0.03833451 0.07087748 -0.05240502 0.049138997 -0.10663951 -0.013327396 -0.11054219
0.046289284 -0.025229584 -0.008900725 0.018531444 0.034735985 -0.065146916 -0.0498142 0.06887902
0.0056044282 0.00079441257 -0.06947003 0.14664942 -0.07179838 -0.11315762 0.08647659 -0.14451762
0.034040004 -0.0019621013 -0.026896022 0.054063957 0.005809168 -0.10695431 0.06567958 0.07436959
-0.120220184 0.18998697 -0.067056075 0.0900069 -0.022152567 -0.07062262 -0.015218984 -0.04169666
0.08834157 0.06960261 0.05745627 0.14714116 -0.012453097 0.102445334 0.049150173 0.06517194
0.03329998 0.0025280586 0.062731154 0.02020392 -0.006729207 -0.029952066 0.10596514 0.067106456
0.046407804 0.022160124 -0.017108012 -0.060899608 -0.0074370704 0.04765289 -0.07500182 0.077866256
0.08524676 -0.06738111 -0.0030197874 -0.11183969 -0.13099693 -0.011839804 -0.016561082 -0.12088202
-0.006373878 -0.035865474 -0.02630827 -0.034636676 -0.06126942 -0.048451632 0.06488928 0.075835526
00000000: b92c 7a3d ff4b 4cbd e94a bdbd 8d25 bebd
00000010: 87ef 6e3d e3e7 8c3d 81c5 6dbb b77e 2a3d
00000020: 62e4 423d 9c77 2cbc 8e46 d8bc 3b1d 013d
00000030: 2bda d73d 73d4 59bd 0d70 a53d 8e2e 1f3d
00000040: 05a7 b53b 08ef b63c 45e6 3bbd 0410 0d3d
00000050: d2cd f6bd 651d babd 3e3e c63c 63cd c4bd
00000060: 2bdf 343e 65a9 023d 9d81 05be a8c1 18bd
00000070: e257 7c3d 747d 0dbd bc1f 03bd fed6 68bd
00000080: ad61 9cbd 86f7 e5bd 694e 2ebd 2896 83bd
00000090: 2759 f43d 3797 a33d 5d74 683d 59cf 9dbd
000000a0: 74ea 313d bf3f 5e3c 1e65 e4bd 93b1 80bd
000000b0: 84b5 893c 957e e83d acda c8bc 8c5e 913d
000000c0: d939 8bbd 8da1 6b3e 7690 dabc 62c8 b93d
000000d0: 4bd0 1e3c 760f 9e3d d6da 803c 5a7f fbbc
000000e0: 759a c8bd 7742 173b 2d2b 1cbe adb0 a33c
000000f0: 84ca 9b3d 9a7f 1b3e 9eb5 a1bd d8d8 473d
00000100: 4afb 04bb 4caf 363e 91c8 b73d 6a6a 4c3d
00000110: 1375 0a3e fe43 cabd a968 183c 7fd0 01be
00000120: 52e8 28bc 0f63 ab3c 4ce3 4cbd 764b ca3c
00000130: 7ffc efbd d207 86bd ac8e 853d 57d4 a4bd
00000140: 4c96 ea3c aaf1 65be 43b3 bebd 7c55 08bc
00000150: 9dd6 d03b 1b74 183d 3ccb 983b 2f4d 6f3c
00000160: ca78 8fbe 6b6d 2dbe fdf4 1b3d cad3 12be
00000170: a764 283d 7e23 11bd 16a8 ce3d 0eb5 b6bd
00000180: 8bf4 30bc a6cb 83bd 2e9b 483d 780f 48be
00000190: ed72 65bd 3a9a c4bd d206 f83d 3b46 6e3d
000001a0: 677c a33c 5438 91bb 6348 86bd 0915 89bd
000001b0: c10a 853d 15b4 433d 82b0 443e a0fe 1ebd
000001c0: 1d6d 85bd 6864 aa3d 55be b23d 1723 083e
000001d0: 0d6c 82bc 2cc9 af3d 13a5 87bc fd86 ce3d
000001e0: 133b 7fbd f1d6 1c3d 14bb 033c c57b 92bd
000001f0: ab3a a03d 239c 163e 8a01 d4bc c27f dcbd
00000200: e707 863d d691 a2bd 634d d53d 10c3 f4bc
00000210: c539 86bd f54e 05bd 26f6 0fbb d299 bd3b
00000220: ac5b 66bd f374 fcbb 616c 3dbd 875d e0bd
00000230: ccf1 d2bc 2312 7fbd a322 193c 257c 10be
00000240: 95f3 823d 832d 44bd 0156 afbd 68d0 cd3d
00000250: 38ac fa3c c540 51bc 6099 f23b 9b34 05bd
00000260: 3a44 733d ebfe be3c 3925 bbbc 9291 64bd
00000270: 1685 393d 3394 6bbc e6ea f1bd 89bc 643d
00000280: 8b7b 8bbd b25e 6e3c ee6b c53c 860f 5a3c
00000290: fd6d d93c cbda d0bb f921 2e3c a8cb 1a3d
000002a0: e2f2 453c 27fd 5dbb 579d 993d b049 3ebb
000002b0: c000 92bc 9e0b f33b 97c8 0d3d e817 66bb
000002c0: c75a 163d a604 1dbd 3628 913d a5a6 56bd
000002d0: f945 493d d165 dabd 265b 5abc f263 e2bd
000002e0: d599 3d3d 46ae cebc 59d4 11bc 41cf 973c
000002f0: 5247 0e3d bf6b 85bd f909 4cbd 7210 8d3d
00000300: 5aa5 b73b 2040 503a 4e46 8ebd 442b 163e
00000310: 070b 93bd 2fbf e7bd a31a b13d 6dfc 13be
00000320: 886d 0b3d 9996 00bb 0c55 dcbc 2b72 5d3d
00000330: d55a be3b dc0a dbbd 0483 863d 154f 983d
00000340: 0036 f6bd f28b 423e b254 89bd 8a55 b83d
00000350: 4d79 b5bc 98a2 90bd 0c59 79bc 1eca 2abd
00000360: 6dec b43d d08b 8e3d 4457 6b3d 2cac 163e
00000370: 1308 4cbc dcce d13d b151 493d de78 853d
00000380: 8f65 083d c9ad 253b 3179 803d b182 a53c
00000390: ae80 dcbb 095e f5bc 4004 d93d 1c6f 893d
000003a0: 1c16 3e3d 2689 b53c 1a26 8cbc de71 79bd
000003b0: abb2 f3bb ad2f 433d 8e9a 99bd 5878 9f3d
000003c0: da95 ae3d 1bff 89bd a0e7 45bb 350c e5bd
000003d0: 0f24 06be bdfb 41bc 1bab 87bc fe90 f7bd
000003e0: f7db d0bb ade7 12bd 7184 d7bc 30df 0dbd
000003f0: a5f5 7abd 3875 46bd ace4 843d a84f 9b3d

_mean_net.4.bias f4 [8]
-0.025009971 -0.16791983 0.050725598 0.052318696 0.05491484 0.13716121 -0.012732588 0.12687132
00000000: b6e1 ccbc 2df3 2bbe a5c5 4f3d 214c 563d
00000010: 62ee 603d fd73 0c3e 589c 50bc 8eea 013e
