run_logs/q2_dagger_ant/policy_itr_1.pt (torch, 41083 bytes, 7 tensors)

_logstd f4 [8]
00000000: e15f 69c0 c85f 5fc0 982b 4bc0 8f3a 56c0
00000010: 0fb8 66c0 6c00 80c0 3963 51c0 73c1 79c0
-3.646477 -3.490221 -3.1745358 -3.3473241 -3.604984 -4.0000515 -3.271681 -3.9024322

_mean_net.0.weight f4 [64, 111]
00000000: 1585 723f eb91 cebb 4194 f9be f4c7 69bf
00000010: 37ed d7be 3de2 53bd 554f a1be 2d67 53be
00000020: c244 6b3d 42ce 10be 12b5 783d 8526 80bd
00000030: c5d4 e3bd 31d8 5d3d da0f b93d b599 863e
00000040: 2fc6 b73d 89f2 b0bd 3dce 1bbd 2d94 973d
00000050: 8992 adbd 70b5 293c d9bd 853d 83c7 3b3d
00000060: 08ae 343e ecab 4e3d 5375 503c 81b1 59bd
00000070: 9b5a 5cbd 4de1 3cbd 2095 b0bd e44e 7cbd
00000080: e1fe b63c edde 7f3d 3237 993b e535 32bd
00000090: 3adc 2a3d 793d 15bd f73d acbc 1d21 55bd
000000a0: 1927 f4bc 951e b4bd ebe2 253d 702b 173d
000000b0: 9472 9a3c 9ce1 3e3d 78c6 243d dc9a 893b
000000c0: 99b1 243c a57f ed3b 1373 4f3d ae18 fd3d
000000d0: 9bef b63e ddfa e73e fd35 8fbe a4a1 dfbe
000000e0: 4023 643b b329 623d dfb4 2c3c b2e9 b33d
000000f0: 0c2f 453d 9522 a6bd 5f75 e33c 30c8 ba3d
00000100: dfa9 ac3d 1a81 c3ba 47fa 003d 7658 b6bd
00000110: 3ce2 f7bc 0dcd 7fbe bfe7 c7bd e6e6 1a3e
00000120: dcb3 49be 34ab 513e daf6 77bd 8a04 893c
00000130: 69aa 163c 45b8 b5bd 9404 a7bc c2bf 75bd
00000140: 6742 a53d 4ee3 3ebc 1c8e c1bd 6452 bc3c
00000150: 5ed5 283d db09 2ebd 7ae1 11bc 00ca d23d
00000160: 7bcb a33e ee8c 60be 9816 46bd f8de 3cbe
00000170: d025 38bc 0f63 fe3b 179b 683d 0a22 503d
00000180: 99ce 95bd 4052 72bd 26f5 84bd c4e7 f9bc
00000190: 6311 0ebd fe92 7abc f60c bcbd b02d 243d
000001a0: 018e 5c3d 0ee2 5bbe ef05 aebe a9a0 f5be
000001b0: 269a 86be 62b6 f53e d517 e43e afad e33e
000001c0: 395d afbe 8c7a 46bf ccf8 2cbf 2dc9 75bd
000001d0: 9876 dcbc ac10 f03e 82c3 9e3d 84dd 1f3e
000001e0: a137 633e 8110 273e 9467 f8be 06f8 143e
000001f0: be78 273d 6d1d 24be fbf5 1d3e 54c4 683e
00000200: 6642 26be 5e6e bd3a 0459 493c 36d9 2dbd
00000210: 3f11 4a3c 1bd5 75be 95ca 193d b209 24be
00000220: a56f f0bc ec0f 90bd 5647 bd3d 65aa eabb
00000230: 6503 b9bd 4f1b 6abc 1cee 7d3d d10a 333d
00000240: 2ff5 84ba 0909 893d ee5a b1bd f7df 863d
00000250: 98f5 c03d 8466 6cbd e1c7 a63c 1cc5 7abc
00000260: 9a19 a4bd 9f21 5aba 9749 02bd fb08 a6bd
00000270: e9a4 8dbd 96ba 073b cb35 b43d ab31 0b3d
00000280: 4d55 81bd 1214 863d 6382 173d 1548 8abd
00000290: 45ed c43e f55a 4ebb 13bc 18be 258b 863d
000002a0: bfb1 41bd a846 99bd 3fe8 5cbd 5929 1c3c
000002b0: 454f 7b3d 797c 90bc b1d0 aebd f3fc 54ba
000002c0: 6010 a9bd ffb2 b63b 901f 903d 57ec 253d
000002d0: 9a57 4fbe 64bf 8abd c3d9 903d 55e1 0f3e
000002e0: a5b1 03be 0e70 98bd 787e 09bd fcde 0e3d
000002f0: 94af ad3d 553e 2d3d 13dd 123d 19f3 a4bd
00000300: 5f90 7b3d 313c 0b3d cc07 fabc ca89 3abd
00000310: 100d dd3c efbb 52bd 670d a03e d147 593f
00000320: 94ca 5b3e 0c5c b6be d915 913d b5c3 c0be
00000330: ec58 32bc 7625 723d 1f82 113d 9891 fabc
00000340: a80e 41bc 5610 29bd e5ea 9cbd 3c39 d4bc
00000350: 52a5 d63b 4c28 45bd 67a1 91bd 2920 e33c
00000360: 232b f03e 89d3 a23e 7956 8bbe 3c8e 713f
00000370: 0fb9 54be 86cf bfbe 2435 5b3f b216 55be
00000380: 3f0f b8be 091f 80bf 309c 09bf 290e 0e3e
00000390: eec4 dabb fecd 6c3d 9605 603e 0de1 a2bd
000003a0: 21d0 8a3e b443 39be bb93 633e 21cc 403c
000003b0: 26e4 f7bc baa1 51be 4b30 8e3c 466d 3f3d
000003c0: 6339 22be 364d 7b3d 9297 aa3d 6609 d63d
000003d0: a143 4d3f eb9b 0dbd c139 0a3f 7cea 6e3c
000003e0: 5e78 533b cf2b 74bd 9d81 84bd c445 c4bb
000003f0: 50d9 c03c 7116 b6bd 3141 95bd 3fd6 5a3d
0.9473432 -0.006304016 -0.4874592 -0.9132073 -0.42173168 -0.05172943 -0.31505838 -0.20644827
0.05743862 -0.14141181 0.060719557 -0.06257347 -0.11124567 0.054161254 0.090362266 0.26289144
0.089733474 -0.0864001 -0.03803848 0.07401309 -0.08475215 0.0103581995 0.06530351 0.045844566
0.17644513 0.050456926 0.012723285 -0.053147797 -0.053797346 -0.0461133 -0.08622193 -0.061598673
0.022338333 0.062468458 0.0046757692 -0.04350843 0.04171393 -0.036435578 -0.02102564 -0.052033532
-0.0298038 -0.087948956 0.04049961 0.03690666 0.018853463 0.046601877 0.040228337 0.004199369
0.010052108 0.0072478824 0.050646853 0.12358223 0.3572968 0.4530858 -0.27970877 -0.4367801
0.003481105 0.05521555 0.01054117 0.08784808 0.04814057 -0.08112065 0.027765928 0.09120214
0.08430838 -0.0014915795 0.031488683 -0.08903591 -0.030259244 -0.24980564 -0.09760999 0.15127143
-0.19697517 0.20475465 -0.06053815 0.016725797 0.009195902 -0.08873037 -0.020387925 -0.059997328
0.08069306 -0.011650873 -0.09450933 0.022988506 0.041219108 -0.042489868 -0.008903855 0.10292435
0.3199118 -0.2192876 -0.04836139 -0.18444431 -0.011239484 0.0077632735 0.05678853 0.050813712
-0.07314796 -0.05916047 -0.06492071 -0.030506022 -0.03468455 -0.015293835 -0.091821596 0.040082633
0.053846363 -0.21472952 -0.33988902 -0.47974136 -0.2628948 0.4799071 0.44549432 0.44468448
-0.3425081 -0.7753074 -0.67567134 -0.06000631 -0.026912019 0.4688772 0.07752134 0.15611845
0.2218919 0.1631489 -0.48516524 0.14547738 0.040886633 -0.1602685 0.15425865 0.22731143
-0.16236266 0.0014452448 0.012289289 -0.042443477 0.012333213 -0.24007075 0.037546713 -0.16019323
-0.029350111 -0.07034287 0.09242122 -0.007161426 -0.090338506 -0.014288737 0.061994657 0.043711487
-0.0010143871 0.066911764 -0.086599216 0.06585687 0.09421843 -0.057714954 0.020358982 -0.015305784
-0.080126956 -0.000832105 -0.031808462 -0.08107182 -0.0691622 0.002071058 0.08799323 0.033982914
-0.06315098 0.06546797 0.03698958 -0.0675203 0.38462272 -0.003148732 -0.14915495 0.065695085
-0.047288653 -0.0748418 -0.053932425 0.009531342 0.061354894 -0.017637478 -0.085358985 -0.00081248506
-0.082550764 0.005575537 0.0703727 0.040508594 -0.20248261 -0.06774786 0.07072785 0.14050801
-0.12860735 -0.07443248 -0.033567876 0.034880623 0.084807545 0.042295773 0.035855364 -0.0805418
0.06141698 0.03399295 -0.030521296 -0.045541562 0.026983768 -0.05144876 0.31260225 0.8487521
0.21463996 -0.356171 0.07084245 -0.37649313 -0.010885458 0.059117757 0.035524484 -0.030587003
-0.0117832795 -0.041275345 -0.0766199 -0.025906198 0.0065504694 -0.048134133 -0.07110863 0.027725296
0.4690791 0.31802014 -0.2721441 0.9435766 -0.20773719 -0.37463015 0.8562796 -0.20809439
-0.35949132 -1.0009471 -0.5375395 0.13872589 -0.006676308 0.057813637 0.21877131 -0.07953081
0.27111915 -0.18092233 0.22224323 0.011767418 -0.030260157 -0.2047185 0.017357012 0.04673507
-0.15842204 0.06135293 0.08329691 0.10451011 0.8018132 -0.034572523 0.53994375 0.014582273
0.003226779 -0.05961209 -0.06470034 -0.005989762 0.023541123 -0.08890999 -0.07287825 0.053426977

_mean_net.0.bias f4 [64]
00000000: 238b a13d 7b71 7cbe 58b9 95be 00d8 043e
00000010: 77c2 debd 8ac6 353e 3d45 94be 4bc5 17be
00000020: 286a 35be 53ca 76bd 9d7b 313e 9360 693e
00000030: 61cd 543e 8878 72be 7ef1 423e d4d7 99be
00000040: 3db3 943e fce2 bcbe c5d5 0cbe f5c9 913e
00000050: ae2c db3b 4b78 71be 1649 2cbe 2bce c0bd
00000060: 23a4 813e 941d 953b 21db 0e3e 6a6d 383e
00000070: 0beb 0bbe d36f 6bbe 2662 253d 3ccf 903d
00000080: e2a6 7ebe c46d 023e 12f6 913e 27e9 a33e
00000090: c552 1c3e 983a 70bd 4c64 c7bd afe2 d23d
000000a0: 107f a33e ab83 87bd aa49 513e 9bcb 213d
000000b0: 9f79 dfbd 50b8 c33d 604d 3cbd d844 353e
000000c0: 78b4 1e3e 839e b2be f7e1 97bd 4a5d c8be
000000d0: 4888 c1bd 622b 9bbc cca6 c53d 1405 46bd
000000e0: 15c0 823e a4f1 a73e 1921 983b a3b1 1c3d
000000f0: 2597 30be 73fd 803e 65a8 41bd 36d0 f43d
0.07887866 -0.24652664 -0.2924297 0.12973022 -0.10876935 0.17751518 -0.28959075 -0.14821355
-0.17716277 -0.060251545 0.17332311 0.22790746 0.20781471 -0.23678792 0.19037434 -0.30047476
0.29042998 -0.36891925 -0.13753422 0.28474393 0.006688676 -0.23581044 -0.16824755 -0.094143234
0.2532054 0.004550645 0.13950779 0.18010488 -0.1366388 -0.22991876 0.040376805 0.07070777
-0.24868348 0.12737185 0.2850805 0.3201382 0.15265949 -0.05864963 -0.09735927 0.10297143
0.31932878 -0.066169105 0.20438257 0.039500814 -0.10911869 0.09556639 -0.045972228 0.17702043
0.15498531 -0.3488656 -0.07416146 -0.39133674 -0.09449822 -0.018941585 0.096509546 -0.048344687
0.25537172 0.32801545 0.0046426174 0.038255345 -0.17245157 0.25193366 -0.047279734 0.119537756

_mean_net.2.weight f4 [32, 64]
00000000: c4ec 923d 8480 ae3d de02 62bd 5e1c 1a3c
00000010: d3fe 2b3e 5144 ad3d d245 633d 0daa de3b
00000020: 4d48 d8bc e95c ba3d 2eaf e0bd 0ff6 243d
00000030: f5b8 143d 65b7 d9bd 9fac 91bd dd16 ae3c
00000040: 35ae 013e 839b bf3d 2a1d d93d 355d a0be
00000050: a674 ae3d b518 ae3e a289 003e a9b8 54bd
00000060: b991 e73d 6aec 1e3e 14ac 1f3e 0408 c8bc
00000070: 52b4 25be 6e15 d8bd 0486 f13d b4cb 0ebe
00000080: 58d8 883e e450 76bc 6324 883d 4ae9 293e
00000090: 7885 90bd e894 203c 46e6 38bd 1507 b7bd
000000a0: c8c2 aabd 4c92 cbbd 2e6d bfba c427 263e
000000b0: cfb3 8e3d 3654 babd 8361 3dbc bec6 573e
000000c0: a7a8 8e3d 458e 63be 5fa7 f8bc 1ca4 633e
000000d0: a209 6d3e dfce c1bd 06b8 393d 6f76 07be
000000e0: 54e5 2cbc 7331 16be 1e3f a5bd 0ded 003e
000000f0: d5cc 40be 3121 2bbe c9c9 aabd c991 c8bc
00000100: 93d5 a0bd b9a9 c03d feff 9f3d 179a bfbc
00000110: 7838 223e 2458 2c3d 5261 603e 0511 f43d
00000120: 8f34 a93d 4d30 303d 8b4b babd cfb4 4ebe
00000130: 29a2 d13d 1c12 c33e b213 db3d a42a da3d
00000140: 0b40 7c3d 7eee 053e 2239 f23d 72ed 493d
00000150: 006a 0f3e e7c1 143e 661d aeba 1d19 563d
00000160: c72c 46be f9ac 8d3c b73e 1bbd fba2 90bd
00000170: cb4a d9bc 296e 533e 4ec6 473e dcf3 123e
00000180: 5ba4 643e 8920 d83d 6767 b3bd 38b4 5f3e
00000190: ba8d 753e 7475 273c ae82 3a3e 5571 e8bd
000001a0: 89b7 17bd 1580 d3bd e23a bf3d fd3d fabd
000001b0: cecc 413e aa66 fabc c7e7 a0be 19b1 7fbe
000001c0: 8f84 46be 2eb3 553d 972b cbbd 4494 983e
000001d0: 73ea 72bd 0f4c 7c3d 8f8a e9bd c5fa b3bd
000001e0: 7ff0 21be 3a5c a2be 85f1 06bd d359 443e
000001f0: 2396 aabe 759a 6dbe 8615 a13e 8081 2c3c
00000200: d320 79be a2e2 a8bb 2732 8dbe 7623 153e
00000210: 9d68 983d 3ce0 dabd 66fa a4be 7936 953d
00000220: 8e6e 85bd 47ac da3d e1f6 823e 25e6 3f3d
00000230: a73d 66bd 92b5 383d ea45 bb3a 797c ccbe
00000240: 02fb 00bd 0421 2bbe 8f1a 13be 2c0d 543e
00000250: d5d1 49bd 6405 a7be 2d8d cabe a942 cfbd
00000260: fb3e 3f3e f6ac 0d3e c4ed 2ebd 4c00 833e
00000270: 9375 eb3b 715b cdbd 1bd7 8c3e 5977 0dbe
00000280: aef3 78be 7d72 f53e 5382 833e d8e6 583e
00000290: af64 253e 73f1 1e3e d210 2abd 3bcf 37be
000002a0: 95e0 a83d 3453 87be 27b3 863e 1b34 0cbd
000002b0: 3d15 bbbd bcc2 0dbe 33b8 0a3d a2f3 ad3d
000002c0: dac9 a4bc ed18 a93d 9706 a4be 50fd c0be
000002d0: f1b0 b63d 1057 88bc f66e 583e ddf9 0ebe
000002e0: 3f7d e03b eda8 c33d 22f8 0bbe 31a9 533e
000002f0: 2a8e 473d 049c 2eba b95c 2c3e 6bfc ed3d
00000300: ba6c 8ebb 1b53 623e eb99 ef3d bc44 38bc
00000310: 6415 bdbb c558 8fbe 3451 c63d a92c b73e
00000320: 8fc7 de3d 2839 46bd f164 7bbe 81ab 873d
00000330: 5adc 233e dadc 353e 2752 c9bd 3b03 c3bc
00000340: 0bb4 dbbe c697 9d3e 5698 b3bd 340c e1bd
00000350: 37bc 28be 6995 6e3e 1947 323e 074e 05bc
00000360: a1f8 72be ae1d 10bd a2e9 edbd d110 bdbb
00000370: 3b23 9abc 4f27 b5bb d4a5 c9be 3a07 b03d
00000380: dbbc 5f3e 0bbf 973d 93f9 b4be fa36 debe
00000390: 9155 393d cd40 f53d 1242 f2bd 2c51 493e
000003a0: 8eb5 b2bd bd7c 27be 8582 03be 1531 14be
000003b0: 974c cebd eaf2 4fbe 0e56 933d 554a 07be
000003c0: f6eb 033d 5726 2a3e bf63 33bc 69d4 cd3e
000003d0: 7fc6 13bd fa06 373e 8e00 98bd aa5f 2ebc
000003e0: cf05 aebd 8693 2bbe 8ec8 d6bd ef9c fdbc
000003f0: 4b2d 7e3d 1ec7 d6bd 9c6f 743d 07bf dfbd
0.07174066 0.08520606 -0.055178516 0.009406177 0.16796426 0.08460296 0.055486508 0.006795174
-0.026401663 0.090997525 -0.10970913 0.040273722 0.0363092 -0.10630683 -0.07113003 0.021251136
0.12664111 0.093558334 0.10601266 -0.3132111 0.08518343 0.34003225 0.12552503 -0.05193392
0.11307091 0.15519872 0.15592986 -0.024417885 -0.16182068 -0.105509624 0.117931396 -0.13944894
0.26727557 -0.015033934 0.06647565 0.16592899 -0.07056707 0.009801127 -0.04514148 -0.08936898
-0.08337933 -0.09940013 -0.0014604682 0.16226107 0.069678895 -0.09098093 -0.011558893 0.21071908
0.06965762 -0.2222224 -0.030353246 0.22230572 0.23148206 -0.09463286 0.045341514 -0.13228773
-0.010552723 -0.14667301 -0.08068679 0.12590428 -0.18828137 -0.1671188 -0.08339269 -0.024483578
-0.07853236 0.09407372 0.078124985 -0.023388905 0.15841854 0.042076245 0.21912125 0.11917309
0.08261978 0.043014813 -0.0909644 -0.2018616 0.10236008 0.38099754 0.10697116 0.10652664
0.061584514 0.13079259 0.118273035 0.04929871 0.1400528 0.14527093 -0.0013283908 0.052270044
-0.19353019 0.017294394 -0.037901606 -0.07062336 -0.026524922 0.20647492 0.19509241 0.14350837
0.22328322 0.105530806 -0.08759957 0.21846092 0.23979846 0.010220874 0.18213913 -0.11349741
-0.037040267 -0.10327164 0.09337403 -0.122188546 0.18925783 -0.030566532 -0.31426832 -0.24969901
-0.19386505 0.052172832 -0.099204235 0.29800618 -0.05930562 0.061595973 -0.11403381 -0.08788065
-0.15814398 -0.31710988 -0.032945175 0.1917489 -0.3331767 -0.23203452 0.31461734 0.010528922
-0.24328928 -0.00515397 -0.27577326 0.14564309 0.074418284 -0.106873006 -0.3222229 0.072857805
-0.06515227 0.106773905 0.2557898 0.046850342 -0.05621114 0.045095034 0.0014287804 -0.39938715
-0.03148938 -0.16711813 -0.143656 0.2070815 -0.049272377 -0.326213 -0.39560834 -0.10120136
0.18676369 0.1383551 -0.04270722 0.25586164 0.007185647 -0.10027207 0.27507862 -0.13815059
-0.24311706 0.4793891 0.25685367 0.2118181 0.16151689 0.15521793 -0.041519947 -0.17950146
0.082459606 -0.26430666 0.26308557 -0.03422938 -0.0913491 -0.13843817 0.033867072 0.08493735
-0.020115782 0.08256707 -0.32036278 -0.37693262 0.08920468 -0.016643077 0.21136078 -0.13962503
0.006850868 0.095537044 -0.13668874 0.2067001 0.048719563 -0.00066608214 0.16832246 0.116204105
-0.0043464573 0.22102015 0.116992794 -0.011246856 -0.005770372 -0.27997413 0.09683457 0.3577626
0.108779065 -0.048394352 -0.24550225 0.06624509 0.16002026 0.1776003 -0.098301224 -0.023805251
-0.429108 0.30779856 -0.0876929 -0.10988656 -0.16478048 0.23299183 0.17409934 -0.008136279
-0.23727657 -0.035184555 -0.116168275 -0.005769827 -0.018815627 -0.0055283676 -0.3938433 0.08595128
0.21849386 0.074094854 -0.3534666 -0.4340132 0.045247618 0.119752504 -0.11829008 0.19659871
-0.08726035 -0.16356178 -0.12842758 -0.14471848 -0.10073202 -0.20307508 0.07194148 -0.13211949
0.03220745 0.16616188 -0.010949074 0.4020112 -0.036077973 0.17873755 -0.07421981 -0.010642925
-0.08497202 -0.16755494 -0.104874715 -0.03095862 0.062054913 -0.10487197 0.05967675 -0.109251074

_mean_net.2.bias f4 [32]
00000000: a826 15bd 1188 393e 8ae6 df3d 1478 59be
00000010: e4d2 e73c ebca 14bd f6c6 c23d d51e 15bb
00000020: ae73 413d 77a1 ac3d d1c1 29bc a05b a8bd
00000030: 75ac c13c e9bc 03bc 8fb7 8e3e ff38 b1bd
00000040: 7aa8 9bbd 60ae b0bd 8fef b93d 98da 1cbe
00000050: 9e4c d9bd 5d1d 3c3d d249 95bc 3ea3 42be
00000060: 170a 75be b1b0 62be c3d8 b43c 91f6 19be
00000070: 5e8c d13d f468 8f3c fe22 953d f176 5f3e
-0.03641382 0.18118311 0.10932644 -0.21237212 0.028298803 -0.03632633 0.09510605 -0.0022753973
0.04722946 0.084292345 -0.010361151 -0.08220601 0.023641804 -0.008040645 0.2787442 -0.08653449
-0.07600494 -0.086270094 0.09078895 -0.15317762 -0.10610317 0.04592644 -0.018223677 -0.19007584
-0.2392963 -0.22137715 0.022076016 -0.15035464 0.10231851 0.0175061 0.07282065 0.21822716

_mean_net.4.weight f4 [8, 32]
00000000: be88 7c3d 08e9 a6bd 5be7 91bd a1f6 c6bd
00000010: f5a9 4e3d 4a4e b53d 2aa2 76bb 2661 3f3d
00000020: 228c 0d3d cf34 d33a 7361 a5bc 1db7 413d
00000030: 22a1 013e 01f2 5dbd c509 af3d 1ee4 903c
00000040: 30ce 0d3c 0698 af3c ca5a 4fbd e4e5 0d3d
00000050: 43c1 f4bd 6211 b6bd 513c 103c d1a4 bcbd
00000060: 5a49 433e 6a19 203c 0406 0fbe e051 a7bc
00000070: 110f 8d3d 2e6c debc c1e9 1cbd a688 7fbd
00000080: 9fe3 6fbd 2aa2 97bd 17b6 8fbd 15ec 86bd
00000090: 4469 c33d 22d5 f33d b80a 613d 3986 a0bd
000000a0: bc79 883d 9d5a cc3b 29c7 11be 0557 78bd
000000b0: 43c1 dc3c 19d9 033e 4cca d1bc 8ba5 8e3d
000000c0: ed6b c1bd 0c51 753e 1d5a 28bd b21e c63d
000000d0: 86b9 343d e127 b73d 2688 c2bb 00fd ecbc
000000e0: eedd 8cbd 5920 78bc b657 01be 49a6 bbbb
000000f0: e228 793d e436 203e 371d b9bd 8ed8 863d
00000100: ba0e f1bc 6046 293e 8280 c43d f668 7a3d
00000110: 3635 043e 2c73 eabd da9d 3cbc 7e2f 06be
00000120: 4f48 753c b528 b5bc edab 20ba 01b4 d93b
00000130: 7822 bbbd 8b9f 94bd 8073 aa3d 75ae 77bd
00000140: 6dd5 1c3d e6b2 4fbe ad90 1dbe c5d3 82bb
00000150: 53b8 2e3d acad 8b3d fff6 16bc cf1e 913c
00000160: 606a 89be 9e3f 39be dacf 283d 6299 29be
00000170: bf19 af3c 8e7e 51bd 33aa bd3d d2d6 48bd
00000180: 5107 bdbb 9266 d6bd ca0b 453d 37be 42be
00000190: e4d7 91bd eea3 aabd 91b9 f43d e863 453d
000001a0: 2002 5c3c e400 3eba da63 b8bd 94a0 1cbd
000001b0: 6b1b 923d e6f0 683d 3b1a 663e 5cb4 aebc
000001c0: 2a6d 81bd b06a cc3d b508 f93d 67b0 cb3d
000001d0: e9df b83b 0252 e33d 98b2 1cbc 6418 783d
000001e0: 1908 bdbc e157 513b b3ee e73b a690 30bd
000001f0: ab37 aa3d 9d4c 1a3e 5acc 76bc 0231 e9bd
00000200: 286a 903d d919 48bd 7d36 b83d 2b97 21bd
00000210: 7f9b 68bd 34c7 46bd 0c1a 943c 5aaa 8c3c
00000220: a0ed bfbd 958e 163b e4a3 46bd 78df d0bd
00000230: f8a0 ef3b 9c65 5bbd bddf 04bd 8a8f 17be
00000240: 06f1 8a3d 134e 45bd 3657 7fbd 146b 903d
00000250: 6d5d 9d3c f746 12bd 17c1 d83b 0e2a d0bb
00000260: 956a a43d f708 d23c 6e8c ccbc 686b 76bd
00000270: f8f1 a73d b5f7 95bc 311a fbbd 0091 553d
00000280: c670 97bd 4dd4 b23b adea 333c ac6f 1e3c
00000290: f304 a33c 0c1d 26bb ce6d c83b 4cf6 253d
000002a0: 6056 043d 9c78 ce39 1a3e 5b3d 8a6e 49bc
000002b0: 4c25 20bd a8e3 f23c c2cb 223d f2f8 91bb
000002c0: b97a 1e3d d4bf 2bbd 3a59 a23d 4dbd 8ebc
000002d0: 883c 0c3d 6538 01be 3f34 373b 945e dcbd
000002e0: 7aa1 163d 8235 e5bb e851 c5bc 9cc2 f33c
000002f0: e922 953c 8047 92bd b80a f9bc 73a6 423d
00000300: 24ca 33bc 3bbc 9b3c 84f5 01bd d198 e13d
00000310: 066d 35bd 97d3 e8bd 0d73 b73d 619e 08be
00000320: 813c 8c3d 84ad 13bc d3e3 84bc 86c2 9a3c
00000330: 0c9a 533c 9de2 f4bd 70e3 473d 8453 c23d
00000340: 4e7f d3bd 7493 403e 3d1b 84bd 6d18 ee3d
00000350: 8515 1bbd b586 96bd 3361 12bb 3077 75bc
00000360: 5e21 823d dfb8 b53d f32c 8b3d edb6 1a3e
00000370: 983e e3bb 7032 d23d 3999 3c3d 28a1 b23d
00000380: 03a2 c93c cd09 cb3c 3e6c 973d 2743 f23b
00000390: aa15 41bb 7076 17bd 5932 d83d 94a6 933d
000003a0: a1ab 393d 7c04 80ba efc3 40bb aaa5 6cbd
000003b0: b88f 813c 0dff 2c3d a8f7 94bd 501a c23d
000003c0: c99e a93d b1ea 46bd e256 513c 95d1 dfbd
000003d0: 3713 e9bd 97be 4bbc 8070 063c 5c1f dbbd
000003e0: 96e4 c7bb 90d9 27bd 8647 c9bc eb7c 2cbd
000003f0: d0b3 8fbd a94b 01bd 77f3 4b3d aa54 843d
0.061653845 -0.08149916 -0.07124206 -0.097150095 0.050455052 0.08852823 -0.0037633278 0.046723507
0.03455747 0.0016113761 -0.020188069 0.04729377 0.12659124 -0.05418587 0.08546785 0.0176869
0.008655116 0.021434795 -0.050623693 0.03464307 -0.11950924 -0.08890034 0.008803443 -0.09211124
0.1907095 0.009771684 -0.13967139 -0.020424783 0.06887639 -0.027151193 -0.038308863 -0.062386177
-0.058566686 -0.07403977 -0.07017153 -0.06587998 0.09541562 0.11905886 0.054941863 -0.07838101
0.06663844 0.006236388 -0.1423613 -0.060629863 0.026947623 0.12875785 -0.025609158 0.069651686
-0.09444413 0.23956698 -0.041101564 0.096738234 0.04412224 0.08943153 -0.0059366403 -0.028929234
-0.06878267 -0.015144431 -0.12631115 -0.00572661 0.060830005 0.15645939 -0.090387754 0.06584273
-0.029425967 0.16530752 0.095948234 0.061135255 0.12910923 -0.114477485 -0.011512244 -0.13104054
0.014970853 -0.022114137 -0.00061291346 0.0066437726 -0.09137434 -0.07256993 0.08322811 -0.06046911
0.038289476 -0.20283088 -0.1538722 -0.00399253 0.042656254 0.06820235 -0.009214162 0.017714886
-0.2683897 -0.18090674 0.041213848 -0.16562417 0.021374581 -0.051146083 0.092609785 -0.049032994
-0.0057686944 -0.104687825 0.048106946 -0.19017874 -0.07121256 -0.08332048 0.119494565 0.04819098
0.013428241 -0.00072480575 -0.0900342 -0.038239077 0.07134136 0.056870364 0.22470944 -0.021326236
-0.063196495 0.099812865 0.12159864 0.099457555 0.0056419265 0.11099626 -0.009564064 0.060570136
-0.02307515 0.003194325 0.0070780157 -0.043106697 0.08311399 0.15068288 -0.01506337 -0.113863006
0.07051498 -0.048852775 0.08994768 -0.039450806 -0.056788918 -0.04852982 0.018078826 0.017171074
-0.09371495 0.002297317 -0.048496142 -0.10198873 0.00731289 -0.0535637 -0.032439936 -0.1480085
0.06784253 -0.04817016 -0.06233903 0.070516735 0.019209588 -0.03571221 0.006614815 -0.0063526696
0.080281414 0.02563904 -0.024969306 -0.060161024 0.08200449 -0.018306592 -0.12260855 0.052140236
-0.07394557 0.005457437 0.010981244 0.009670179 0.01989982 -0.0025346903 0.0061166054 0.04051809
0.032308936 0.00039381243 0.05352602 -0.012294421 -0.03909807 0.02964957 0.0397451 -0.0044547254
0.038691256 -0.04193099 0.07927175 -0.01742425 0.034237415 -0.12619169 0.0027954725 -0.10760227
0.03677509 -0.006994904 -0.024086908 0.029755883 0.018205123 -0.07142544 -0.030400619 0.04752202
-0.010973487 0.019010654 -0.031728283 0.110154755 -0.044293426 -0.113684826 0.08957491 -0.13341667
0.06847478 -0.009013537 -0.016221916 0.018891584 0.012915146 -0.119572856 0.048800886 0.094885856
-0.10327016 0.18806249 -0.06450508 0.116257526 -0.03786232 -0.07349912 -0.0022335767 -0.01498203
0.063540205 0.08873152 0.06795683 0.15108843 -0.006934952 0.102635264 0.046044562 0.08722144
0.024613386 0.024784947 0.073936924 0.007393259 -0.0029462376 -0.036978185 0.10556478 0.07209507
0.045329694 -0.0009766961 -0.002941366 -0.057775177 0.0158156 0.042235423 -0.07273799 0.09477675
0.08282239 -0.048563663 0.012777062 -0.109286465 -0.11380618 -0.012435577 0.008205533 -0.10699341
-0.0061002476 -0.04097897 -0.024570238 -0.04211132 -0.070167184 -0.031566296 0.049792733 0.06461461

_mean_net.4.bias f4 [8]
00000000: 4670 fdbb 5af6 52be 7658 7e3d 12ac 743d
00000010: 07f9 073d 3e71 223e 4df4 daba 2d31 143e
-0.0077343313 -0.20601788 0.06209608 0.05973441 0.033196475 0.15863511 -0.0016704887 0.14471884
