hw1/run_logs/q1_bc_ant/policy_itr_0.pt (torch, 41083 bytes, 7 tensors)

_logstd f4 [8]
-3.3486428 -3.1898954 -2.9425945 -3.060492 -3.3536756 -3.7161627 -3.0576596 -3.5778713
00000000: 2a50 56c0 3f27 4cc0 7853 3cc0 1adf 43c0
00000010: 9fa2 56c0 9cd5 6dc0 b2b0 43c0 d8fb 64c0

_mean_net.0.weight f4 [64, 111]
0.8944391 -0.27463463 -0.4003044 0.2787394 0.2555125 0.26051682 0.051990125 0.24999684
0.118376054 -0.22119975 0.14839166 0.35046956 0.24969971 -0.016520584 0.12012537 -0.040781055
0.030660138 -0.01917071 0.11030789 -0.02837606 0.06481718 -0.00026770827 0.15482008 -0.034966838
0.016686777 0.116876714 -0.012728581 0.051590215 -0.09278502 0.05884025 0.026516045 0.0900329
0.06265011 -0.08648136 -0.09024674 -0.045780938 0.08334668 -0.01581003 0.04062011 -0.044108458
0.09313309 -0.040158726 0.07117971 0.0011239601 -0.050003298 0.04878813 -0.050383218 0.027915182
-0.027407622 -0.010406037 -0.09125092 -0.039069377 0.08849277 -0.061478227 0.11767037 0.28652892
-0.0048349863 -0.06335469 0.057800133 0.029457793 -0.06135545 0.061652046 0.057623554 0.08418034
-0.053205967 -0.015623707 -0.0018386963 0.013863163 -0.07203334 -0.15605596 0.21737623 -0.12595113
-0.11458558 -0.0448103 0.17274053 0.020870911 0.03451133 0.04705078 -0.087902665 0.047776006
-0.0667375 -0.071614824 0.0057722456 -0.016174333 0.055746328 -0.054969124 -0.08437843 0.14637195
0.3456508 -0.31299624 0.09339009 -0.12244403 -0.060273036 0.02279845 -0.063551694 -0.045034915
0.032363977 0.017001562 -0.04037458 -0.028732521 0.08693174 -0.017561443 0.053512733 0.041098844
-0.06135425 -0.053323824 0.091322064 0.8199457 -0.15854049 0.38459548 0.13608478 -0.50503975
0.16173284 0.2724485 0.18045382 0.5120494 0.21020444 0.21271013 -0.044033766 -0.10659005
-0.39434373 -0.043555204 -0.028041042 -0.5685269 -0.022835795 0.11510104 -0.092060015 0.023482721
-0.025618264 0.20874779 -0.05364321 0.06834287 -0.059990007 0.12516937 0.044947013 0.12115684
-0.062568106 -0.09636203 -0.06490534 -0.07970635 -0.043492373 -0.011052555 -0.05817885 0.034725294
0.029375283 -0.021492288 0.03648001 0.030675337 0.057949793 0.063920446 -0.032143496 0.09273517
-0.010973001 -0.003260927 -0.089589134 -0.061089348 -0.05545014 -0.040597662 0.06748225 -0.031016683
-0.07092879 0.036518842 -0.028497215 0.039506458 0.70628834 0.020617422 -0.5635341 0.055916388
-0.07564015 -0.043258917 -0.029068697 0.040589347 0.017340112 0.023445763 0.09473595 0.09250755
0.06473705 0.0030224554 -0.06566194 0.074177615 0.62978315 0.18809098 -0.5511395 0.16925459
0.06479516 0.30579287 -0.0820567 -0.07398523 -0.0032229885 -0.05132244 0.03396198 -0.03653552
-0.044580773 0.005375807 0.06870935 -0.06676602 0.044573057 0.06097784 0.25111115 0.5730303
-0.26602644 -0.19226642 -1.0992142 -0.19608827 0.05717279 0.0028257808 -0.007392294 -0.0030285541
0.016135162 0.044742938 0.015222585 0.02895453 -0.08537911 0.06914971 0.082753666 0.07845795
0.38146478 -0.37560764 -0.2700834 -0.2301482 -0.59015185 0.38090003 -0.106082164 -0.031264354
0.73260826 0.7587361 0.45409822 0.33019412 0.47202596 0.006748372 -0.16308993 -0.27348322
-0.054314356 0.25818342 -0.5153981 0.026850859 -0.22305544 0.2576547 -0.007733316 0.026341539
0.04794558 0.0027348546 -0.027637936 0.094174854 -0.15440062 -0.0008695155 -0.14700745 0.02352204
-0.025960777 0.07816604 0.083668835 -0.03223974 0.0042570066 0.04233035 0.0113725625 -0.047529332
00000000: f6f9 643f e99c 8cbe b3f4 ccbe eeb6 8e3e
00000010: 89d2 823e 7662 853e 99f3 543d 2cff 7f3e
00000020: 256f f23d 3082 62be fcf3 173e bf70 b33e
00000030: 48b1 7f3e 2d56 87bc 4a04 f63d 090a 27bd
00000040: f82a fb3c e50b 9dbc 1ae9 e13d e974 e8bc
00000050: dfbe 843d 325b 8cb9 2889 1e3e 6339 0fbd
00000060: b5b2 883c 0f5d ef3d 8a8b 50bc 4350 533d
00000070: 1306 bebd 7902 713d 2d38 d93c 2b63 b83d
00000080: b34e 803d 241d b1bd 48d3 b8bd cb84 3bbd
00000090: aab1 aa3d 0984 81bc 4661 263d 12ab 34bd
000000a0: 90bc be3d 7a7d 24bd abc6 913d d851 933a
000000b0: 42d0 4cbd 10d6 473d a25e 4ebd 61ae e43c
000000c0: f385 e0bc 157e 2abc c3e1 babd 3607 20bd
000000d0: b33b b53d 98d0 7bbd 2afd f03d ebb3 923e
000000e0: ce6e 9ebb 1bc0 81bd d5bf 6c3d 7851 f13c
000000f0: da4f 7bbd db86 7c3d ad06 6c3d be66 ac3d
00000100: 80ee 59bd 94fa 7fbc 6900 f1ba 5222 633c
00000110: 3786 93bd 22cd 1fbe e097 5e3e 55f9 00be
00000120: d8ab eabd 018b 37bd e5e2 303e 79f9 aa3c
00000130: c15b 0d3d 52b8 403d 5006 b4bd c6b0 433d
00000140: acad 88bd cbaa 92bd 1b25 bd3b 0980 84bc
00000150: 4356 643d 4e27 61bd 99ce acbd 87e2 153e
00000160: 24f9 b03e 0b41 a0be 4e43 bf3d f0c3 fabd
00000170: dce0 76bd d1c3 ba3c 6427 82bd 8876 38bd
00000180: 1790 043d dc46 8b3c d15f 25bd 7760 ebbc
00000190: 4509 b23d 04dd 8fbc 2b30 5b3d 4357 283d
000001a0: 984e 7bbd 156a 5abd 1007 bb3d f6e7 513f
000001b0: 7058 22be b3e9 c43e cf59 0b3e 494a 01bf
000001c0: 4b9d 253e 5f7e 8b3e e3c8 383e ab15 033f
000001d0: d53f 573e afd0 593e c05c 34bd e24b dabd
000001e0: 6ce7 c9be f166 32bd 54b6 e5bc fb8a 11bf
000001f0: 2212 bbbc 18ba eb3d f689 bcbd d65e c03c
00000200: 65dd d1bc fbc1 553e fcb8 5bbd 59f7 8b3d
00000210: 15b8 75bd 662c 003e 5c1a 383d 1421 f83d
00000220: b523 80bd 7559 c5bd 17ed 84bd 153d a3bd
00000230: 0f25 32bd c715 35bc f24c 6ebd 1c3c 0e3d
00000240: 6fa4 f03c 9810 b0bc 106c 153d d84a fb3c
00000250: c35c 6d3d b9e8 823d e6a8 03bd f0eb bd3d
00000260: 1ac8 33bc 47b5 55bb 827a b7bd d338 7abd
00000270: b01f 63bd bc49 26bd 2234 8a3d b316 febc
00000280: 1d43 91bd c894 153d fe72 e9bc 86d1 213d
00000290: 50cf 343f dee5 a83c c543 10bf 9508 653d
000002a0: 39e9 9abd 4330 31bd 7a21 eebc 0441 263d
000002b0: da0c 8e3c 5411 c03c ec04 c23d 9974 bd3d
000002c0: dc94 843d 6314 463b c479 86bd 6fea 973d
000002d0: 7839 213f ec9a 403e 7a17 0dbf 1351 2d3e
000002e0: 53b3 843d e290 9c3e 580d a8bd 9185 97bd
000002f0: c638 53bb 7b37 52bd b81b 0b3d 45a6 15bd
00000300: 549a 36bd 8a27 b03b 7db7 8c3d a0bc 88bd
00000310: 3d92 363d e6c3 793d a491 803e 1db2 123f
00000320: 9e34 88be 7de1 44be 0db3 8cbf 5dcb 48be
00000330: 042e 6a3d bc30 393b 0e3b f2bb b57a 46bb
00000340: e32d 843c 5f44 373d 2668 793c 0d32 ed3c
00000350: 3edb aebd 5d9e 8d3d c17a a93d 90ae a03d
00000360: 5a4f c33e a54f c0be 5f48 8abe f8ab 6bbe
00000370: 3114 17bf 5405 c33e 9b41 d9bd 0d0f 00bd
00000380: 378c 3b3f 873c 423f 907f e83e 340f a93e
00000390: 63ad f13e 7321 dd3b 0c01 27be fe05 8cbe
000003a0: bb78 5ebd 9e30 843e 21f1 03bf 55f6 db3c
000003b0: a568 64be 51eb 833e c267 fdbb 36ca d73c
000003c0: 9662 443d 3f3b 333b f468 e2bc bfde c03d
000003d0: 321b 1ebe 33f0 63ba 1f89 16be 4bb1 c03c
000003e0: b2ab d4bc 8415 a03d 915a ab3d d10d 04bd
000003f0: 5c7e 8b3b 9762 2d3d fc53 3a3c 1eae 42bd

_mean_net.0.bias f4 [64]
-0.17136516 0.091984384 -0.03686469 0.20912431 0.21866319 -0.15729082 -0.050567362 0.226418
-0.17293407 0.062789194 0.18078849 0.009540041 0.16866651 0.15640958 -0.33700582 0.023403397
-0.09084987 0.17274499 0.050777875 0.024837768 -0.02032197 0.0685616 -0.076124474 0.023434458
-0.15023507 -0.18768282 0.0009789963 0.10825065 -0.37852573 0.07248187 0.15626194 -0.0072607147
0.14491157 -0.10372686 0.07387286 -0.14236073 -0.04007901 -0.23697707 0.13201909 -0.17118022
0.093997665 0.1513563 0.022205496 0.07319714 0.1731235 0.21027361 -0.17319772 -0.11265103
0.18747368 -0.02069454 0.055831566 -0.18576562 0.22258052 -0.0023801515 -0.21839075 0.18278629
0.025031742 0.060265202 -0.12592702 -0.09999135 0.037880003 0.1525046 -0.041712716 0.008117681
00000000: 597a 2fbe 4f62 bc3d 6eff 16bd af24 563e
00000010: 3ee9 5f3e d810 21be b91f 4fbd 1fda 673e
00000020: a115 31be 9f97 803d 9e20 393e d54d 1c3c
00000030: eab6 2c3e d529 203e 078c acbe 7bb8 bf3c
00000040: 7f0f babd 10e4 303e 76fc 4f3d 9378 cb3c
00000050: 437a a6bc 066a 8c3d 26e7 9bbd 9ff9 bf3c
00000060: 39d7 19be ed2f 40be aa51 803a 84b2 dd3d
00000070: 20ce c1be 6071 943d 2103 203e 4aeb edbb
00000080: b363 143e bf6e d4bd a74a 973d 03c7 11be
00000090: e329 24bd 1eaa 72be 0330 073e de49 2fbe
000000a0: d981 c03d 25fd 1a3e 4de8 b53c 62e8 953d
000000b0: 4947 313e f751 573e be5a 31be 95b5 e6bd
000000c0: 1af9 3f3e 9987 a9bc a4af 643d 5839 3ebe
000000d0: 26ec 633e 51fc 1bbb d3a1 5fbe 542c 3b3e
000000e0: 5e0f cd3c a5d8 763d 03f3 00be 44c8 ccbd
000000f0: 1028 1b3d 2a2a 1c3e f4da 2abd 0600 053c

_mean_net.2.weight f4 [32, 64]
-0.069376945 -0.100283645 0.10344801 -0.13982971 -0.00022404606 -0.0047049806 0.1518662 0.076662645
0.101410404 -0.04166412 0.083039396 0.2729256 -0.15901962 0.090221725 0.15669066 -0.028318964
0.10973869 -0.24889363 0.07398158 0.0005512032 -0.17348301 0.06247471 0.13844809 -0.036834944
0.00921545 -0.20565954 -0.39227855 -0.022718247 -0.099630624 -0.05615316 -0.1733956 0.053640872
0.064392045 0.24889834 -0.032711014 0.19301337 0.08885859 0.12540533 0.0022660743 0.18804365
-0.22042471 -0.05278394 0.0928879 -0.1770164 -0.03514153 -0.28604954 0.07908301 -0.046051845
-0.018695444 0.09257621 -0.25113317 -0.103824265 0.08202735 0.07050268 -0.03485407 -0.060883302
-0.14510195 0.08765529 -0.2233779 -0.056045476 -0.024960073 0.070322745 -0.10129471 -0.13040341
0.06805188 0.07972573 0.089768365 -0.047961857 -0.08586417 -0.07948417 0.0043417388 -0.087191716
-0.13984445 -0.013097082 -0.0970222 -0.35654002 0.0852016 -0.03574878 0.025729368 -0.13171357
-0.049479194 0.02586221 0.06067613 0.00040377688 -0.046084825 0.14076856 0.21436377 0.026362192
0.19032966 0.29327548 -0.22555012 -0.05483199 0.12098314 -0.019510899 -0.015743978 -0.049957104
-0.0014356292 0.035491325 0.04888831 0.19482133 -0.19338919 0.23775661 -0.12620991 -0.08049681
-0.30655223 0.17871226 0.19501202 -0.103870064 -0.12722252 -0.2290328 0.1700656 0.031040048
0.013889712 0.0871148 0.059912812 0.0881503 0.0019172846 0.05095905 -0.22139299 -0.1627825
0.07380564 -0.03599047 -0.12634178 0.00872609 -0.16578151 -0.23484336 -0.04406571 0.15050925
-0.23977688 -0.11705282 -0.003425521 0.007267453 -0.06955805 -0.16087592 0.04846793 0.2078053
0.13515815 0.16407017 -0.032233052 -0.3890255 -0.16926214 0.062496006 -0.12134277 0.13206065
0.09380138 0.25103548 -0.03572752 -0.04890921 0.028552392 0.19951162 0.26474926 0.25621524
-0.11148648 0.081050545 -0.290833 0.10086678 -0.04908117 -0.28296587 -0.36898828 -0.056870222
0.11575286 0.0389977 -0.0016264394 0.18344443 0.15185517 -0.100837454 0.059719745 0.0025184958
-0.10178034 -0.12875298 -0.24828503 0.03509418 0.1127409 -0.47868952 0.0122786695 0.013308065
-0.2784358 -0.040356323 0.1189842 0.07253785 0.0881135 0.097802155 -0.11654426 -0.2253389
0.07235982 -0.31806323 -0.14564502 -0.058194615 0.012832818 0.1691018 0.022423422 -0.21586093
-0.15066634 0.14796035 -0.09701247 -0.018555302 0.091117494 -0.13774496 -0.038579658 0.11033806
-0.15406418 -0.21760869 0.10937722 0.3001593 0.18858497 0.24210429 0.33479097 -0.095916264
-0.32107362 -0.19623443 0.33523455 -0.26322198 -0.27766475 -0.04648091 0.019297719 0.07755941
-0.010914367 -0.3365007 0.5337659 0.23734726 -0.18366389 -0.083526626 0.024252672 -0.11708667
0.12327107 -0.2148075 0.019538196 -0.29263 0.090082586 -0.18699129 -0.04306542 0.18338507
0.15019396 0.4076213 -0.28240287 0.16034746 -0.16490413 0.34143138 -0.12217789 0.23875982
0.24526207 -0.061794963 0.15888193 0.017219653 0.29899362 -0.26739782 0.11351926 0.1974989
0.14778191 0.048678108 0.19457634 -0.21548206 -0.28443578 0.2011334 -0.21688682 0.14697191
00000000: 8015 8ebd 8361 cdbd 8ddc d33d 852f 0fbe
00000010: e8ed 6ab9 3d2c 9abb d082 1b3e 4e01 9d3d
00000020: 42b0 cf3d ffa7 2abd 8f10 aa3d e7bc 8b3e
00000030: 0ad6 22be 2bc6 b83d 8473 203e 2cfd e7bc
00000040: aebe e03d f9dd 7ebe a883 973d 9f7e 103a
00000050: 88a5 31be 7be5 7f3d 56c5 0d3e 3de0 16bd
00000060: 66fc 163c 6a98 52be bcd8 c8be 9e1b babc
00000070: 240b ccbd db00 66bd 9e8e 31be 88b6 5b3d
00000080: fadf 833d 35df 7e3e fcfb 05bd 4ca5 453e
00000090: 7efb b53d 416a 003e 6b82 143b 848e 403e
000000a0: 04b7 61be f933 58bd 033c be3d ca43 35be
000000b0: 91f0 0fbd 1675 92be 46f6 a13d dca0 3cbd
000000c0: 3027 99bc 9998 bd3d 8794 80be d1a1 d4bd
000000d0: f5fd a73d b663 903d 24c3 0ebd c560 79bd
000000e0: 9b95 14be 9e84 b33d 2dbd 64be f18f 65bd
000000f0: 1179 ccbc 5f05 903d 9a73 cfbd 7988 05be
00000100: c95e 8b3d 3e47 a33d 7ad8 b73d a773 44bd
00000110: 8ed9 afbd 99c8 a2bd 2545 8e3b 9291 b2bd
00000120: 6233 0fbe 2595 56bc 93b3 c6bd 6a8c b6be
00000130: 2d7e ae3d 506d 12bd 65c6 d23c ecdf 06be
00000140: b2aa 4abd fcdc d33c 8987 783d 04b2 d339
00000150: 71c3 3cbd a225 103e 2d82 5b3e 86f5 d73c
00000160: c7e5 423e 3428 963e 9cf6 66be 8297 60bd
00000170: 02c6 f73d 52d5 9fbc 84f9 80bc d29f 4cbd
00000180: b92b bcba 5a5f 113d 1c3f 483d 3e7f 473e
00000190: d107 46be 7876 733e 2c3d 01be 83db a4bd
000001a0: 6af4 9cbe 5900 373e 3bb1 473e d4b9 d4bd
000001b0: 9f46 02be 9387 6abe ad25 2e3e b347 fe3c
000001c0: ad91 633c 3f69 b23d 2367 753d 2588 b43d
000001d0: 654d fb3a 70ba 503d d8b4 62be 75b0 26be
000001e0: 6927 973d be6a 13bd bd5f 01be e0f7 0e3c
000001f0: a1c2 29be c77a 70be 3f7e 34bd 191f 1a3e
00000200: 1288 75be 64b9 efbd b57e 60bb d023 ee3b
00000210: 7374 8ebd a8bc 24be 4f86 463d eaca 543e
00000220: e666 0a3e 0302 283e ce06 04bd 5a2e c7be
00000230: 0e53 2dbe d0fb 7f3d 8f82 f8bd e83a 073e
00000240: f01a c03d b987 803e 0557 12bd 0655 48bd
00000250: b5e6 e93c c64c 4c3e 378d 873e a52e 833e
00000260: 0653 e4bd d4fd a53d 10e8 94be 3e93 ce3d
00000270: 5609 49bd e7e0 90be 08ec bcbe c0f0 68bd
00000280: d60f ed3d 0dbc 1f3d 402e d5ba dbd8 3b3e
00000290: ec7f 1b3e de83 cebd b19c 743d 590d 253b
000002a0: 3672 d0bd d2d7 03be 6e3e 7ebe eabe 0f3d
000002b0: b3e4 e63d cb16 f5be 792c 493c 120a 5a3c
000002c0: 238f 8ebe ac4c 25bd fdad f33d b98e 943d
000002d0: da74 b43d 7f4c c83d c2ae eebd 3ebf 66be
000002e0: 6331 943d 2fd9 a2be f823 15be 7a5d 6ebd
000002f0: bd40 523c 0629 2d3e 53b1 b73c a60a 5dbe
00000300: 4748 1abe eb82 173e 79ae c6bd 4a01 98bc
00000310: cf9b ba3d 040d 0dbe b405 1ebd ecf8 e13d
00000320: 00c3 1dbe d0d4 5ebe 2a01 e03d 7bae 993e
00000330: 6b1c 413e 30ea 773e b969 ab3e bf6f c4bd
00000340: c363 a4be aef1 48be dda3 ab3e 08c5 86be
00000350: 132a 8ebe c462 3ebd 4016 9e3c 78d7 9e3d
00000360: 2cd2 32bc d249 acbe e2a4 083f 290b 733e
00000370: 6312 3cbe 0210 abbd 8aad c63c 23cb efbd
00000380: 8b75 fc3d 7ff6 5bbe 910e a03c 99d3 95be
00000390: 387d b83d a57a 3fbe 5e65 30bd 4cc9 3b3e
000003a0: 72cc 193e bdb3 d03e 1c97 90be 2032 243e
000003b0: a1dc 28be 18d0 ae3e 6738 fabd 747d 743e
000003c0: fb25 7b3e b71c 7dbd f2b1 223e 3b10 8d3c
000003d0: b115 993e 5ee8 88be c97c e83d 273d 4a3e
000003e0: 2454 173e b262 473d 053f 473e 54a7 5cbe
000003f0: 91a1 91be eaf5 4d3e 9417 5ebe ce7f 163e

_mean_net.2.bias f4 [32]
0.043056734 -0.0046077496 0.23850611 0.11873363 -0.010381564 -0.13144119 0.056752995 -0.018901866
0.029510757 -0.08434028 -0.037812892 0.0122668585 -0.061459538 -0.008609787 -0.0142208 0.06950957
0.1714622 0.07350928 -0.054305654 0.04081849 -0.065052964 -0.04367124 0.15942836 -0.02780131
-0.049959153 -0.17792124 0.02972726 0.06731944 0.0774652 0.06670283 -0.057740524 -0.012502856
00000000: 425c 303d 9bfc 96bb f23a 743e 9e2a f33d
00000010: 6f17 2abc 8598 06be d475 683d 16d8 9abc
00000020: 8bc0 f13c 99ba acbd b1e1 1abd effa 483c
00000030: ffbc 7bbd 1010 0dbc 5cfe 68bc 095b 8e3d
00000040: c993 2f3e 098c 963d 9b6f 5ebd 4a31 273d
00000050: 7d3a 85bd 9de0 32bd 3041 233e 93bf e3bc
00000060: f8a1 4cbd fc30 36be 9586 f33c c6de 893d
00000070: 13a6 9e3d 7e9b 883d 5481 6cbd c7d8 4cbc

_mean_net.4.weight f4 [8, 32]
-0.0054729264 0.068859175 0.12498246 0.017007662 -0.005014807 0.1212147 0.011485337 0.02664321
0.060621303 -0.05053356 0.009893521 0.042503946 -0.043642595 0.041228503 0.05663753 -0.08825979
-0.047768746 -0.11139585 0.11582135 0.05982396 -0.003075433 -0.009071153 -0.054264553 -0.102260925
-0.008064178 0.053996306 0.019726034 -0.0054098116 -0.07812382 -0.0234874 0.15392269 0.04388878
-0.030968172 -0.062805876 -0.028787466 -0.09020427 0.003079619 0.07632501 0.015073252 -0.015341412
0.10126757 -0.09383278 0.00822404 0.1340074 -0.014542653 -0.16138949 -0.03462947 0.021365708
-0.056339398 0.16073433 0.0862426 0.07563272 -0.10016466 0.071451575 0.0548651 -0.06389597
0.1744788 -0.09132548 -0.09003788 0.0005436065 0.025429513 -0.01611923 0.09102197 0.09621746
-0.112078786 0.055792637 -0.06393179 0.13521971 -0.010649222 -0.03485733 -0.0013594308 -0.014966366
0.06316727 -0.029599115 0.13286605 -0.20528501 -0.118219316 -0.032605868 0.029072855 0.08536463
0.046027854 0.19864221 -0.04807067 0.09216481 0.09955445 0.099143885 0.12664165 0.09210369
-0.018006092 -0.01633691 0.14288585 0.0176638 0.10414269 0.07097511 -0.08392592 -0.16134012
-0.027378947 -0.0020989496 0.06600641 -0.13332435 -0.022422532 0.078427814 0.022535456 0.0035139194
-0.037602626 -0.051533397 0.014699487 0.028964605 0.064672545 -0.09560549 0.16440171 -0.026974155
0.15922974 0.17523275 0.05866179 -0.037252687 -0.005805314 -0.10053662 0.019756224 0.0046823146
0.03639866 -0.07124954 -0.1553863 0.030991208 -0.048748445 0.17146353 0.11822429 -0.047379944
0.048218213 0.033311125 -0.021561522 0.06959791 0.054464143 0.044055223 0.05846462 0.023867045
0.029123705 0.03699516 0.13277161 -0.03208508 0.024884604 -0.13231035 -0.033305705 -0.10715608
0.027510144 -0.011944177 0.09852692 -0.04905453 -0.012958478 -0.016128827 -0.030801658 0.07344815
0.059287667 0.09766758 -0.057058766 0.014334802 -0.10430336 -0.03215193 0.016465671 -0.085088685
0.041527882 -0.0006228005 -0.0001519761 0.023425793 -0.034843817 -0.050844517 0.044330813 0.016489336
-0.071687914 -0.096755214 0.042891596 0.022294015 -0.052759383 0.03110006 -0.05527162 -0.058603846
0.026820384 -0.062043317 0.021823118 0.013603775 0.0077536963 -0.027021367 -0.0028783835 -0.026006844
-0.098713174 -0.05873812 0.022700725 0.017042581 0.03568138 0.027280673 0.006006279 0.036884774
-0.14536893 0.030492343 -0.02493241 -0.10581621 0.005424245 -0.073313706 0.069346614 0.0021343336
0.017143665 0.0544849 -0.0776126 0.10261337 -0.11076855 0.034650702 -0.04077976 0.023211066
-0.02188795 -0.1375754 -0.12445194 -0.058994852 0.071682766 -0.04660775 0.0012605074 0.022338906
0.11162014 -0.05499445 -0.16013026 0.04299981 -0.02209904 -0.0015683135 0.080399215 0.09152247
0.06362516 0.002035 0.109646104 0.043485176 -0.061682053 0.022831367 0.03925465 -0.00035304457
0.0014835561 -0.008611411 0.018040394 -0.07840127 -0.01616577 0.052245703 0.029763227 0.112352125
-0.06326814 -0.020203464 -0.016966326 -0.03546545 -0.07666792 -0.0730411 0.07057288 0.028358847
0.012634324 0.0034672031 0.06584937 -0.008335061 -0.022133421 -0.02538644 -0.059159853 0.028199881
00000000: 3c56 b3bb 0a06 8d3d cef6 ff3d a753 8b3c
00000010: 4053 a4bb 6a3f f83d ff2c 3c3c dc42 da3c
00000020: 0b4e 783d 47fc 4ebd 6f18 223c 9e18 2e3d
00000030: 94c2 32bd 38df 283d c1fc 673d 8cc1 b4bd
00000040: 29a9 43bd 8223 e4bd be33 ed3d f809 753d
00000050: 348d 49bb 2c9f 14bc 8244 5ebd 2d6e d1bd
00000060: 9d1f 04bc 3b2b 5d3d 7e98 a13c ca44 b1bb
00000070: 62ff 9fbd a668 c0bc e99d 1d3e b9c4 333d
00000080: f7b0 fdbc 5ea0 80bd b1d3 ebbc 04bd b8bd
00000090: 6fd3 493b 4950 9c3d cdf5 763c 8c5a 7bbc
000000a0: 5f65 cf3d 672b c0bd 20be 063c 3c39 093e
000000b0: 4f44 6ebc 4943 25be a2d7 0dbd 2307 af3c
000000c0: 24c4 66bd 8a97 243e f69f b03d 54e5 9a3d
000000d0: 2123 cdbd 3455 923d 3aba 603d e4db 82bd
000000e0: 92aa 323e da08 bbbd c865 b8bd d180 0e3a
000000f0: 8e51 d03c 7a0c 84bc ba69 ba3d a90d c53d
00000100: 9089 e5bd d286 643d acee 82bd 0977 0a3e
00000110: 137a 2ebc 8fc6 0ebd ee2e b2ba 7d35 75bc
00000120: d75d 813d d879 f2bc 0a0e 083e 3c36 52be
00000130: f81c f2bd bb8d 05bd 322a ee3c a7d3 ae3d
00000140: b487 3c3d dd68 4b3e c0e5 44bd e7c0 bc3d
00000150: 34e3 cb3d f30b cb3d 59ae 013e dca0 bc3d
00000160: 8381 93bc fcd4 85bc ab50 123e acb3 903c
00000170: c348 d53d 665b 913d 5ae1 abbd 5836 25be
00000180: d049 e0bc 888e 09bb 5e2e 873d 2e86 08be
00000190: 75af b7bc c39e a03d 479c b83c c949 663b
000001a0: 3605 1abd af14 53bd 1ed6 703c 2e47 ed3c
000001b0: 0a73 843d d0cc c3bd ec58 283e e7f8 dcbc
000001c0: 1f0d 233e 3770 333e 5847 703d 4696 18bd
000001d0: 813a bebb 25e6 cdbd ced7 a13c 1a6e 993b
000001e0: c316 153d 47eb 91bd 961d 1fbe 46e1 fd3c
000001f0: 73ac 47bd 2394 2f3e 941f f23d 7911 42bd
00000200: 7680 453d 3f71 083d caa1 b0bc 5989 8e3d
00000210: cb15 5f3d 4073 343d 9978 6f3d d284 c33c
00000220: d694 ee3c 3d88 173d 48f5 073e a56b 03bd
00000230: ccda cb3c 5d7c 07be 906b 08bd a674 dbbd
00000240: f45c e13c 82b1 43bc 7bc8 c93d 67ed 48bd
00000250: cc4f 54bc 9a20 84bc c253 fcbc fc6b 963d
00000260: a0d7 723d f105 c83d 74b6 69bd 84dc 6a3c
00000270: 009d d5bd beb1 03bd 04e3 863c fa42 aebd
00000280: 2419 2a3d 6f43 23ba c65b 1fb9 73e7 bf3c
00000290: 64b8 0ebd 5742 50bd 3a94 353d a514 873c
000002a0: 1dd1 92bd 9927 c6bd 19af 2f3d f0a1 b63c
000002b0: 391a 58bd 8ec5 fe3c 7f64 62bd 960a 70bd
000002c0: 6cb6 db3c 2221 7ebd 65c6 b23c 5ee2 5e3c
000002d0: b812 fe3b ea5b ddbc 43a3 3cbb 4e0c d5bc
000002e0: 222a cabd 6297 70bd dff6 b93c e29c 8b3c
000002f0: a426 123d b87b df3c 52d0 c43b 7d14 173d
00000300: 98db 14be 14cb f93c 0e3f ccbc 2bb6 d8bd
00000310: ddbd b13b 7f25 96bd 9905 8e3d 2de0 0b3b
00000320: df70 8c3c 8f2b 5f3d 5bf3 9ebd f526 d23d
00000330: 9fda e2bd e5ed 0d3d ad08 27bd 2225 be3c
00000340: 5c4e b3bc 91e0 0cbe a9e0 febd 96a4 71bd
00000350: 6ace 923d c5e7 3ebd 9c37 a53a 1500 b73c
00000360: 1a99 e43d dc41 61bd 30f9 23be 9220 303d
00000370: 0c09 b5bc de8f cdba 58a8 a43d 2270 bb3d
00000380: e84d 823d a25d 053b 238e e03d 831d 323d
00000390: 52a6 7cbd d908 bb3c 7cc9 203d d718 b9b9
000003a0: e273 c23a e016 0dbc 73c9 933c d890 a0bd
000003b0: 146e 84bc 97ff 553d 03d2 f33c df18 e63d
000003c0: ba92 81bd bc81 a5bc f7fc 8abc 3844 11bd
000003d0: 1204 9dbd 9296 95bd 8488 903d d050 e83c
000003e0: 3200 4f3c 043a 633b 09dc 863d c88f 08bc
000003f0: 2651 b5bc 39f7 cfbc 9a51 72bd 7003 e73c

_mean_net.4.bias f4 [8]
0.008597533 -0.19141673 0.071352914 -0.012027104 0.01785413 0.16716808 -0.073670365 0.24550253
00000000: abdc 0c3c bf02 44be 7a21 923d 550d 45bc
00000010: d342 923c 1c2e 2b3e 7de0 96bd 0465 7b3e
