run_logs/q11_bc_idm_ant/policy_itr_0.pt (torch, 41083 bytes, 7 tensors)

_logstd f4 [8]
-3.4226007 -3.2352734 -2.9427128 -3.0997317 -3.434919 -3.831522 -3.0703495 -3.673378
00000000: e40b 5bc0 b80e 4fc0 6855 3cc0 0162 46c0
00000010: b7d5 5bc0 a837 75c0 9b80 44c0 a018 6bc0

_mean_net.0.weight f4 [64, 111]
0.8640425 -0.12165787 -0.25593776 -0.64177114 -0.22309884 0.0002851982 -0.19345884 -0.14823738
0.15994722 -0.14029643 0.16545786 -0.15892178 -0.05070394 0.062061276 0.040588938 0.24918751
0.11202375 -0.16049895 -0.019624326 0.07769507 -0.08711974 -0.048913844 0.007835192 0.07741544
0.25731924 0.00409664 0.011679988 -0.053147797 -0.053797346 -0.0461133 -0.08622193 -0.061598673
0.022338333 0.062468458 0.0046757692 -0.04350843 0.04171393 -0.036435578 -0.02102564 -0.052033532
-0.0298038 -0.087948956 0.04049961 0.03690666 0.018853463 0.046601877 0.040228337 0.004199369
0.010052108 0.0072478824 0.050646853 0.06375938 0.068163365 0.055013727 -0.02314137 -0.0042254273
-0.019289017 0.05521555 0.01054117 0.08784808 0.04814057 -0.08112065 0.027765928 0.09120214
0.08430838 -0.0014915795 0.031488683 -0.08903591 -0.030259244 0.046284676 -0.08646478 0.08269095
-0.06241893 0.030014506 -0.0035933573 0.016725797 0.009195902 -0.08873037 -0.020387925 -0.059997328
0.08069306 -0.011650873 -0.09450933 0.022988506 0.041219108 -0.042489868 -0.008903855 0.04103308
-0.059057247 -0.05017405 -0.009156176 -0.066655 0.05833509 0.0077632735 0.05678853 0.050813712
-0.07314796 -0.05916047 -0.06492071 -0.030506022 -0.03468455 -0.015293835 -0.091821596 0.040082633
0.053846363 0.030081963 0.060314912 0.07130363 -0.09369854 0.014337515 0.088044986 -0.032002885
-0.19845574 0.3979703 -0.8782038 0.34389585 -0.076637395 0.2524083 -0.19722459 0.070617214
0.54976124 0.06274821 -0.34041452 0.2375382 0.008196585 0.16124545 0.35788128 0.026228685
-0.13475598 -0.0010639341 -0.042184036 0.015485521 0.013189571 -0.18680358 0.038022503 -0.1519588
-0.119715 -0.043466154 0.09242122 -0.007161426 -0.090338506 -0.014288737 0.061994657 0.043711487
-0.0010143871 0.066911764 -0.086599216 0.06585687 0.09421843 -0.057714954 0.020358982 -0.015305784
-0.080126956 -0.000832105 -0.031808462 -0.08107182 -0.0691622 0.002071058 0.08799323 0.033982914
-0.06315098 0.06546797 0.007791063 -0.09274637 0.004502358 0.060930394 -0.055810984 -0.004367225
-0.047288653 -0.0748418 -0.053932425 0.009531342 0.061354894 -0.017637478 -0.085358985 -0.00081248506
-0.082550764 0.005575537 0.0703727 0.040508594 -0.058053948 -0.02094766 0.038006745 0.025749102
-0.089156836 -0.055337433 -0.033567876 0.034880623 0.084807545 0.042295773 0.035855364 -0.0805418
0.06141698 0.03399295 -0.030521296 -0.045541562 0.026983768 -0.05144876 0.038530238 0.07258904
-0.06262764 -0.059207406 -0.039432157 -0.08126463 -0.010885458 0.059117757 0.035524484 -0.030587003
-0.0117832795 -0.041275345 -0.0766199 -0.025906198 0.0065504694 -0.048134133 -0.07110863 0.027725296
0.013981222 -0.02952438 0.02598901 0.087722175 0.0051829233 -0.06505356 0.5920553 0.04946152
0.15708846 -1.3447268 -0.5958904 0.14090836 0.11053444 0.16747966 0.16225086 0.03260233
0.19439837 -0.1431108 0.011472155 0.009223619 0.08839526 -0.03494083 0.049971037 0.007208269
0.068763465 0.020382253 -0.019475993 0.0018965225 0.19894785 0.02136162 -0.044480458 -0.098185495
-0.022532364 -0.05961209 -0.06470034 -0.005989762 0.023541123 -0.08890999 -0.07287825 0.053426977
00000000: e431 5d3f c327 f9bd 460a 83be 1d4b 24bf
00000010: 0674 64be a886 9539 131a 46be 8acb 17be
00000020: 34c9 233e dea9 0fbe c96d 293e 64bc 22be
00000030: efae 4fbd f733 7e3d 9640 263d 032b 7f3e
00000040: b56c e53d d659 24be 32c3 a0bc 981e 9f3d
00000050: d66b b2bd e259 48bd 2d5f 003c fc8b 9e3d
00000060: 59bf 833e 1b3d 863b 6c5d 3f3c 81b1 59bd
00000070: 9b5a 5cbd 4de1 3cbd 2095 b0bd e44e 7cbd
00000080: e1fe b63c edde 7f3d 3237 993b e535 32bd
00000090: 3adc 2a3d 793d 15bd f73d acbc 1d21 55bd
000000a0: 1927 f4bc 951e b4bd ebe2 253d 702b 173d
000000b0: 9472 9a3c 9ce1 3e3d 78c6 243d dc9a 893b
000000c0: 99b1 243c a57f ed3b 1373 4f3d 4794 823d
000000d0: 3c99 8b3d 1356 613d f892 bdbc 7475 8abb
000000e0: 0004 9ebc b329 623d dfb4 2c3c b2e9 b33d
000000f0: 0c2f 453d 9522 a6bd 5f75 e33c 30c8 ba3d
00000100: dfa9 ac3d 1a81 c3ba 47fa 003d 7658 b6bd
00000110: 3ce2 f7bc 0095 3d3d 7214 b1bd df59 a93d
00000120: feaa 7fbd fbe0 f53c 887e 6bbb 8a04 893c
00000130: 69aa 163c 45b8 b5bd 9404 a7bc c2bf 75bd
00000140: 6742 a53d 4ee3 3ebc 1c8e c1bd 6452 bc3c
00000150: 5ed5 283d db09 2ebd 7ae1 11bc 4e12 283d
00000160: 03e6 71bd 4e83 4dbd c903 16bc 6b82 88bd
00000170: c6f0 6e3d 0f63 fe3b 179b 683d 0a22 503d
00000180: 99ce 95bd 4052 72bd 26f5 84bd c4e7 f9bc
00000190: 6311 0ebd fe92 7abc f60c bcbd b02d 243d
000001a0: 018e 5c3d 736e f63c c50c 773d a307 923d
000001b0: 05e5 bfbd e6e7 6a3c ee50 b43d 7515 03bd
000001c0: fb37 4bbe c3c2 cb3e f7d1 60bf 1e13 b03e
000001d0: 11f4 9cbd a93b 813e 3ef5 49be c29f 903d
000001e0: 27bd 0c3f 2282 803d d04a aebe 373d 733e
000001f0: f84a 063c 871d 253e 373c b73e 8add d63c
00000200: 79fd 09be b473 8bba 2bc9 2cbd fcb6 7d3c
00000210: 1219 583c 7049 3fbe 7cbd 1b3d 169b 1bbe
00000220: 232d f5bd 9109 32bd 5647 bd3d 65aa eabb
00000230: 6503 b9bd 4f1b 6abc 1cee 7d3d d10a 333d
00000240: 2ff5 84ba 0909 893d ee5a b1bd f7df 863d
00000250: 98f5 c03d 8466 6cbd e1c7 a63c 1cc5 7abc
00000260: 9a19 a4bd 9f21 5aba 9749 02bd fb08 a6bd
00000270: e9a4 8dbd 96ba 073b cb35 b43d ab31 0b3d
00000280: 4d55 81bd 1214 863d 2c4c ff3b cff1 bdbd
00000290: 8488 933b 2692 793d 0f9a 64bd f01a 8fbb
000002a0: bfb1 41bd a846 99bd 3fe8 5cbd 5929 1c3c
000002b0: 454f 7b3d 797c 90bc b1d0 aebd f3fc 54ba
000002c0: 6010 a9bd ffb2 b63b 901f 903d 57ec 253d
000002d0: fac9 6dbd 6d9a abbc f6ac 1b3d c8ef d23c
000002e0: dc97 b6bd 81a9 62bd 787e 09bd fcde 0e3d
000002f0: 94af ad3d 553e 2d3d 13dd 123d 19f3 a4bd
00000300: 5f90 7b3d 313c 0b3d cc07 fabc ca89 3abd
00000310: 100d dd3c efbb 52bd e2d1 1d3d 90a9 943d
00000320: ec42 80bd 7783 72bd 9d83 21bd 126e a6bd
00000330: ec58 32bc 7625 723d 1f82 113d 9891 fabc
00000340: a80e 41bc 5610 29bd e5ea 9cbd 3c39 d4bc
00000350: 52a5 d63b 4c28 45bd 67a1 91bd 2920 e33c
00000360: 7f11 653c 1ddd f1bc e8e6 d43c afa7 b33d
00000370: 83d5 a93b cd3a 85bd f090 173f 2a98 4a3d
00000380: ccdb 203e 0220 acbf 468c 18bf 484a 103e
00000390: e15f e23d ca7f 2b3e 1725 263e 058a 053d
000003a0: 5e10 473e a38b 12be b5f5 3b3c a91e 173c
000003b0: 9308 b53d 1e1e 0fbd 6eae 4c3d 5833 ec3b
000003c0: dcd3 8c3d aff8 a63c 1e8c 9fbc bc94 f83a
000003d0: fcb8 4b3e 90fe ae3c 2431 36bd 7a15 c9bd
000003e0: cb95 b8bc cf2b 74bd 9d81 84bd c445 c4bb
000003f0: 50d9 c03c 7116 b6bd 3141 95bd 3fd6 5a3d

_mean_net.0.bias f4 [64]
-0.025851905 -0.057648394 -0.08026157 0.063915476 -0.019812856 0.1511994 -0.066446625 -0.02056173
-0.1441345 -0.055433523 -0.025021939 0.1862514 0.13587876 -0.19996853 0.07668705 -0.06365845
0.1240223 -0.33672473 -0.06978702 0.25908014 0.0020542787 -0.15356217 -0.02043268 -0.14321321
0.08831943 0.03040407 0.07338196 0.07862281 -0.08182412 -0.18013354 -0.008431168 0.020968655
-0.2395752 0.06400133 0.25758073 0.15407887 0.089388065 0.024704913 -0.026299208 0.1209194
0.23960249 -0.038178984 0.09659903 -0.10374296 0.07331572 0.0757902 -0.09801072 0.13903625
0.27312458 -0.26464504 -0.08855753 -0.3014114 0.0050331997 -0.019444048 0.11922163 0.04375045
0.15033318 0.2513636 0.0011130684 0.13543054 -0.08559815 -0.0764562 -0.22707088 0.052778635
00000000: 60c7 d3bc b920 6cbd 2e60 a4bd 1ee6 823d
00000010: 924e a2bc 04d4 1a3e 2b15 88bd 1371 a8bc
00000020: ff97 13be 430e 63bd cffa ccbc b0b8 3e3e
00000030: cd23 0b3e 8dc4 4cbe 1a0e 9d3d 5d5f 82bd
00000040: 67ff fd3d 2f67 acbe 7fec 8ebd 27a6 843e
00000050: 14a1 063b 673f 1dbe 7062 a7bc 7ca6 12be
00000060: d1e0 b43d f511 f93c 4849 963d ff04 a13d
00000070: 6793 a7bd ed74 38be e222 0abc 75c6 ab3c
00000080: 3453 75be 2113 833d 9fe1 833e dac6 1d3e
00000090: 1711 b73d f561 ca3c 7071 d7bc 97a4 f73d
000000a0: 5b5a 753e 9161 1cbd b6d5 c53d 3077 d4bd
000000b0: 8d26 963d e437 9b3d d8b9 c8bd 855f 0e3e
000000c0: fcd6 8b3e 8e7f 87be a65d b5bd 9852 9abe
000000d0: 8aed a43b 2049 9fbc 782a f43d ac33 333d
000000e0: f1f0 193e bbb2 803e 61e4 913a 4eae 0a3e
000000f0: 154e afbd 1195 9cbd 4585 68be 692e 583d

_mean_net.2.weight f4 [32, 64]
-0.21893074 0.04184687 -0.20900159 0.13364157 -0.14651291 0.047256894 -0.036501154 0.20370209
0.38865757 0.14516014 -0.19738398 0.2168951 -0.12499251 -0.3802688 -0.10923427 0.12173191
0.0059705144 -0.10024414 -0.2164884 -0.2366822 -0.06527356 0.124651566 -0.11694182 -0.17367384
-0.16649488 0.43106928 0.44874114 0.10655171 0.12661964 -0.17185546 0.7352338 -0.023877945
-0.051208165 0.1642696 0.11839395 -0.055480253 0.26096272 -0.008309733 0.022933513 0.06836052
0.06740144 -0.008806385 0.1500359 0.12739955 0.05976122 -0.0022446997 -0.41729847 -0.082515374
-0.13683662 -0.17715837 -0.0021203912 -0.10307485 0.2289216 -0.09027565 0.33964953 0.23095913
-0.3190373 -0.10064421 0.12013312 0.26915038 -0.16089527 -0.023845376 -0.24190791 0.11842246
0.049908236 0.026776068 -0.042485945 0.018816594 -0.09951437 0.25653762 0.09352306 -0.07241712
0.11051842 0.048803553 0.02110548 -0.25135836 0.04581053 0.1869171 0.026682395 -0.051820137
-0.0582485 0.10936449 -0.11537863 -0.077073164 -0.27970287 -0.10342373 -0.047931712 0.010855896
-0.065083176 -0.059030987 -0.1298712 -0.010128446 0.12689516 0.16390714 0.049817633 -0.031325586
0.060594566 0.08061494 -0.1340576 0.13259298 0.012859254 0.15113103 0.28710034 -0.05017452
-0.00946059 0.10563486 -0.103524655 -0.072368465 0.0916951 0.22537643 0.00040783721 0.041182183
-0.1583059 0.12438743 0.2934046 -0.13712499 -0.1451528 -0.0057091936 -0.0010111064 -0.008239603
0.0034559628 0.054758407 -0.008407134 -0.055635545 -0.07172604 -0.06272293 -0.014898278 0.050430566
-0.24724627 0.03463633 -0.072912715 0.24336743 0.040146906 0.2131639 -0.21360093 0.04922698
-0.024484608 0.11031152 0.2529713 0.15208921 -0.014457754 0.16130614 0.10297219 -0.09780801
0.021383606 -0.14259496 -0.23796834 0.0072701783 -0.098622136 -0.12394332 -0.22898981 -0.13911088
0.12759589 0.120288275 0.17622785 0.18252578 -0.013791409 -0.128266 0.16607696 -0.028817961
-0.21674207 0.16841385 0.28719383 0.16909446 0.038131848 0.23137476 0.046958126 -0.06687194
0.019979008 -0.20765494 0.28769147 -0.030811666 0.049039748 0.16268353 -0.028584257 0.10975518
0.034218702 0.099062264 -0.2406626 -0.112758964 -0.025526272 -0.06498096 0.14487852 0.05900928
0.09493672 0.06234422 0.021870274 0.0403471 -0.06231934 -0.05445063 0.08127776 0.2655865
-0.043810345 0.14874648 -0.11048797 0.134734 0.059010454 -0.104737245 -0.24658944 0.1200059
-0.1390725 -0.051667627 0.11703304 0.1628667 0.14438716 -0.090962574 -0.08975624 -0.16667585
-0.14069645 0.106979124 0.004596967 0.08907899 -0.080429696 0.21864454 0.094827086 -0.014671426
-0.008828294 0.07626157 -0.12253 0.07754938 -0.014463041 -0.25289154 -0.19679165 -0.027112324
0.047950603 0.30826002 0.028220253 -0.01712606 0.13288108 0.028208513 0.15706843 0.23217471
0.07771825 -0.07499332 -0.1168457 -0.05817146 -0.05284477 -0.041811403 0.048149712 0.018023996
0.06402199 0.089192875 -0.039848868 -0.20664898 -0.021259869 0.034660112 -0.07128773 -0.119144164
-0.027524017 0.09328927 -0.01068454 0.06724308 -0.028784031 0.21956468 -0.21765067 -0.004477636
00000000: 612f 60be a067 2b3d 8304 56be 56d9 083e
00000010: 7b07 16be 7290 413d 3c82 15bd 4897 503e
00000020: 20fe c63e dca4 143e 071f 4abe c019 5e3e
00000030: 13fc ffbd 98b2 c2be 38b6 dfbd 944e f93d
00000040: 4ea4 c33b cd4c cdbd 23af 5dbe d25c 72be
00000050: 25ae 85bd 5249 ff3d 317f efbd 8ed7 31be
00000060: a27d 2abe 1db5 dc3e 66c1 e53e c837 da3d
00000070: 94a8 013e e1fa 2fbe 4838 3c3f ae9b c3bc
00000080: a7bf 51bd 4a36 283e 8778 f23d 433f 63bd
00000090: e89c 853e 8c25 08bc 10df bb3c 9a00 8c3d
000000a0: c409 8a3d a848 10bc 03a3 193e 0775 023e
000000b0: 2ec8 743d d01b 13bb 25a8 d5be d2fd a8bd
000000c0: e61e 0cbe 0169 35be 43f6 0abb e818 d3bd
000000d0: 6d6a 6a3e 71e2 b8bd 8be6 ad3e 8d80 6c3e
000000e0: db58 a3be 8d1e cebd 5a08 f63d 14ce 893e
000000f0: bbc1 24be 6157 c3bc b5b6 77be 7a87 f23d
00000100: 946c 4c3d 7c59 db3c be05 2ebd 4225 9a3c
00000110: 31ce cbbd e658 833e 0589 bf3d 6d4f 94bd
00000120: 7b57 e23d 3ce6 473d 66e5 ac3c 0bb2 80be
00000130: d3a3 3b3d 3267 3f3e 0a95 da3c 5a41 54bd
00000140: fb95 6ebd 7dfa df3d a24b ecbd 89d8 9dbd
00000150: 3735 8fbe d2cf d3bd 0b54 44bd eedc 313c
00000160: 544a 85bd 7aca 71bd f5fc 04be c8f1 25bc
00000170: cef0 013e 46d7 273e 930d 4c3d 424f 00bd
00000180: 0232 783d 7219 a53d 6546 09be 74c6 073e
00000190: 9faf 523c 18c2 1a3e d1fe 923e cc83 4dbd
000001a0: 9700 1bbc 1757 d83d bc04 d4bd eb35 94bd
000001b0: a4ca bb3d 14c9 663e fcd2 d539 a6ae 283d
000001c0: f11a 22be d6be fe3d 2139 963e 7e6a 0cbe
000001d0: f0a2 14be 3014 bbbb 1a87 84ba 66ff 06bc
000001e0: 6f7d 623b 5a4a 603d 13be 09bc 19e2 63bd
000001f0: 1ae5 92bd e174 80bd e817 74bc 4890 4e3d
00000200: 202e 7dbe d3de 0d3d 4353 95bd 5035 793e
00000210: 1571 243d a347 5a3e 34ba 5abe 3ba2 493d
00000220: f293 c8bc 02eb e13d 7485 813e 46bd 1b3e
00000230: 37e0 6cbc 702d 253e 15e3 d23d 914f c8bd
00000240: ac2c af3c 6a04 12be f9ad 73be ad3a ee3b
00000250: 67fa c9bd ffd5 fdbd 4e7c 6abe 1573 0ebe
00000260: 7fa8 023e b359 f63d 1375 343e 0ae8 3a3e
00000270: 5df5 61bc 2a58 03be 1410 2a3e a513 ecbc
00000280: a2f1 5dbe ae74 2c3e 120b 933e 1927 2d3e
00000290: 2430 1c3d 81ed 6c3e 2a57 403d 28f4 88bd
000002a0: 04ab a33c 7fa3 54be 4c4c 933e bf68 fcbc
000002b0: e7dd 483d 8396 263e 8829 eabc 53c7 e03d
000002c0: e928 0c3d 28e1 ca3d 4270 76be 2cee e6bd
000002d0: 791c d1bc bd14 85bd 095b 143e b7b3 713d
000002e0: 2f6e c23d a75c 7f3d 4a29 b33c 0043 253d
000002f0: 9042 7fbd a007 5fbd f474 a63d f4fa 873e
00000300: 7a72 33bd ff50 183e 8447 e2bd b6f7 093e
00000310: f2b4 713d 7b80 d6bd f181 7cbe a7c5 f53d
00000320: 0569 0ebe 6fa1 53bd 05af ef3d 87c6 263e
00000330: 3ada 133e 964a babd 1fd2 b7bd 13ad 2abe
00000340: bb12 10be df17 db3d 27a2 963b 0c6f b63d
00000350: 53b8 a4bd 5be4 5f3e b434 c23d 6c60 70bc
00000360: 8da4 10bc 072f 9c3d 02f1 fabd 36d2 9e3d
00000370: 64f6 6cbc 007b 81be c083 49be aa1a debc
00000380: da67 443d 42d4 9d3e 292e e73c f34b 8cbc
00000390: fa11 083e 8a15 e73c 8cd6 203e 35bf 6d3e
000003a0: bf2a 9f3d 1996 99bd cc4c efbd 3245 6ebd
000003b0: c273 58bd 6f42 2bbd a238 453d 0fa7 933c
000003c0: f61d 833d c1aa b63d 9138 23bd ca9b 53be
000003d0: 2d29 aebc c3f7 0d3d 4dff 91bd db01 f4bd
000003e0: 0c7a e1bc 720e bf3d 350e 2fbc bdb6 893d
000003f0: 7dcc ebbc 90d5 603e d1df 5ebe 22b9 92bb

_mean_net.2.bias f4 [32]
-0.093428254 0.12299257 0.09902191 0.06257666 0.062945895 -0.039275777 0.12274234 -0.0736415
0.04231046 0.19388567 -0.0025483225 0.06655098 0.03916822 -0.01892569 0.25881183 -0.06747091
0.059864435 -0.03687466 0.07328645 -0.18560368 -0.020655964 0.24195506 0.061078902 -0.13183904
-0.24997696 -0.22115679 -0.07352759 -0.09511306 0.07247009 -0.17262581 0.1224043 0.10426518
00000000: 5057 bfbd 87e3 fb3d 00cc ca3d 3128 803d
00000010: c7e9 803d a3df 20bd 5660 fb3d 5bd1 96bd
00000020: bc4d 2d3d f789 463e c201 27bb e14b 883d
00000030: db6e 203d 0c0a 9bbc fc82 843e 302e 8abd
00000040: 6934 753d e209 17bd 3517 963d e40e 3ebe
00000050: b236 a9bc 11c3 773e df2d 7a3d d000 07be
00000060: f6f9 7fbe ed76 62be a295 96bd a3ca c2bd
00000070: 336b 943d d2c4 30be 1baf fa3d fc88 d53d

_mean_net.4.weight f4 [8, 32]
-0.008714467 -0.072186776 -0.038474306 -0.039543845 0.091015466 0.08442269 0.039019052 0.044545613
-0.008854699 0.01992642 0.012000867 0.039419442 0.04520446 -0.019215614 0.08562506 0.048654463
-0.024340883 0.035486072 -0.00988794 0.04515024 -0.086634085 -0.12502137 -0.014410837 -0.09101327
0.11959712 0.050045963 -0.15594926 -0.05357875 0.022505388 -0.016146714 -0.026162004 -0.041526385
-0.12262256 -0.039696697 0.016486514 -0.02783818 0.21777552 0.041628297 -0.03946352 -0.04340891
0.008792329 0.052857887 -0.011320568 -0.05760776 -0.035911217 -0.011953719 0.008993585 0.060310673
-0.047986668 0.08088016 -0.12699802 0.13213721 0.0075963563 0.08368195 -0.0080004055 0.034906868
-0.13845606 0.021527909 -0.093614414 -0.09471291 0.066641204 0.20073302 -0.017325815 0.09597406
0.037702873 0.1495039 0.11147224 0.017260855 -0.017059771 -0.065459535 0.06287799 -0.13338423
-0.008235561 -0.047884863 0.015533534 0.12187223 -0.1167606 -0.012404924 0.105087236 -0.06104957
-0.047925126 -0.1528316 0.08201327 0.0060976655 -0.024254676 -0.018382885 0.0078271935 -0.022357643
-0.2473188 -0.124457836 0.021240227 -0.05174861 0.056419764 -0.1752345 0.12634599 -0.015645955
-0.12487526 -0.06714078 0.09533717 0.072231546 0.1320708 -0.08100304 0.09708354 0.15490289
0.0031895372 0.10873232 -0.031111786 -0.089391425 0.105791256 0.01669471 0.11687033 -0.09727225
-0.03610504 -0.031416748 0.049517732 0.07564215 0.06379579 0.055635672 0.0071183112 0.15391351
-0.06002946 0.043266322 0.03498064 -0.13773076 0.01772317 0.15403879 0.02076141 -0.10328124
0.053951114 -0.05444138 0.10463049 0.001036383 0.060577847 -0.04171087 0.04351999 -0.068478614
-0.0075828037 0.024714652 -0.04627961 -0.103151545 -0.023968205 -0.014720576 0.016623415 -0.107333854
0.07310603 -0.05533487 -0.038604923 0.13111722 -0.008634451 -0.08179116 0.009819591 -0.029035488
0.079671755 0.026656298 -0.033108108 0.042199355 -0.033024985 -0.0047529317 -0.10146025 -0.016574942
0.049029626 0.07967621 -0.014373107 -0.010929453 0.018729176 -0.06406361 0.021427894 0.10558599
0.0044905236 0.014852269 0.042476438 0.035143387 -0.043154452 -0.016481308 0.015231156 0.02132596
0.008133508 0.024314854 0.023916509 -0.021897646 0.054519746 -0.008253126 0.0031639654 -0.075122744
0.057222195 -0.025688859 -0.07571489 0.039347135 -0.015082579 -0.05009729 -0.03296555 0.05317373
-0.09358505 -0.059408337 -0.032295626 0.05821735 -0.07450876 -0.15203929 0.055636406 -0.08325865
-0.0006101298 0.08880537 -0.004287039 0.09873786 -0.04108113 -0.05803976 0.05302776 0.09209562
-0.113055214 0.10963576 -0.09463475 0.034611266 0.0044344813 -0.066433094 0.0013151711 0.02036009
0.078905866 0.023623057 0.06986348 0.1426767 -0.0024360248 0.12835999 0.02615036 0.01530085
-0.009117824 0.048328683 -0.022528261 0.07753691 -0.02540589 -0.021533458 0.08160071 0.0148517
0.018001426 -0.02987337 -0.0247849 -0.1058958 0.0064554373 -0.017480334 -0.015489542 0.057358474
0.04132114 -0.010459108 0.070627585 -0.09154872 -0.044879217 0.015369795 0.0064120833 -0.12047256
-0.003353933 -0.001544322 -0.095539436 -0.013046578 -0.06007964 -0.045913264 0.056248046 0.06640382
00000000: 20c7 0ebc a9d6 93bd 3c97 1dbd baf8 21bd
00000010: 5166 ba3d cee5 ac3d 71d2 1f3d 7675 363d
00000020: 4d13 11bc bb3c a33c 499f 443c 4876 213d
00000030: 5028 393d 106a 9dbc 315c af3d e749 473d
00000040: 8866 c7bc d859 113d 0701 22bc 75ef 383d
00000050: 366d b1bd 9a05 00be 6e1b 6cbc 2a65 babd
00000060: 56ef f43d fffc 4c3d 2ab1 1fbe 6475 5bbd
00000070: 385d b83c 1d46 84bc b351 d6bc 9217 2abd
00000080: 8921 fbbd 0199 22bd ba0e 873c e50c e4bc
00000090: 8c00 5f3e 6f82 2a3d 80a4 21bd 8bcd 31bd
000000a0: b30d 103c 8381 583d e779 39bc 1df6 6bbd
000000b0: a417 13bd 88d9 43bc d459 133c 5308 773d
000000c0: ab8d 44bd 7fa4 a53d c50b 02be fa4e 073e
000000d0: dbea f83b 7161 ab3d 2214 03bc 81fa 0e3d
000000e0: 6dc7 0dbe 4c5b b03c eab8 bfbd d8f8 c1bd
000000f0: 2f7b 883d f58c 4d3e deee 8dbc 0c8e c43d
00000100: 546e 1a3d 8d17 193e 8f4b e43d a366 8d3c
00000110: efc0 8bbc a60f 86bd 2dc6 803d e095 08be
00000120: 72ee 06bc eb22 44bd 5d80 7e3c 2698 f93d
00000130: 2e20 efbd 063e 4bbc fa37 d73d 1d0f 7abd
00000140: 234d 44bd e37f 1cbe 93f6 a73d edce c73b
00000150: beb1 c6bc b497 96bc a13d 003c 6027 b7bc
00000160: 2441 7dbe c0e3 febd fcff ad3c 5af6 53bd
00000170: 6918 673d ac70 33be d860 013e f22b 80bc
00000180: 9abe ffbd 1b81 89bd 2240 c33d 22ee 933d
00000190: 913d 073e ece4 a5bd bcd3 c63d dd9e 1e3e
000001a0: 8e07 513b 0daf de3d 25de febc da12 b7bd
000001b0: 16a9 d83d 58c3 883c b659 ef3d ac36 c7bd
000001c0: e1e2 13bd d9ae 00bd 1bd3 4a3d 46ea 9a3d
000001d0: 5ea7 823d 3be2 633d b940 e93b 819b 1d3e
000001e0: 73e1 75bd 0738 313d dc47 0f3d 4b09 0dbe
000001f0: 2e30 913c 58bc 1d3e d513 aa3c 1d85 d3bd
00000200: d8fb 5c3d edfd 5ebd 8348 d63d 3ed7 873a
00000210: 7a20 783d 04d9 2abd 0442 323d 843e 8cbd
00000220: 2b79 f8bb 6276 ca3c b08f 3dbd 1e41 d3bd
00000230: f858 c4bc 922e 71bc d42d 883c dad1 dbbd
00000240: 9db8 953d d1a6 62bd 3220 1ebd 9843 063e
00000250: 8377 0dbc 2082 a7bd 5ae2 203c d5db edbc
00000260: f22a a33d 4f5e da3c 5e9c 07bd 3bd9 2c3d
00000270: 3545 07bd 7bbe 9bbb 64ca cfbd 2cc8 87bc
00000280: 4ad3 483d 482d a33d 2e7d 6bbc 7311 33bc
00000290: ee6d 993c c833 83bd 8d89 af3c 783d d83d
000002a0: 3e25 933b ee56 733c c6fb 2d3d 83f2 0f3d
000002b0: b9c2 30bd cf03 87bc 198c 793c c8b3 ae3c
000002c0: 6842 053c f22f c73c 8eec c33c b162 b3bc
000002d0: 1950 5f3d 1f38 07bc 885a 4f3b f4d9 99bd
000002e0: d261 6a3d 7171 d2bc 6910 9bbd 762a 213d
000002f0: ec1c 77bc d132 4dbd e206 07bd b2cc 593d
00000300: 85a9 bfbd 2856 73bd 6b48 04bd 5175 6e3d
00000310: 0c98 98bd 30b0 1bbe 00e3 633d 8383 aabd
00000320: 1ef1 1fba 97df b53d 4a7a 8cbb 1337 ca3d
00000330: b044 28bd 19bb 6dbd a333 593d a19c bc3d
00000340: 7e89 e7bd b788 e03d ddcf c1bd 8bc4 0d3d
00000350: 204f 913b 130e 88bd d261 ac3a 34ca a63c
00000360: 6699 a13d 2485 c13c 9614 8f3d d719 123e
00000370: b7a5 1fbb cd70 033e 4839 d63c 6bb0 7a3c
00000380: ed62 15bc 4cf4 453d 308d b8bc accb 9e3d
00000390: 0320 d0bc ef66 b0bc 461e a73d 8b54 733c
000003a0: ba77 933c ffb8 f4bc b409 cbbc e6df d8bd
000003b0: 2288 d33b eb32 8fbc d9c7 7dbc b8f0 6a3d
000003c0: 5b40 293d ae5c 2bbc 32a5 903d e57d bbbd
000003d0: 45d3 37bd 98d1 7b3c 741c d23b 51ba f6bd
000003e0: a9cd 5bbb d96a caba 2eaa c3bd 50c1 55bc
000003f0: 1216 76bd 8c0f 3cbd 5a64 663d bafe 873d

_mean_net.4.bias f4 [8]
-0.017050082 -0.19486108 0.086933166 0.038992178 0.058556568 0.14130886 -0.0817785 0.20676267
00000000: 9dac 8bbc aa89 47be 040a b23d 43b6 1f3d
00000010: 03d9 6f3d 45b3 103e 7c7b a7bd 98b9 533e
