run_logs/q2_dagger_humanoid/policy_itr_3.pt (torch, 110267 bytes, 7 tensors)

_logstd f4 [17]
000000 d4 79 93 bf 50 7d b3 bf 5c 87 80 bf 6f 2b 8d bf
       -1.1521554 -1.4022617 -1.0041308 -1.102888
000010 ed 88 93 bf a4 47 71 bf b9 ad 71 bf 31 9c 8f bf
       -1.1526161 -0.9424994 -0.94405705 -1.1219541
000020 e3 17 83 bf d4 02 89 bf e5 a6 7b bf 2a bf b3 bf
       -1.0241665 -1.0703988 -0.98301536 -1.4042714
000030 f0 89 b2 bf a9 91 ff bf 7b 51 c1 bf 82 b2 d3 bf
       -1.3948345 -1.9966327 -1.5102991 -1.6538851
000040 eb ed f9 bf
       -1.9525732

_mean_net.0.weight f4 [64, 376]
000000 ca 8c 07 bd 0d 10 3c 3d c6 a8 4c bf 30 25 23 c0
       -0.03309325 0.045913745 -0.7994503 -2.5491447
000010 99 4b 48 bf 0a 1c c6 bd 2c 23 d2 3f 60 31 21 bf
       -0.7824035 -0.09673317 1.6416984 -0.62965965
000020 20 ac 8b 3c 83 4e 18 c0 eb a2 49 be 26 52 82 bf
       0.017049849 -2.379792 -0.19691055 -1.018132
000030 8b 26 e7 be ae 9d c8 bf b1 f4 31 3f 7a 1a da 3a
       -0.45146593 -1.567312 0.69513994 0.0016639971
000040 0c bd df 3f cd 68 0f 3f 83 59 e5 bc b8 1b 81 3e
       1.7479568 0.5601929 -0.027996784 0.2521646
000050 a8 29 91 3e a7 c6 4c 3d e4 00 49 3d 0f d7 83 be
       0.28352094 0.049994137 0.049073115 -0.25750014
000060 95 0c 85 bf a8 72 48 bd 02 a8 47 be 11 7a c4 be
       -1.0394465 -0.04893747 -0.19497684 -0.3837438
000070 51 3d 9c be 49 a3 e0 bd 90 fe 10 bc 8b a5 04 3e
       -0.3051553 -0.10968644 -0.008849755 0.12953775
000080 4a cf b0 3d 95 9e da 3c 4b 97 a4 bc 0c 79 ca 3d
       0.08633287 0.026686946 -0.020091673 0.09886369
000090 34 73 be 3d 89 4e ab bd 77 e1 2d bc 19 21 e0 3d
       0.09299317 -0.08364589 -0.010612837 0.10943813
0000a0 8e 90 da bd 9a 32 3d bd a3 c9 ef 3c 9f 4e 22 3e
       -0.10672103 -0.046190836 0.029270953 0.15850304
0000b0 4c 7e d0 bd eb 27 d9 3c 73 41 e0 bc 3c 80 78 3c
       -0.10180339 0.026508292 -0.027374959 0.015167292
0000c0 8c fb 73 bc e0 44 b9 bb 32 14 4b bd 12 6d c9 bc
       -0.014891516 -0.0056539625 -0.049579807 -0.024588142
0000d0 26 3f e5 3c c3 62 4d bc 8e 66 52 3d 1a 5c 64 bd
       0.027984213 -0.012535754 0.051367335 -0.055751897
0000e0 90 49 5a be 40 6d 0c 3f d1 5f 3e c0 c3 1f 9b 3f
       -0.21317124 0.548542 -2.9745982 1.2119068
0000f0 7d 16 38 3e af f5 14 bf db 1b d6 3e 26 8e d8 bc
       0.17977329 -0.58187383 0.41818127 -0.02643497
000100 96 79 1e 3d 62 23 1a be 2c 44 30 3e bf a8 ee 3f
       0.038690172 -0.1505256 0.17213506 1.8645247
000110 08 77 0a c0 8c 62 2f bf 9c 74 6b 3f 0d 86 81 3f
       -2.163515 -0.68509746 0.91974807 1.0119034
000120 74 62 c9 be 29 7c d7 bd 7e 1e ad 3d c7 8e 2b 3f
       -0.39332926 -0.105217285 0.084530815 0.67014736
000130 e7 23 99 3f a8 58 b1 3f 64 17 83 3f fb 35 d6 3d
       1.1964082 1.3855181 1.0241513 0.10459515
000140 f7 40 3b 40 fc 56 0c 40 1d b3 cb bf fa 20 c6 be
       2.9258401 2.192809 -1.5914036 -0.38697034
000150 4d 79 c8 3d 68 13 bc 3e c2 a5 f5 3b b9 1f 80 3f
       0.09788761 0.36733556 0.0074965665 1.0009681
000160 2c 38 31 40 84 64 28 40 bf 3c e0 be 69 a3 0f 40
       2.7690535 2.631135 -0.43796346 2.2443488
000170 27 1e 14 bf d8 65 1a bd f3 72 07 3d ac b9 85 bd
       -0.5785851 -0.037694782 0.03306861 -0.06529555
000180 29 d3 1b be e7 51 cc 3d 79 6c bd 3e b5 08 80 3f
       -0.1521727 0.09976559 0.3699682 1.0002657
000190 13 a2 c3 3e df 0f e1 3e 68 c6 03 3e ab 7c 10 3d
       0.3820959 0.4395742 0.12868655 0.035275143
0001a0 80 56 0c 3d 4a 5b 8c be b7 4d 2a be 5e 79 a5 3e
       0.03426218 -0.27413398 -0.16631208 0.32319158
0001b0 f0 89 21 3f b7 f9 0f 3f 4e 18 64 3f ac ab 22 3d
       0.631011 0.5624041 0.89099586 0.0397145
0001c0 25 6e 56 3f 65 81 96 3d 26 a5 97 3d ae 65 bf be
       0.8376182 0.07348899 0.074045464 -0.37382263
0001d0 b9 6b 89 3e 6e 22 0b 3e 13 ec 44 bf 10 88 76 3e
       0.26839998 0.13587353 -0.7692272 0.24075341
0001e0 e6 15 93 bf e3 f4 b9 3f 57 7c 53 bf 29 c1 38 bd
       -1.1491058 1.4527858 -0.826116 -0.045106087
0001f0 26 b9 c2 3d 67 3e f7 be 45 27 5c be c8 d6 9a 3f
       0.095079705 -0.48289797 -0.21499355 1.2096796
000200 06 78 dd be e6 97 fc be e1 50 cd bf e8 87 1a bf
       -0.43255633 -0.4933464 -1.6040307 -0.60363626
000210 ba e6 90 bf f7 be 81 3e af 43 cc 3d f8 3d f9 be
       -1.1320412 0.25341007 0.09973847 -0.4868009
000220 83 75 69 be 0d 15 d2 3f 51 c0 26 bf b9 f3 29 bf
       -0.22798733 1.6412674 -0.651372 -0.66387516
000230 9c 52 cd bf 2d 83 71 bf 86 b3 85 bf 5e c0 ae 3e
       -1.6040835 -0.94340783 -1.0445411 0.3413114
000240 8e 20 ab 3d fa f3 30 bf 4d 22 fd be 25 74 b3 be
       0.08355819 -0.6912228 -0.49440232 -0.3504955
000250 6c 89 f9 bf c2 f0 ee 3f 44 c1 76 bf fa e4 57 bf
       -1.9495063 1.8667223 -0.9638865 -0.84333766
000260 19 e7 e5 3e 9e 12 b4 be 1a ff 9a 3c 5d e2 b5 be
       0.44902876 -0.35170454 0.01892047 -0.35524264
000270 c3 43 f5 be a6 ff 0f bf 01 e7 2d c0 02 98 60 40
       -0.4790326 -0.56249464 -2.7172244 3.5092778
000280 a1 82 9c bf 60 2b a7 bf e9 6b ef 3e 28 28 ce be
       -1.2227365 -1.3060112 0.46762016 -0.40265012
000290 82 91 27 3d c3 cc a9 3e ce 96 21 be ea 4b 68 3f
       0.04091025 0.33164033 -0.15780184 0.90740836
0002a0 0f 2d bd bf 24 11 9d bf c3 e7 52 bf e2 0d 50 3f
       -1.4779376 -1.2270856 -0.8238489 0.81271183
0002b0 25 6b 74 3f c6 95 8e 3c 73 db f3 3d 40 c9 9c 3f
       0.9547599 0.017405402 0.11907091 1.2248917
0002c0 cf af 67 bd 79 13 36 3f 7a c1 3b 3f 16 c5 86 bf
       -0.05656415 0.7112346 0.73342097 -1.0528896
0002d0 50 3e dd bf c9 71 4f be eb c2 d6 3f 7f 88 96 3e
       -1.7284641 -0.2025825 1.6778234 0.29401013
0002e0 f5 a1 0c 3d ed 1a 42 3d ff 9d 36 bd 73 a7 24 bd
       0.03433414 0.04738896 -0.04458427 -0.040198755
0002f0 3f 87 e5 ba a7 6f e4 bc 2e 2a 97 3c 83 84 e1 bd
       -0.001751162 -0.027885271 0.01845273 -0.11011603
000300 77 65 87 3d e8 70 3e 3e 33 90 c0 3c 2a f2 1c 3f
       0.0661115 0.18597758 0.02350626 0.61307013
000310 01 7b 0f bf 62 ec 09 be 66 c3 fd bd 62 d1 5f 3d
       -0.56047064 -0.13469079 -0.12390785 0.054643042
000320 93 bb 12 bd 98 d6 9d be be 9f 77 be d9 89 f1 3c
       -0.035823416 -0.30827785 -0.2418203 0.029484676
000330 ab d8 1a 3d e7 d4 c4 3d 14 99 f7 bd 49 b9 5c 3c
       0.037804287 0.096109204 -0.12089744 0.01347191
000340 1c 92 a7 bd b0 1a 62 3e 93 3d dc bc 80 f4 31 3e
       -0.08182165 0.22080493 -0.02688483 0.17378426
000350 1a 4f 98 bc 2f 8b 10 3f 78 cf 5e 3e e1 08 c8 bd
       -0.018592406 0.5646238 0.2175883 -0.097673185
000360 b1 65 2e 3e b4 32 22 be 78 1b 41 be 52 8e 56 3c
       0.1703098 -0.15839654 -0.18858135 0.013095455
000370 8e 12 0d 3e 36 85 bf bd ab a6 bb 3d e0 49 21 be
       0.1377661 -0.0935158 0.09162649 -0.15750837
000380 ce b6 13 be 19 31 8e bd 3e 32 29 3e 41 73 35 3e
       -0.14425203 -0.069429584 0.16523072 0.17719747
000390 f5 d2 8b 3d 97 a4 cf 3d ef 96 88 3d f6 65 c6 3e
       0.06827346 0.10138815 0.06669413 0.38749665
0003a0 01 f5 af 3d db 75 08 be 01 fc 66 bc b4 6e 5b 3c
       0.08591653 -0.13326208 -0.014098168 0.013393093
0003b0 43 c1 92 3d 42 e1 a8 be 3e 2e c2 bc 08 1d 27 be
       0.07165768 -0.32984358 -0.02370369 -0.16319668
0003c0 e7 56 10 bd e4 38 72 bb 2e 7d 04 3e df ff ba be
       -0.035239127 -0.003696018 0.12938377 -0.3652334
0003d0 c6 4b a8 bd ea f5 b5 be 93 15 8e be 0f e6 0d 3e
       -0.08217578 -0.3553918 -0.27750835 0.13857292
0003e0 4d 8c f3 bc 00 e8 4e 3f 6b 1f 15 bd 51 1c 34 bd
       -0.029729987 0.80822754 -0.036406916 -0.043972317
0003f0 be bd 27 3d 9f fc 45 3d d5 db f8 bd 4a 01 40 3c
       0.040952437 0.04833662 -0.12151305 0.011719057

_mean_net.0.bias f4 [64]
000000 48 c2 87 3d 0a 4c 24 be 85 cb 22 3b af 5f 23 be
       0.06628853 -0.16044632 0.0024840545 -0.15954469
000010 29 e1 61 3d 58 ae bf 3d b7 80 7f 3c 57 9b 08 3e
       0.05514637 0.09359425 0.015594653 0.13340507
000020 77 ff a7 bd 7a cb a6 3e 2c 68 b8 be e5 96 32 be
       -0.08203023 0.32577115 -0.36016977 -0.17440374
000030 68 46 81 3d 62 77 0e 3f f0 8b 95 3d 46 b8 82 be
       0.06312257 0.55650914 0.073020816 -0.25531214
000040 68 62 c5 3d a9 cc a0 bd 6c 7a 02 be d7 77 91 be
       0.0963791 -0.07851536 -0.12742013 -0.28411743
000050 06 97 86 be 2e 4d 5e 3d ed b2 5c 3b 67 52 d3 be
       -0.26287097 0.054272823 0.0033675984 -0.41273805
000060 dd 35 e5 bb 08 d0 27 3e 48 a8 16 be d4 73 e3 be
       -0.0069949464 0.16387951 -0.14712632 -0.44424307
000070 3c c1 24 3e bc f0 b3 3c 06 30 4c 3c 6b 36 22 3d
       0.16089338 0.021965377 0.012462622 0.03960268
000080 f8 64 93 be 59 eb 58 3d bc 08 40 3c 64 69 ab bd
       -0.2878797 0.05295882 0.011720832 -0.08369711
000090 39 e9 96 3d 7e da 36 3d 6f 40 1c be d8 18 3f be
       0.073687024 0.044641964 -0.15258954 -0.18661821
0000a0 e7 51 68 3e 88 f1 22 bc f0 7a ca ba c5 0c a8 3e
       0.22687493 -0.009945281 -0.0015448015 0.32822242
0000b0 4d dd 50 3c 44 db c7 be d9 7b 80 3e e8 1c 2d bd
       0.012748075 -0.39034474 0.25094488 -0.042263895
0000c0 6f 4a 97 3c 6f da 18 bd fd 8e 1a bd b4 ba 3b be
       0.01846811 -0.03731769 -0.03773402 -0.1833294
0000d0 c4 b5 56 3d ad b6 b8 3e 8d 37 61 3d 2b 6b 8f 3e
       0.05241944 0.3607687 0.054984618 0.2801145
0000e0 11 38 99 be 16 e7 56 ba d9 fc 10 bd 4d c7 86 3c
       -0.29925588 -0.00081978866 -0.035397384 0.016452456
0000f0 02 87 23 3d c6 21 16 3d eb 06 58 bc fb 14 46 be
       0.039923675 0.036653303 -0.013185243 -0.19343941

_mean_net.2.weight f4 [32, 64]
000000 79 51 e0 3c 62 16 27 3e b3 8e 2d 3e 31 a9 7b be
       0.0273826 0.16317132 0.16948967 -0.2457626
000010 f9 c0 02 bf af 92 0f be 9b a3 24 3e bb c8 3f be
       -0.510757 -0.14020799 0.16078036 -0.18728916
000020 6c 49 70 3e 22 9a 31 bd bc df 92 be 88 a9 10 3d
       0.23465508 -0.043359883 -0.2868632 0.035317928
000030 9f e6 14 3c 88 02 eb be e8 77 23 be 36 e2 bd be
       0.0090881875 -0.4590037 -0.1596371 -0.37086648
000040 9c db 88 be 33 14 8b 3d 12 51 60 3e ff c1 1e 3e
       -0.2673005 0.06790962 0.21905926 0.15503691
000050 48 90 8f 3d 53 46 3d bd 71 e6 14 3e 2a e9 f4 be
       0.07009941 -0.046209645 0.14541031 -0.4783414
000060 d2 9c bf bd 8b 08 b9 3e 90 92 1a 3e 74 3c d4 3e
       -0.09356083 0.3613933 0.15094972 0.41452372
000070 cf 44 a3 3b a3 6c 06 3d 8c f9 d3 3d 49 dc 03 bf
       0.004982568 0.032818448 0.10350332 -0.51508003
000080 f0 84 fd 3d 82 77 0f 3e 4d 85 d4 bd d9 fb f4 3c
       0.123788714 0.14010432 -0.103769876 0.029905247
000090 2d fb 3e be fa b6 c3 bd 4d 80 02 be cd 5c 39 be
       -0.18650503 -0.095563844 -0.12744255 -0.18101807
0000a0 49 8b a1 be 47 04 7d 3e 21 ef 06 bf 8c b0 5c be
       -0.3155158 0.24708663 -0.5270863 -0.21551722
0000b0 16 6f 3e be 5c da 81 be e4 4e ee bd 78 9f 2a 3d
       -0.18597063 -0.25361907 -0.11636141 0.041655988
0000c0 bd be 45 be 1b d7 a8 3c 14 33 32 be 78 a9 87 3d
       -0.19311042 0.020610383 -0.17402297 0.066241205
0000d0 15 db 2a 3e 9e 94 9e be c5 6f 85 3d 6c d0 3b 3e
       0.16685136 -0.3097276 0.06515459 0.18341225
0000e0 af d4 8a be 25 1d 60 be 8c 5e b8 3c bb c2 30 be
       -0.2711539 -0.21886118 0.022506021 -0.17261784
0000f0 19 12 8c bd 72 b8 8f 3e cb d8 2e 3d 01 10 55 3e
       -0.06839389 0.28070408 0.04268722 0.20806886
000100 75 a1 34 3d 2c 19 a7 bd 58 34 4c 3d d9 2e 06 be
       0.04409929 -0.08159098 0.049854606 -0.13103808
000110 e7 8c 2b 3e e0 6a 88 3d 40 ef 08 bd 11 3e ca 3d
       0.16752969 0.0666101 -0.03343129 0.098751195
000120 76 54 a6 be 70 63 17 be f1 f2 8f bd c2 f7 f8 3d
       -0.32486314 -0.14784026 -0.07028759 0.12156631
000130 7d fe a2 bd 57 0e a6 bd e9 d8 59 bd db 9b b5 3d
       -0.07958696 -0.08108204 -0.053185377 0.08867618
000140 9c 00 81 3b e5 63 05 3e a6 60 c6 bb f4 73 0a 3e
       0.00393684 0.13026388 -0.006054002 0.13520795
000150 79 3c e8 3d c6 f2 0c 3e 13 de 69 bc 96 d2 fc 3d
       0.11339659 0.13764486 -0.014274138 0.123448536
000160 4c 64 9e 3d 6b 6c 21 3e e5 11 4d 3d cc f6 f3 3e
       0.07733974 0.15764014 0.050065894 0.4764923
000170 6b 7d a7 3d 3e 37 22 bd 33 fe 35 be d5 96 f6 bd
       0.081782185 -0.039603464 -0.1777275 -0.12040488
000180 35 0f 0a be b6 0b c9 3c 28 99 21 bd 4e 11 a2 3d
       -0.13482364 0.024541717 -0.0394527 0.07913457
000190 7e 66 6f bd ee be 19 bd f2 c9 f8 3d e4 15 c3 bd
       -0.058447354 -0.0375356 0.12147893 -0.0952566
0001a0 38 41 b8 3d 54 b6 29 be 11 3a 64 3e 7a bc b7 bd
       0.089968145 -0.16573459 0.22287776 -0.08971496
0001b0 05 79 92 bd d7 c8 0e 3e 23 cb 95 bd d5 eb 50 bd
       -0.07151989 0.13943802 -0.07314136 -0.051006157
0001c0 4d 97 10 bd cc ff 71 3d 25 6a 7e 3d 4f 47 8d 3c
       -0.03530054 0.059081838 0.062112946 0.017245917
0001d0 3b 5e bb bb 4c 4b b6 3b 1b 7f 4a bd 69 f3 0c 3e
       -0.0057180203 0.0055631753 -0.049437623 0.13764729
0001e0 3b 6c e2 3d 6c b1 a6 3d 08 9a 19 3d 07 d2 44 3e
       0.110557996 0.08139309 0.03750041 0.19220744
0001f0 60 33 5a bd f0 41 df bc cd c0 a6 bd 65 52 9e bd
       -0.05327165 -0.027253121 -0.081422426 -0.07730559
000200 e7 17 0d be e9 99 17 3e 73 d6 38 3e 24 36 48 bc
       -0.1377865 0.14804806 0.18050556 -0.012219939
000210 64 59 e2 bd 35 09 02 be 57 0f c3 3e a1 0e 11 3e
       -0.11052206 -0.12698825 0.3809764 0.14165737
000220 08 54 16 3e 40 1f 53 be 3b 5c ed bd 0f e9 33 be
       0.14680493 -0.2061739 -0.11589857 -0.17569374
000230 6f 71 b4 bb d5 2f 52 be aa dc 40 3d db 42 8f 3d
       -0.0055066864 -0.20526059 0.04708544 0.069951735
000240 94 e5 73 bd 63 70 3c bd 16 16 b6 3d 57 ad 8f bc
       -0.059545115 -0.046005618 0.08890931 -0.01753871
000250 b4 f6 e5 3d 05 12 98 3b b3 8a 63 bc f2 e7 7c 3d
       0.112286955 0.00464082 -0.013888049 0.061744638
000260 20 78 1e bc ba 8f fc bd e3 8b 88 3e 22 50 e4 be
       -0.009672195 -0.12332101 0.26669225 -0.44592386
000270 f2 26 3b 3d 58 30 7d 3c 96 92 fa bd 0d a0 84 bc
       0.045691438 0.015453421 -0.1223499 -0.0161896
000280 a3 46 af 3d 08 7f 45 3e c4 ff d9 bd 78 cf 81 bd
       0.08558395 0.1928674 -0.106444865 -0.063384
000290 3e 12 30 bc 30 03 c7 bc 30 26 e2 bd 55 7b a2 bd
       -0.010746537 -0.024293512 -0.1104244 -0.0793368
0002a0 e8 18 70 3d 19 bd 68 3d e7 50 60 be 0c 3d 70 3d
       0.058617502 0.056820963 -0.21905862 0.05865197
0002b0 a0 23 a0 3d 46 f7 af bd 5c cb 2b be 76 c0 28 3d
       0.07819295 -0.085920855 -0.16776794 0.04119917
0002c0 71 67 0b be 48 f4 94 be b1 76 1f be 87 00 44 be
       -0.13613679 -0.29092622 -0.15572621 -0.19140826
0002d0 ee ba da bd af fb 12 3c 8b fc 03 be b1 de 79 be
       -0.10680185 0.008971139 -0.12889306 -0.24401356
0002e0 62 90 ed 3d ec 29 b4 bc bb e0 30 39 90 bf 64 3d
       0.115998045 -0.021992646 0.00016868387 0.05584675
0002f0 be 11 b7 bd 22 02 13 3e c9 68 0b 3e dd f1 68 3d
       -0.08938931 0.14356282 0.13614191 0.056871284
000300 5d 08 c3 bc 76 ff 9c bd 91 a2 28 3e 27 c4 de bd
       -0.023807699 -0.07665913 0.16468264 -0.10877257
000310 13 3b d9 be 2a c6 55 bb 4f 2e 90 be 73 f6 14 3d
       -0.42427883 -0.0032619336 -0.2816033 0.036367845
000320 ed 2a 59 3d c8 10 58 3d 33 f3 d5 3e 7a aa 46 3c
       0.053019453 0.05275038 0.4178711 0.012125606
000330 c5 78 c4 bc fc 11 4b 3e fe 47 9d 3c db 77 1c be
       -0.023983369 0.19831079 0.019199368 -0.15280096
000340 cf a1 84 bd 42 48 28 3e f2 97 15 3d d6 88 06 bd
       -0.06476175 0.16433814 0.03652186 -0.03284534
000350 11 40 04 be f1 ab 0b bd 6a 45 99 3b 77 4e 22 be
       -0.12915064 -0.034099523 0.0046774643 -0.15850244
000360 9a 44 66 be 02 f0 75 3c ed af c9 3d 31 69 55 be
       -0.22487107 0.015010836 0.09848008 -0.20840909
000370 dd 78 9f bb f1 10 15 bd 23 88 99 bd b3 4d 1b bd
       -0.004866703 -0.03639311 -0.07496669 -0.037915897
000380 4a c1 84 3d 58 20 a0 bd b0 b6 59 3d 5e ab eb 3d
       0.064821795 -0.07818669 0.05315274 0.11507295
000390 0e 31 52 be 2f f9 29 bb d1 e6 1b 3e 56 4b 60 3d
       -0.20526525 -0.0025935879 0.15224768 0.054759346
0003a0 ea 48 5a be 3d 2b 50 bd e9 d9 13 ba a9 ea 9f 3c
       -0.21316877 -0.050822485 -0.0005640076 0.019521074
0003b0 e5 0a 63 bd dd a4 85 be 4f e5 31 3e e4 31 a7 3d
       -0.05543031 -0.26102343 0.1737263 0.08163813
0003c0 bd e4 64 be 69 1e 5a 3e ad d6 a1 be e3 06 48 3e
       -0.22352882 0.21300663 -0.31609097 0.19533877
0003d0 d2 54 12 3c 57 ef 99 bd c8 af f3 3c a1 e1 9d 3c
       0.008931356 -0.075163536 0.029746905 0.019272627
0003e0 56 63 01 be 4d 54 a3 bd 46 48 93 bc 51 83 4a 3d
       -0.1263555 -0.079750635 -0.017978799 0.04944164
0003f0 61 ff e5 bd b2 da cd be 86 bd 1e 3d c4 86 a8 bd
       -0.1123035 -0.40205914 0.038754962 -0.082288295

_mean_net.2.bias f4 [32]
000000 09 f2 9b 3e 76 82 cc bd 45 2d 15 be ee 33 27 be
       0.30458096 -0.09985821 -0.1456805 -0.16328403
000010 64 78 d9 3e 22 c0 ab 3e f2 fa 23 be 90 28 3a 3e
       0.42474663 0.33545023 -0.16013697 0.18179536
000020 6e b7 33 3e d4 d2 d6 3e 3b 05 b4 bd a5 e5 ad bd
       0.17550442 0.41957724 -0.0879006 -0.08491067
000030 25 13 10 3f f6 28 17 be 10 2d 5f bd 6f c3 95 be
       0.5627921 -0.14761719 -0.054486334 -0.29250666
000040 4e 86 8e 3e 7c ee 48 bd b1 a2 1a bf 48 46 67 be
       0.2783684 -0.04905556 -0.604045 -0.22585404
000050 51 f7 92 3d 6c e2 82 be 09 fe 81 3e df 8c 84 3e
       0.07176078 -0.2556337 0.25389126 0.25888726
000060 4b cf 94 bd 3a eb cc bd ef 58 e9 be 79 c0 08 3f
       -0.072661005 -0.100058034 -0.45575663 0.5341869
000070 9b f3 66 3e 91 e5 97 bb bc ce 1d be 2a 62 7b be
       0.22553866 -0.0046355207 -0.15410894 -0.24549165

_mean_net.4.weight f4 [17, 32]
000000 18 1e 0e be cb f4 1b 3e b9 a3 f4 3c ec 9e 9d be
       -0.13878667 0.152301 0.029863225 -0.3078531
000010 35 81 16 bf 22 f8 1f ba f1 7e c4 be 9b 7b 14 bf
       -0.58790904 -0.00061023433 -0.383781 -0.58001107
000020 f0 38 ba 3d 67 d7 11 3e af ab 6b bd 29 81 a0 3e
       0.09092891 0.14242326 -0.057536777 0.3134854
000030 28 26 b6 be ba 14 96 3e 75 73 c2 be 6d ff cd be
       -0.35575986 0.29312688 -0.37978712 -0.40233937
000040 52 eb 0f bf 01 ef 1c 3f 9f 77 e8 3d 83 93 e0 3d
       -0.56218445 0.6130219 0.11350941 0.10965636
000050 43 81 0d be 2d 3f 8f bd 56 c2 41 3f 38 9e f2 be
       -0.1381884 -0.06994472 0.7568716 -0.47386336
000060 e1 2c 92 3d 81 90 86 ba 70 17 31 3e fb b8 00 3e
       0.07137466 -0.0010266454 0.17294097 0.12570564
000070 5f fc 18 be 4a 78 1a bf 9a 29 23 be 7b 96 af 3e
       -0.14940022 -0.60339797 -0.15933838 0.34294495
000080 32 7e 02 3d 6d 1a ea 3e 08 14 96 be b7 82 bc 3e
       0.03185863 0.45723286 -0.29312158 0.36818478
000090 db ad 76 3e b1 ee 23 be 12 bb f4 be b4 16 f6 be
       0.24089758 -0.16009022 -0.47798973 -0.48064196
0000a0 6f b1 ae 3d c7 2f 99 3e 23 6f 8c be 32 9d 33 be
       0.085299365 0.29919264 -0.2742854 -0.17540434
0000b0 56 77 8d 3e 5e 74 44 be df 95 1f be 57 6c 40 3e
       0.2763011 -0.19185016 -0.15584515 0.18791328
0000c0 9b d6 f5 bd 03 75 f1 be 2d a1 92 be e9 2d 93 be
       -0.12003823 -0.47159585 -0.28638592 -0.28745964
0000d0 6c 49 28 be e6 3f 84 3d da dd 5b be 9a ef 41 3e
       -0.16434258 0.064575 -0.21471348 0.18939057
0000e0 ba 17 09 3e fb 8b 8d be 52 d2 64 3e 65 a8 a7 3e
       0.13387957 -0.2764586 0.22345856 0.32745662
0000f0 c3 e8 d9 be 31 21 d4 be 22 8c 03 3e ac 0a 73 3e
       -0.42560396 -0.41431573 0.12846425 0.2373454
000100 17 1a 7b 3c 82 6b 0a be c9 ea be be 43 86 f6 be
       0.0153260445 -0.13517573 -0.37288502 -0.4814931
000110 77 d7 21 be f3 58 fe bd 26 87 29 be 42 30 17 3f
       -0.1580485 -0.124193095 -0.16555461 0.5905801
000120 3d 3c 4c 3c d1 d7 ac 3e ae 69 1a bf b4 1f 67 3e
       0.012465534 0.33758405 -0.60317504 0.22570688
000130 04 bb 08 bf 6f 54 54 3f 15 11 8f 3e e8 e8 b9 3e
       -0.53410363 0.82941335 0.2794272 0.36310506
000140 1b 26 fd bd 68 ef 7a be 24 36 9e 3c 22 ae 3f 3e
       -0.12360784 -0.24505389 0.019312926 0.1871877
000150 2f cb f4 3d 52 38 14 3e 42 82 91 3e 7c 8b c7 3e
       0.11952817 0.1447461 0.2841969 0.38973606
000160 1f f9 7e bf b9 44 e2 be b5 10 71 be ca 25 02 be
       -0.9959888 -0.44193056 -0.2354153 -0.12709728
000170 f8 c0 7e be 00 0e 8d 3c 8a 39 57 3e a7 c5 13 3f
       -0.24878299 0.01721859 0.21018043 0.5772347
000180 fc f1 92 3d 43 0b c8 bc 8e 95 d5 bc d9 a0 49 be
       0.07175061 -0.024419433 -0.02607229 -0.19690265
000190 53 27 9e be a9 a1 9c 3e dd 11 18 3e 9d bd 30 be
       -0.30889377 0.30592087 0.14850564 -0.17259832
0001a0 ad 77 6a 3e e1 0e 71 bd 68 41 38 bf f5 6d d4 be
       0.22897215 -0.05885208 -0.719748 -0.4149014
0001b0 9c 71 15 3f b6 da 26 be fd 78 a7 be f4 86 15 3e
       0.5837648 -0.16294369 -0.32709494 0.14602262
0001c0 b3 60 7c 3e 40 a0 dd be 0c f3 3d bd 16 29 5c be
       0.24646263 -0.43286324 -0.046374366 -0.21500048
0001d0 72 7f b4 3c 99 54 8f be f1 aa 8f 3e 7f c1 f8 3e
       0.022033427 -0.2799423 0.28060105 0.48585126
0001e0 86 3f 39 3e 6c 2b 24 3e 61 fb b2 be 72 f4 27 3f
       0.18090639 0.16032189 -0.34957412 0.6560737
0001f0 1e 36 00 3e 4d 08 4b 3e ed 22 98 be 72 55 f9 be
       0.12520644 0.19827385 -0.29714146 -0.48698002
000200 76 3c 72 bb 2a 71 fc be c6 f1 22 bf ec b6 7f 3e
       -0.0036962307 -0.49305087 -0.63650167 0.24972123
000210 c7 6e b1 3e df c3 27 bf de 86 b5 be 9b 88 e1 3c
       0.3465483 -0.6553325 -0.35454458 0.027530959
000220 cd 86 af be 44 57 3b be 65 cd 87 3e 62 a7 20 be
       -0.34282532 -0.18295008 0.2652389 -0.15688851
000230 f1 7f 2d 3e 9f 3c 0d bf de 32 65 3e 10 dc 4c be
       0.16943337 -0.55170625 0.22382686 -0.20005822
000240 af 8e ec 3d c9 a4 34 3e 1f 9a 81 3e a5 bf 9e 3e
       0.11550652 0.17640986 0.25312898 0.31005588
000250 4c 08 d3 bc f5 b7 3d be 84 8a 40 be a6 2a 84 be
       -0.025760792 -0.18527205 -0.1880284 -0.25813788
000260 f0 ca 0a bd 63 52 4b be 6e 63 a7 3d 5a 0c f4 be
       -0.033884943 -0.19855647 0.081732616 -0.47665673
000270 79 d9 86 be 74 89 99 be bd e5 41 3e c3 27 34 3f
       -0.26337793 -0.2998768 0.18935294 0.7037317
000280 66 d2 c5 be d1 75 4f bc ad d9 14 be e8 d0 58 bf
       -0.38637084 -0.012662367 -0.14536162 -0.84693766
000290 29 40 29 be 41 56 4b bd 20 3d 00 3f b7 f9 af bc
       -0.16528381 -0.049642805 0.5009327 -0.021481378
0002a0 36 2d 8b 3e 53 59 07 3e 4c 87 7a 3e 21 1c 37 3e
       0.2718293 0.13217668 0.24465674 0.17881824
0002b0 e1 a4 0c bd bc c2 59 bd c7 9c 03 3e f9 0a 52 bf
       -0.03433693 -0.05316423 0.12852775 -0.8204799
0002c0 be 49 9c be a7 c5 8b 3e c5 5c 47 3f 75 e7 3f 3f
       -0.3052501 0.27299234 0.7787593 0.7496255
0002d0 f5 0a a9 3e fe 77 17 3e 72 94 8a be dd 4d 80 3e
       0.33016172 0.14791867 -0.2706638 0.25059405
0002e0 25 eb f9 bc a6 99 1c bd a9 6c 7c be 2e 79 68 3e
       -0.030507633 -0.038232468 -0.24650826 0.22702476
0002f0 90 cd ac 3d fe 38 0c bf 1a fb a0 be 15 a6 47 3e
       0.084376454 -0.54774463 -0.31441575 0.19496949
000300 e8 7d 9e be d1 bd 16 3f a1 75 01 bf 51 70 40 bd
       -0.30955434 0.58883387 -0.5057011 -0.046982113
000310 c6 6d 4a 3e b1 5b 7e 3d 09 31 e3 bc 1c e6 5b 3e
       0.19768438 0.062099162 -0.027733343 0.21474499
000320 38 5b 8c bf 6f fa ed bc 1b d1 d9 3d 31 e8 e5 be
       -1.0965338 -0.02905008 0.10635587 -0.4490371
000330 b9 fb e3 3e d5 45 bc 3d 7f e8 00 bd 2e ea c0 3d
       0.44527987 0.09193007 -0.031471726 0.09419666
000340 4d 86 c1 3c d8 fa e8 3d 2a 4c 58 3e 50 f8 08 3f
       0.02362361 0.1137597 0.21122804 0.53503895
000350 90 7f 85 3d 9f 89 8d bd 91 6c 16 3f 39 a0 48 be
       0.06518471 -0.06911015 0.5875941 -0.1959237
000360 07 da e3 be d5 1f 84 3e 22 34 3b bf 81 da 8e be
       -0.4450228 0.25805536 -0.73126423 -0.2790108
000370 be a9 58 3e 69 f7 11 3d 05 fc 26 3e 94 1f 81 be
       0.21158502 0.03563634 0.16307075 -0.25219405
000380 2e b8 c4 bd c8 cc 69 be f9 b8 db 3e 5e cc 23 bd
       -0.09605442 -0.22832024 0.4291456 -0.03998982
000390 e6 61 c2 be d4 57 bf bd 18 29 ce 3e 8d 1e ad 3e
       -0.37965316 -0.09342924 0.40265727 0.3381237
0003a0 ff fc 81 3e 78 c2 82 be 04 d5 da be f7 62 0e be
       0.25388333 -0.25538993 -0.42740643 -0.1390494
0003b0 05 71 b2 3d ec c9 b5 3e 97 58 81 be b5 23 05 be
       0.08712963 0.35505617 -0.252629 -0.13001902
0003c0 6b 89 ba 3e b2 48 2f 3e 34 ad ad be 95 c8 19 3e
       0.36432967 0.17117575 -0.33921206 0.15017922
0003d0 0b f9 8d 3c f0 9f dc be b4 bb 4a be 7c 95 97 3d
       0.017330667 -0.43090773 -0.19798166 0.07401559
0003e0 5b 9c 9f be 45 2a 07 3f 4c da 90 3d 4c 15 f7 bd
       -0.31173977 0.52798873 0.07072887 -0.12064609
0003f0 aa 53 12 3e d8 1d c2 3e ee ea a9 3d 5f 5d 97 bb
       0.14289728 0.37913394 0.082967624 -0.004619285

_mean_net.4.bias f4 [17]
000000 b0 ac bd 3d b4 c9 88 bc 8c ad a0 3e 3e 1d 80 be
       0.09261453 -0.016697742 0.31382406 -0.2502231
000010 7b 6f 31 3e d0 97 7d 3f 30 e5 92 3e a0 bf bc bc
       0.17327683 0.9905977 0.2869048 -0.023040593
000020 6d 3d d9 bb f0 03 0a 3d 40 3b 65 3e e2 d4 3c bd
       -0.006629637 0.03369516 0.22385883 -0.04610146
000030 00 0a a9 bd 0a 26 5f be f0 fb a1 3e 14 3f 19 3f
       -0.082538605 -0.21791855 0.31637526 0.59861875
000040 76 6a 6d be
       -0.23185143
