run_logs/q2_dagger_humanoid/policy_itr_15.pt (torch, 110342 bytes, 7 tensors)

_logstd f4 [17]
00000000: b0b5 a2bf 4369 b1bf c42f 8fbf d654 8fbf
00000010: 5014 91bf d072 7bbf a5c5 85bf 5475 93bf
00000020: 6a55 8bbf 3a7f 87bf a702 8bbf 1018 c6bf
00000030: 72c6 b2bf 6167 01c0 cd42 c4bf fb84 d2bf
00000040: 5715 febf
-1.2711697 -1.3860248 -1.1186452 -1.1197765 -1.1334324 -0.98222065 -1.0450941 -1.1520181
-1.0885441 -1.0585701 -1.0860184 -1.5476093 -1.3966811 -2.0219347 -1.5332886 -1.6446832
-1.9850262

_mean_net.0.weight f4 [64, 376]
00000000: 3106 46bf 8edd 5c3d b369 6ebf 6c8a 25c0
00000010: 634d b9be 2fe6 c2be f789 42be cc6b bf3d
00000020: f1a8 2c3e 53c6 cabf 3a0e fa3e 44e6 80bf
00000030: 4f9c a33e a244 a6be 6cfa 77bf b0bc b83e
00000040: 1a28 f23e 2581 803d 9ee6 b63d 6044 583e
00000050: 5e8c 973e a792 a03c cb2a 2e3d d7db 0a3e
00000060: 54e6 9fbb d019 33be 77a0 a3bd 92db 5dbd
00000070: c7de 2ebd 5026 05bd 68a4 8cb9 2bdf f13c
00000080: d5a8 84bd 8abf e33c 5ef3 e2bb f15c d8bb
00000090: ef85 233d 86dd 683b 67d3 efbb b81a 86bd
000000a0: ddbb 86bc 934d ddbc 2bba edbb 0581 553c
000000b0: 223a d73c eb27 d93c 7341 e0bc 3c80 783c
000000c0: 8cfb 73bc e044 b9bb 3214 4bbd 126d c9bc
000000d0: 263f e53c c362 4dbc 8e66 523d be12 8a3a
000000e0: 3f64 88bd 6941 c6be ad73 57c0 254f 103f
000000f0: a746 e53b 9c9a 913e da68 8c3d 3f4a 143d
00000100: 9fbc 9f3d b48b 9bbe 4a0b 133e 5cc2 1040
00000110: b964 b7c0 fb8e 41be 9f56 50c0 75fc 673f
00000120: 623e 2040 846e 25be 4e9e fd3d 0b88 0abf
00000130: de1b 1e40 4f90 e13f 3447 0d41 0bb5 a93f
00000140: d99b f73f 868f 8d3f 406a 753f c596 60bd
00000150: 7c7c 0c3e 2487 993f f7b2 4f3e ec92 72bf
00000160: 2231 fe3d c76d ab3f 502f 61bf 513b 943e
00000170: cbd0 25bf 6573 eabe 3739 943d 9c62 133e
00000180: 3bd7 b7be f05f 17c0 5399 3ebf 062e c83f
00000190: 91e6 11bf 82f8 11bf b1f3 16be 469a 56be
000001a0: 03ab 963d 4ff0 f0be d44c aebe a453 85bf
000001b0: fbf4 a53f 5a13 a83f cdcc 883d ff73 1fbf
000001c0: 747b 7f3f 6d75 843c fb24 e83d 50e6 93bf
000001d0: 0229 bbbe 11b0 69be 0a43 0040 e85b 123e
000001e0: 0bc0 09c0 b847 aa3f 4fad 84bf d079 9e3e
000001f0: 749c 093e ac6f 4ebf 840e 13bf 1463 9f3f
00000200: 2609 3c40 cb3d 383f 82ea a3bf 1238 5f3e
00000210: fe7a 92be 1fba b73e a361 0e3e e984 21bf
00000220: 6764 dfbe c869 ab3f 730b 3b40 cede 1d3e
00000230: eb13 71bd 632e 9ebe 4b95 bc3f 3fec 873e
00000240: 63a0 fb3d 6059 95bf cf92 d8bd f084 c6bf
00000250: 1de4 2c40 8ffb 583f 6f59 76bf 2e15 493e
00000260: f639 d13e 9082 45be 057f 6e3d f9c7 41bf
00000270: b7cd 89be 6298 b4bf 2dcd 9a3f 089b b53e
00000280: b3ab 09bf b58d 30bf 697b 96bd ed9a 223f
00000290: 9148 a43d 6e28 193e f7d0 4dbe 823f ce3f
000002a0: 4d58 00c0 e76e ccbc 3051 71be 4cdd 753e
000002b0: b941 0c3f 0e3a ddbd a62d 223e d20f 113f
000002c0: bd1a 8f3e e2cc e33e c2bc 83bf c023 c4be
000002d0: 6dbc 82bf 91d1 bfbd b10b 633f 9786 cebd
000002e0: c9d0 963d ed1a 423d ff9d 36bd 73a7 24bd
000002f0: 3f87 e5ba a76f e4bc 2e2a 973c ffcd dbbb
00000300: 7967 fabd cd4e 72bc 4239 04bd 2f99 c53c
00000310: 2f2c 90be e4d2 b8bd b905 ddbb f26a 32bd
00000320: f570 8a3b 00c5 34be 882c d7be a5d3 2d3d
00000330: d130 9f3c f94a 0a3d 85e9 29be 1f2b 0a3e
00000340: 0d84 a5be c090 7f3d a98a 27bc a692 3038
00000350: 1159 2cbe e36d 183e 2064 783e 6d82 df3b
00000360: 1375 8f3d 9556 b63b 2bca 4abd 454d a73d
00000370: 673a a3bc b5de 333c b47c 0dbc 4171 d33b
00000380: 68ba a9bb e8c5 5aba 290c f73b 7928 1d3b
00000390: 569a 3b3c 601b cf3c 3f93 903d 5f41 773e
000003a0: 20ac a7be 7895 08bd cdeb d83a e5f4 e03b
000003b0: a179 08bc 7ea1 3dbd 39ad b83b 2399 81bd
000003c0: c2a0 9fbc 9282 27bc 0d54 4a3d 804b a7bd
000003d0: c66a 58bd 1818 53bd 47d9 01be e986 753d
000003e0: 10b8 27be 80cb 043d 7897 a8bc 8e30 adbc
000003f0: c78f 263d 25cc 7bbc b9a1 eebd 1c24 853e
-0.773532 0.05392223 -0.93130034 -2.5865736 -0.36191854 -0.3806624 -0.18997942 0.093467325
0.16861321 -1.5841774 0.4883898 -1.0070271 0.31955191 -0.32474238 -0.9686649 0.36081457
0.4729622 0.06274632 0.089307055 0.21119833 0.2959928 0.01960118 0.04252128 0.13560425
-0.004879752 -0.17490315 -0.079895906 -0.054164477 -0.042692926 -0.03250724 -0.00026825373 0.02952536
-0.06477515 0.027801294 -0.0069259843 -0.0066028764 0.03992265 0.003553243 -0.0073189023 -0.06548065
-0.016447002 -0.02701453 -0.007254859 0.013031249 0.026272837 0.026508292 -0.027374959 0.015167292
-0.014891516 -0.0056539625 -0.049579807 -0.024588142 0.027984213 -0.012535754 0.051367335 0.001053415
-0.066597454 -0.3872178 -3.3664353 0.56370765 0.006996948 0.2843827 0.06855936 0.03620362
0.077996485 -0.30380023 0.14359775 2.2618628 -5.7310452 -0.18902199 -3.255287 0.90619594
2.5038075 -0.1615544 0.1238371 -0.54113835 2.4704509 1.7622164 8.829884 1.3258375
1.9344436 1.1059425 0.9586525 -0.054831285 0.13719362 1.1994367 0.20283113 -0.94755435
0.12411715 1.3392876 -0.8796282 0.28951505 -0.6477172 -0.45791164 0.07237475 0.14393085
-0.35906395 -2.3652306 -0.74452704 1.5639045 -0.5699244 -0.5701982 -0.14741398 -0.20957288
0.07356837 -0.4705834 -0.3404299 -1.041615 1.2965387 1.3130906 0.06679688 -0.6228637
0.9979775 0.016169274 0.113351785 -1.1554661 -0.36554724 -0.2282107 2.0040917 0.14292872
-2.1523464 1.3303137 -1.036539 0.3095231 0.13438588 -0.8063915 -0.57444024 1.2452111
2.9380584 0.7196929 -1.2805941 0.21798733 -0.2860946 0.35884187 0.13904433 -0.6309343
-0.43631288 1.3391657 2.9225738 0.15417024 -0.058856886 -0.30894765 1.4733061 0.2654743
0.12286451 -1.16679 -0.105748765 -1.5509319 2.701423 0.8475885 -0.96230215 0.19636986
0.40864533 -0.19288087 0.058226604 -0.7569576 -0.2691476 -1.4109004 1.2093865 0.35469842
-0.5377762 -0.6896623 -0.07347757 0.6351765 0.080216534 0.14956829 -0.20099245 1.6113131
-2.0053895 -0.024955226 -0.23566127 0.240102 0.54787785 -0.10802089 0.15837726 0.56664765
0.27950087 0.4449225 -1.0291979 -0.38308525 -1.0213753 -0.093661435 0.88689715 -0.10084265
0.07364041 0.04738896 -0.04458427 -0.040198755 -0.001751162 -0.027885271 0.01845273 -0.0067079063
-0.12226767 -0.014789295 -0.032281168 0.024120895 -0.2815871 -0.09024599 -0.006745067 -0.043559022
0.0042248913 -0.17653275 -0.42026162 0.042438168 0.019432457 0.033762906 -0.16592987 0.13493012
-0.3232731 0.062393904 -0.01022593 4.2098247e-05 -0.16830851 0.14885668 0.24256945 0.006820968
0.07004752 0.0055645206 -0.04950921 0.08169035 -0.01992531 0.01097839 -0.008635689 0.00645271
-0.005179692 -0.00083455304 0.0075392914 0.0023980422 0.011450371 0.025281608 0.07059335 0.24146031
-0.32748508 -0.03334567 0.0016549766 0.006865131 -0.00832978 -0.04629659 0.005635884 -0.06328037
-0.019485835 -0.0102240015 0.049396563 -0.08168697 -0.052836202 -0.05153665 -0.12680541 0.059943113
-0.16378808 0.032420635 -0.020580038 -0.021141317 0.04066446 -0.015368496 -0.1165194 0.26004112

_mean_net.0.bias f4 [64]
00000000: 1a42 d83d 43a0 4ebe da21 453b 366e cbbe
00000010: f799 1c3d ef21 f53d 12e2 553d 26b0 cd3e
00000020: 4cd8 cabd 0c20 643e 5445 b1be ae61 6dbe
00000030: 8172 5ebd 2311 ce3f d8d3 153e 4149 8ebe
00000040: 3764 a23e 9a4c 813d 90dc 81be cec8 bfbe
00000050: 3039 67be 77c6 a83d 6f68 4d3d fed9 7ebf
00000060: b7c4 27bd 8407 623e e387 03bf 8030 92bf
00000070: 3315 e83b d70a f23d a4dd 2fbd 5c28 143c
00000080: cf84 05bf 34b4 0b3e 8676 7a3d 04a5 cebd
00000090: 3879 873b dfdc a83d 8565 54bd 7827 95be
000000a0: 2db7 b73e c097 bbbd 35dc 57bd 6c98 853e
000000b0: 0d0f abbd 4bf0 81bf 3283 163f 8d0f 3bbd
000000c0: c438 e7bc 89da 35bd e01d ecba 5a29 efbe
000000d0: 16e5 e63d c58a 233f 65ae ec3d ded4 2c3f
000000e0: 6b77 87be c34d 32bd 72b7 4cbd a950 20be
000000f0: c271 963c e756 02bc 9629 bcbd 9022 25be
0.10559483 -0.20178322 0.0030079992 -0.39732522 0.03823277 0.11969363 0.05221755 0.40173453
-0.099045366 0.2227785 -0.34623206 -0.23181793 -0.05430842 1.609898 0.14631593 -0.27790263
0.31717083 0.06313439 -0.25363588 -0.3745789 -0.22580409 0.08240979 0.050148424 -0.9955138
-0.040959086 0.2207318 -0.5137922 -1.1421051 0.0070826053 0.11818474 -0.042935982 0.009042826
-0.52155775 0.13642961 0.06114819 -0.10090068 0.0041343234 0.08245253 -0.05185463 -0.29131675
0.3588194 -0.091598034 -0.05270024 0.2609285 -0.0835248 -1.0151457 0.5879394 -0.045669127
-0.02822531 -0.044397864 -0.0018014275 -0.46711236 0.112741634 0.6388362 0.115567006 0.6751231
-0.26458296 -0.04353119 -0.049979635 -0.1565577 0.01836479 -0.007955289 -0.091876194 -0.16126466

_mean_net.2.weight f4 [32, 64]
00000000: 263e a43d 46a8 c83c 2095 f93d d818 5dbd
00000010: 7945 8abd 41d2 1a3d ee0c 853e 2d24 dfbd
00000020: 13f6 2c3e cd34 5fbd ba9d e4bc fc9b 3bbe
00000030: 90b9 4e3c 14fd 06bf 037a 97bd 167e f3bd
00000040: 16dc 423c 416c 4f3b 49a8 4e3d 0cab 2f3b
00000050: 4372 af3d e60b ed3c 4d1e 383e f592 693c
00000060: 5890 afbc 60b6 3d3e 6080 5a3e 98bd 023e
00000070: c58d 99bc 0fa1 a1bb 214c 2c3d 085d 02be
00000080: d9df a6bb 5674 353e da96 bcba 2055 cabd
00000090: 3dc4 a5bd d7b2 5dbd 1813 42be 3398 b2bd
000000a0: 07e1 63bd 6324 553e e95c 21be 926a 0bbd
000000b0: 2961 f33d 91f1 94be a6bb fabd def6 92bc
000000c0: 799a dbbd 49d6 74bd 7ac8 2fbe 8c18 eb3d
000000d0: afbc 98bd 40c3 893d d98c 3e3d 013d 3dbd
000000e0: 4b14 eeba 5365 53be 13ca 7f3d ccba 0dbe
000000f0: 841d b9bd 7761 af3e 39bb ef3c 10c1 473d
00000100: 9519 483d 8008 97bc 2ae0 93bd 94c1 b5bd
00000110: 4be3 ff3d 16e0 40bd 1b8e 2dbd 25c8 f7bb
00000120: ba0b f0bd 674d 73bd 82fa 2cbe adca 9c3d
00000130: 90f8 48be eb59 f8be 5f01 0e3d aa42 90bd
00000140: 24dc 373d 78e1 01be 930e 98bd e03d a73d
00000150: 8a4f 8b3e ad97 483d d3d1 8fbd b177 953d
00000160: bf10 0cbe da1a be3e ddb5 0fbd e419 2c3f
00000170: 80cc 723d 2ce5 7d3d bf9a cbbd bd44 123e
00000180: 6aff 2dbe 375a c23d 83a5 3fbe fe12 473e
00000190: d2de 5b3d 58ec 983c fe5f 513e c4ad 8a3c
000001a0: c1fb 993d d7ec 2e3c d11d 503d c129 59bd
000001b0: 4d60 863d 744b babd da77 bd3c 9aa9 dabd
000001c0: f245 86bd a281 c23d 62d7 013e d153 a1bd
000001d0: 4720 4eba 3499 1c3c f560 a5bd e663 55bc
000001e0: ccd9 8d3d 4b51 a23e b1cf 82bd a573 a1bb
000001f0: cf37 dabd 2118 c1bd 37ab 1d3d d91e 0bbe
00000200: 7673 6bb9 548e 5b3d c5f3 7c3e c6c4 b43d
00000210: eff6 33bd fa45 0bbd a6b9 1a3e 7f46 ef3c
00000220: 0f17 203e d215 8f3d c686 4e3c 3522 9a3d
00000230: 5448 8a3d 0fcf 923d 8eec cb3c b08f 1dbc
00000240: 812f 7a3c 4d84 25bd 79a7 5d3d a8e3 e03c
00000250: 0b99 1f3e e813 383c 9adf 91bc 3f18 4bb9
00000260: 3a1b ad3d 0a1a dfbc a0b8 2a3d d495 08bf
00000270: 45b8 8fbc d0c6 0bbe 397a 63bd d040 a5bd
00000280: 2d7e 17bc 0ab6 3cbd 022b 993d 76a1 cebb
00000290: ef78 863d 2f9f 32be b5d2 79bd c74b 873d
000002a0: da4e 01bb 0e84 58bc d041 35bb d065 8cbd
000002b0: d4f7 ce3d 0b4a 5f3e ffb8 293c a61b 6bbc
000002c0: 7df8 05be ab0c a5be ab23 f7bd a717 eabd
000002d0: 5191 173d d6ec 82bd becc e6bd ecfb 19bd
000002e0: 4e43 183c 24e3 173e 96f1 78bd 2c37 083c
000002f0: d7e0 6cbd dc1d c03d 4112 adb8 5c18 92bc
00000300: c876 7abe 1d24 94bd b7f5 15bd 1334 06bd
00000310: 0110 b5be 8b91 e73b 33b0 9abe 95c6 f8bd
00000320: 20ca c03c 5adc 913d 85fb 873e d3bc 0e3e
00000330: c183 23bb ec5a 13be e1d7 08bd 4b73 873d
00000340: c193 2fbd d81c ae3d 7b0b e83c 7cee 4bbc
00000350: 6e7a ecbd 6fdd d93d 80f2 7d3e 7407 91bd
00000360: c046 44be 733a 0abe a245 79bc 0f75 a8be
00000370: 4666 0ebd cdba 87bd 7e75 623b 440f 1bbd
00000380: b1f0 b73d 2882 45bd 3f20 c53c ce8d 99bb
00000390: 3fb7 c0be 4a29 9f3d 6422 063d 7551 7dbc
000003a0: 44fc 2dbe e01a 8ebd fb96 f8bd 8280 03bd
000003b0: 1134 b3bd ca3f debe 586c 13bb 6abf 1d3d
000003c0: aec5 8cbd 749c 3a3e 3bc5 70bd 5abf 983d
000003d0: 8b6d 263d 5ae1 5b3d 8d36 5abc 33b3 463c
000003e0: affc db3c 7448 e9bd a9f4 033d f1cc 89bc
000003f0: e3f1 bbbd 722c efbd 0b60 053d ab02 8e3d
0.080196664 0.024494302 0.121866465 -0.05397877 -0.06751532 0.03779817 0.25986427 -0.10895572
0.16890745 -0.054493714 -0.027907241 -0.18321222 0.012617484 -0.52729917 -0.07396319 -0.11889283
0.011893293 0.0031650218 0.050453458 0.0026804833 0.085667156 0.028936338 0.17980309 0.014256229
-0.021431133 0.18526602 0.21338034 0.12767637 -0.018744359 -0.0049325298 0.04206479 -0.12730801
-0.0050926027 0.1772016 -0.0014388219 -0.098795176 -0.0809407 -0.054125633 -0.18952596 -0.08720436
-0.055634525 0.20814662 -0.15758099 -0.03403718 0.11883766 -0.2909055 -0.12242822 -0.017939981
-0.10722823 -0.05977467 -0.1716632 0.11479291 -0.074578635 0.06726694 0.04652104 -0.046200756
-0.0018164007 -0.20644121 0.062448572 -0.13840789 -0.09038833 0.34254047 0.02926408 0.048768103
0.048852522 -0.01843667 -0.0722049 -0.08874813 0.124945246 -0.047088705 -0.04237185 -0.007561701
-0.11720987 -0.05939999 -0.16892436 0.07655845 -0.19626069 -0.48506102 0.034669276 -0.07043965
0.044887677 -0.12683666 -0.07424655 0.081660986 0.2720912 0.048972774 -0.07022443 0.0729822
-0.13678263 0.3712986 -0.035085548 0.67227006 0.059277058 0.061986133 -0.09941625 0.14284034
-0.16991964 0.09489863 -0.18715481 0.19440839 0.053679295 0.018667385 0.20446774 0.016928561
0.07518721 0.010676584 0.050809685 -0.053018335 0.06561337 -0.09096423 0.023128439 -0.1067688
-0.0655631 0.09497382 0.12679818 -0.07877315 -0.0007863086 0.009558011 -0.08075134 -0.013024306
0.06926307 0.31702647 -0.0638727 -0.004927116 -0.10655176 -0.0942843 0.03849336 -0.13585986
-0.00022454359 0.05360253 0.24702366 0.08826594 -0.043936666 -0.03400228 0.15109882 0.02920842
0.15633796 0.06986584 0.012605375 0.07526056 0.06752077 0.071683995 0.024893072 -0.009616777
0.015270115 -0.040409375 0.054114792 0.027452305 0.15585725 0.011235215 -0.017806817 -0.00019368621
0.08452459 -0.027234096 0.04167998 -0.5335362 -0.017543921 -0.1365006 -0.055536482 -0.08069003
-0.009246391 -0.046072043 0.07478906 -0.0063058687 0.06566035 -0.17443536 -0.06099196 0.0660625
-0.0019730837 -0.013215078 -0.0027657636 -0.06855357 0.10105863 0.21805589 0.010359048 -0.014349854
-0.13083072 -0.32236227 -0.1206735 -0.114302926 0.03700382 -0.06392829 -0.1126952 -0.037593767
0.00929339 0.14832741 -0.06077727 0.008313935 -0.05783161 0.09380695 -8.252683e-05 -0.017833881
-0.24459374 -0.072334506 -0.036611285 -0.032764506 -0.35363773 0.0070669106 -0.30212554 -0.121472515
0.02353388 0.07122107 0.26559082 0.13939218 -0.0024950358 -0.14390153 -0.033409003 0.06613787
-0.04286552 0.08501595 0.028325787 -0.012446996 -0.11546789 0.10637938 0.24799538 -0.070815
-0.19167614 -0.13498859 -0.015214356 -0.3290181 -0.034765504 -0.06627426 0.0034554894 -0.037856355
0.08981455 -0.04821983 0.024063228 -0.004686094 -0.37639806 0.07771547 0.03274764 -0.015461315
-0.16990763 -0.0693872 -0.12138172 -0.032104976 -0.08750165 -0.43408042 -0.0022494998 0.038512625
-0.06873642 0.18223745 -0.058781844 0.074583724 0.040631812 0.05368171 -0.01331867 0.012127685
0.026853887 -0.113907725 0.032215748 -0.016821356 -0.091769956 -0.11678399 0.032562297 0.069341026

_mean_net.2.bias f4 [32]
00000000: 54f1 ee3e b9f1 09bf ae47 2cbe d3d2 77bd
00000010: c07a 9e3e b14b fe3e 83db 0abe b859 9c3e
00000020: 1b8b 1c3e 3657 c03b 9de5 473e 2e62 edbd
00000030: 2f54 603f de68 83be b414 83be f79a b1be
00000040: f12a 8a3e adcf b83c 1df4 9ebe 725d 043d
00000050: e133 21bd 63af 08be 877d d93e a1fd 603e
00000060: fd23 d93b fa50 a7be ec39 02bf 48c8 4e3e
00000070: 77a9 0e3f 437c 02be b0de 6dbe aebb 69be
0.46668494 -0.53884465 -0.16824219 -0.060503792 0.30953026 0.49667123 -0.135603 0.305372
0.1528744 0.0058697714 0.19521184 -0.11590992 0.87628454 -0.25665945 -0.25601733 -0.3468854
0.26985887 0.022559965 -0.3104562 0.03231568 -0.039356116 -0.13348155 0.42478582 0.21971752
0.0066266046 -0.32678968 -0.5086963 0.20193589 0.5572733 -0.12742715 -0.2322948 -0.228255

_mean_net.4.weight f4 [17, 32]
00000000: 6c13 27be 064f 3b3e f159 39be 1fa5 22be
00000010: 5bc9 bdbe e3f0 80be ccd9 e4bd a73e 46bf
00000020: 78d5 1a3e e159 b43c 3ffb 23bf 80e6 043d
00000030: 748f 81be e228 b33e e028 c0bd 4c39 ebbe
00000040: 9a9e 58bd 978d 9e3e 42fb d6bc c174 843e
00000050: 30b1 35bd 4112 21bf 424e 613f 804c 4abf
00000060: cce3 a5bd 6771 93be e82a 903e 2d5b 1dbe
00000070: 93e6 2bbe a4d7 aabe 0bc3 18bf a774 203c
00000080: 06ea 99be 9e14 753e 4b7c 8cbe 7d0e 133f
00000090: 1e10 1d3e ff4e b6bc 6188 8abe b4ce 00be
000000a0: 1451 0fbe 878f 4a3e 2d55 0abf 3e9a f4be
000000b0: d69b 193c b015 bfbe 54ec 06be f5df b63d
000000c0: be7f 65be 0a3a 13bf 3b9d cebe ec51 13bf
000000d0: 71ed 88be 0eb0 e1bd b1ae a33a 19b8 a3bd
000000e0: 3c99 743e 7306 83be 81f9 123c fb99 e33e
000000f0: 0cd5 c4be 52dc 413d da7f 2e3e 0c4f 243e
00000100: f2d1 a63e 7084 83be a7d4 2dbf cd5f ecba
00000110: 6757 2a3e dafd 7ebd f579 54bd d2ad 213f
00000120: 435f 2bbd 57ff 3abe 8dba 1cbf 0d72 343d
00000130: 2198 febe 7259 6b3f 190e 05be 6b5c 9abd
00000140: 3a08 c1bd 80cd 8bbf 8571 b13e 1c59 063e
00000150: ac1c bc3d 0d67 05be a08a 913e d537 c73e
00000160: f5a6 86bf 59b7 91be 00e1 b7be aff1 f4be
00000170: 1913 afbe 77e0 f93d 6cbe 33be 38a5 203f
00000180: e47d 943e 0f24 963d a28d 0a3d c843 0cbf
00000190: 64a8 d5be 7bd0 943e 9f4f cf3e c9e6 56bd
000001a0: 83a7 073f 2f94 c8bd 493c c7be a3dd 86be
000001b0: 9b9e e33e 96eb abbc 7ffd d8bd ce08 c63e
000001c0: 8add f13d 37d2 1dbf 55ea 8bbd 6d97 adbe
000001d0: 9973 363e 8fbd 75bf ed49 b23e 6037 7d3f
000001e0: 9ae4 ff3e 2666 e33d 9e0b 01bf 69a8 a1bd
000001f0: ab6a 543e 36af 213f ef96 86be 4fee efbe
00000200: b5db e3be ab83 efbe 2a4d 4dbf 6060 d43e
00000210: d840 62be 6c64 6ebf 0efe cbbe 26ac de3e
00000220: 71bd 30bf f1f4 05be da88 8e3e 14bd 313e
00000230: 6b8f 2c3f 5966 febe 9951 5e3e 578b b1be
00000240: 8dd9 813e ec7b 1dbe 61a3 a03e 4fd3 893d
00000250: 958a 84bd 3f05 79be 1b6d f5bd aa89 19be
00000260: cb91 11be b11c acbe 1d6f 553f 5a59 84be
00000270: aa76 a3be 89a8 9bbe facc fb3e 9c98 383f
00000280: 2c47 52bf 2272 a2be b594 1bbf d768 36bf
00000290: 1a6c 1dbf 5784 c0bc a7a6 8f3e 1714 18be
000002a0: 079a a23e 4bfa ae3d e4c5 333e 1d51 223f
000002b0: 603b 0d3f 6557 003e c30d 3f3e c020 56bf
000002c0: 7f5e 28be f5da df3e e41c 8f3e acf6 a33e
000002d0: dc85 963e a521 233e f8f7 14bf 261d 8d3e
000002e0: 25dc bebd 1039 16bf b657 05be 9f22 0c3e
000002f0: d5d7 5fbe 95b3 77bf 1aa4 8fbe 72cb 213f
00000300: 39e2 aebe a64a 713e 0829 80be 784b 88be
00000310: f5c8 553d 0f66 98be 5d48 413e 9e78 2fbc
00000320: 952f a7bf 0636 a13e 7cdf 643f e346 293e
00000330: a7ad 013f 3b3c 5b3e 14b3 413e 94d6 5d3e
00000340: 369e 183e 5fae 2cbf ded8 cd3e fdd2 163f
00000350: e8b8 643d 46f3 74bf ffc1 643e 2247 b1be
00000360: 1964 473e 6fe3 dd3e 3de0 a4bf aa10 a5be
00000370: 5884 033e a207 033e 5a65 af3e 2261 cc3c
00000380: 7803 5a3e 0e38 08bf 41e6 3d3f 030a a9be
00000390: 86cf b5be 084d aebe 0f53 303f 0b0f e83e
000003a0: 5d1a 243f 2900 cbbe 79f4 86be 75e8 5b3d
000003b0: a647 15be 1a5c 8a3f e462 01bf 4630 7ebe
000003c0: cfef 0d3c 6744 5f3e ddd8 8a3c 0b8b 043e
000003d0: 6b0e 163d 373f 06bf eb29 6cbe 8c81 293e
000003e0: 0293 82bd a5f0 623f 61ba cc3e f4bf 243e
000003f0: 9860 da3e ab4c c13d 227b e03d 94f3 d43d
-0.16316003 0.18291864 -0.18100716 -0.15883301 -0.37067685 -0.25183782 -0.11174354 -0.7743935
0.15120494 0.022015514 -0.64055246 0.032446384 -0.2530476 0.3499213 -0.09382796 -0.45942152
-0.05288563 0.309674 -0.026242856 0.25870326 -0.044358432 -0.6291848 0.88010037 -0.7902298
-0.081000894 -0.28797457 0.28157735 -0.15366812 -0.16787176 -0.33367646 -0.5967261 0.009793437
-0.30061358 0.23933646 -0.27438578 0.5744398 0.1533818 -0.022254465 -0.27057174 -0.12578851
-0.13995773 0.19781314 -0.5403622 -0.47773927 0.009375533 -0.37321234 -0.1317609 0.08929435
-0.22412011 -0.57510436 -0.40354332 -0.5754688 -0.26743653 -0.11019908 0.0012487975 -0.07994098
0.2388658 -0.25590858 0.008970619 0.44453415 -0.38443792 0.047329254 0.17040959 0.16045779
0.3258205 -0.2568698 -0.67902607 -0.0018033922 0.16634904 -0.06225381 -0.05187412 0.63155854
-0.041838896 -0.18261467 -0.61222154 0.04405408 -0.4972544 0.9193336 -0.12993659 -0.075371586
-0.09425397 -1.0922089 0.3465692 0.1311993 0.09185156 -0.13027592 0.28426075 0.38909784
-1.0519701 -0.28460196 -0.3591385 -0.4784064 -0.34194258 0.122010164 -0.17553109 0.62752104
0.29002297 0.073310964 0.033826478 -0.54790926 -0.41730034 0.29065308 0.40490434 -0.052466188
0.5298998 -0.09793889 -0.3891318 -0.2634097 0.44456944 -0.02098636 -0.105952255 0.38678592
0.11809833 -0.6164889 -0.06831805 -0.3390459 0.17817535 -0.9599237 0.34822026 0.9891262
0.49979097 0.11103468 -0.5040835 -0.0789345 0.20743816 0.63157976 -0.26287028 -0.46861503
-0.4450356 -0.46780142 -0.8019587 0.41479778 -0.22095048 -0.9312198 -0.39842266 0.43490714
-0.69039065 -0.13081719 0.27838784 0.17357284 0.6740634 -0.4968746 0.21710815 -0.3467662
0.2536129 -0.15379304 0.31374648 0.06729757 -0.06471745 -0.24318407 -0.11983701 -0.14993921
-0.14215772 -0.3361564 0.8337267 -0.2584942 -0.3192647 -0.3040202 0.49179822 0.72107863
-0.8213985 -0.317277 -0.60773784 -0.7125372 -0.61493075 -0.023500605 0.28056833 -0.14851414
0.3175814 0.08543833 0.17555958 0.6340502 0.55168724 0.12533338 0.18657593 -0.8364372
-0.16442297 0.43721738 0.2795173 0.32024133 0.29399002 0.15930803 -0.5819087 0.275613
-0.09319333 -0.5868082 -0.1302174 0.13685082 -0.21859677 -0.96758395 -0.28054887 0.6320106
-0.3415697 0.23563632 -0.25031304 -0.26620078 0.0521936 -0.29765365 0.1887526 -0.01070991
-1.3061396 0.3148653 0.8940351 0.16530947 0.506556 0.21409695 0.18915969 0.21663886
0.14904103 -0.6745357 0.4020452 0.5891569 0.055840403 -0.95683706 0.22339629 -0.34624583
0.19471778 0.4333758 -1.2880932 -0.32239276 0.12843454 0.1279588 0.34257013 0.02494866
0.21290386 -0.5321053 0.74179465 -0.3301545 -0.3550989 -0.34043145 0.6887674 0.45323977
0.6410273 -0.3964856 -0.26358393 0.053688485 -0.14578113 1.0809357 -0.5054152 -0.24823102
0.008663132 0.21803437 0.016949112 0.12943666 0.036634844 -0.5244021 -0.23062865 0.16553324
-0.06375696 0.88648444 0.39985946 0.1608885 0.4265182 0.094384514 0.10960986 0.10398021

_mean_net.4.bias f4 [17]
00000000: 6a76 473e e370 963d 017a da3e ebbd 69bd
00000010: 71bd db3d 59c0 303f 70cd 7a3f 1a2f 4dbd
00000020: cbf3 15be 0c47 213e 2e8d c03e ab74 a63e
00000030: aadb 6dbd 82f9 93be c3b6 a43e 464c 163f
00000040: 99e1 bebe
0.19478765 0.0734575 0.42671207 -0.057065886 0.107294925 0.690435 0.9796972 -0.050093748
-0.14643781 0.15749758 0.37607712 0.32510886 -0.058070816 -0.28901297 0.32170686 0.58710134
-0.37281492
