run_logs/q2_dagger_humanoid/policy_itr_0.pt (torch, 110267 bytes, 7 tensors)

_logstd f4 [17]
-1.3916494 -1.6648358 -1.1363403 -1.3010575 -1.2835177 -1.121654 -1.1717625 -1.3254112
-1.2131588 -1.2261305 -1.1264837 -1.529958 -1.5633321 -2.1072836 -1.6478412 -1.7890631
-2.0191352
00000000: 9121 b2bf 5719 d5bf 9973 91bf 0d89 a6bf
00000010: 4f4a a4bf 5c92 8fbf 50fc 95bf 13a7 a9bf
00000020: ca48 9bbf d8f1 9cbf 9e30 90bf aad5 c3bf
00000030: 441b c8bf bcdd 06c0 76ec d2bf 0500 e5bf
00000040: 8339 01c0

_mean_net.0.weight f4 [64, 376]
0.023273977 0.006291295 0.5963752 -0.4200681 -0.3424939 0.21449542 0.26942447 -0.9297633
0.26345232 0.03242459 -0.10732308 -0.10590066 -0.6064632 -0.84780717 0.013018085 -0.100758255
0.2097998 -0.029328218 -0.021279417 -0.01401532 -0.078569524 -0.09839802 0.037628096 0.4091456
-0.00082152843 -0.5679943 -0.21420951 -0.25341514 0.0320416 0.12040952 0.15820585 -0.029167628
0.6153971 0.060344685 -0.044844292 0.027116757 0.0069434596 -0.09406442 -0.17690535 0.49004966
-0.13111044 -0.070254706 0.1436487 -0.009382404 -0.69320405 0.026508292 -0.027374959 0.015167292
-0.014891516 -0.0056539625 -0.049579807 -0.024588142 0.027984213 -0.012535754 0.051367335 -0.0020130572
-0.05843035 0.08455259 1.3750832 -0.0063659684 1.0836116 0.081740305 -1.0659119 0.011941919
-0.040776603 -0.1189669 -0.09351401 0.124561824 -0.46010447 -0.18933167 0.011575506 0.15193424
-0.0026962108 -0.07080605 0.0050644735 0.03680796 0.030198142 0.05680457 -0.98669446 0.22680323
0.12958503 0.32960787 0.024533384 -0.18486828 0.018420924 -0.018160997 -0.10313509 0.2608377
0.29008457 0.16442992 -0.21837518 0.04995065 -0.20519352 0.041946534 -0.046398032 -0.085707456
-0.04874449 0.099090815 -0.07460015 -0.008780663 -0.043479796 -0.008879088 -0.124028035 0.07601306
-0.045204286 -0.15417667 -0.037084553 0.039543446 -0.026589686 0.009454883 0.028082505 0.008029811
0.032017764 0.05568905 -0.0054208743 0.18825334 0.20161822 0.11334703 -0.14760607 0.28493735
0.14511791 0.18390708 0.06827301 -0.15101145 0.015613093 -0.09542516 -0.1533517 0.04649303
0.29226682 0.110601775 0.14604852 -0.0006469169 0.15547633 0.07898276 0.020271873 -0.17028432
-0.1697928 0.23017237 0.5255387 -0.11242913 0.13364132 -0.18834229 0.15035963 0.17469294
0.0040918705 0.005063912 -0.0936671 -0.05782487 -0.15347502 0.2771788 0.118976474 -0.19070284
-0.12134532 -0.02454911 -0.060545765 0.08865229 -0.19068395 0.0016752253 -1.0396626 0.5694555
0.075044826 -0.28603667 0.10206184 0.07940391 -0.03855584 0.048854493 -0.055650216 0.080419004
0.5022036 -0.12596193 -0.31536326 0.10493714 0.3293318 0.0006242833 0.03960447 0.31303668
-0.06153566 0.12975873 1.201369 0.055431243 -0.91235185 0.003081356 0.92173123 -0.05233903
-0.04513196 0.04738896 -0.04458427 -0.040198755 -0.001751162 -0.027885271 0.01845273 0.0090084495
-0.28095463 -0.29041696 0.09947393 0.8806326 0.2396219 -0.5442361 -0.036769237 -0.19681932
0.062535055 0.5223999 0.21932772 -0.13715827 -0.115254045 -0.24950632 0.04400709 0.7562648
0.018640311 0.07486133 0.17230906 0.27143332 0.00627128 0.32799426 0.117266305 -0.135324
0.1936096 0.0048302887 -0.027525276 0.17050456 0.057112563 -0.13116655 0.1149264 0.005718503
0.01680407 0.08797963 0.08457714 -0.25096306 -0.06885187 -0.14494495 0.0008136784 0.33866876
0.34126878 0.018153513 0.16316962 0.09517894 0.15576957 -0.28729278 0.1122189 -0.011781131
0.14202875 0.07808975 0.21349563 -0.3226832 0.053746972 -0.2611147 0.10271052 -0.13774313
-0.09906031 0.06608662 0.6981886 -0.11741337 0.1724753 -0.11407725 -0.06712346 0.036449634
00000000: 11a9 be3c 3527 ce3b 0cac 183f 2a13 d7be
00000010: 5c5b afbe b0a4 5b3e 01f2 893e f804 6ebf
00000020: 39e3 863e a6cf 043d 34cc dbbd 72e2 d8bd
00000030: 2c41 1bbf e409 59bf ce49 553c 585a cebd
00000040: c2d5 563e bb41 f0bc 2c52 aebc 83a0 65bc
00000050: 0fe9 a0bd e784 c9bd eb1f 1a3d 887b d13e
00000060: d75b 57ba 1368 11bf bd59 5bbe a1bf 81be
00000070: 0e3e 033d 4499 f63d b700 223e f3f0 eebc
00000080: aa8a 1d3f fd2b 773d a6ae 37bd f623 de3c
00000090: f685 e33b d9a4 c0bd ad26 35be cae7 fa3e
000000a0: d141 06be b3e1 8fbd a518 133e a8b8 19bc
000000b0: d275 31bf eb27 d93c 7341 e0bc 3c80 783c
000000c0: 8cfb 73bc e044 b9bb 3214 4bbd 126d c9bc
000000d0: 263f e53c c362 4dbc 8e66 523d 7fed 03bb
000000e0: aa54 6fbd e929 ad3d ba02 b03f 9d99 d0bb
000000f0: c9b3 8a3f 7667 a73d cd6f 88bf 0aa8 433c
00000100: 5e05 27bd eba4 f3bd 4684 bfbd 451a ff3d
00000110: d092 ebbe 29e0 41be 31a7 3d3c a694 1b3e
00000120: e9b2 30bb c302 91bd e2f3 a53b f2c3 163d
00000130: 1862 f73c e9ab 683d 0298 7cbf 1b3f 683e
00000140: f0b1 043e 5dc2 a83e 3cfa c83c 1c4e 3dbe
00000150: 7ae7 963c 5fc6 94bc 7d38 d3bd 858c 853e
00000160: f785 943e 5160 283e be9d 5fbe 0e99 4c3d
00000170: 401e 52be 21d0 2b3d dd0b 3ebd 6487 afbd
00000180: 4da8 47bd 20f0 ca3d f7c7 98bd c5dc 0fbc
00000190: df17 32bd 9879 11bc 6902 febd bcac 9b3d
000001a0: 2128 39bd 7de0 1dbe f9e5 17bd 4ff8 213d
000001b0: 9dd2 d9bc a7e8 1a3c 480d e63c 788f 033c
000001c0: 0f25 033d 341a 643d 97a1 b1bb 7cc5 403e
000001d0: 0275 4e3e 7d22 e83d 0c26 17be 4fe3 913e
000001e0: ca99 143e 2352 3c3e b8d2 8b3d bfa2 1abe
000001f0: 0fce 7f3c 446e c3bd 3a08 1dbe 7a6f 3e3d
00000200: ffa3 953e 2f83 e23d be8d 153e dc95 29ba
00000210: 3035 1f3e b7c1 a13d 3311 a63c 035f 2ebe
00000220: 2ade 2dbe 4eb2 6b3e b489 063f 3e41 e6bd
00000230: 45d9 083e cddc 40be e0f7 193e b5e2 323e
00000240: 1915 863b 2cef a53b 89d4 bfbd c5d9 6cbd
00000250: 8e28 1dbe 61ea 8d3e f0a9 f33d 9b47 43be
00000260: e583 f8bd 371b c9bc d6fe 77bd 558f b53d
00000270: a742 43be 3c93 db3a aa13 85bf d6c7 113f
00000280: 1ab1 993d 6673 92be cc05 d13d 849e a23d
00000290: baec 1dbd a61b 483d 7bf1 63bd b8b2 a43d
000002a0: 6a90 003f 2afc 00be 4b77 a1be 49e9 d63d
000002b0: 2d9e a83e f1a6 233a 4c38 223d 5846 a03e
000002c0: d10c 7cbd 79df 043e 76c6 993f df0b 633d
000002d0: e48f 69bf 93f0 493b 94f6 6b3f 7361 56bd
000002e0: 4adc 38bd ed1a 423d ff9d 36bd 73a7 24bd
000002f0: 3f87 e5ba a76f e4bc 2e2a 973c 2d98 133c
00000300: 49d9 8fbe 88b1 94be fdb8 cb3d 2371 613f
00000310: 715f 753e 0f53 0bbf 579b 16bd 018b 49be
00000320: 6112 803d 00bc 053f 7297 603e 3873 0cbe
00000330: 500a ecbd 967e 7fbe c740 343d 929a 413f
00000340: 91b3 983c e650 993d c971 303e 4ff9 8a3e
00000350: 4f7f cd3b ddee a73e 5129 f03d 6092 0abe
00000360: 9841 463e 6647 9e3b b07c e1bc bf98 2e3e
00000370: ddee 693d 8650 06be 885e eb3d 4862 bb3b
00000380: b0a8 893c aa2e b43d c836 ad3d 3b7e 80be
00000390: 3602 8dbd 736c 14be 084d 553a fe65 ad3e
000003a0: c8ba ae3e adb6 943c f015 273e 2ded c23d
000003b0: 0f82 1f3e 0a18 93be 06d3 e53d a505 41bc
000003c0: fc6f 113e 85ed 9f3d 999e 5a3e bb36 a5be
000003d0: c925 5c3d d3b0 85be e559 d23d 890c 0dbe
000003e0: 22e0 cabd 6c58 873d 7dbc 323f 6c76 f0bd
000003f0: 5d9d 303e 55a1 e9bd 0678 89bd 364c 153d

_mean_net.0.bias f4 [64]
-0.01317751 -0.17824414 -0.009288353 -0.10498284 0.004465958 0.053262174 -0.04283789 0.050279368
-0.08076968 0.06344773 -0.26090354 -0.24332862 0.17857039 0.21611689 0.014286119 -0.046886515
0.07543012 -0.0152047975 0.07581643 -0.16002208 -0.08586371 -0.07878109 0.19257122 -0.1876721
0.09312809 0.106060386 0.01948285 -0.14094044 0.03280536 -0.12579338 0.101257324 0.0073694806
-0.11450082 0.04319349 0.008703455 -0.04647723 0.0035651487 0.014266065 -0.0802066 -0.14880197
0.123500444 0.020206241 0.06512639 0.13563712 -0.05939782 -0.12599233 0.18574496 -0.070762135
0.0139364395 -0.07551095 -0.102467224 -0.16023599 -0.066665135 0.16294117 -0.04197421 0.011707478
-0.20840272 -0.079503216 0.0242152 0.027388925 0.093340114 0.05623977 -0.035844058 -0.09466596
00000000: 7ce6 57bc a285 36be 2d2e 18bc 3e01 d7bd
00000010: 2c57 923b 7029 5a3d c976 2fbd bdf1 4d3d
00000020: 936a a5bd e2f0 813d 2695 85be 232b 79be
00000030: 28db 363e bf4d 5d3e 5310 6a3c 130c 40bd
00000040: 1b7b 9a3d 8b1d 79bc a545 9b3d d4dc 23be
00000050: 50d9 afbd fb57 a1bd 6431 453e 1d2d 40be
00000060: f1b9 be3d 3036 d93d 7f9a 9f3c b152 10be
00000070: ea5e 063d fbcf 00be 0060 cf3d af7b f13b
00000080: 687f eabd a8eb 303d f098 0e3c e85e 3ebd
00000090: 45a5 693b 37bc 693c 5c43 a4bd 8b5f 18be
000000a0: cded fc3d 8f87 a53c fc60 853d 75e4 0a3e
000000b0: 214b 73bd 2204 01be ed33 3e3e bdeb 90bd
000000c0: aa55 643c 7ca5 9abd 56da d1bd e714 24be
000000d0: bb87 88bd 0dda 263e 26ed 2bbd b9d0 3f3c
000000e0: 8667 55be 95d2 a2bd f55e c63c bd5e e03c
000000f0: 1a29 bf3d ac5b 663d 38d1 12bd 3ae0 c1bd

_mean_net.2.weight f4 [32, 64]
-0.1864016 0.2988685 0.11288142 -0.4419778 -0.04271951 0.015782971 0.033516835 -0.03613486
0.17532675 0.32187054 -0.14172955 -0.06367552 -0.24432443 -0.119740106 -0.17584583 -0.20058732
-0.3645132 0.030499246 -0.07553236 0.22707826 0.07037417 -0.27259234 -0.20233645 -0.34685567
-0.034859102 -0.01988657 0.40487823 0.49533516 0.47664583 -0.026404308 -0.053354464 -0.10395266
0.15827684 -0.22809279 -0.27000418 -0.055750713 -0.31860983 0.025212964 -0.062400147 -0.4104442
-0.30228817 0.27669448 -0.1552791 -0.24864374 -0.31829584 -0.18399158 0.024952428 0.175328
-0.2618927 -0.031585954 0.040248424 0.049572818 0.105175585 -0.35783088 -0.008117933 -0.13620447
0.0043077474 -0.3131021 0.043223646 -0.28508112 -0.07306029 0.05353335 0.14192955 -0.11329358
-0.054873895 0.07662283 -0.26789343 -0.047605623 -0.032748144 0.008066601 0.15724953 -0.046061352
-0.33061478 -0.09079841 0.026261568 0.24042107 -0.16828667 0.07553823 0.119063705 -0.108907215
-0.07458724 -0.1754313 -0.012799826 0.102902465 0.058630165 0.35419062 0.0069390116 0.10324608
-0.12583503 -0.07329755 0.06000296 0.54304934 0.08749466 -0.12970868 -0.0941928 0.11087661
0.057039645 0.2000748 -0.007768747 0.085497275 0.065473124 0.06201233 -0.09106823 -0.121420905
-0.12694857 -0.22328359 0.07542747 -0.10989848 -0.12741607 0.14547388 0.07507204 -0.107796386
0.096034825 0.019140525 0.020246306 -0.0072264886 0.097421855 -0.12266211 -0.0993027 0.16587105
0.30048782 -0.21059354 -0.08002294 0.1005185 0.055428367 0.095088325 -0.22776182 -0.13573083
-0.05913729 0.08439192 0.10004458 0.02364089 -0.092575416 -0.16825241 0.36609396 0.2509996
-0.35949185 -0.21658929 -0.23881783 -0.19408748 0.19526131 -0.15572217 0.21719174 0.10495527
-0.08004785 0.053095642 -0.14034152 -0.22333935 -0.11572894 -0.21200158 -0.055719357 0.0852483
0.17435147 0.12369089 0.34346008 -0.54129565 -0.24217865 0.10493132 -0.22119462 -0.00016696485
0.07394699 0.39962125 0.08488882 -0.45105922 0.08488388 -0.27051878 0.14741607 -0.15338883
0.2990135 0.2911668 0.03116787 0.0688119 0.009911331 -0.20674834 -0.27148205 -0.05909034
-0.012517399 -0.17639187 -0.012334144 -0.15883085 -0.12538001 0.10108188 -0.067332394 -0.08249742
0.19342974 -0.01375873 -0.21125506 0.17167072 -0.13446051 0.21788497 0.14788866 0.11704646
0.0073034577 -0.1596968 0.16370317 -0.1201836 -0.09573401 -0.31465754 -0.16870303 0.01436
-0.08107058 0.025176466 0.26614583 0.025257573 0.17291425 0.1578703 -0.18079627 -0.047222696
-0.09222639 0.108979225 0.12796125 0.010838246 -0.11272292 0.1267545 0.27037314 0.0057848725
0.11073258 -0.27421644 -0.16421749 -0.11750561 -0.003085931 0.026132768 0.03952199 -0.08520682
0.1873053 -0.021531003 -0.096193686 0.13559604 -0.18559916 -0.11422962 -0.012975692 0.019312983
-0.094372384 0.028651107 0.04365254 0.010147192 -0.114225 -0.102101006 0.13386737 -0.11035091
-0.07801608 0.10010846 -0.14954741 0.16674626 0.1962832 -0.16160022 0.105691314 0.15667786
-0.18435577 0.2591458 -0.011402657 -0.0696103 -0.08805373 -0.30665472 0.11147612 0.07377899
00000000: 10e0 3ebe 4b05 993e 602e e73d ea4a e2be
00000010: a7fa 2ebd 4a4b 813c f348 093d 2602 14bd
00000020: db88 333e 37cc a43e 8d21 11be 5068 82bd
00000030: 2f30 7abe 4d3a f5bd ee10 34be c366 4dbe
00000040: 79a1 babe 8ed9 f93c b6b0 9abd 3487 683e
00000050: 5520 903d 3991 8bbe 4931 4fbe 1197 b1be
00000060: 6bc8 0ebd 29e9 a2bc 334c cf3e 929c fd3e
00000070: ec0a f43e d94d d8bc 368a 5abd 22e5 d4bd
00000080: 5313 223e 2891 69be fd3d 8abe dc5a 64bd
00000090: d420 a3be 6b8b ce3c 4c97 7fbd be25 d2be
000000a0: 84c5 9abe e6aa 8d3e 7c01 1fbe 779c 7ebe
000000b0: acf7 a2be 4a68 3cbe 0969 cc3c 2f89 333e
000000c0: cd16 86be 4660 01bd 88db 243d de0c 4b3d
000000d0: 4c66 d73d 9c35 b7be 1401 05bc 2f79 0bbe
000000e0: 0128 8d3b eb4e a0be 470b 313d 27f6 91be
000000f0: a2a0 95bd c945 5b3d fb55 113e 7706 e8bd
00000100: 73c3 60bd 6eec 9c3d 5429 89be 1dfe 42bd
00000110: eb22 06bd c729 043c 0506 213e d4aa 3cbd
00000120: 5746 a9be 84f4 b9bd 8022 d73c f130 763e
00000130: 5753 2cbe cab3 9a3d acd7 f33d bf0a dfbd
00000140: 32c1 98bd 43a4 33be 5db6 51bc 87be d23d
00000150: 2f26 703d 7958 b53e a660 e33b ae72 d33d
00000160: e6da 00be 071d 96bd aac5 753d 4805 0b3f
00000170: 6630 b33d 5ad2 04be 28e8 c0bd 4713 e33d
00000180: 67a2 693d 69e0 4c3e f990 febb 3219 af3d
00000190: c616 863d a400 7e3d fb81 babd 86ab f8bd
000001a0: cefe 01be 74a4 64be b879 9a3d 7412 e1bd
000001b0: 5c79 02be 1bf7 143e 5fbf 993d 5ac4 dcbd
000001c0: e8ad c43d 97cc 9c3c 95db a53c 2ecc ecbb
000001d0: 1c85 c73d 4636 fbbd 375f cbbd 1ada 293e
000001e0: 8ad9 993e d5a5 57be 11e3 a3bd a5dc cd3d
000001f0: db08 633d abbd c23d 653a 69be 06fd 0abe
00000200: f139 72bd acd5 ac3d 2ce4 cc3d 8aaa c13c
00000210: 2e98 bdbd 5c4a 2cbe ab70 bb3e 0583 803e
00000220: 510f b8be 95c9 5dbe a98c 74be debe 46be
00000230: 95f2 473e a275 1fbe 8367 5e3e caf2 d63d
00000240: 21f0 a3bd d17a 593d b0b5 0fbe 12b3 64be
00000250: 4b03 edbd f116 59be fb39 64bd a996 ae3d
00000260: 3189 323e a651 fd3d 00da af3e 5a92 0abf
00000270: aefd 77be 3be6 d63d d880 62be 4913 2fb9
00000280: 8571 973d 289b cc3e 31da ad3d 3cf1 e6be
00000290: 9ad7 ad3d 7081 8abe 3df4 163e f611 1dbe
000002a0: 4c18 993e d113 953e c353 ff3c 41ed 8c3d
000002b0: 2363 223c d6b5 53be b2ff 8abe b608 72bd
000002c0: c715 4dbc 12a0 34be 2615 4abc 8ea4 22be
000002d0: 9e63 00be 0404 cf3d 91e5 89bd 68f4 a8bd
000002e0: 7212 463e 4c6c 61bc 3f53 58be 73ca 2f3e
000002f0: 04b0 09be 3d1d 5f3e 2070 173e 0eb6 ef3d
00000300: d851 ef3b 8f87 23be cea1 273e d222 f6bd
00000310: 3110 c4bd cb1a a1be 7dc0 2cbe 3546 6b3c
00000320: 5508 a6bd e03e ce3c 4444 883e f8e8 ce3c
00000330: 6f10 313e c0a8 213e a822 39be 966c 41bd
00000340: 31e1 bcbd 8030 df3d 4608 033e e692 313c
00000350: 46db e6bd efcb 013e 596e 8a3e 078f bd3b
00000360: c3c7 e23d 1966 8cbe a128 28be c8a6 f0bd
00000370: 553d 4abb 6314 d63c cfe1 213d ea80 aebd
00000380: f6cc 3f3e c961 b0bc 3201 c5bd b0d9 0a3e
00000390: b50d 3ebe 38f1 e9bd ff97 54bc 4336 9e3c
000003a0: 4f46 c1bd bab5 ea3c 01cd 323d 6840 263c
000003b0: ccee e9bd 551a d1bd 8714 093e a8ff e1bd
000003c0: e5c6 9fbd aa05 cd3d f522 19be 88bf 2a3e
000003d0: 77fe 483e 877a 25be b074 d83d 2970 203e
000003e0: c2c7 3cbe c2ae 843e 36d2 3abc d88f 8ebd
000003f0: 8455 b4bd d901 9dbe 984d e43d 7019 973d

_mean_net.2.bias f4 [32]
0.39149433 0.14183544 -0.05139819 -0.16516578 0.38413638 0.08790778 -0.07599618 0.083218865
0.2688835 0.20290777 -0.28805926 0.01645986 0.2864884 -0.35042372 -0.00079909986 -0.033499636
0.28595987 0.14106159 -0.20849392 -0.048370495 0.20568949 -0.17793077 0.15862621 -0.017250974
-0.16118613 0.065128826 -0.30345076 0.2769184 0.1267466 0.057839554 -0.09241958 -0.082994044
00000000: f271 c83e 4f3d 113e e986 52bd 3821 29be
00000010: 86ad c43e ff08 b43d e3a3 9bbd a76e aa3d
00000020: 19ab 893e 0ec7 4f3e 817c 93be d4d6 863c
00000030: 9cae 923e bd6a b3be af7a 51ba ea36 09bd
00000040: 5569 923e 7372 103e 6e7f 55be 2420 46bd
00000050: 44a0 523e 7c33 36be e96e 223e ea51 8dbc
00000060: fa0d 25be 4362 853d e65d 9bbe 40c8 8d3e
00000070: dcc9 013e 2be9 6c3d 7a46 bdbd c8f8 a9bd

_mean_net.4.weight f4 [17, 32]
-0.0991412 -0.20010729 -0.08790147 -0.35704777 -0.3691991 0.057527915 -0.42116165 -0.4029255
0.011156383 0.12529513 -0.060723446 0.35231462 -0.4875764 -0.08432429 -0.28837547 -0.33582813
-0.35273406 0.42226857 0.13733403 0.17498174 -0.18386072 0.1639006 0.3713793 -0.25240362
-0.025376638 0.045402672 0.22862159 0.02578055 0.14649983 -0.16320534 -0.20020702 0.37596115
0.18312533 0.5066217 -0.30837724 0.34986103 0.29624835 0.035244606 -0.43114266 -0.17930984
0.21404718 0.28479245 -0.31236923 0.032585703 0.4293954 -0.13261518 0.083333775 0.14816444
-0.16212915 -0.23279272 -0.18506616 -0.31688005 -0.15646674 -0.08594741 -0.15169753 0.0952499
0.15556408 0.05850583 0.1441158 -0.035649564 -0.4073068 -0.19193444 -0.17203934 0.16828455
-0.3071789 0.15850149 -0.32529664 0.18768188 -0.1848145 -0.113137454 -0.0763134 0.24521357
0.102791764 0.36578113 -0.2574305 0.12622403 -0.17914215 -0.016208885 0.12648678 0.33284608
0.05145859 0.06483641 -0.01286262 0.2813274 0.02890404 0.18058573 0.10994939 0.19108585
-0.5355016 -0.0038913838 -0.51883644 0.2245807 -0.23276313 0.02636742 0.3141982 0.55596024
0.19387802 0.256338 0.40877652 -0.12930681 -0.11768372 0.3286992 -0.061416663 -0.17595859
0.13743067 0.22371018 -0.34410822 -0.45736614 0.48816732 0.3322538 -0.43164062 0.09324156
0.44780117 -0.50486106 -0.201891 -0.47367778 -0.18181993 -0.02063191 0.106988795 0.44244424
0.037887827 0.07750702 -0.11817983 0.4506772 -0.05612662 -0.050548457 -0.096637584 -0.16730928
-0.067888066 -0.13610035 -0.38367787 0.19173355 0.05286823 -0.32313636 -0.26511967 0.045840494
-0.34252352 -0.21677002 0.24646668 -0.29910606 0.037853368 -0.59013814 0.5659878 -0.2565487
0.17009513 0.18305829 0.36688596 0.33170637 -0.008770101 -0.13934045 0.015253063 -0.37567768
-0.109489314 0.007456338 -0.27450913 0.03932436 0.0032417506 0.117548816 -0.008304795 0.5690226
-0.41483188 0.10975307 0.10801647 -0.3402253 -0.2869509 0.14955954 0.3354442 0.007367628
-0.18713614 0.43063772 0.33526886 -0.11701502 -0.08096419 -0.35283354 -0.073922604 -0.44197142
0.31364378 0.15171887 0.6112222 0.7653073 0.2842105 0.413472 0.023344012 -0.08508797
0.07521126 -0.30475914 -0.118148 0.20300388 0.043870494 0.038871326 -0.20765574 -0.03460947
-0.73054284 0.44714 -0.17661132 0.026895236 0.054758444 0.05072251 -0.095369175 0.1460872
-0.74663323 -0.05384551 0.28044692 -0.44935855 0.39584208 0.07892245 0.15097737 0.24540468
-0.007444521 0.3235142 0.34569746 0.086424895 -0.14037478 -0.35077003 0.7223641 0.026460629
0.011729444 0.18488677 -0.180642 0.2953502 0.31157368 0.21976183 0.045262918 -0.30178723
0.10410802 -0.17473269 0.2303808 -0.3523741 -0.22440219 -0.11029409 0.49556246 0.17852002
0.2692764 -0.20498554 -0.3070855 0.12702067 0.102967404 0.32157955 -0.26746783 -0.03637586
0.38560888 0.3056248 -0.45992362 0.22797287 0.16555715 -0.13447212 -0.34764552 0.1085175
-0.20058677 0.314314 -0.0041879085 0.26081276 0.19295987 0.46117544 0.044911344 -0.14875785
00000000: 8b0a cbbd ede8 4cbe b005 b4bd f7ce b6be
00000010: aa07 bdbe 64a2 6b3d 80a2 d7be 404c cebe
00000020: 43c9 363c 5e4d 003e 26b9 78bd 9562 b43e
00000030: 9da3 f9be 37b2 acbd f3a5 93be aaf1 abbe
00000040: 8f99 b4be 9633 d83e 4ba1 0c3e 6a2e 333e
00000050: fc45 3cbe 8fd5 273e 6d25 be3e 0c3b 81be
00000060: abe2 cfbc 27f8 393d c71b 6a3e bb31 d33c
00000070: 0d04 163e 4d1f 27be 1203 4dbe fb7d c03e
00000080: 3585 3b3e f6b1 013f 9fe3 9dbe fc20 b33e
00000090: ddad 973e a65c 103d bbbe dcbe 009d 37be
000000a0: 2f2f 5b3e 51d0 913e dcee 9fbe 9678 053d
000000b0: b7d9 db3e 46cc 07be e6aa aa3d 6bb8 173e
000000c0: 2f05 26be 3761 6ebe fc81 3dbe 1a3e a2be
000000d0: d138 20be 3205 b0bd 9956 1bbe 6112 c33d
000000e0: 314c 1f3e cfa3 6f3d 1893 133e 4705 12bd
000000f0: 848a d0be 768a 44be 152b 30be c952 2c3e
00000100: 8e46 9dbe 374e 223e 488d a6be ae2f 403e
00000110: 0340 3dbe 9cb4 e7bd 334a 9cbd 4419 7b3e
00000120: 7d84 d23d aa47 bb3e eecd 83be df40 013e
00000130: 0a71 37be 7fc8 84bc c085 013e cd6a aa3e
00000140: 3ec6 523d f4c8 843d bdbd 52bc 250a 903e
00000150: 2ac8 ec3c 77eb 383e 252d e13d 02ac 433e
00000160: a216 09bf 9606 7fbb 77d2 04bf 7cf8 653e
00000170: 7559 6ebe 7d00 d83c 96de a03e 6953 0e3f
00000180: f687 463e bc3e 833e 284b d13e 0169 04be
00000190: 2a04 f1bd 434b a83e 0a90 7bbd 7d2e 34be
000001a0: a0ba 0c3e 4814 653e f42e b0be e52b eabe
000001b0: 11f1 f93e 2c1d aa3e 0000 ddbe 6ef5 be3d
000001c0: 3246 e53e 933e 01bf 84bc 4ebe e585 f2be
000001d0: 012f 3abe 4004 a9bc f11c db3d 0d88 e23e
000001e0: 4430 1b3d 00bc 9e3d 4408 f2bd 29bf e63e
000001f0: 07e5 65bd e60b 4fbd ede9 c5bd 2053 2bbe
00000200: e608 8bbd e45d 0bbe 6d71 c4be cd55 443e
00000210: 5b8c 583d 2172 a5be c4bd 87be 3ec3 3b3d
00000220: 3e5f afbe f6f8 5dbe c361 7c3e 6e24 99be
00000230: 220c 1b3d 4b13 17bf 94e4 103f 5a5a 83be
00000240: 6b2d 2e3e a273 3b3e 7ad8 bb3e 6bd5 a93e
00000250: 78b0 0fbc 43af 0ebe fce7 793c d358 c0be
00000260: ef3b e0bd 4c54 f43b 768c 8cbe 9512 213d
00000270: 8d73 543b 6fbd f03d d610 08bc 77ab 113f
00000280: d864 d4be 38c6 e03d bd37 dd3d 0332 aebe
00000290: 3aeb 92be 2326 193e 58bf ab3e 256c f13b
000002a0: 9ea0 3fbe 8c7c dc3e 5ca8 ab3e 92a5 efbd
000002b0: 8ed0 a5bd 99a6 b4be bc64 97bd 144a e2be
000002c0: eb95 a03e 315c 1b3e 0f79 1c3f 2eeb 433f
000002d0: 0a84 913e 9ab2 d33e f13b bf3c 9a42 aebd
000002e0: 5c08 9a3d 6409 9cbe 94f7 f1bd 40e0 4f3e
000002f0: 8cb1 333d 8a37 1f3d b5a3 54be a9c2 0dbd
00000300: db04 3bbf 89ef e43e 99d9 34be 6653 dc3c
00000310: 644a 603d 68c2 4f3d ea50 c3bd e297 153e
00000320: 5b23 3fbf 1c8d 5cbd bd96 8f3e 5312 e6be
00000330: d0ab ca3e 18a2 a13d d099 1a3e 5d4b 7b3e
00000340: 2bf1 f3bb a7a3 a53e 42ff b03e 89ff b03d
00000350: 68be 0fbe 2198 b3be dbec 383f f6c3 d83c
00000360: db2c 403c f552 3d3e 37fa 38be 2438 973e
00000370: 9686 9f3e 3f09 613e 9c65 393d db83 9abe
00000380: 9636 d53d 20ed 32be f2e8 6b3e 616a b4be
00000390: b0c9 65be dee1 e1bd 5dba fd3e f4cd 363e
000003a0: 99de 893e bbe7 51be 503a 9dbe b511 023e
000003b0: 93e0 d23d 13a6 a43e 8bf1 88be dbfe 14bd
000003c0: 876e c53e db7a 9c3e 1c7b ebbe b871 693e
000003d0: d087 293e 0fb3 09be 98fe b1be 6c3e de3d
000003e0: 9e66 4dbe c4ed a03e b93a 89bb 4089 853e
000003f0: 4697 453e 301f ec3e f5f4 373d fa53 18be

_mean_net.4.bias f4 [17]
0.1141909 -0.23193367 0.3544903 -0.10343064 0.16829614 0.6788067 0.22783208 -0.079159364
0.078544624 -0.07858286 0.1697747 -0.06335838 -0.1488251 -0.1898959 0.38488343 0.12401598
-0.18968558
00000000: ebdc e93d 0580 6dbe c17f b53e 72d3 d3bd
00000010: d355 2c3e 47c6 2d3f d04c 693e 4e1e a2bd
00000020: 01dc a03d 0df0 a0bd 6bd9 2d3e 0ac2 81bd
00000030: 9b65 18be 1274 42be 710f c53e 17fc fd3d
00000040: f03c 42be
