run_logs/q2_dagger_humanoid/policy_itr_12.pt (torch, 110342 bytes, 7 tensors)

_logstd f4 [17]
0	0xbf94ada3	-1.161549
1	0xbfa875ff	-1.316101
2	0xbf829bbc	-1.0203776
3	0xbf87653a	-1.0577767
4	0xbf880a2d	-1.0628105
5	0xbf6f78f2	-0.9354392
6	0xbf6f4010	-0.93457127
7	0xbf8f07fa	-1.1174309
8	0xbf83dfa9	-1.0302631
9	0xbf827869	-1.0192996
10	0xbf7f7c67	-0.997992
11	0xbfb8b896	-1.4431331
12	0xbfa9f39e	-1.3277471
13	0xbff5cfed	-1.9204079
14	0xbfbe449c	-1.4864688
15	0xbfcc381a	-1.5954621
16	0xbff966a8	-1.9484453

_mean_net.0.weight f4 [64, 376]
0	0xbf08cff3	-0.53442305
1	0x3d83eb33	0.06441345
2	0xbf92387f	-1.1423491
3	0xc0125138	-2.2862072
4	0xbec4ee01	-0.38462833
5	0xbec6ad26	-0.38803977
6	0x3baa1d95	0.0051915147
7	0x3d9989ea	0.07497008
8	0x3e3a62bc	0.18201727
9	0xbfd6658a	-1.6749737
10	0x3f14c0a5	0.5810645
11	0xbf9019ea	-1.1257908
12	0x3eea5a5a	0.45772058
13	0xbeaf2bf9	-0.34213236
14	0xbf80bea8	-1.0058184
15	0x3e9217de	0.28533834
16	0x3f0a36e3	0.5399
17	0x3e0a15b6	0.13484845
18	0x3e398674	0.18117696
19	0x3e886bcc	0.26644742
20	0x3e93869e	0.28813642
21	0xbac44291	-0.0014973452
22	0x3d14b8a7	0.03630891
23	0x3e6e002c	0.23242253
24	0xbdbe4e94	-0.09292331
25	0xbe3191f2	-0.1734083
26	0xbdcb05bf	-0.09913205
27	0xbde6b94a	-0.1126581
28	0xbd5dffc7	-0.054199006
29	0xbd065218	-0.032793134
30	0xbc613bfc	-0.013747212
31	0x3bf7165b	0.007540507
32	0xbda123a2	-0.078681245
33	0x3d1f8e73	0.03895421
34	0xbcf649c8	-0.030064479
35	0xbc710eed	-0.014713031
36	0x3d2125e3	0.039342772
37	0x3c1cf132	0.00957899
38	0xbbea1346	-0.007143411
39	0xbd8ad587	-0.06779008
40	0xbc3df1d0	-0.011593297
41	0xbd50dd89	-0.050992522
42	0xbc0e1564	-0.008672092
43	0x3cd330b5	0.025780061
44	0x3c887627	0.016657902
45	0x3cd927eb	0.026508292
46	0xbce04173	-0.027374959
47	0x3c78803c	0.015167292
48	0xbc73fb8c	-0.014891516
49	0xbbb944e0	-0.0056539625
50	0xbd4b1432	-0.049579807
51	0xbcc96d12	-0.024588142
52	0x3ce53f26	0.027984213
53	0xbc4d62c3	-0.012535754
54	0x3d52668e	0.051367335
55	0xbc62ba21	-0.013838322
56	0xbdb53de6	-0.08849697
57	0x3b0603af	0.0020448973
58	0xc067fc2a	-3.6247659
59	0x3f2b2222	0.6684896
60	0x3d929181	0.07156659
61	0x3e1bf0a8	0.15228522
62	0x3e0666fe	0.13125226
63	0x3ca31be0	0.019910753
64	0x3d87984c	0.06620845
65	0xbe8338e1	-0.25629333
66	0x3e3d7ff4	0.18505841
67	0x400cc8b3	2.1997497
68	0xc0abdc7e	-5.3706656
69	0xbe698aa1	-0.22806789
70	0xc038f53a	-2.8899674
71	0x3f5f1bf0	0.87152004
72	0x4026fc32	2.6091428
73	0xbe0669b8	-0.13126266
74	0x3de57a03	0.112049125
75	0xbe6b1eb6	-0.22960934
76	0x40046659	2.0687468
77	0x3fd70d0b	1.6800855
78	0x40d61f31	6.6913075
79	0x3fcd90cb	1.6059812
80	0x402332e6	2.5499816
81	0x3fa03c9e	1.2518499
82	0x3f909c32	1.1297667
83	0x3e2d3e54	0.16918308
84	0x3e006a60	0.12540579
85	0x3f924aca	1.1429074
86	0x3e227cc1	0.15867902
87	0xbf67b83c	-0.90515494
88	0x3e4056d7	0.18783127
89	0x3f8d2a63	1.102856
90	0xbf71b551	-0.9441729
91	0x3e7ce18f	0.24695419
92	0xbf30e83e	-0.69104373
93	0xbedea6d5	-0.43486658
94	0x3d7829e7	0.060586836
95	0x3e146e9a	0.14495316
96	0xbea27179	-0.31727198
97	0xc00a213f	-2.1582792
98	0xbf07c33b	-0.53032273
99	0x3fb3f663	1.4059566
100	0xbef39479	-0.47574213
101	0xbee843e1	-0.45364287
102	0xbe1e4c4f	-0.15458797
103	0xbe2edccf	-0.1707642
104	0x3d7d0d79	0.061780427
105	0xbecb4f1f	-0.39708802
106	0xbe9c8525	-0.3057033
107	0xbf798cc4	-0.97480416
108	0x3fafe57c	1.3741908
109	0x3f9e7118	1.2378263
110	0x3e71830f	0.23585151
111	0xbed78896	-0.42096394
112	0x3f7e61e4	0.9936812
113	0x3d7d0602	0.061773308
114	0x3dd000b0	0.10156381
115	0xbf89f578	-1.0778036
116	0xbe5641af	-0.20923494
117	0xbde87dfa	-0.11352153
118	0x3fd86c26	1.6908004
119	0x3e890162	0.26758868
120	0xc00c0b96	-2.1882071
121	0x3fc5fffa	1.5468743
122	0xbf8f0aac	-1.1175132
123	0x3e8bc8d7	0.27301666
124	0x3dfb14a3	0.122597955
125	0xbf356ef0	-0.708724
126	0xbeeeba1d	-0.46626368
127	0x3fad38d8	1.3532972
128	0x4022b370	2.542202
129	0x3f0dd178	0.5539775
130	0xbfaede4c	-1.366159
131	0x3e5c01e4	0.21485096
132	0xbed42a0e	-0.41438335
133	0x3eb38d81	0.35068896
134	0x3e024f89	0.12725653
135	0xbf06c90a	-0.5265051
136	0xbebd7e63	-0.37010488
137	0x3fc250f5	1.5180956
138	0x40318b41	2.7741244
139	0x3d6ce043	0.05783106
140	0xbd809ae4	-0.06279543
141	0xbec06156	-0.3757426
142	0x3fc260aa	1.518575
143	0x3e941ad0	0.28926706
144	0x3de37c18	0.111076534
145	0xbf833d34	-1.0253053
146	0xbe33111d	-0.17486997
147	0xbfaadbe5	-1.3348356
148	0x400d9e38	2.212782
149	0x3f7dfc6b	0.99213284
150	0xbf6b490e	-0.9190835
151	0x3da7fd2b	0.08202585
152	0x3eb4b91c	0.35297477
153	0xbe5cffb1	-0.21581914
154	0x3d3e368e	0.046438746
155	0xbf18433f	-0.5947761
156	0xbe06be07	-0.13158427
157	0xbfc0f3bc	-1.5074382
158	0x3f9ddded	1.2333351
159	0x3fbba95d	1.466106
160	0xbee2e61d	-0.44316188
161	0xbf413b81	-0.7548142
162	0xbd0a9bea	-0.033840097
163	0x3ed4bc0b	0.41549715
164	0x3d8c244c	0.068428606
165	0x3ddf5e47	0.10906654
166	0xbe30c9da	-0.172645
167	0x3fc885ab	1.5665792
168	0xc01acb49	-2.4186575
169	0xbd7a3b1a	-0.06109152
170	0xbebb78ee	-0.366157
171	0x3e0489c9	0.12943186
172	0x3f24213c	0.6411321
173	0xbde4c8dc	-0.111711234
174	0x3e161b8e	0.14658949
175	0x3ef021af	0.469007
176	0x3eb4ea91	0.3533521
177	0x3f0514e7	0.5198502
178	0xbf5a5020	-0.8527851
179	0xbedb1781	-0.4279137
180	0xbfae2b64	-1.3606992
181	0xbe7e417f	-0.24829672
182	0x3f832a84	1.024735
183	0xbdb10060	-0.0864265
184	0x3d7d590c	0.0618525
185	0x3d421aed	0.04738896
186	0xbd369dff	-0.04458427
187	0xbd24a773	-0.040198755
188	0xbae5873f	-0.001751162
189	0xbce46fa7	-0.027885271
190	0x3c972a2e	0.01845273
191	0x3c80b8ff	0.015713213
192	0xbdfb1fce	-0.12261926
193	0x3d3e51e9	0.046464834
194	0xbc85e0bc	-0.016342513
195	0xbb7730ed	-0.003771837
196	0xbe656c87	-0.22404681
197	0xbd99dbe5	-0.07512645
198	0xbc8269f2	-0.01591966
199	0xbcbf84b1	-0.023378702
200	0xbc1820ab	-0.009285132
201	0xbe43e64d	-0.19130822
202	0xbeb1a298	-0.34694362
203	0x3d6b763a	0.057485797
204	0x3c71885c	0.014741983
205	0x3c003d68	0.00782714
206	0xbe2b3ec8	-0.16723168
207	0x3e47b006	0.19500741
208	0xbe9bedc0	-0.30454826
209	0x3d0d6203	0.0345173
210	0xbc046c3a	-0.008082444
211	0x3bf9c79d	0.0076226727
212	0xbe74a03d	-0.23889251
213	0x3dc755d9	0.09733171
214	0x3e96e426	0.29470938
215	0x3c6eaad1	0.014567093
216	0x3d841f4f	0.06451284
217	0x3c051548	0.00812275
218	0xbd7b0639	-0.06128523
219	0x3dd866b2	0.105664626
220	0xbcaf1c76	-0.021375876
221	0x3c99642f	0.01872453
222	0xbc6829d2	-0.014170127
223	0x3c13a294	0.00901093
224	0xbc8ae6db	-0.016955784
225	0x3cbd8f77	0.023139698
226	0x3bc783ae	0.0060886955
227	0x3c816350	0.015794426
228	0x3c62167c	0.013799306
229	0x3cf4e00b	0.029891988
230	0x3da8784d	0.082260706
231	0x3e684a7b	0.22684662
232	0xbe9e7f34	-0.30956423
233	0xbd45dee1	-0.048308257
234	0xbbd3bbcd	-0.0064615966
235	0x3b9aa546	0.004719409
236	0x3bd072fc	0.0063613635
237	0xbd84ff24	-0.06493977
238	0x3c31858e	0.010835065
239	0xbda03dd5	-0.078242935
240	0xbce21e81	-0.027602436
241	0xbc4aaa66	-0.012369728
242	0x3d834069	0.0640877
243	0xbdcd79f4	-0.10033026
244	0xbd431f15	-0.047637064
245	0xbdb4360c	-0.08799371
246	0xbdf639f8	-0.120227754
247	0x3d1bbfa9	0.03802458
248	0xbe3be879	-0.183504
249	0x3da5be16	0.08092897
250	0x3b07ee6b	0.0020741473
251	0xbadd4107	-0.0016880342
252	0x3d04b13e	0.032395594
253	0x3ba91a7e	0.005160629
254	0xbe087a4d	-0.13327904
255	0x3e825303	0.25453958

_mean_net.0.bias f4 [64]
0	0x3dc01dc9	0.09380681
1	0xbe593bbc	-0.21214193
2	0xbab9c4a6	-0.0014172986
3	0xbeb0f847	-0.3456442
4	0x3d0b713a	0.03404353
5	0x3e12d5c7	0.14339362
6	0x3d684a22	0.056711324
7	0x3e90bf27	0.28270838
8	0xbdb7fd17	-0.0898382
9	0x3e529fee	0.20568821
10	0xbed4645b	-0.41482815
11	0xbe99f3ca	-0.3006881
12	0xbd8029fb	-0.06258007
13	0x3fb2d7d7	1.3972119
14	0x3e08840f	0.13331626
15	0xbe834454	-0.25638068
16	0x3e68fd00	0.22752762
17	0x3d097e8d	0.033567954
18	0xbe486227	-0.19568692
19	0xbe8d83ad	-0.27639523
20	0xbe690aa1	-0.22757961
21	0x3db73867	0.08946305
22	0x3d1cbaaa	0.038263954
23	0xbf75d617	-0.960298
24	0xbd3f2372	-0.046664663
25	0x3e5d9378	0.21638286
26	0xbed15084	-0.4088174
27	0xbf923080	-1.1421051
28	0x3d29a594	0.041417673
29	0x3ddbd6c4	0.10734323
30	0xbd0aa9c4	-0.033853307
31	0x3b6c4fab	0.0036058228
32	0xbf19ce4d	-0.60080415
33	0x3e199b89	0.15000738
34	0x3d7019d1	0.05861837
35	0xbd951c0b	-0.072807394
36	0x3bd9bc31	0.0066447486
37	0x3dca1938	0.09868091
38	0xbd9fe225	-0.078068055
39	0xbe8c650c	-0.27420843
40	0x3ea71841	0.32635692
41	0xbdabefed	-0.083953716
42	0xbd0b3b85	-0.03399231
43	0x3e847619	0.2587135
44	0xbdadf0a1	-0.08493162
45	0xbf81edca	-1.0150692
46	0x3f0c647b	0.5484082
47	0xbd9779a9	-0.07396252
48	0xbd1e8204	-0.03869821
49	0xbd4c5f01	-0.04989529
50	0xbc1bf087	-0.009517795
51	0xbecdb026	-0.40173453
52	0x3defb345	0.11704115
53	0x3f297880	0.66199493
54	0x3df2b592	0.11851038
55	0x3f177154	0.591573
56	0xbeae7288	-0.34071755
57	0xbd03950d	-0.032124568
58	0xbd46d8a6	-0.048546456
59	0xbe046b3f	-0.12931536
60	0x3d1a4c82	0.03767062
61	0xbb444b84	-0.0029952237
62	0xbdbbb7d5	-0.091659226
63	0xbe36e9c5	-0.17862613

_mean_net.2.weight f4 [32, 64]
0	0x3c992b6f	0.018697469
1	0x3c040261	0.008057208
2	0x3d850229	0.06494553
3	0xbd6162fc	-0.05502604
4	0xbded69df	-0.11592459
5	0x3d157bb4	0.036494926
6	0x3e5ee6d2	0.21767738
7	0xbe34bd45	-0.17650326
8	0x3e21ff87	0.15820132
9	0xbd390e72	-0.04517979
10	0xbc986091	-0.018600734
11	0xbe2c9528	-0.16853774
12	0x3a4be35d	0.0007777715
13	0xbf09c660	-0.5381832
14	0xbd2890c8	-0.0411537
15	0xbe363963	-0.17795329
16	0x3d1570a1	0.036484364
17	0x3cc2c938	0.02377759
18	0x3d0fa652	0.035070725
19	0x39a87d43	0.00032136784
20	0x3d874f78	0.06606954
21	0x3dcc034e	0.09961568
22	0x3e4c0053	0.19921999
23	0x3b0757d0	0.0020651706
24	0xbd46e27e	-0.048555844
25	0x3e61148b	0.21980493
26	0x3e530bee	0.2061002
27	0x3df8c3ef	0.12146746
28	0xbd02943a	-0.03187964
29	0x3cdfdbd4	0.027326502
30	0xbca9d7cb	-0.02073278
31	0xbe4eda86	-0.20200548
32	0x3c7b2c6d	0.015330416
33	0x3e50f423	0.20405631
34	0xbc957387	-0.018243564
35	0xbd32d071	-0.043655816
36	0xbd95b695	-0.073102154
37	0xbdaa2e36	-0.08309595
38	0xbe44652d	-0.1917922
39	0xbdd038ce	-0.10167085
40	0xbdb262af	-0.08710229
41	0x3e8e884a	0.27838355
42	0xbe6c8320	-0.23096895
43	0xbd87532c	-0.06607661
44	0x3de8c311	0.11365331
45	0xbe953c50	-0.29147577
46	0xbe13cbfc	-0.14433283
47	0x3c4b13cb	0.012394856
48	0xbdff50f2	-0.12466611
49	0xbdb837c1	-0.08995009
50	0xbdd98c73	-0.10622492
51	0x3dd80909	0.10548598
52	0xbdb018e9	-0.08598501
53	0x3d7f7505	0.062367458
54	0x3d2407f0	0.040046632
55	0xbcb8fff4	-0.022582985
56	0x3ca3c9c7	0.019993676
57	0xbe5e4067	-0.21704255
58	0x3d583bc1	0.05279136
59	0xbe1f228f	-0.15540527
60	0xbd26b274	-0.04069753
61	0x3ebd2646	0.36943263
62	0x3d867eb9	0.06567139
63	0x3d99f25b	0.07516929
64	0x3d783dd1	0.060605828
65	0xbd1a61a8	-0.03769079
66	0xbd962d14	-0.07332817
67	0xbe05bd0a	-0.13060394
68	0x3e020ffb	0.12701409
69	0xbd41d8c0	-0.04732585
70	0xbd4de5cc	-0.05026798
71	0xbd5cffc8	-0.05395487
72	0xbdd5a9ce	-0.10432778
73	0xbd03d2c2	-0.032183416
74	0xbe2f9ce6	-0.17149696
75	0x3d7a702a	0.061142124
76	0xbe5a3ebf	-0.21312998
77	0xbec68d13	-0.38779506
78	0xbbbf317c	-0.0058347564
79	0xbd13773c	-0.036002383
80	0x3d10bfef	0.035339292
81	0xbd92d2e0	-0.071691275
82	0xbd9e4f99	-0.07730026
83	0x3db117e0	0.08647132
84	0x3e9a7e87	0.30174658
85	0x3ca98cd9	0.020697044
86	0xbd0fe541	-0.035130743
87	0xbd92818f	-0.071536176
88	0xbdd6cc38	-0.104881704
89	0x3ec1cc2e	0.3785109
90	0x3c6e1a01	0.014532567
91	0x3f2ed9a0	0.6830082
92	0x3d866a27	0.06563216
93	0xbbcef1ee	-0.0063154614
94	0xbe3ffdfc	-0.18749231
95	0x3e1b0d18	0.15141714
96	0xbe3c592c	-0.18393391
97	0x3d9d31e6	0.07675533
98	0xbe28432f	-0.16431879
99	0x3e475319	0.19465293
100	0x3d0ea217	0.03482255
101	0x3c68f5e0	0.014218777
102	0x3e73fc57	0.23826729
103	0x3bd8e711	0.006619342
104	0x3d7cf1d5	0.061754066
105	0x3d357f73	0.044311
106	0x3dcbdc06	0.099540755
107	0xbd0dd620	-0.034628034
108	0x3ca2d730	0.019878
109	0x3aad6fe6	0.0013232201
110	0x3d97ab15	0.07405678
111	0xbe1331f9	-0.14374532
112	0xbd93f6c9	-0.07224805
113	0x3e267a08	0.16257489
114	0x3dac1e69	0.08404238
115	0xbcb1ad0c	-0.02168896
116	0x3ced39f6	0.028958302
117	0xbc0adc66	-0.008475399
118	0xbd8c4da1	-0.06850744
119	0xbcacd647	-0.02109827
120	0x3d02ad4b	0.031903546
121	0x3e8c6fa9	0.2742894
122	0xbcf61f2e	-0.030044165
123	0x3cfde702	0.030993942
124	0xbda6cbe9	-0.081443615
125	0xbdca0b5c	-0.09865448
126	0xbc8f57cd	-0.017497921
127	0xbd996916	-0.07490747
128	0xbba46bd9	-0.0050177393
129	0x3d7ec150	0.062196076
130	0x3e592e4c	0.21209067
131	0x3d140bd7	0.036144104
132	0xbcb6af96	-0.022300523
133	0xbd28d063	-0.041214358
134	0x3e2c1012	0.16803005
135	0x3d5790dc	0.052628383
136	0x3e32cfa2	0.17462018
137	0x3d6f3ca6	0.05840745
138	0xbca25927	-0.019817902
139	0x3d15e7c0	0.036597967
140	0x3da4e539	0.08051533
141	0x3c92c40d	0.01791575
142	0x3d0828fb	0.033242207
143	0x381be681	3.7169553e-05
144	0x3b393c56	0.0028264723
145	0xbc971b92	-0.018445764
146	0x3d61f72f	0.055167373
147	0x3c8f231a	0.017472792
148	0x3e2a0c38	0.16606224
149	0xbcb1ca7b	-0.021702996
150	0xbd3db228	-0.04631248
151	0xbc8350da	-0.016029764
152	0x3c5ba817	0.013406775
153	0xbcaea8ca	-0.02132072
154	0x3d6ee759	0.0583261
155	0xbef81dd0	-0.48460245
156	0xbd2d9021	-0.04237378
157	0xbdddd5e6	-0.108318135
158	0xbd172f61	-0.03691042
159	0xbd6b1c1f	-0.057399865
160	0x3b46d9fc	0.003034233
161	0xbbbd31e0	-0.005773768
162	0x3c4f37ee	0.012647612
163	0xbd215701	-0.039389614
164	0x3cdee639	0.027209388
165	0xbe2d7f9b	-0.16943209
166	0xbd2479ad	-0.0401551
167	0x3d8fc331	0.07019652
168	0x3ccad0c9	0.02475776
169	0x3ca7b606	0.020472538
170	0xbcbfda38	-0.023419484
171	0xbd353f0d	-0.044249583
172	0x3deb7bf3	0.11498251
173	0x3deeaa09	0.116535254
174	0xbd1365eb	-0.03598587
175	0xbcd29f5d	-0.025710756
176	0xbe13024d	-0.14356346
177	0xbea7f3b3	-0.32803115
178	0xbe207c82	-0.15672496
179	0xbdb2ef23	-0.08737018
180	0x3d1cd736	0.03829118
181	0xbd322a96	-0.043497644
182	0xbdc776b1	-0.097394355
183	0xbdb6bddd	-0.08922932
184	0x3b4f2b35	0.0031611447
185	0x3db4f7f0	0.08836353
186	0xbd435f3c	-0.047698244
187	0x3bee6e4a	0.007276331
188	0xbd36eebd	-0.044661272
189	0x3dba2ef6	0.09090988
190	0x3c9b66cd	0.018969918
191	0xbc8e02c0	-0.017335296
192	0xbe738dfe	-0.23784634
193	0xbd7093b3	-0.058734607
194	0xbd5e514e	-0.054276757
195	0xbcb0badb	-0.021573475
196	0xbea87bec	-0.32907045
197	0xbc387943	-0.01125938
198	0xbe8e8527	-0.27835962
199	0xbd5c8530	-0.053837955
200	0x3d17c767	0.0370554
201	0x3d5f6149	0.054536138
202	0x3e7e8515	0.24855454
203	0x3e143765	0.14474256
204	0x3babb004	0.0052394886
205	0xbdb95148	-0.09048706
206	0xbd3218ea	-0.04348079
207	0x3ce58fff	0.028022764
208	0xbd9a3700	-0.07530022
209	0x3d8fa376	0.070135996
210	0x3bef558d	0.0073038996
211	0xbc085745	-0.008321588
212	0xbe2c811e	-0.1684613
213	0x3e069075	0.13141043
214	0x3e7d9690	0.24764466
215	0xbd930b65	-0.07179908
216	0xbe3bf5b8	-0.18355453
217	0xbddad8ce	-0.106858835
218	0x3c722b21	0.014780791
219	0xbea4cc9d	-0.32187358
220	0xbc8d44ad	-0.017244661
221	0xbd032035	-0.032013137
222	0x3cdfc3e9	0.027315097
223	0xbd8dae29	-0.06917984
224	0x3ddd3065	0.10800246
225	0xbd256d13	-0.040387224
226	0x3ca6dd7b	0.020369282
227	0xbcd669d5	-0.026173512
228	0xbeae4a41	-0.34041026
229	0x3d99651f	0.074899904
230	0x3d2a0e8c	0.04151778
231	0xbbf2dd94	-0.007411668
232	0xbe417458	-0.18892038
233	0xbd927add	-0.071523406
234	0xbdd6327f	-0.1045885
235	0xbcb956c5	-0.022624383
236	0xbd60e379	-0.054904435
237	0xbecd3cc4	-0.40085423
238	0x3d6bf3b8	0.057605475
239	0x3cc82a0d	0.024434114
240	0xbd8b4e39	-0.06802029
241	0x3e373373	0.1789072
242	0xbd99e50a	-0.07514389
243	0x3dc34e09	0.095363684
244	0x3cc8f3b7	0.024530275
245	0x3d31c0d8	0.0433968
246	0xbbc075fe	-0.0058734408
247	0xbc7a281c	-0.015268352
248	0x3c29713e	0.01034194
249	0xbd9789d6	-0.07399337
250	0x3cc07580	0.023493528
251	0xbb3d1eab	-0.002885739
252	0xbdfb459c	-0.12269136
253	0xbe3e87dd	-0.18606515
254	0x3d13af45	0.036055822
255	0x3d3dc900	0.046334267

_mean_net.2.bias f4 [32]
0	0x3ef41278	0.4767034
1	0xbef63868	-0.4808991
2	0xbe4d9ec1	-0.20080091
3	0xbd67b710	-0.056571066
4	0x3ec7f774	0.3905598
5	0x3ef71cea	0.48264247
6	0xbe299ed2	-0.16564491
7	0x3e902a3c	0.28157222
8	0x3e4b52ce	0.19855806
9	0x3d867dc3	0.06566956
10	0x3e28c0b6	0.16479763
11	0xbda856df	-0.08219694
12	0x3f4d642f	0.80230993
13	0xbe93462a	-0.28764468
14	0xbe67857f	-0.22609518
15	0xbeb3b854	-0.3510157
16	0x3e8b6bc5	0.2723066
17	0x3d0443ef	0.03229135
18	0xbecb949e	-0.39761823
19	0xbd67d3da	-0.05659852
20	0xbd0e6414	-0.03476341
21	0xbdcbd7ed	-0.09953294
22	0x3ed4286e	0.41437095
23	0x3e786ca1	0.24260189
24	0x3c65239a	0.013985539
25	0xbe972caa	-0.29526263
26	0xbee1a7dd	-0.44073382
27	0x3e88271f	0.26592347
28	0x3ef654cf	0.4811158
29	0xbd9a5a35	-0.07536737
30	0xbe89bbe1	-0.26901153
31	0xbe3320d3	-0.1749299

_mean_net.4.weight f4 [17, 32]
0	0xbe33578c	-0.17513865
1	0x3e0e39f0	0.13889289
2	0xbe139c8e	-0.1441519
3	0xbe422947	-0.18961059
4	0xbebe635a	-0.37185174
5	0xbea111f0	-0.31458998
6	0xbe24627e	-0.16053197
7	0xbf40c2db	-0.75297326
8	0x3e8c750c	0.2743305
9	0xbccfc7fa	-0.025363911
10	0xbef26f6c	-0.47350633
11	0x3e0e148b	0.13875024
12	0xbe85d82f	-0.26141497
13	0x3ed72ee9	0.42027977
14	0xbdd47e74	-0.103756815
15	0xbf04b550	-0.5183916
16	0xbe8c525f	-0.27406594
17	0x3f1588f7	0.58412117
18	0xbd318362	-0.043338187
19	0x3e6160da	0.22009602
20	0xbd82a738	-0.06379551
21	0xbf0440f6	-0.5166162
22	0x3f64c8de	0.89369
23	0xbf28ae31	-0.65890795
24	0xbd016653	-0.031591725
25	0xbe77383d	-0.24142547
26	0x3e993035	0.29919592
27	0xbdb7c36c	-0.08972821
28	0xbe4ddb12	-0.201031
29	0xbec525fa	-0.38505536
30	0xbed307a2	-0.4121676
31	0x3c4aaf76	0.012370935
32	0xbe9c435f	-0.3052015
33	0x3e8ba92c	0.27277505
34	0xbeb591e1	-0.3546286
35	0x3f1b74fb	0.60725373
36	0x3e56c953	0.20975237
37	0xbda7c23a	-0.08191343
38	0xbeab050f	-0.33402297
39	0xbe3dbadd	-0.18528314
40	0xbd9c3633	-0.07627525
41	0x3e4d007b	0.20019715
42	0xbf1e1a6e	-0.6175908
43	0xbefdd68b	-0.49577746
44	0x3be8e06a	0.0071068304
45	0xbea1075f	-0.31450936
46	0xbe1adbfc	-0.1512298
47	0x3dc3e423	0.09564998
48	0xbe70fb9a	-0.23533478
49	0xbf006af1	-0.5016318
50	0xbedbcce9	-0.42929772
51	0xbef233dd	-0.47305194
52	0xbe6851b6	-0.2268742
53	0xbe0d9fb3	-0.13830452
54	0x3cc4e5e5	0.024035404
55	0xb960942c	-0.00021417503
56	0x3e7f2e6d	0.24920054
57	0xbe7ba1a6	-0.24573383
58	0x3e2c48f2	0.16824701
59	0x3ec3a946	0.38215083
60	0xbedd0fed	-0.43176213
61	0xbd0514cc	-0.032490537
62	0x3e396189	0.18103613
63	0x3e563ec7	0.20922385
64	0x3e837093	0.25671825
65	0xbe92c9aa	-0.28669482
66	0xbf3be713	-0.73399466
67	0xbd37f860	-0.044914603
68	0x3d82a906	0.06379895
69	0xbe0b39eb	-0.13596313
70	0xbdbde8f5	-0.09272949
71	0x3f1bc76a	0.60851157
72	0xbbc3eb2c	-0.0059789624
73	0xbe3f2772	-0.18667391
74	0xbf0d0b31	-0.550952
75	0x3dbbf531	0.09177626
76	0xbecfeb43	-0.40609178
77	0x3f83300f	1.0249041
78	0x3d832733	0.06403961
79	0x3c02818b	0.007965456
80	0xbd811a62	-0.0630386
81	0xbf4f8ef6	-0.81077516
82	0x3e9b489a	0.30328828
83	0x3e0313be	0.128005
84	0x3dcff7c9	0.10154683
85	0xbd5dee5a	-0.054182388
86	0x3f092898	0.53577566
87	0x3eac0814	0.33599913
88	0xbf8b1ba1	-1.0867807
89	0xbeefceec	-0.46837556
90	0xbe082bd0	-0.13297963
91	0xbedee400	-0.43533325
92	0xbeaa4b1c	-0.3326043
93	0x3e16f5a4	0.14742142
94	0xbe285fbb	-0.16442768
95	0x3f13a5ff	0.57675165
96	0x3e8dfbc8	0.27731156
97	0x3d5a54b8	0.05330345
98	0xbce60db4	-0.028082706
99	0xbf0fdff0	-0.56201077
100	0xbecf83f5	-0.40530363
101	0x3ea613d0	0.3243699
102	0x3eaceab8	0.33772826
103	0xbe05c8a8	-0.13064826
104	0x3ee45854	0.4459864
105	0xbd60e356	-0.054904304
106	0xbf18aa72	-0.5963508
107	0xbecb89b0	-0.39753485
108	0x3ebbe404	0.366974
109	0x3d0f1bb1	0.034938518
110	0xbe5eaf6c	-0.21746606
111	0x3eba003e	0.3632831
112	0x3e4a6be1	0.19767715
113	0xbf090036	-0.53515947
114	0xbd95ddab	-0.073176704
115	0xbe95ad22	-0.29233652
116	0x3df2bc54	0.11852327
117	0xbf48c119	-0.78419644
118	0x3f06fb88	0.52727556
119	0x3f678700	0.9044037
120	0x3ed5c2c9	0.41750172
121	0x3e603b00	0.21897507
122	0xbee9dc40	-0.4567585
123	0x3c2564fd	0.010094878
124	0x3e1ac74e	0.15115091
125	0x3f30a3b5	0.689998
126	0xbea68a3a	-0.32527333
127	0xbf08accb	-0.5338866
128	0xbeb945e8	-0.36186147
129	0xbef474ba	-0.47745305
130	0xbf4cede9	-0.8005052
131	0x3edd8c64	0.43271172
132	0xbe3cbe93	-0.18432073
133	0xbf586df4	-0.84542775
134	0xbed9df78	-0.42553306
135	0x3eb5b90d	0.35492745
136	0xbf382c61	-0.71942717
137	0xbe36910c	-0.17828768
138	0x3ed54a4d	0.4165825
139	0x3e3d0f36	0.18462834
140	0x3f247a10	0.6424875
141	0xbef9f5fd	-0.48820487
142	0x3e986e3f	0.2977161
143	0xbe7f4bd6	-0.24931273
144	0x3e794db3	0.24346046
145	0xbe2037d6	-0.156463
146	0x3e91db4c	0.28487623
147	0x3d87c071	0.06628502
148	0xbd39a736	-0.04532548
149	0xbe7b98ea	-0.24570051
150	0xbe1f4d10	-0.15556741
151	0xbdd85f41	-0.10565043
152	0xbddf526c	-0.109043926
153	0xbea94e29	-0.33067444
154	0x3f560f31	0.8361693
155	0xbe5ddd5f	-0.21666478
156	0xbeb99fd7	-0.3625476
157	0xbec0c158	-0.3764751
158	0x3edaf663	0.42766103
159	0x3f1b58cc	0.6068237
160	0xbf50d4ed	-0.815749
161	0xbe59ac78	-0.21257198
162	0xbf2b5ed8	-0.66941595
163	0xbf360901	-0.7110749
164	0xbefd2ecc	-0.49449766
165	0xbd528006	-0.051391624
166	0x3eb2f5bb	0.34953102
167	0xbdc23ecd	-0.094846345
168	0x3ed674e2	0.4188605
169	0x3daa4728	0.08314353
170	0x3e3eb467	0.18623506
171	0x3edb81be	0.42872423
172	0x3f03fb17	0.5155501
173	0xbd7dde94	-0.061979845
174	0x3e63f396	0.2226089
175	0xbf624e84	-0.88401055
176	0xbd95c047	-0.073120646
177	0x3ecbd432	0.3981033
178	0x3ec9d127	0.39417383
179	0x3ea829bf	0.3284435
180	0x3e9ae563	0.30253133
181	0x3d6ddb83	0.05807067
182	0xbf28d6d1	-0.65952784
183	0x3ee5a702	0.4485398
184	0xbe27e593	-0.1639617
185	0xbeda914f	-0.42688987
186	0xbe46e216	-0.19422182
187	0x3de17f67	0.11010628
188	0xbdeaade4	-0.11458948
189	0xbf80bdd8	-1.0057936
190	0xbe29d0fe	-0.1658363
191	0x3f278c63	0.6544859
192	0xbeabfb47	-0.33590147
193	0x3e9806ed	0.29692784
194	0xbf05ac54	-0.52216077
195	0xbe80ea53	-0.25178775
196	0x3cc6fff1	0.024291964
197	0xbe61a55a	-0.22035733
198	0x3e63f38a	0.22260872
199	0x3dcef5d6	0.10105483
200	0xbfa0446d	-1.2520882
201	0x3e9216ca	0.28533012
202	0x3f5c3f09	0.86033684
203	0xbd8bd7b8	-0.068282545
204	0x3ee2c96d	0.442943
205	0x3d885332	0.06656493
206	0x3e52f793	0.20602255
207	0x3e11e6cc	0.14248198
208	0x3e3c0852	0.18362549
209	0xbf40d695	-0.75327426
210	0x3ec19aa3	0.3781329
211	0x3f097387	0.53691906
212	0x3d621f42	0.05520559
213	0xbf258152	-0.6465045
214	0x3ef750ae	0.4830374
215	0xbef11ca3	-0.4709216
216	0x3e0bcdda	0.13652745
217	0x3e7c4132	0.24634245
218	0xbf93dd4d	-1.1551911
219	0xbef399d6	-0.47578305
220	0x3e88ca45	0.2671682
221	0x3db80ca3	0.08986785
222	0x3e87af42	0.265009
223	0xbda2a1d5	-0.07941023
224	0x3e05ef82	0.13079646
225	0xbee9f4fc	-0.4569472
226	0x3f470f34	0.77757573
227	0xbea0e272	-0.31422764
228	0xbea953a6	-0.3307163
229	0xbeb8bfbc	-0.36083782
230	0x3f38cae4	0.72184587
231	0x3f0d5ade	0.5521678
232	0x3f08d81f	0.53454775
233	0xbeab1eab	-0.33421835
234	0xbe778f2c	-0.2417571
235	0xbd62694c	-0.0552762
236	0xbe25b662	-0.16182855
237	0x3f8839ac	1.06426
238	0xbef65936	-0.48114938
239	0xbe96846f	-0.29397914
240	0x3de04acf	0.109517686
241	0x3dbc9b08	0.09209257
242	0x3c9c9561	0.019114198
243	0x3d9f1c78	0.07769102
244	0x3c0c3638	0.008557849
245	0xbedb331c	-0.4281243
246	0xbe7aee74	-0.24505025
247	0x3e274958	0.16336572
248	0xbd71066b	-0.05884401
249	0x3f65231a	0.89506686
250	0x3ec64582	0.38724905
251	0x3dd05579	0.101725526
252	0x3ed4e88a	0.41583663
253	0x3e7dd61c	0.24788707
254	0x3de19f82	0.11016752
255	0x3be9760f	0.0071246694

_mean_net.4.bias f4 [17]
0	0x3e6bace1	0.23015167
1	0x3cab9d17	0.02094893
2	0x3ecd5e4c	0.40111005
3	0xbd148547	-0.036259916
4	0x3dfe1b4e	0.12407552
5	0x3f28884c	0.6583297
6	0x3f6188ae	0.8809918
7	0xbc569640	-0.013097346
8	0xbe15c874	-0.14627248
9	0x3e1619a4	0.14658219
10	0x3e9f6be4	0.31137002
11	0x3e9a8d5b	0.3018597
12	0xbbd7318b	-0.0065671853
13	0xbe7995dc	-0.24373573
14	0x3ea89d4c	0.32932508
15	0x3f201807	0.6253666
16	0xbeac990b	-0.33710513
