run_logs/q2_dagger_humanoid/policy_itr_18.pt (torch, 110342 bytes, 7 tensors)

_logstd f4 [17]
000000 0e d2 a8 bf 06 67 b6 bf c2 63 98 bf b8 a2 94 bf
       -1.3189104 -1.425019 -1.1905444 -1.1612158
000010 cf a2 94 bf 19 8a 88 bf d8 7a 86 bf 9c c3 96 bf
       -1.1612185 -1.0667144 -1.0506239 -1.1778445
000020 1c 15 96 bf 76 1a 91 bf 03 c0 8c bf 80 0c cf bf
       -1.1725192 -1.13362 -1.0996097 -1.617569
000030 e7 90 b5 bf d1 54 04 c0 bb 7f ce bf 30 de d7 bf
       -1.4184846 -2.0676768 -1.613273 -1.6864681
000040 06 4b 01 c0
       -2.020204

_mean_net.0.weight f4 [64, 376]
000000 19 9a 84 bf d8 4f 53 3d 78 6f 53 bf 02 10 37 c0
       -1.0359527 0.051589817 -0.8259196 -2.860352
000010 e7 bd b8 be 4a 55 b4 be f4 ef 8f be 63 d8 e4 bc
       -0.36082384 -0.3522132 -0.28112757 -0.027935212
000020 2e 84 17 3e d8 72 c8 bf e0 d6 0e 3f 7a 18 7e bf
       0.14796516 -1.5660048 0.55796623 -0.992561
000030 eb 4c b4 3e 25 59 bb be 5d e2 6b bf 41 f6 c7 3e
       0.35214934 -0.3659145 -0.9214228 0.39055064
000040 e9 04 dd 3e 55 20 f5 3c 98 ce 57 3d 2a 01 1b 3e
       0.4316781 0.029922644 0.052687258 0.15137163
000050 a7 84 96 3e 5f f7 1d 3d 0f fa 1c 3d 8c 2c 0f 3e
       0.2939808 0.03856599 0.038324412 0.13981837
000060 31 8a 11 bd 70 cd 26 be ff 15 7f bd 7c 73 e4 bc
       -0.03553218 -0.16289306 -0.062276836 -0.027887098
000070 dd be e4 bc 19 9e 61 bc c0 41 e5 bb d2 87 0e 3d
       -0.027923042 -0.013770604 -0.0069963634 0.034797497
000080 47 78 5d bd 2c 4b e2 3c 8d 1e b4 bb 49 1e 33 bb
       -0.054069784 0.027623735 -0.005496806 -0.0027331284
000090 75 74 d1 3c 3e cb b3 ba 2e 2e 30 bc f2 1c 90 bd
       0.025568226 -0.0013717187 -0.010753198 -0.07036771
0000a0 f3 08 bc bc f7 b0 02 bd 85 e2 3a bc 47 73 26 3c
       -0.022953486 -0.031907048 -0.0114065455 0.01015932
0000b0 76 d9 61 3c eb 27 d9 3c 73 41 e0 bc 3c 80 78 3c
       0.013784757 0.026508292 -0.027374959 0.015167292
0000c0 8c fb 73 bc e0 44 b9 bb 32 14 4b bd 12 6d c9 bc
       -0.014891516 -0.0056539625 -0.049579807 -0.024588142
0000d0 26 3f e5 3c c3 62 4d bc 8e 66 52 3d f6 f7 be 3c
       0.027984213 -0.012535754 0.051367335 0.023311596
0000e0 8b 5d 38 bd 74 d1 32 bf 7a bc 63 c0 a9 73 03 3f
       -0.045011085 -0.6985085 -3.5583787 0.5134836
0000f0 2b b2 b9 bb ac aa b5 3e 2b fb 21 3d 9d ce 5d 3d
       -0.005666991 0.35481775 0.039546173 0.05415212
000100 84 cc b5 3d 36 ae 9c be 8a 0e f0 3d 47 3f 10 40
       0.08876899 -0.30601662 0.11721523 2.2538621
000110 e1 7b ef c0 1a bc 30 be b9 3f 5c c0 a3 18 6c 3f
       -7.483872 -0.17259255 -3.4413893 0.9222509
000120 28 82 2f 40 6b 03 2c be 0c d7 09 3e c6 a6 4f bf
       2.742319 -0.16798179 0.1346094 -0.8111385
000130 fc c0 36 40 10 2a ef 3f 38 87 2b 41 91 f9 7b 3f
       2.8555288 1.8684711 10.720512 0.98427683
000140 d4 22 fd 3f 07 84 83 3f d8 21 3c 3f dc 9f e1 bc
       1.9776254 1.0274667 0.7348914 -0.027542047
000150 5f 84 17 3e 78 51 9f 3f b6 cc 94 3e e5 b9 6c bf
       0.1479659 1.2446737 0.29062432 -0.9247115
000160 45 fc 30 3d 4f 63 b9 3f 02 7c 53 bf 75 34 ae 3e
       0.043209333 1.4483432 -0.82611096 0.34024397
000170 cf d3 16 bf 16 3e f9 be 22 49 aa 3d a5 e7 10 3e
       -0.58916944 -0.4868018 0.0831473 0.14150865
000180 59 99 c9 be 9b 37 20 c0 4b 21 7c bf f1 2d de 3f
       -0.39374807 -2.503394 -0.984883 1.735777
000190 e9 45 1f bf 8c 18 21 bf 72 8c 08 be 5d f2 7d be
       -0.6221605 -0.6292808 -0.13334826 -0.24799486
0001a0 e4 ba ac 3d 98 6e 0a bf 9d 3b c7 be 2c 5f 86 bf
       0.08434084 -0.54075 -0.3891267 -1.0497794
0001b0 21 dc 99 3f db 8e b2 3f f9 fe 19 bd a3 29 3e bf
       1.2020303 1.3949846 -0.037596676 -0.7428228
0001c0 d7 f2 74 3f 7c c5 6d bc e0 34 fe 3d ff 25 97 bf
       0.95683044 -0.014512416 0.12412429 -1.180847
0001d0 42 4d f7 be 23 58 a8 be 03 91 02 40 4e d1 42 3e
       -0.4830113 -0.32879743 2.0401008 0.19025156
0001e0 4f fe 03 c0 16 fc 9c 3f 86 d9 74 bf 79 0f a3 3e
       -2.0623968 1.226443 -0.95644414 0.31847742
0001f0 56 a4 14 3e d8 62 64 bf c5 eb 2d bf a7 b6 93 3f
       0.14515814 -0.89213324 -0.6793788 1.1540116
000200 4f 00 47 40 2c c4 56 3f 69 40 94 bf 05 54 26 3e
       3.1093938 0.83893085 -1.1582156 0.16242988
000210 fc 25 2d be d9 bb b4 3e 7d 69 19 3e 5a 67 41 bf
       -0.16909021 0.35299566 0.14981647 -0.75548327
000220 22 7b 03 bf d0 ab a4 3f 4f 54 43 40 6e 70 3c 3e
       -0.5135976 1.2864933 3.0520208 0.18402264
000230 bd 49 1e bd 2e 79 b0 be 2a c4 b2 3f af 84 76 3e
       -0.03864454 -0.34467453 1.3966115 0.24074052
000240 18 d8 08 3e 30 9f a0 bf 01 e0 89 bd 43 51 d9 bf
       0.13363683 -1.254858 -0.067321785 -1.6977924
000250 80 95 40 40 e7 3e 43 3f 45 48 7e bf cc 8a 8d 3e
       3.0091248 0.76267856 -0.99329025 0.27644956
000260 1c 79 e3 3e 54 4e 2f be 5c 4f 8d 3d 3a db 5b bf
       0.44428337 -0.17119724 0.06899902 -0.8588139
000270 ab 81 e4 be 68 d6 a1 bf b1 72 9b 3f f6 cb 0e 3d
       -0.4463018 -1.2643557 1.2144376 0.03486248
000280 a2 36 23 bf 15 4d 19 bf 04 5e e3 bd 3f 51 4f 3f
       -0.6375524 -0.5988324 -0.111019164 0.80983347
000290 70 58 ba 3d 20 41 37 3e 21 9e 58 be 3b c8 d0 3f
       0.09098899 0.17895937 -0.21154071 1.6311105
0002a0 cb ac ec bf 94 68 89 bb a1 71 16 be 9f 11 ae 3e
       -1.8490232 -0.004193375 -0.14691783 0.3399782
0002b0 44 47 f6 3e 91 47 cd bd 84 35 2d 3e a6 5b 1f 3f
       0.48101246 -0.10023416 0.16914946 0.6224922
0002c0 a5 70 73 3e 75 e9 c2 3e ac 2b 8b bf e7 73 b1 be
       0.23773439 0.3806874 -1.0872703 -0.3465874
0002d0 3a 4a 52 bf 98 b0 4e 3c 69 09 40 3f b9 b6 b4 bd
       -0.8214451 0.012615345 0.7501436 -0.08823914
0002e0 a8 e0 ac 3d ed 1a 42 3d ff 9d 36 bd 73 a7 24 bd
       0.08441287 0.04738896 -0.04458427 -0.040198755
0002f0 3f 87 e5 ba a7 6f e4 bc 2e 2a 97 3c df 2c 81 bc
       -0.001751162 -0.027885271 0.01845273 -0.015768467
000300 a0 91 fd bd b7 9c 20 bd 18 57 1a bd c8 f6 f2 3c
       -0.123812914 -0.039211955 -0.037680715 0.02965869
000310 9b da a7 be bd ee a5 bd 27 9a 0b bc dd a4 4c bd
       -0.3278397 -0.08102176 -0.0085206395 -0.049961913
000320 bc a7 92 3c 43 37 6c be cd 6d f8 be f7 bd 4c 3d
       0.017902248 -0.23067956 -0.4852127 0.049985852
000330 bc 23 7b bc 9a eb f6 3c 92 3b 25 be 89 9a cf 3d
       -0.015328344 0.03014164 -0.16136006 0.10136897
000340 39 95 bd be c7 83 ad 3d 15 7f 60 bc 89 32 2c bc
       -0.3702791 0.084724 -0.013702174 -0.010510095
000350 61 bd f4 bd 1f 0b 26 3e b1 68 75 3e 8e 43 d6 bb
       -0.11950184 0.1621518 0.23965718 -0.006538815
000360 7f 0a 8b 3d fb 52 df 3b 3d 8a 37 bd 4d ab 5e 3d
       0.06789111 0.006815312 -0.04480957 0.054362584
000370 b2 fc a5 bc 53 11 1c bb 87 d0 30 bc a4 6d fc 3b
       -0.020262096 -0.0023814037 -0.010791904 0.0077035
000380 6a b4 fb b9 a3 b4 e6 bc c0 02 ec 3b ec 69 85 3c
       -0.0004800887 -0.028162306 0.0072024763 0.016285859
000390 88 2d 10 3c b9 36 0b 3d d4 cd 80 3d c8 55 9e 3e
       0.008799918 0.033987734 0.062892586 0.3092482
0003a0 5b df a5 be c0 df 0c bd 94 a6 9b 3b 55 fb 09 3b
       -0.3239697 -0.034393072 0.0047500823 0.0021054347
0003b0 6e 9a 72 bc 89 d6 51 bd 2e db ba 3b 1c be 83 bd
       -0.014807327 -0.051229987 0.005702398 -0.06432745
0003c0 d6 45 86 bc 28 7e 75 bc db cb 2f 3d 12 66 b1 bd
       -0.016390722 -0.014983691 0.04291902 -0.086620465
0003d0 ee 24 58 bd e6 38 1e bd 7c 84 ea bd fb 4e 52 3d
       -0.052769594 -0.03862848 -0.11451051 0.051344853
0003e0 d2 4b 18 be c1 d5 8f 3c d6 dc c5 bc 0d 52 91 bc
       -0.14872673 0.01755798 -0.024153154 -0.01773932
0003f0 e2 1b 04 3d 83 d6 86 bc 68 b6 da bd 46 4e 63 3e
       0.032253154 -0.016459709 -0.106793225 0.22197828

_mean_net.0.bias f4 [64]
000000 fc 51 ee 3d 25 cf 44 be 2b b8 ac 39 12 99 e3 be
       0.11636731 -0.19219644 0.00032943612 -0.4445272
000010 ba 89 39 3d e0 9e 90 3d 20 e8 3f 3d 73 60 e5 3e
       0.045297362 0.07061553 0.04685223 0.44800147
000020 e1 6a d8 bd be 1a 30 3e 40 a6 b0 be 18 01 75 be
       -0.105672605 0.17197701 -0.3450184 -0.23926198
000030 24 09 3a bd 7f 58 da 3f 11 02 02 3e 1d 32 a1 be
       -0.045418873 1.7058257 0.12696101 -0.31483546
000040 ae dd cf 3e 41 b8 ad 3d b5 79 b0 be c2 f6 d0 be
       0.40598816 0.08482409 -0.34467855 -0.4081326
000050 d7 b4 55 be 18 f8 ab 3d 24 b7 80 3d 60 d5 84 bf
       -0.20869766 0.083969295 0.06284931 -1.0377617
000060 bb f2 2d bd d1 8a 5e 3e 4e c6 1f bf 80 30 92 bf
       -0.042467814 0.21732642 -0.62411964 -1.1421051
000070 b3 f3 09 3c 4d a1 df 3d 20 0c 48 bd e3 3d 4f 3c
       0.008419919 0.109194376 -0.04883969 0.012649032
000080 19 16 02 bf e0 ea a4 3e 0f ee 8c 3d 91 a0 c9 bd
       -0.5081497 0.32210445 0.068813436 -0.09845079
000090 fa d8 39 3b 46 de 8c 3d 63 59 d4 bc 7c a5 91 be
       0.0028358088 0.06878333 -0.02592153 -0.28446567
0000a0 0f ea 03 3f 00 d3 c6 bd 34 04 8e bd 89 12 77 3e
       0.5152902 -0.09708214 -0.069343954 0.24128164
0000b0 a0 6f a9 bd 45 f7 81 bf af 61 26 3f 49 bb ed bc
       -0.08273244 -1.0153586 0.64992803 -0.029019969
0000c0 b5 57 b6 bc 9d 39 27 bd ef 93 b4 ba 4a fc 03 bf
       -0.022258619 -0.04082643 -0.0013776998 -0.5155684
0000d0 1a f0 e8 3d 2c 6a 28 3f 69 c6 e8 3d f9 9f 3e 3f
       0.11373921 0.65787005 0.11365969 0.7446285
0000e0 3c 41 67 be 3d 10 46 bd e7 59 80 bd d0 3e 36 be
       -0.22583479 -0.04835533 -0.062671475 -0.17797399
0000f0 19 6a d0 3b 99 da 52 bc 80 9b ec bd 11 56 2e be
       0.006360304 -0.012869501 -0.11553097 -0.17025019

_mean_net.2.weight f4 [32, 64]
000000 1e 03 e8 3d dc c6 8b 3b fb 1a 24 3e 96 58 12 bd
       0.113287196 0.0042656492 0.16025917 -0.035729013
000010 44 ba 8d bd e2 26 6a 3d d8 f1 8f 3e 80 90 b4 bd
       -0.06920293 0.057165988 0.281142 -0.08816624
000020 73 7c d9 3d 3c 67 39 bd 9c 9d 32 bc d5 1d 2b be
       0.1061944 -0.045264468 -0.010901835 -0.16710599
000030 76 7c e4 ba 88 40 02 bf d1 14 a4 bd 41 3b c2 bd
       -0.0017432112 -0.50879717 -0.08011783 -0.09483958
000040 cd 4f b3 bc ab 57 41 bc 22 ce 20 3d 4b 1a 07 bc
       -0.021888638 -0.011800687 0.039259084 -0.008246015
000050 db a9 d8 3d dc b6 4a bb c2 16 4f 3e 69 2e a4 3c
       0.10579272 -0.0030931747 0.20223525 0.020041661
000060 e1 15 42 3c 33 ca 59 3e 4a da 27 3e d0 ee fc 3d
       0.011846037 0.21268539 0.16391864 0.12350237
000070 eb ee 1b bc 75 b4 cb bc b9 00 c3 3d 35 ab f1 bd
       -0.009517412 -0.024866322 0.09521622 -0.11800233
000080 51 1a f7 bc 8d 9f e9 3d e7 ee 23 3c af 5d da bd
       -0.030163916 0.11407385 0.010005689 -0.106624
000090 d8 d7 81 bd 53 dd 93 bd 6d 80 34 be 7e 56 98 bd
       -0.06339997 -0.072199486 -0.17627116 -0.07438372
0000a0 ed 85 27 bd 4f 63 23 3e db e6 00 be 9a fd 92 bc
       -0.040899206 0.15955852 -0.12588064 -0.017943192
0000b0 6b bd df 3d b8 66 8a be 46 09 af bd 59 b8 0c bd
       0.109248005 -0.27031493 -0.08546691 -0.034355495
0000c0 ba f1 ba bd c7 da 07 bd 41 79 50 be d5 34 91 3d
       -0.09128137 -0.033167627 -0.20358755 0.07090155
0000d0 99 99 a1 bd 4c af 29 3d 4a f3 76 3d 0e e5 18 bd
       -0.078906246 0.04142694 0.060290612 -0.03732782
0000e0 5a fa 81 bc 26 0c 37 be cb 0c 59 3d 25 74 fe bd
       -0.015866447 -0.17875728 0.052990716 -0.124244966
0000f0 00 af c3 bd 8d c2 8b 3e ff b8 7a 3c 62 87 3e 3d
       -0.09554863 0.27296868 0.015302896 0.04651583
000100 7e 02 29 3c c3 2f e9 3c 44 a7 d7 bd 3c 11 b8 bd
       0.010315536 0.028465157 -0.1052995 -0.08987662
000110 ee f7 fe 3d 5c 9d 8a bc 64 19 3d bd c5 cd e3 3c
       0.124496326 -0.016920738 -0.046166793 0.02780808
000120 dd 2b cc bd 73 be 0a bd 23 a4 24 be 6e 90 8e 3d
       -0.09969304 -0.033873033 -0.16078238 0.069611415
000130 6e 3a 23 be 60 3a 04 bf 75 3d 93 3d 90 a3 e3 bd
       -0.15940258 -0.51651573 0.071894564 -0.111151814
000140 5f dd ef 3c 01 95 2c be 70 55 51 bd 92 db 04 3d
       0.029280363 -0.16853715 -0.05110687 0.03243596
000150 3a 4b 9a 3e 21 49 d5 3d a2 2b 94 bd 60 6d 18 3e
       0.30135518 0.10414339 -0.07234885 0.14885473
000160 9b 62 4c be 28 9d b9 3e 11 6d b1 bd 62 5e 24 3f
       -0.1995949 0.36252713 -0.08663381 0.64206517
000170 d8 d5 f2 3c 07 e9 5f 3d 1b 27 c3 bd 31 bc 06 3e
       0.029642984 0.05466559 -0.09528943 0.13157727
000180 bd d3 09 be 32 75 a0 3d 91 43 40 be 5e b0 63 3e
       -0.13459678 0.07834853 -0.18775775 0.22235247
000190 6b 9c 99 3d 65 1e 15 3c 03 ee 2d 3e d5 36 72 3d
       0.075005375 0.009101485 0.16985326 0.059134323
0001a0 2a 75 91 3d 19 58 5a 3c c2 12 4d 3d a2 b6 1a bd
       0.071024254 0.013326668 0.050066717 -0.03777183
0001b0 7a e2 64 3d 35 71 44 be a0 71 bc 3c 22 71 e8 bd
       0.055880047 -0.1918381 0.0230034 -0.11349703
0001c0 0c bf bd bd 5a 52 c3 3c 9a 51 43 3e b4 9c 76 bd
       -0.09264955 0.02384298 0.19074097 -0.060208037
0001d0 08 ff 1e bd a7 99 ec 3c 9a c6 c5 bd ab 5e 87 3b
       -0.038817436 0.02888186 -0.09657021 0.0041311583
0001e0 d1 86 97 3d d1 83 b2 3e cb 6d 35 bd f1 bd a6 bc
       0.07398761 0.34866193 -0.04429416 -0.020354243
0001f0 e8 c3 23 be 89 84 aa bd 29 1d 03 3d 27 5d e7 bd
       -0.15992701 -0.0832606 0.03201023 -0.11297064
000200 3d 28 96 bc 2c bc 82 3d 5b 5a 76 3e f6 55 cd 3d
       -0.018329734 0.06383547 0.24057905 0.100261614
000210 13 48 a9 bd 1e da 47 bd 09 41 28 3e f2 69 01 3c
       -0.082657 -0.048791997 0.16431059 0.0078987945
000220 b9 ce 0e 3e 39 c4 9a 3d 78 58 98 3d e2 38 ca 3d
       0.13946046 0.07556958 0.07438749 0.09874131
000230 6e 93 77 3d d2 ea b2 3d 64 5b 2c 3d 75 30 8c 3c
       0.060443334 0.08736195 0.042079344 0.01711295
000240 ef 81 a0 3c 1d f0 6f bd f8 01 18 3d d9 64 c1 3c
       0.019593207 -0.0585786 0.037111253 0.023607658
000250 09 75 41 3e c4 99 8a 3d 07 ce 20 bc eb 14 10 3d
       0.18892302 0.0676761 -0.009814746 0.0351762
000260 7a 8d cc 3d 29 11 41 bd 33 ed 51 3d 07 73 17 bf
       0.09987922 -0.047135506 0.0512516 -0.5915989
000270 63 00 40 bb 27 5e 0c be 79 6c bf bd 4a 5e c5 bd
       -0.0029297106 -0.13707791 -0.093468614 -0.09637125
000280 c7 6f 1c bd 75 aa 45 bd 23 e4 d5 3d 0a 28 96 3c
       -0.038192537 -0.048258264 0.10443904 0.018329639
000290 6d dc 98 3d d7 70 1b be 22 ec 4a bd 20 b5 61 3d
       0.07463918 -0.15179764 -0.0495416 0.055104375
0002a0 a8 4f 44 bc 1c 33 42 bb b0 62 c8 bb 13 dd a3 bd
       -0.011981882 -0.0029632514 -0.00611528 -0.08001151
0002b0 1b f2 75 3d 0f 49 8e 3e 03 94 7d 3d df b6 aa 3b
       0.060045343 0.27790114 0.061908733 0.005209788
0002c0 f3 fe 00 be e7 96 8e be 79 d6 d3 bd 9e f1 ec bd
       -0.12597255 -0.27849504 -0.10343642 -0.11569522
0002d0 b1 05 7a 3d b1 7e 5b bd 72 87 10 be 35 d5 97 bc
       0.061040584 -0.05358762 -0.14114168 -0.018534282
0002e0 09 34 5c 3c 27 8e 3c 3e 24 53 be bc cb d9 ee 3a
       0.0134401405 0.18413602 -0.023233004 0.0018222866
0002f0 88 ea 73 bd 24 50 a4 3d 11 6b 9b 3b df 58 fe bb
       -0.05954984 0.08023098 0.004742988 -0.007762059
000300 91 90 76 be 90 c0 83 bd 78 af 56 bc 57 67 6f bd
       -0.24078585 -0.06433213 -0.013103358 -0.058448162
000310 0a eb ca be 7c bc 8c 3c 82 75 a3 be 15 a7 19 be
       -0.39632446 0.01717972 -0.3192559 -0.15005143
000320 e2 fd bd 3c 90 4b a6 3d 16 74 87 3e 84 e3 22 3e
       0.02319235 0.08119881 0.26455754 0.15907103
000330 54 10 77 bb ff 14 52 be d4 80 6f bd 64 24 98 3d
       -0.0037698941 -0.20515822 -0.05847247 0.07428816
000340 4a 9c ac bc fd e5 b5 3d e6 2e 22 3d 18 8d 22 bd
       -0.021070618 0.088817574 0.039595507 -0.03968534
000350 f2 7e 11 be b2 df 9a 3d 85 ac 5e 3e 06 31 22 bd
       -0.14208582 0.07562198 0.21745498 -0.039597534
000360 83 d4 66 be 1b 5c 0a be fa 44 3c bc b5 47 a2 be
       -0.22542004 -0.13511698 -0.011491055 -0.31695333
000370 6a 15 55 bd ab 54 e2 bc 4d 76 bc bc 63 fb 3c bd
       -0.052022375 -0.027628263 -0.023005629 -0.04613818
000380 9e d9 4c 3d b6 aa 47 bd 57 70 0d 3d c9 7d 8a bc
       0.050012223 -0.048746787 0.034530964 -0.016905682
000390 e3 3f d4 be 0e 26 7b 3d f6 cb cf 3c e2 b2 99 bc
       -0.41454992 0.06131559 0.02536581 -0.018762056
0003a0 f6 14 26 be 95 fc bc bd 48 c6 dd bd fb 50 18 bd
       -0.16218933 -0.09227864 -0.10828835 -0.037186604
0003b0 8f ec da bd 1c 39 e3 be 05 76 92 bc 5e 12 4e 3d
       -0.10689651 -0.44379508 -0.017878542 0.050310485
0003c0 f2 73 78 bd a3 89 f5 3d ca 4a 26 bd e4 46 84 3d
       -0.06065745 0.11989143 -0.04059867 0.06458834
0003d0 78 39 4f 3d 6f aa cb 3c 65 8d 8c 3c e2 ad b2 3c
       0.050591916 0.024861543 0.017157266 0.02181143
0003e0 62 c7 c9 3c 84 d8 f6 bd 6d 17 fe 3b ab f2 94 bc
       0.024631206 -0.12053016 0.0077542574 -0.01818212
0003f0 84 2b 21 bd e9 ae 88 bd 44 e1 1b 3d 2b 3d d6 3d
       -0.03934814 -0.066739865 0.038056627 0.104608856

_mean_net.2.bias f4 [32]
000000 8c 1b f7 3e 49 f5 16 bf f1 fe d7 bd 01 d5 ac bd
       0.48263204 -0.58968025 -0.10546673 -0.08439065
000010 f3 18 80 3e a9 2b 04 3f 1a 2c 0d be 87 96 a1 3e
       0.25019035 0.5162912 -0.13786355 0.31560156
000020 23 91 0b 3e a4 ed 15 bd bb bb 51 3e 78 db dd bd
       0.13629584 -0.036603585 0.2048177 -0.10832876
000030 2e d6 6c 3f 09 ae 51 be 12 18 92 be b3 3d a2 be
       0.9251431 -0.20476545 -0.2853399 -0.31687698
000040 91 35 8a 3e 12 99 17 3d 0d 16 8a be ca 4d 80 3d
       0.26993993 0.037011214 -0.26969948 0.06264837
000050 02 56 6c 3c 33 ae 1b be 01 dc d5 3e 70 89 6e 3e
       0.014424803 -0.1520317 0.41769412 0.23294616
000060 d6 17 72 3c d8 ed 9c be ae f8 01 bf cd 8c 00 3e
       0.014776191 -0.3065021 -0.5077008 0.12553711
000070 2b f9 28 3f 23 b0 34 be 98 1d 3b be 82 00 95 be
       0.660052 -0.17645316 -0.18273008 -0.2910195

_mean_net.4.weight f4 [17, 32]
000000 d4 88 40 be 11 ce 6f 3e b4 88 48 be 27 7a 0f be
       -0.18802196 0.23418452 -0.19583398 -0.14011441
000010 15 5c c8 be d7 96 40 be dd da 61 bd a0 c0 2c bf
       -0.39132753 -0.18807541 -0.055140365 -0.6748142
000020 1b ca 80 3d 01 98 3e 3d cd 48 41 bf fb 03 95 bd
       0.062885486 0.04653168 -0.7550171 -0.0727615
000030 e1 d5 8f be 0d 43 5d 3e 72 67 a5 bd 93 4d e0 be
       -0.28092864 0.21607609 -0.08076371 -0.43809184
000040 35 06 34 3c 8b a5 bb 3d 2e 56 65 bc 7a e0 96 3e
       0.010987808 0.09162434 -0.013997598 0.29468137
000050 73 b4 43 bd 2b e7 40 bf 05 08 45 3f 61 c0 5a bf
       -0.04777951 -0.75352734 0.7696536 -0.85449797
000060 74 9e 05 be d8 a7 7c be 0b ec 8f 3e ef 73 57 be
       -0.13048726 -0.24673402 0.28109774 -0.21040319
000070 2e 7e c0 bd ed 70 99 be 6f f5 33 bf b2 0c 04 3c
       -0.09399067 -0.29968968 -0.70296377 0.008059667
000080 03 2d a4 be 9b 3b 7f 3e b5 16 7d be 9a 19 07 3f
       -0.3206559 0.24925081 -0.24715693 0.5277344
000090 7f 2c e4 3d 6e f9 08 3d 59 1a 91 be 79 68 96 bd
       0.111412995 0.033441 -0.28340414 -0.07344145
0000a0 98 97 f7 bd 5d af 1e 3e 6d 2d d5 be 7a 21 e6 be
       -0.12089461 0.15496583 -0.4163622 -0.44947416
0000b0 7c f5 61 3d 1b ad b7 be b6 59 62 be 2a 83 14 3e
       0.055165753 -0.35874256 -0.22104535 0.1450316
0000c0 27 42 88 be 33 fb 18 bf 54 8c ca be fc 4a 26 bf
       -0.2661297 -0.597583 -0.39560187 -0.6495817
0000d0 4b da 92 be c6 5f de bd 92 c6 e8 3c 84 d0 38 be
       -0.2868217 -0.10858111 0.028414998 -0.18048292
0000e0 92 a6 39 3e 89 39 91 be 88 51 c6 bd 9e e0 fa 3e
       0.18129948 -0.28364208 -0.096835196 0.48999494
0000f0 cc cd b4 be b8 c7 5e 3d 25 4a 22 3e 9e a9 e9 3d
       -0.3531326 0.054389685 0.15848596 0.11409305
000100 7e 52 ba 3e 60 f0 39 be 0f af 1a bf 63 48 2f bd
       0.36391062 -0.18158102 -0.6042337 -0.042793643
000110 ca 03 70 3e 46 22 98 bd fd 6e 04 bc 4f cb 22 3f
       0.23438945 -0.07428412 -0.008083102 0.63591474
000120 a1 8c 05 be 76 7b 56 be 8e c7 24 bf 0d 90 5a 3c
       -0.13041927 -0.20945534 -0.64366996 0.013340008
000130 15 71 f2 be 09 12 46 3f f7 fd 27 be 4f e4 19 be
       -0.473519 0.7737127 -0.16405474 -0.15028499
000140 c9 ec ce bd bf cf 99 bf 58 0a b3 3e 68 1d 22 3e
       -0.10103757 -1.2016524 0.3496883 0.1583153
000150 8b bc ca 3d 77 28 5d be 03 23 aa bb 3e 68 f1 3e
       0.09899243 -0.21597467 -0.005192162 0.47149843
000160 09 2f 80 bf 08 5e c2 bc a0 ae 06 bf 54 54 0f bf
       -1.0014354 -0.023726478 -0.52610207 -0.5598805
000170 b9 14 c2 be c6 a3 ea 3d cd 8e 2c be 59 f8 2f 3f
       -0.37906435 0.114570186 -0.16851349 0.68738323
000180 b6 5c 89 3e c5 93 a0 3d 82 59 61 3d f9 e1 01 bf
       0.26828545 0.07840685 0.055017002 -0.5073543
000190 14 46 da be 4f 26 82 3e 92 c9 e9 3e 9e d2 5e bc
       -0.4263159 0.25419852 0.45661598 -0.01360002
0001a0 53 6c 1b 3f e2 23 cf bd 96 dd 86 be 76 60 fa bd
       0.60712165 -0.10114266 -0.26340932 -0.1222543
0001b0 08 8f eb 3e c6 7d a2 3c c1 9e a7 bd b6 d3 bf 3e
       0.46007562 0.019835364 -0.08184577 0.3746621
0001c0 a1 76 6e 3d af 86 27 bf 3e bb 81 bd d1 39 d3 be
       0.058218602 -0.65439886 -0.06334542 -0.41255048
0001d0 75 b4 4e 3e e7 b0 8c bf 6e ca 78 3e de 2d 89 3f
       0.20186026 -1.0991486 0.24295971 1.0717123
0001e0 e7 2f 15 3f dc 4e 5c bc d6 1c c7 be 1c 06 20 be
       0.5827622 -0.013446536 -0.38889188 -0.1562733
0001f0 eb 2f 8d 3e 62 f9 ff 3e d7 d7 0b be 30 99 e9 be
       0.2757562 0.4999495 -0.13656555 -0.45624685
000200 1c 9f d9 be 51 46 de be d6 28 3e bf fc 9f c5 3e
       -0.42504203 -0.43413022 -0.7428106 0.3859862
000210 53 4d 8a be b8 b2 75 bf 35 b0 d5 be 87 88 0c 3f
       -0.2701212 -0.9597583 -0.41735998 0.54895824
000220 60 ea 22 bf 22 e0 02 be da 8d 55 3e 90 42 27 3e
       -0.6363888 -0.12780812 0.20854893 0.16333985
000230 1f 82 37 3f b0 bb ed be 42 d4 25 3e e6 02 b4 be
       0.71682924 -0.46432257 0.16194251 -0.3515846
000240 19 0a 74 3e a2 a0 c7 bd 8a 33 ad 3e be 07 8c 3d
       0.23831977 -0.09747435 0.33828384 0.06837414
000250 e8 bc bb bd 6b cf 2d be 07 12 2c be 1d 98 87 be
       -0.091668904 -0.16973655 -0.16803752 -0.2648324
000260 55 d2 5a be 32 10 b2 be 43 1d 34 3f 0c 60 56 be
       -0.21369298 -0.3477798 0.7035715 -0.20935076
000270 fc 7a af be 40 0d 89 be a7 46 14 3f 2f 88 41 3f
       -0.34273517 -0.2676792 0.57920307 0.75598425
000280 47 3e 58 bf 18 45 a2 be 86 8f 01 bf 2e ce 30 bf
       -0.8447003 -0.3169334 -0.50609624 -0.69064605
000290 a9 98 38 bf 1e f6 ea 3d c7 29 75 3e c1 80 23 be
       -0.7210794 0.114727244 0.23941718 -0.15967084
0002a0 0d 51 64 3e 22 fa af 3d 8f ef 14 3e ea 32 40 3f
       0.22296543 0.08592631 0.1454451 0.7507769
0002b0 d2 82 00 3f 4c 44 0b 3e 4a 5e 0b 3e 77 a3 4a bf
       0.50199616 0.13600272 0.13610187 -0.7915568
0002c0 4c 96 22 be 9a 8d cb 3e da 90 84 3e b7 78 a3 3e
       -0.15877646 0.3975647 0.25891763 0.31928036
0002d0 a2 aa 81 3e 5c 22 37 3e 4c 19 f4 be 5d 9a 4b 3e
       0.25325495 0.17884201 -0.4767555 0.19883104
0002e0 6b 9b 3c be 3c 69 2d bf 6d 6b 4a bd ef 0e a8 3d
       -0.18418662 -0.677387 -0.049418855 0.08205973
0002f0 1b a4 91 be 66 c2 60 bf b8 b3 a1 be 87 40 15 3f
       -0.28445515 -0.8779663 -0.31582427 0.58301586
000300 7b 74 83 be be b3 6b 3e dd cb 1b bc e6 9c 8b be
       -0.25674805 0.23017785 -0.009509054 -0.27268142
000310 c6 5f 05 3e 2c c1 d4 be d5 f2 02 3e a6 a4 32 bd
       0.13024816 -0.41553628 0.12787946 -0.043614052
000320 79 20 a8 bf d0 84 aa 3e aa f7 6c 3f ca bc af 3e
       -1.313491 0.33304453 0.92565405 0.34323722
000330 f5 a2 1b 3f 70 00 88 3e ba 86 20 3e 44 55 7e 3e
       0.6079553 0.26562834 0.15676394 0.24837214
000340 5d a7 06 3e 2f 73 eb be 5d 97 cb 3e a4 a2 21 3f
       0.13149782 -0.45986316 0.3976392 0.63138795
000350 8c 60 68 3d 6f 86 9d bf ce 7e b1 3d a3 8f 58 be
       0.0567327 -1.2306651 0.08666764 -0.21148543
000360 12 e9 2c 3e 51 cc d1 3e 94 02 9d bf c1 2c af be
       0.16885784 0.40976194 -1.2266412 -0.34213832
000370 08 39 db 3c 58 dc 2f 3e c3 4f d8 3e 03 e2 7e 3d
       0.026760593 0.17173898 0.42248353 0.06222726
000380 f6 60 33 3e d4 d8 17 bf 0c 46 35 3f 7b 39 9f be
       0.17517456 -0.5931523 0.7081001 -0.31098542
000390 83 05 b5 be 4c b2 a6 be a0 1e 23 3f 29 76 d2 3e
       -0.35355768 -0.32557905 0.63718605 0.41105774
0003a0 8e 27 26 3f d1 3a c1 be 16 16 87 be ac 23 a7 3d
       0.64904106 -0.37740186 -0.26384038 0.08161101
0003b0 27 8a 2f be 05 dc 87 3f fc 69 12 bf bd b9 9d be
       -0.17142545 1.061402 -0.5719297 -0.3080577
0003c0 11 05 10 3d 09 26 3e 3e fd 82 2e bd 0d f0 0b 3e
       0.03516108 0.18569197 -0.04260539 0.13665791
0003d0 08 43 b1 3d 57 ba 0b bf 42 0e 59 be 3a 5e 1d 3e
       0.08655363 -0.5458121 -0.21196845 0.15367976
0003e0 63 bd 0f bd 2d 74 44 3f b9 1f 06 3f 62 67 2e 3e
       -0.035092723 0.7673977 0.52392155 0.17031625
0003f0 69 d6 c2 3e 01 36 65 bb e9 d1 35 3e 3a cc 30 3e
       0.38054207 -0.0034974816 0.17755856 0.17265406

_mean_net.4.bias f4 [17]
000000 9c e6 0d 3e 22 9a c0 3d f6 2a dc 3e e4 1c e9 bc
       0.13857502 0.094043985 0.43001527 -0.028456159
000010 02 35 1c 3e e9 ef 3c 3f 6b 0a 84 3f 4b 8d 9b bd
       0.15254596 0.73803574 1.0315679 -0.07595309
000020 10 1e 14 be d5 1d 37 3e df 7a d2 3e 06 fd 91 3e
       -0.14464593 0.17882474 0.41109368 0.28513354
000030 a1 48 c8 bd 58 f5 a3 be eb 1d 85 3e 1b 3d 0f 3f
       -0.09779478 -0.3202312 0.25999388 0.55952615
000040 20 81 cd be
       -0.40137577
