run_logs/q2_dagger_humanoid/policy_itr_13.pt (torch, 110342 bytes, 7 tensors)

_logstd f4 [17]
000000 96 e7 9a bf 5a 36 ab bf 9e a5 8b bf 0a cf 8b bf
       -1.2101924 -1.3375962 -1.0909917 -1.0922558
000010 a8 8d 8c bf a4 0d 78 bf db 4c 7a bf 93 fb 90 bf
       -1.098073 -0.96895814 -0.9777352 -1.1326774
000020 3b d5 88 bf f4 14 84 bf 76 7c 86 bf d4 5a c0 bf
       -1.0690073 -1.0318894 -1.0506732 -1.5027719
000030 26 25 ab bf 8f a9 fb bf 90 ed c0 bf b4 1e cc bf
       -1.3370712 -1.966112 -1.5072498 -1.594687
000040 67 c9 f8 bf
       -1.9436463

_mean_net.0.weight f4 [64, 376]
000000 e6 63 1d bf 90 28 6b 3d c0 a1 85 bf bb 9b 19 c0
       -0.6148056 0.05741173 -1.0439987 -2.40013
000010 4d 6c bc be 49 47 be be 17 bd a8 bd ae d5 7b 3d
       -0.36801377 -0.3716376 -0.08239191 0.061483078
000020 4c 7e 38 3e d3 12 d3 bf d4 ca 08 3f 7c d4 88 bf
       0.18016928 -1.649012 0.5343449 -1.0689845
000030 23 34 ce 3e 3a 1b 96 be c0 90 83 bf a3 6b a9 3e
       0.40274152 -0.29317647 -1.0278549 0.33089933
000040 d9 92 f7 3e fc ee e5 3d ef fa 0c 3e c7 46 7c 3e
       0.48354223 0.11227223 0.13767599 0.24636374
000050 99 b6 8e 3e 7a ee c7 3b 89 b5 1e 3d 5a ca 34 3e
       0.27873686 0.0061014267 0.038747344 0.17655316
000060 3c 74 a7 bd aa c5 3d be 96 cc ca bd 4e 8a a6 bd
       -0.08176467 -0.18532434 -0.09902303 -0.08131848
000070 d8 06 36 bd fe 59 1b bd 94 2e c2 bb 96 5f 7a 3c
       -0.04444012 -0.03792762 -0.0059259627 0.0152815785
000080 a7 2e 95 bd f7 bd fd 3c ec 25 8a bc e5 b8 2e bc
       -0.07284289 0.030974371 -0.016863786 -0.0106641995
000090 03 5d 34 3d f6 92 08 3c db 2a ea bb 91 17 80 bd
       0.044034015 0.0083358195 -0.007146222 -0.06254495
0000a0 58 60 49 bc a1 f7 1e bd 06 8e b0 bb 9c ec 6a 3c
       -0.012291037 -0.038810376 -0.0053880243 0.014338639
0000b0 6f bb e0 3c eb 27 d9 3c 73 41 e0 bc 3c 80 78 3c
       0.027433125 0.026508292 -0.027374959 0.015167292
0000c0 8c fb 73 bc e0 44 b9 bb 32 14 4b bd 12 6d c9 bc
       -0.014891516 -0.0056539625 -0.049579807 -0.024588142
0000d0 26 3f e5 3c c3 62 4d bc 8e 66 52 3d b3 9f 32 bc
       0.027984213 -0.012535754 0.051367335 -0.010902333
0000e0 4e 36 a4 bd 3b 83 0e be 12 5b 5a c0 90 11 1e 3f
       -0.0801817 -0.13917248 -3.4118085 0.6174555
0000f0 91 4f 50 3d 45 0c 59 3e bc 49 b4 3d d2 b6 ce 3c
       0.05085713 0.21196087 0.08803126 0.02523366
000100 26 0f 90 3d fe 44 8f be 3b f6 2c 3e 30 ae 0f 40
       0.07034139 -0.27982324 0.16890804 2.2450066
000110 b3 b1 ab c0 4e 81 5b be c4 f0 45 c0 2a 56 64 3f
       -5.365442 -0.21436045 -3.0928202 0.89193976
000120 46 43 24 40 f2 14 16 be e0 f0 ed 3d 98 b4 ad be
       2.566606 -0.14656428 0.11618209 -0.33926845
000130 f0 5a 0d 40 10 dd d9 3f 59 73 ee 40 ed fc c2 3f
       2.2086754 1.7020588 7.4515805 1.5233437
000140 12 6d 07 40 7c c8 99 3f c5 a2 8f 3f 6f 92 0c 3d
       2.1160321 1.2014308 1.1221548 0.034319337
000150 ca a5 04 3e fa e5 93 3f af 23 2c 3e 74 24 6c bf
       0.12953869 1.1554558 0.16810487 -0.92243123
000160 02 8a 0a 3e 82 3e 97 3f 53 92 69 bf 93 aa 87 3e
       0.13529208 1.1815951 -0.912389 0.26497325
000170 1a f0 2b bf 28 7e e0 be c8 8b 84 3d a6 ac 11 3e
       -0.6716324 -0.4384625 0.06471974 0.14226016
000180 87 d1 a8 be 1e 7c 0e c0 5a fa 19 bf e4 3c b9 3f
       -0.32972357 -2.2263255 -0.6014763 1.4471707
000190 32 4a 03 bf 12 5c 01 bf 9d e5 17 be ea 45 3b be
       -0.5128509 -0.50531113 -0.14833684 -0.18288389
0001a0 95 fd 86 3d 18 50 d8 be 69 a0 9f be e0 62 80 bf
       0.06591336 -0.42248607 -0.3117707 -1.0030174
0001b0 10 3a af 3f a6 3f a0 3f ed 61 2c 3e 9a df 00 bf
       1.3689594 1.2519424 0.1683423 -0.5034119
0001c0 4c 37 81 3f 98 c3 30 3d 88 77 d8 3d f7 f3 8e bf
       1.0095 0.043155283 0.10569674 -1.1168202
0001d0 74 bc 8a be dc 0f 1c be b1 28 ee 3f be e1 47 3e
       -0.27096903 -0.15240425 1.8606168 0.19519708
0001e0 5d 3d 0c c0 85 31 ba 3f 73 b3 8b bf ac f7 95 3e
       -2.1912453 1.4546362 -1.0914139 0.2929052
0001f0 c2 c5 01 3e 58 63 3d bf 63 31 ff be cb 4f aa 3f
       0.12673095 -0.7397971 -0.49842367 1.3305601
000200 24 ac 2f 40 58 f1 1c 3f 13 ff ab bf e6 fb 68 3e
       2.7448816 0.6130576 -1.3437217 0.22752342
000210 19 e3 bc be 44 7d b5 3e f0 8a 06 3e fb 2a 0d bf
       -0.36892012 0.35447133 0.13138938 -0.5514371
000220 9f 2c c4 be 70 f0 b9 3f 2e 1a 36 40 fd d4 c4 3d
       -0.38315293 1.4526501 2.845348 0.09610937
000230 58 f1 70 bd b1 5e ad be 25 2e c1 3f 18 0c 8d 3e
       -0.058823913 -0.33861306 1.5092207 0.2754829
000240 f0 f2 eb 3d 90 fa 89 bf bb 6c 13 be 59 42 b6 bf
       0.11520946 -1.0779591 -0.14396946 -1.4238998
000250 b1 29 1a 40 1a 8f 6f 3f 56 3d 6f bf c3 1d fd 3d
       2.4087946 0.9357773 -0.93452966 0.12359192
000260 60 36 c2 3e 9c 68 51 be 41 24 4f 3d 9a 04 21 bf
       0.3793211 -0.20450062 0.050571684 -0.62897646
000270 2b 8a 33 be 8b 14 be bf b3 43 9d 3f c2 ca 82 3f
       -0.17533176 -1.4850019 1.2286285 1.0218127
000280 65 0f f7 be d6 9f 42 bf 3d 56 3f bd 85 d8 03 3f
       -0.48253933 -0.7602514 -0.046713103 0.5150226
000290 26 9b 94 3d d2 8f fd 3d 3c d5 39 be 70 f2 cc 3f
       0.07256155 0.12380947 -0.18147749 1.6011486
0002a0 1f 44 10 c0 5b 22 0b bd 08 a2 9c be 4f c6 2d 3e
       -2.2541578 -0.03396831 -0.3059237 0.1697018
0002b0 9f e6 18 3f bf f0 e4 bd f2 56 1a 3e ff ab ff 3e
       0.597269 -0.11178731 0.1507223 0.4993591
0002c0 8f 51 a9 3e 05 71 00 3f 5a 9e 75 bf e5 a1 d0 be
       0.33070037 0.50172454 -0.9594475 -0.40748516
0002d0 ad 92 9a bf 4f 94 3d be d3 39 77 3f 5e 0e ce bd
       -1.2076012 -0.18513606 0.9657261 -0.10061334
0002e0 5e 23 87 3d ed 1a 42 3d ff 9d 36 bd 73 a7 24 bd
       0.06598543 0.04738896 -0.04458427 -0.040198755
0002f0 3f 87 e5 ba a7 6f e4 bc 2e 2a 97 3c e2 2f a3 3b
       -0.001751162 -0.027885271 0.01845273 0.0049800733
000300 48 05 d9 bd 5d 21 d0 3c 94 00 af bc 15 db ce bb
       -0.105967104 0.025406534 -0.02136258 -0.0063127377
000310 c9 c0 71 be b7 23 d4 bd 10 96 cb bb 99 2a 19 bd
       -0.23608698 -0.103583746 -0.006212957 -0.03739414
000320 7d 69 38 bb 93 02 35 be 5b 99 bb be 1b f3 1e 3d
       -0.0028139048 -0.17676763 -0.36640438 0.038806062
000330 65 fa 8c 3c ef b2 8a 3c 13 6b 29 be 8d ed 37 3e
       0.017209241 0.016931025 -0.16544752 0.17961712
000340 ab ab 8b be b9 b0 42 3d 6d d5 0b bc 36 34 d3 3b
       -0.2727941 0.047531817 -0.008534771 0.006445433
000350 02 81 5d be ae a6 fe 3d cf d2 92 3e be db 2e 3c
       -0.21631244 0.124341354 0.2867646 0.010672508
000360 cd 1b 89 3d 47 02 ee 3b ee ed 61 bd 1d 62 b5 3d
       0.06694756 0.007263455 -0.055158548 0.08856604
000370 13 35 94 bc 34 f9 72 3c a4 46 40 bc 74 8e 05 3c
       -0.018091714 0.0148299225 -0.011735592 0.008151639
000380 9d 6c 31 bc f0 f4 c5 3b 9a 90 19 3c 89 8d d0 3a
       -0.010829118 0.0060411617 0.009372855 0.0015911321
000390 41 07 16 3c 18 73 b0 3c 36 5d 97 3d cb 4f 58 3e
       0.009157003 0.021539256 0.073908255 0.21124189
0003a0 96 3d a8 be 11 f4 2a bd 0e da 84 ba ef 87 da 3b
       -0.32859486 -0.041736666 -0.0010135786 0.0066690366
0003b0 21 0a 2d ba 00 0c 68 bd a0 bc 57 3c 71 c8 92 bd
       -0.00066009356 -0.05665207 0.01316753 -0.071671374
0003c0 35 7d b5 bc 15 b9 2a bc 4b be 69 3d cd 80 bc bd
       -0.02215443 -0.010420104 0.057066243 -0.09204254
0003d0 51 91 39 bd 07 fa 94 bd 73 ea fd bd 69 d3 3d 3d
       -0.0453046 -0.072742514 -0.12398233 0.046344195
0003e0 47 f1 32 be 36 b9 43 3d 0f 25 97 3c 53 06 0f bc
       -0.17474853 0.047784053 0.018450288 -0.008729535
0003f0 cc 2d 02 3d f8 e1 db 3a aa 50 01 be 87 1b 82 3e
       0.031781957 0.0016775718 -0.12628427 0.25411627

_mean_net.0.bias f4 [64]
000000 a7 94 c8 3d d5 06 6d be 47 bb 85 39 fc f1 ad be
       0.09793978 -0.23147137 0.0002550727 -0.33973682
000010 cb 2e 09 3d 23 a3 fc 3d a5 93 62 3d f3 06 b1 3e
       0.03349189 0.12335803 0.055316586 0.34575614
000020 f3 3e be bd 1c 7b 4f 3e 92 91 c4 be 2b 24 8c be
       -0.0928935 0.20261806 -0.3839231 -0.27371344
000030 e0 1b 84 bd be d1 c1 3f 42 48 08 3e db d9 8a be
       -0.06450629 1.5142133 0.13308814 -0.27119336
000040 aa da 90 3e 1d 67 19 3d 7e b3 7a be 2b 70 96 be
       0.28291827 0.037451852 -0.24482533 -0.29382452
000050 fb e7 66 be 2c 48 b1 3d 64 a6 29 3d ea 47 79 bf
       -0.22549431 0.08656344 0.041418448 -0.9737536
000060 c2 cd 2c bd 3a dd 60 3e 1f 33 e4 be 80 30 92 bf
       -0.042188413 0.21959391 -0.44570252 -1.1421051
000070 d4 ae bd 3c 9e 5b ea 3d 9a 80 16 bd 79 c7 80 3b
       0.023154654 0.11443256 -0.036743738 0.003930029
000080 43 4d 17 bf 77 2d e0 3d 97 70 76 3d bc 49 aa bd
       -0.5910227 0.10946172 0.060165968 -0.08314845
000090 30 45 b7 3b 6a 5c b8 3d 82 44 85 bd 1a 0f 96 be
       0.0055929646 0.090020016 -0.065072075 -0.29308397
0000a0 ab ab a9 3e 3e 75 b3 bd c1 3a 24 bd d2 81 97 3e
       0.33138785 -0.087625965 -0.040095095 0.29591233
0000b0 99 62 ae bd 01 ef 81 bf 86 7b 11 3f a6 ee 72 bd
       -0.085149 -1.0151063 0.56829107 -0.059309624
0000c0 3a e8 17 bd 11 ba 42 bd f1 c0 7c bb fa 23 e4 be
       -0.037086703 -0.047540728 -0.003856715 -0.44558698
0000d0 b7 39 ea 3d 43 31 24 3f 74 10 e8 3d b4 5f 16 3f
       0.114367895 0.6413767 0.11331263 0.5873978
0000e0 c1 4e ac be 2d fc 1e bd 1d 8d 39 bd b9 a8 1b be
       -0.33653834 -0.038814712 -0.04530059 -0.15201081
0000f0 63 da fb 3c 67 67 76 bb 95 37 dd bd e7 9a 2d be
       0.030743783 -0.0037598254 -0.10801617 -0.16953622

_mean_net.2.weight f4 [32, 64]
000000 9d f7 00 3d 8d fa 6f 3c a0 3a ef 3d ad 31 6b bd
       0.031486142 0.014647138 0.11681104 -0.05742042
000010 d5 96 bf bd 87 11 27 3d 64 f5 6f 3e ad b1 0e be
       -0.09354941 0.0407882 0.23433453 -0.13934965
000020 57 19 26 3e c6 0e 4b bd cd 45 d7 bc cc 24 32 be
       0.16220604 -0.049574636 -0.0262784 -0.1739685
000030 e9 6c e0 3b 4b 84 09 bf 7d 4d 7c bd 1b 9d 15 be
       0.0068489206 -0.5371749 -0.061597336 -0.14610712
000040 cb c0 70 3c 96 c3 0f 3c bd f6 3f 3d b9 31 54 3c
       0.014694403 0.008774659 0.046866167 0.012951308
000050 82 10 9c 3d 07 69 41 3d b5 33 37 3e ff de 7a 3c
       0.07620336 0.047219303 0.17890818 0.0153119555
000060 2b 54 0d bd 45 16 44 3e a4 6b 5b 3e 19 c0 d9 3d
       -0.034504097 0.1914912 0.2142778 0.10632343
000070 fc ab 0b bd 81 cd 9d 3c 9c be 1f 3c 6d 0b 3f be
       -0.034099564 0.019263031 0.009750035 -0.18656702
000080 4b 7e e7 3b 33 0b 50 3e 05 00 f2 3b c3 42 86 bd
       0.007064616 0.20316772 0.0073852562 -0.065557025
000090 b5 ce 87 bd f8 50 4b bd 54 0e 2b be 1f 86 d8 bd
       -0.06631223 -0.049637765 -0.16704684 -0.105724566
0000a0 08 29 94 bd 06 79 8b 3e dc e7 48 be 0e 60 6a bd
       -0.072343886 0.2724077 -0.19619697 -0.05722051
0000b0 3f 85 cf 3d 87 30 90 be e0 8d fd bd bc 2a 12 bb
       0.101328366 -0.28162023 -0.12380576 -0.0022303304
0000c0 c4 d3 04 be 0d ba c8 bd 2a 5c 1b be 2f 6e e8 3d
       -0.12971407 -0.09801111 -0.15171877 0.11349141
0000d0 ec 21 5e bd db 6e 74 3d 64 2b 54 3d 56 6e 09 bd
       -0.05423157 0.059676033 0.051799193 -0.03355249
0000e0 65 88 ce 3c 20 20 4d be ab 6e 84 3d d7 a3 1d be
       0.025211522 -0.20031786 0.06466421 -0.15394531
0000f0 73 9a 77 bd 1f 67 b5 3e dc 6c 51 3d 5d 0b 75 3d
       -0.06045003 0.35430238 0.051129207 0.05982529
000100 13 bf 81 3d 3d aa 2c bc 01 fe 9e bd 75 db 0d be
       0.06335273 -0.010538635 -0.07763291 -0.13853247
000110 e0 ed ec 3d ee b2 5e bd ff cc 7c bd 8b 1f 1a bd
       0.115688086 -0.05436986 -0.061718937 -0.037627738
000120 0f e9 9b bd 3d c0 a4 bc dc 78 23 be ab 37 83 3d
       -0.07612812 -0.020111198 -0.15964073 0.06407102
000130 c7 9d 48 be ef f3 d2 be db 14 c2 3c f9 70 26 bd
       -0.19591437 -0.41201732 0.023691585 -0.040635083
000140 cd fe dd 3c 3c 81 b5 bd f3 73 d4 bd f8 ed ce 3d
       0.027099038 -0.0886254 -0.10373678 0.10103983
000150 78 cf 86 3e 6f 23 75 3c b1 81 51 bd 59 91 fc bb
       0.2633016 0.014962061 -0.051149074 -0.0077077565
000160 0f bf f8 bd fd be c1 3e 2d 63 b6 3b b3 67 30 3f
       -0.121458165 0.37841025 0.005566022 0.6890823
000170 7c 96 8d 3d 53 a4 8e 3c 3a d1 16 be 0c c6 0c 3e
       0.06913468 0.01741234 -0.14728251 0.13747424
000180 b0 14 40 be 19 65 c4 3d 0b 3f 2a be 92 07 4d 3e
       -0.18757892 0.09589595 -0.16625611 0.20022419
000190 ec 19 19 3c 96 2b 8a bb 70 81 5f 3e c0 1a 21 bb
       0.009344559 -0.0042166216 0.2182672 -0.0024582595
0001a0 55 d3 80 3d ef 2a b5 3c e4 6b 89 3d fd dd 1a bd
       0.062903084 0.022115199 0.06710032 -0.03780936
0001b0 93 c9 a6 3c f9 f3 e1 bc fa 4b 65 3d 78 1a 00 be
       0.02035979 -0.027582156 0.05598066 -0.12510097
0001c0 71 46 5c bd 12 47 fe 3d ad b9 cc 3d 8a 1f 04 bd
       -0.053778116 0.12415899 0.09996352 -0.03225664
0001d0 2a e0 80 3c f6 0b 0f bc 2c 01 b9 bd 19 4e 86 bc
       0.01573189 -0.008730879 -0.09033427 -0.016394662
0001e0 43 7d ae 3c b7 0c 9e 3e ed b3 5a bd 73 4a d7 3c
       0.021299964 0.30869076 -0.053394247 0.026280617
0001f0 65 fc aa bd b3 29 a2 bd 9c f4 2d 3c 1c f3 c5 bd
       -0.08348922 -0.0791811 0.010617401 -0.0966551
000200 59 e9 f6 3c d9 be 16 3d 94 d2 59 3e ab 27 62 3d
       0.030140566 0.0368031 0.21271735 0.05521361
000210 7a 7a 7a bc 26 f6 ce bc f3 cb 1c 3e c7 96 36 3d
       -0.01528799 -0.025263857 0.15312175 0.044577386
000220 c9 94 1a 3e 42 f6 69 3d 0c bf 44 bc b2 1b 56 3d
       0.1509582 0.057119615 -0.01200844 0.052272506
000230 c8 71 9e 3d 2b 0b 35 3d 55 2d ea 3c 7b 5e ed bb
       0.07736546 0.044200104 0.02858607 -0.007243929
000240 bb 63 3d 3c 77 73 51 bc 09 2e 48 3d 5b 9f d0 3c
       0.011559422 -0.012783877 0.048872028 0.025466612
000250 03 3b 21 3e 85 32 bc bc 21 c8 09 bd ca 28 bf bb
       0.15745167 -0.022973308 -0.033638123 -0.00583372
000260 a6 fa 24 3d ad ea 59 bc b3 6d 22 3d 3f 7e fd be
       0.0402781 -0.01330058 0.0396554 -0.4951038
000270 2d ff 25 bd ad 70 12 be 34 8a 0f bd d6 2d 8c bd
       -0.040526558 -0.14300795 -0.03504391 -0.0684468
000280 27 19 7f bb cb 71 dc bc 9d 02 05 3d 97 c2 0d bd
       -0.0038924904 -0.02690973 0.032473195 -0.034609403
000290 c6 0e 57 3d 7a 92 2e be 86 af 5a bd 31 ee 8f 3d
       0.052504323 -0.17048064 -0.05339005 0.07027853
0002a0 57 9f 9d 3c 9d 2c 38 3b d5 63 0c bd e2 f0 77 bd
       0.019241018 0.0028102763 -0.034274895 -0.060532458
0002b0 34 bc f9 3d 13 5f 24 3e 25 80 eb bc 88 b5 96 bc
       0.121941 0.16051893 -0.028747628 -0.018397108
0002c0 a6 5d 16 be 40 72 b1 be 70 f6 1a be 08 1d b5 bd
       -0.14684162 -0.34657478 -0.15133071 -0.08843428
0002d0 0d 90 19 3d 0f a1 79 bd a1 03 d0 bd 50 25 8d bd
       0.037490893 -0.060944613 -0.10156942 -0.068918824
0002e0 c7 8e 24 3b 0b 4c f4 3d 26 62 3d bd 4a 76 d9 3b
       0.0025109516 0.119285665 -0.04623618 0.0066364156
0002f0 a4 59 80 bd 16 1d e7 3d ff 58 8c 3c 03 4a b9 bc
       -0.062670976 0.112848446 0.01713228 -0.0226183
000300 0b bc 82 be 85 df 81 bd 13 1c 6e bd 49 dd f5 bc
       -0.2553409 -0.06341461 -0.058132242 -0.030012744
000310 34 0c af be 7d 83 a0 bc 3c 6e 8f be c6 e5 97 bd
       -0.34188998 -0.019593948 -0.2801379 -0.07416873
000320 4c 51 15 3d 62 da 87 3d f0 f6 81 3e 37 c9 0d 3e
       0.036454484 0.0663345 0.2538371 0.13846289
000330 e4 8e f9 bb ce c1 bd bd 48 4c 22 bd a8 84 1c 3d
       -0.007615911 -0.09265481 -0.03962353 0.03821245
000340 6f 5a 65 bd 65 45 9a 3d d2 d4 8d 3c b9 54 7c bc
       -0.055994447 0.07532767 0.017313395 -0.015401059
000350 87 81 20 be 95 13 10 3e 00 e1 86 3e 16 fc ab bd
       -0.15674411 0.1406997 0.26343536 -0.08397691
000360 a4 a5 3b be 3f a5 f3 bd b9 dd f9 3b bd 47 a2 be
       -0.18324906 -0.118967526 0.0076253084 -0.31695357
000370 86 50 cc bc 05 7a 0d bd 7a 63 54 bc 37 0f 5d bd
       -0.02494074 -0.034540195 -0.01296317 -0.053969588
000380 c9 50 d0 3d 32 2b 34 bd bd 45 21 3d 6b ce 01 bd
       0.101716585 -0.043986507 0.03937315 -0.031690996
000390 e7 fa b3 be ed 38 9e 3d 13 05 3f 3d 60 4a 02 bc
       -0.3515236 0.077257015 0.0466357 -0.007952303
0003a0 bb 66 37 be 5d 91 7b bd fc 86 f6 bd 44 20 f8 bc
       -0.17910282 -0.061417926 -0.12037465 -0.030288823
0003b0 79 ca b7 bd ca e3 ce be d5 15 3a 3d 69 70 da 3c
       -0.089741655 -0.40408164 0.045430977 0.02666493
0003c0 4f 9d 85 bd 69 a4 31 3e a8 6a 6e bd 91 1f c0 3d
       -0.06524145 0.17347874 -0.058207184 0.09381021
0003d0 d4 c3 75 3c ec 80 1b 3d 73 99 03 ba 0a a7 58 bc
       0.015000302 0.037964746 -0.0005020119 -0.013223419
0003e0 a6 6c d9 3c 0e f9 cf bd 10 5e 1e 3d e0 50 54 bc
       0.026541065 -0.10154925 0.038663924 -0.012958735
0003f0 47 0d da bd ea 9d 18 be c1 2e 19 3d 77 73 6a 3d
       -0.10647064 -0.1490399 0.037398104 0.057239022

_mean_net.2.bias f4 [32]
000000 59 44 f5 3e 79 b6 00 bf 16 0f 49 be ca 87 83 bd
       0.47903708 -0.5027843 -0.19634661 -0.06422384
000010 49 6d be 3e d6 20 f9 3e 2d aa 1f be 0d 1f 96 3e
       0.37192753 0.48657864 -0.1559226 0.29320565
000020 58 f3 35 3e e7 ae 1e 3d 65 18 3a 3e 52 21 bf bd
       0.1776861 0.03874102 0.18173368 -0.09332527
000030 b5 34 53 3f bf de 8d be 0a 42 66 be 97 83 b6 be
       0.825023 -0.27709004 -0.2248613 -0.3564727
000040 e0 b9 8d 3e 15 b8 e5 3c eb 83 ba be 52 17 bf bc
       0.27680874 0.028041879 -0.3642877 -0.02332655
000050 0e 25 31 bd 45 e5 d6 bd f0 95 dc 3e 36 76 6e 3e
       -0.04324823 -0.104929484 0.43083143 0.23287281
000060 56 3c a4 3c e0 a4 a0 be 44 b4 ed be a7 f6 76 3e
       0.020048302 -0.3137579 -0.46426594 0.24117528
000070 5b 51 04 3f 3d a4 a5 bd 8a 07 83 be 0b f2 40 be
       0.5168664 -0.080879666 -0.2559169 -0.18842332

_mean_net.4.weight f4 [17, 32]
000000 3b e5 23 be b8 5f 1b 3e aa 82 15 be 82 7e 2e be
       -0.16005413 0.15173233 -0.14600626 -0.17040446
000010 bf f3 c1 be e5 fb 90 be dc c2 1e be 03 e6 44 bf
       -0.37881276 -0.2831718 -0.1550402 -0.7691347
000020 3b 5b 73 3e fc b1 29 bb b8 13 06 bf f9 76 e4 3d
       0.2376527 -0.002589344 -0.5237384 0.11155505
000030 0f 67 76 be b9 50 d4 3e db df b9 bd 91 79 fd be
       -0.24062751 0.41467836 -0.090759 -0.4950681
000040 b3 df 30 be 77 6e 07 3f 53 64 cf bc da 37 6a 3e
       -0.17272834 0.5290293 -0.025316393 0.22872868
000050 1b 42 60 bd a2 fc 0c bf 0a 7a 65 3f 23 b9 32 bf
       -0.054750543 -0.5507299 0.8963934 -0.69813746
000060 0f c9 97 bd ae a4 7c be 2a ff 9b 3e ba 77 e6 bd
       -0.07411396 -0.24672195 0.30468112 -0.11253305
000070 cd b7 4e be ad b2 ba be 00 be f5 be d1 f6 83 3c
       -0.20187302 -0.36464444 -0.4799652 0.016108902
000080 13 96 97 be 81 c1 81 3e 3f 75 b2 be 41 85 16 3f
       -0.29606685 0.25342944 -0.34855077 0.5879708
000090 71 93 46 3e 5c 00 82 bd 02 d4 9e be db 9c 26 be
       0.19392182 -0.06347725 -0.31021124 -0.16270773
0000a0 87 05 c4 bd 95 e9 47 3e ed 0d 18 bf 52 63 f3 be
       -0.09571367 0.19522698 -0.5939625 -0.47536713
0000b0 d4 1b 38 3c e4 17 b1 be d2 50 09 be 7c 78 95 3d
       0.0112371035 -0.3458854 -0.13409737 0.07298371
0000c0 18 8d 6d be e5 28 04 bf d7 f7 df be 39 56 02 bf
       -0.23198354 -0.516249 -0.43743774 -0.50912815
0000d0 c9 ab 73 be 20 84 03 be 01 e3 63 3c 5a 49 55 3b
       -0.23796 -0.1284337 0.013909102 0.0032544942
0000e0 85 1b 83 3e 9a f9 89 be 91 d8 07 3e 3c 9f c6 3e
       0.25606933 -0.26948243 0.13266207 0.3879336
0000f0 89 a6 d5 be 05 53 b2 3a 67 c4 40 3e 20 96 4d 3e
       -0.4172862 0.0013605064 0.18824922 0.200768
000100 0d b9 93 3e 9b 2e 89 be 9f 19 39 bf 26 2a ea bc
       0.2885212 -0.2679337 -0.7230472 -0.028584551
000110 ef d3 dd 3d 39 94 fc bd 8b e9 c5 bd 2f b5 15 3f
       0.10831439 -0.12332959 -0.096636854 0.5847959
000120 c6 5f f0 bb 6c 07 30 be b8 05 0e bf 5e 91 7e 3d
       -0.007335636 -0.17190331 -0.55477476 0.06215035
000130 1c 85 df be 32 16 82 3f 82 87 a2 3b 0a d9 23 bd
       -0.43656242 1.0163023 0.0049600014 -0.040001906
000140 95 b0 e0 bc be 2c 68 bf e7 18 9f 3e 2b 9e ec 3d
       -0.02742795 -0.9069327 0.31073686 0.11553606
000150 f2 1a b7 3d 8a 7e b5 bd 97 f7 f4 3e 7c 81 b7 3e
       0.08940686 -0.08862026 0.47845146 0.35840976
000160 b3 79 88 bf 72 40 e5 be d8 a7 4e be 9e f5 e0 be
       -1.066214 -0.4477573 -0.20181215 -0.4393739
000170 cc 48 aa be 07 42 ed 3d c6 39 4a be a4 9b 1b 3f
       -0.33258665 0.11584859 -0.19748601 0.60784364
000180 a2 31 94 3e de d6 3d 3d 04 9d 9c bb fa 9f 0c bf
       0.28944117 0.04634749 -0.00477946 -0.54931605
000190 1d e9 d4 be 91 7a 9c 3e 62 33 b0 3e 66 68 ea bd
       -0.415841 0.3056226 0.34414202 -0.11445694
0001a0 42 b8 f8 3e 2e 0b 95 bd cc 15 00 bf 82 2e b7 be
       0.48578078 -0.07277523 -0.5003326 -0.3577767
0001b0 cb d9 c6 3e b8 d5 8a 3c f8 c7 33 be 84 f4 bb 3e
       0.38838038 0.016947612 -0.17556751 0.36709988
0001c0 5f 44 2c 3e 4a 51 09 bf bd d5 cb bd f2 f3 9a be
       0.16822957 -0.5363966 -0.09952877 -0.3026424
0001d0 41 41 18 3e bf 81 58 bf bb 66 f3 3e 98 70 74 3f
       0.14868642 -0.84572977 0.47539315 0.95484304
0001e0 4c f8 db 3e 49 d7 34 3e c2 fc f7 be d1 2e 0d bd
       0.42962873 0.1766025 -0.48435026 -0.034468476
0001f0 b8 7c 1f 3e 87 77 2f 3f 27 ba 9e be 65 44 01 bf
       0.1557492 0.6854176 -0.31001398 -0.50494987
000200 7c f5 c9 be fc 11 e8 be a9 70 4d bf 3e ee d9 3e
       -0.39445102 -0.4532622 -0.8025003 0.42564577
000210 75 d2 3b be bc 14 60 bf f0 64 d6 be 26 ad b8 3e
       -0.18342002 -0.8753164 -0.41873884 0.36069602
000220 51 66 35 bf 3e 56 24 be ba 09 bf 3e 4c 4b 2f 3e
       -0.7085925 -0.16048524 0.37312108 0.17118567
000230 cd f3 26 3f 0c ab ec be 5c 53 99 3e 0b dc 8b be
       0.6521576 -0.46224248 0.2994641 -0.27316317
000240 28 4f 85 3e 58 51 27 be 01 f9 94 3e 91 45 b5 3d
       0.26036954 -0.16339624 0.29096225 0.08851159
000250 bd f5 66 bd 13 ca 8e be f3 37 e6 bd 86 3c e2 bd
       -0.056386698 -0.27888545 -0.1124114 -0.110467
000260 c3 97 6e bd b4 a3 ad be 67 e2 56 3f 0a 15 72 be
       -0.0582502 -0.33913958 0.8393921 -0.23640838
000270 24 c7 ac be f9 fc b2 be a8 14 e1 3e ed 7c 21 3f
       -0.33745682 -0.34958628 0.43961072 0.63081247
000280 24 e8 53 bf b0 4a 7a be 6a ad 22 bf d1 e3 31 bf
       -0.82776093 -0.24442554 -0.6354586 -0.69488245
000290 33 74 0b bf 4c 5a 9c bd 9f f1 9f 3e 66 9b ce bd
       -0.5447418 -0.0763441 0.3123903 -0.10088234
0002a0 22 ad c9 3e ce c7 b5 3d 0a 9b 27 3e 50 e5 f8 3e
       0.39389902 0.08876 0.16367736 0.48612452
0002b0 7c aa 0a 3f f1 a8 2a bc 2e e0 5b 3e 3d 57 62 bf
       0.5416639 -0.010416255 0.21472237 -0.88414365
0002c0 2d 24 f2 bd 81 c3 de 3e 43 ed b9 3e ce 89 a1 3e
       -0.11823306 0.43508533 0.3631383 0.3155045
0002d0 06 08 95 3e 0a f2 94 3d a2 2b 1f bf b7 2c d9 3e
       0.29107684 0.07272728 -0.62175953 0.42416927
0002e0 77 a7 07 be 23 02 eb be 26 6d 45 be 21 5c 07 3e
       -0.13247477 -0.45900068 -0.19279918 0.13218738
0002f0 11 a3 2a be fe c2 7e bf 29 72 30 be a7 5e 26 3f
       -0.16663767 -0.99516284 -0.17231049 0.6498818
000300 6b da b3 be 76 41 95 3e 71 a3 d3 be cc 64 6f be
       -0.35127577 0.29151505 -0.41335633 -0.23378295
000310 d1 4d d7 3b e5 07 83 be 35 5f 4d 3e 78 1b 70 3d
       0.0065705557 -0.2559196 0.2005585 0.058619946
000320 75 82 a1 bf f5 af 99 3e 6f a7 5f 3f c7 b0 55 3c
       -1.2617937 0.30017057 0.8736486 0.013042635
000330 2f 82 f0 3e df 2e 00 3e c7 e9 6b 3e e5 6f 2e 3e
       0.46974322 0.1251788 0.23038398 0.17034872
000340 ea 45 3b 3e 58 b2 47 bf 6c 8a c3 3e f1 33 06 3f
       0.18288389 -0.78006506 0.38191545 0.52423006
000350 da 71 45 3d 45 87 36 bf 5f a2 d6 3e 86 92 f3 be
       0.04820428 -0.71300155 0.41920754 -0.47572726
000360 00 7f 2c 3e 52 e8 a1 3e 6d 57 9a bf 70 c4 cd be
       0.16845322 0.3162256 -1.205793 -0.40188932
000370 0f 2c 50 3e 9c ff c3 3d c4 13 8d 3e 48 bc 38 bd
       0.20329307 0.09570238 0.27554142 -0.045101434
000380 64 f3 44 3e f5 ef 00 bf 33 b0 3b 3f a5 b4 b1 be
       0.19233471 -0.50366145 0.73315734 -0.34708133
000390 be 22 b4 be 67 96 b4 be a0 5e 39 3f 65 20 0c 3f
       -0.35182756 -0.35270998 0.7241001 0.5473693
0003a0 7a 36 1a 3f 75 ab bb be 1b 0c 76 be 2a 52 b2 bc
       0.60239375 -0.3665425 -0.24028055 -0.021767695
0003b0 a8 a4 21 be 7a 7c 8b 3f 6b 32 fa be ab 85 8b be
       -0.15785468 1.0897362 -0.4886659 -0.27250418
0003c0 96 ba 11 3d a6 30 1e 3e 6d 68 14 3d b8 1f a2 3d
       0.035578333 0.15448245 0.0362324 0.07916206
0003d0 d3 f8 f1 3c 69 86 f3 be c4 55 77 be 99 94 1b 3e
       0.029537594 -0.47563484 -0.2415381 0.15193404
0003e0 25 63 8b bd ce 0c 6a 3f 07 73 cc 3e 70 ee 18 3e
       -0.0680602 0.9142579 0.3993151 0.14934707
0003f0 57 cc dd 3e 76 d8 2e 3e 70 18 00 3e 7a 66 04 3d
       0.4331996 0.17074761 0.12509322 0.03232429

_mean_net.4.bias f4 [17]
000000 3e d2 5a 3e 4f 1d 1d 3d 7a 2b d4 3e ba ed 53 bd
       0.21369264 0.03835803 0.4143942 -0.051740386
000010 9a 1f e3 3d e2 97 25 3f 32 47 6b 3f 9c 95 0e bd
       0.11090012 0.6468488 0.9190551 -0.034810647
000020 33 38 15 be 74 8f 1a 3e 0f d9 a9 3e ec 28 9d 3e
       -0.1457222 0.15093786 0.33173415 0.30695283
000030 b6 6e 60 bc 10 61 82 be 78 08 a9 3e f7 e2 1c 3f
       -0.013698271 -0.25464678 0.33014274 0.6128382
000040 ba 05 b4 be
       -0.3516062
