run_logs/q2_dagger_humanoid/policy_itr_7.pt (torch, 110267 bytes, 7 tensors)

_logstd f4 [17]
000000 04 78 96 bf 6a 9e a7 bf e8 80 82 bf 78 50 89 bf
       -1.1755376 -1.3095219 -1.0195589 -1.0727682
000010 ce cf 8c bf ea c3 69 bf dd 4b 6f bf 54 dc 89 bf
       -1.1000917 -0.91314566 -0.93475133 -1.0770364
000020 26 2e 82 bf c7 76 80 bf 00 52 73 bf 8c bd b4 bf
       -1.0170333 -1.0036248 -0.95047 -1.4120345
000030 b3 d0 a9 bf 61 93 f7 bf 45 7d bb bf a9 d5 c9 bf
       -1.3266815 -1.9341851 -1.4647604 -1.5768329
000040 ad f7 f7 bf
       -1.937246

_mean_net.0.weight f4 [64, 376]
000000 56 a4 23 be 5c 41 7a 3d 55 f0 70 bf 56 11 0a c0
       -0.15980658 0.061097488 -0.9411672 -2.157308
000010 64 49 cf be 6d de 40 bf 15 5a 09 3f b2 2c 0d 3e
       -0.4048568 -0.75339395 0.5365308 0.13786581
000020 00 ec e5 be 2a bb f9 bf e2 22 39 3f c9 09 9e bf
       -0.44906616 -1.9510243 0.7231885 -1.2346736
000030 d3 6e 4b 3f e8 c1 f5 be 2c 26 fe be 09 69 0f 3d
       0.7946598 -0.479995 -0.49638498 0.03501228
000040 6d f5 42 3f 40 fd d4 3e 29 74 ef 3e 49 bc b4 3e
       0.7615574 0.41599464 0.4676831 0.352999
000050 8b 60 e4 3e 6b c3 be 3c 8f bc 4d 3d 3a 64 41 3d
       0.44604906 0.023286542 0.05022865 0.047214724
000060 99 97 04 bf b0 96 61 be c8 a5 f3 bd 5f f4 3f be
       -0.5179382 -0.22030139 -0.11896855 -0.18745564
000070 21 01 26 bd b4 b8 e9 3c 19 af 15 3d e3 3c 19 3d
       -0.04052842 0.028530456 0.03654394 0.03741158
000080 b8 eb 1d bd 95 01 e4 3d 55 86 8b bd ea d2 92 bb
       -0.038554877 0.11133114 -0.06812731 -0.0044807093
000090 d8 04 33 3d 22 68 89 3c fa ae 05 bc 55 6b df bd
       0.04370579 0.016773287 -0.008159393 -0.10909144
0000a0 9d db 44 bd f6 58 ae bd e5 e0 f7 3c ba 22 5d 3d
       -0.048061002 -0.08513062 0.030258605 0.053988196
0000b0 fd 63 91 3c eb 27 d9 3c 73 41 e0 bc 3c 80 78 3c
       0.017747873 0.026508292 -0.027374959 0.015167292
0000c0 8c fb 73 bc e0 44 b9 bb 32 14 4b bd 12 6d c9 bc
       -0.014891516 -0.0056539625 -0.049579807 -0.024588142
0000d0 26 3f e5 3c c3 62 4d bc 8e 66 52 3d 66 90 0c bd
       0.027984213 -0.012535754 0.051367335 -0.034317397
0000e0 98 91 22 be 36 fa 33 3f 0a 0b 70 c0 e9 c9 63 3f
       -0.15875852 0.70303667 -3.7506738 0.88979965
0000f0 a9 91 ef 3d 1b e3 32 be 1b ee c5 3e a0 7f 19 bc
       0.11697704 -0.17469446 0.38658223 -0.009368807
000100 50 cb 6e 3d ea 3f 39 be 87 ed 86 3e 30 66 0c 40
       0.058299363 -0.18090788 0.26353094 2.193737
000110 96 8d c7 c0 85 db ef be 71 44 ac bf 99 db 80 3f
       -6.2360334 -0.46847168 -1.3458387 1.0067016
000120 fe e0 df 3f 03 65 ce bd 69 47 d5 3d 84 0e fa 3e
       1.7490537 -0.1007786 0.10414011 0.488392
000130 3b 37 b6 3f 88 09 bb 3f e3 07 ad 3f 55 a7 83 3f
       1.4235605 1.4612284 1.3518032 1.0285441
000140 a3 21 be 40 df 10 f8 3f 82 26 5d 3f 48 58 e3 3d
       5.941606 1.9380149 0.86386883 0.11100823
000150 2f a2 f0 3d 93 48 5e 3f 29 d4 fa 3d 59 5e 02 be
       0.11749684 0.8682949 0.122474976 -0.12731303
000160 c0 a4 94 3f 34 eb 40 3f 48 23 3f bf b9 86 23 3f
       1.1612778 0.7535889 -0.7466321 0.63877445
000170 33 f0 23 bf e8 a2 9b be a1 c4 57 3d 00 24 1f 3d
       -0.6403839 -0.30397725 0.052677754 0.03885269
000180 b0 15 52 be 85 fc 83 bf 87 a1 a1 bd 13 05 90 3f
       -0.20516086 -1.0311438 -0.07892137 1.1251549
000190 a9 9e 0a be e8 67 1f be 73 d6 fb bc e6 93 5b bd
       -0.13537087 -0.15566981 -0.030741906 -0.053607844
0001a0 38 a8 5c 3d ec 24 b2 be 75 0a 5f be 58 82 b8 be
       0.053871363 -0.34793794 -0.21781333 -0.36036944
0001b0 5c 29 97 3f 24 86 8a 3f 58 70 02 3f ff ab be bd
       1.1809497 1.0822186 0.5095267 -0.093101494
0001c0 4a 2e 78 3f 3b 5d 0d 3e 13 ce bf 3d 94 96 48 bf
       0.9694563 0.13805096 0.093654774 -0.78354764
0001d0 17 c7 0c 3e d4 a7 79 3e 04 96 b5 3c 5e 13 4b 3f
       0.13747822 0.24380428 0.02216626 0.79326427
0001e0 0c f1 f7 bf 08 6b 01 40 2d 70 91 bf 14 17 1b 3e
       -1.9370437 2.0221577 -1.1362358 0.15145522
0001f0 09 e2 ea 3d d8 ac 19 bf 90 f2 95 be ec 32 ed 3f
       0.11468894 -0.60029364 -0.29286623 1.8531165
000200 59 73 89 3f 20 a9 68 bd 31 d2 ba bf 43 6f 10 be
       1.0738326 -0.056801915 -1.4595395 -0.14104943
000210 3f 8a 3a bf 71 6a ad 3e 8a 6c f4 3d 88 0e fc be
       -0.72867197 0.3387027 0.11934765 -0.49229836
000220 0d 89 92 be 29 f6 0b 40 9a e2 e8 3f a2 82 d6 be
       -0.28620186 2.1868994 1.8194153 -0.4189654
000230 1f d1 ab be a4 84 32 bf 54 22 6c 3f a2 22 bc 3e
       -0.33557984 -0.69733644 0.9223988 0.36745173
000240 7b 49 d3 3d 71 7c 4c bf 31 b4 0a bf 7b f0 2f bf
       0.1031675 -0.7987738 -0.541812 -0.6872632
000250 1e 7c 4c 3e 91 42 d1 3f 91 99 7e bf 42 a9 da be
       0.19969222 1.634844 -0.99453074 -0.42707258
000260 63 87 a3 3e 9b 91 c0 be 4e d1 1d 3d b5 15 8c be
       0.3193923 -0.37611088 0.038529687 -0.2736031
000270 89 3a 1b bf 03 cc ba bf b0 95 c7 3f 42 90 64 40
       -0.6063619 -1.459351 1.5592556 3.5713048
000280 13 bd 8d bf 5c 2a 81 bf f4 09 42 3d f8 f1 c9 be
       -1.1073326 -1.0091052 0.047372773 -0.3944242
000290 69 e3 77 3d f1 d2 46 3e 04 c2 56 be 45 a3 89 3f
       0.06051961 0.19416405 -0.20972449 1.0752951
0002a0 c8 cd 32 c0 39 93 37 bf d8 1e 12 bf 48 35 76 3e
       -2.79381 -0.7170902 -0.57078314 0.24043763
0002b0 a7 78 44 3f cc 8c 55 bd 36 02 0e 3e d1 66 49 3f
       0.767466 -0.052136227 0.13868031 0.7867251
0002c0 f6 f7 a3 3b c0 65 00 3f 55 04 ed bd cb 2d 79 bf
       0.0050039245 0.5015526 -0.11573092 -0.973355
0002d0 c2 e8 c8 bf f4 ae e8 be c3 13 a1 3f 32 85 db 3d
       -1.5696032 -0.4544598 1.2584156 0.10718764
0002e0 c2 f3 5c 3d ed 1a 42 3d ff 9d 36 bd 73 a7 24 bd
       0.053943403 0.04738896 -0.04458427 -0.040198755
0002f0 3f 87 e5 ba a7 6f e4 bc 2e 2a 97 3c 17 d6 35 bd
       -0.001751162 -0.027885271 0.01845273 -0.044393625
000300 8c b7 83 bd 2c 45 ee 3d e1 27 8a 3d eb 0e 70 3e
       -0.06431493 0.11634287 0.067458875 0.23443191
000310 90 d6 92 bd 6e 8e 00 3c 06 38 15 bd c7 f8 9d 3d
       -0.07169831 0.007846458 -0.03643038 0.07713466
000320 eb ad df bd d3 88 ad be 6e ba 59 be 23 2e bc bb
       -0.10921844 -0.3389345 -0.21262524 -0.0057428046
000330 ff d3 9b 3b 05 04 94 bd c5 29 75 be 8d 33 92 3d
       0.0047554965 -0.07227329 -0.23941715 0.07138739
000340 65 76 54 be 2c 6b 04 3d d8 d0 3d bd e3 53 ac bc
       -0.20748289 0.03232877 -0.046341747 -0.021036094
000350 c2 48 87 be 00 a8 d2 3d fe 97 aa 3e 71 0e c2 bb
       -0.26422697 0.1028595 0.33319086 -0.0059221317
000360 3b 2c 82 3d 92 ba 61 bc 3f 63 d2 bd ca 31 dd 3d
       0.063560925 -0.013777392 -0.10272836 0.10800512
000370 1a fb 8d 3c 20 4d e7 ba f2 c2 77 bc 3e 2d 53 bc
       0.017331649 -0.0017646886 -0.015122162 -0.012889205
000380 b8 33 6f bd 8a bb d0 3c 49 7c 37 3d 91 56 f2 3d
       -0.058398932 0.02548005 0.044796262 0.118329175
000390 1d f7 03 bc 5f 41 61 3d bd f0 87 3d 07 46 01 3f
       -0.008054522 0.054993983 0.06637714 0.5049748
0003a0 70 d9 9b bb ed d5 a7 bd 03 b0 c2 bc 11 14 33 bb
       -0.004756145 -0.081951 -0.02376557 -0.0027325193
0003b0 d8 c7 45 3d 8b f9 0a be 36 1e 1b 3c 3a 24 e5 bd
       0.04828629 -0.13571756 0.009467652 -0.1118855
0003c0 da ef 37 bd fb 60 a2 bc 34 1d d9 3d db 36 2f be
       -0.044906475 -0.019821635 0.10601273 -0.1711077
0003d0 dc b8 48 bd 43 31 28 be 21 cb c0 bd 62 d3 a5 3d
       -0.04900442 -0.16425042 -0.09413744 0.08096959
0003e0 98 a4 3d be 26 fd b8 3e df 2a 36 bc af 46 a5 3c
       -0.18519819 0.36130637 -0.01111862 0.020175306
0003f0 25 c4 73 3c ed a0 48 3d e6 42 14 be 2f 51 cf 3d
       0.0148783075 0.048981596 -0.14478645 0.101229064

_mean_net.0.bias f4 [64]
000000 31 eb af 3d 2e d1 ce bd 08 1f f4 bb cd 60 aa be
       0.08589781 -0.100984916 -0.0074499883 -0.33276978
000010 d6 17 dd 3c 60 57 23 3e 10 fa 51 3d 3f ac 35 3e
       0.026988905 0.159513 0.05126387 0.17741488
000020 73 a6 9c bd c6 83 a9 3e d1 08 ea be ce 07 78 be
       -0.07648935 0.33108348 -0.4570985 -0.24221727
000030 da 6e 4a bd 77 dc 72 3f a7 7f af 3d 18 6c 77 be
       -0.049422123 0.9486765 0.085692696 -0.24162328
000040 0a 03 cc 3d 28 0b a9 bc a0 ed 77 be fa 8c 8c be
       0.09961517 -0.020635203 -0.2421174 -0.27451307
000050 4c db 77 be 63 32 e5 3d 0d 81 a8 3c 72 02 32 bf
       -0.24204749 0.11191251 0.020569349 -0.6953498
000060 f8 10 56 bd 97 1c 6b 3e 2f 56 64 be 05 4b 5f bf
       -0.052262276 0.22960125 -0.22298501 -0.87223846
000070 48 d0 a1 3d 51 35 ad 3c fa 28 af bc d4 06 e8 38
       0.079010546 0.021143587 -0.021381844 0.00011063894
000080 f7 a8 fa be 3e 89 33 3e c1 2f 72 3d 6f cb 90 bc
       -0.48957035 0.17532822 0.059127573 -0.01767513
000090 9c ac 41 3d a2 f6 be 3d 78 b0 ff bd 50 53 9a be
       0.047283754 0.09324385 -0.124848306 -0.30141687
0000a0 a9 b1 88 3e ab 98 13 bd 6f 98 45 bc 87 cf 9b 3e
       0.26698044 -0.036034267 -0.012060269 0.30431768
0000b0 86 89 80 bd 11 4a 4b bf 44 f1 de 3e fb db ae bd
       -0.062762305 -0.7940989 0.43543446 -0.08538052
0000c0 f1 10 88 bd 5f d1 2d bd 57 97 2e bd 82 e0 bb be
       -0.06643856 -0.042436 -0.042624798 -0.36694723
0000d0 f7 3b 1d 3e 8d d7 18 3f 9d 13 17 3e 7a ee 02 3f
       0.15354906 0.59703904 0.14753576 0.51145136
0000e0 f2 29 78 be 12 c5 bc bc 55 24 b5 bc c2 b0 4f bc
       -0.24234751 -0.02304319 -0.022112051 -0.01267642
0000f0 60 52 50 3d 65 50 38 3c 37 8b 80 bd 2e 4d 76 be
       0.05085981 0.011249636 -0.06276553 -0.24052879

_mean_net.2.weight f4 [32, 64]
000000 8e 0f 60 bd 4b 88 8b 3d 5e 45 a1 bc 05 0e cf bd
       -0.054702334 0.06813105 -0.019686397 -0.10110096
000010 8d 35 8f be 54 b9 b5 bd 9f b5 1e 3e 45 23 64 be
       -0.27970544 -0.08873239 0.1549897 -0.2227908
000020 28 0e 9a 3c 37 dc c3 bd 29 14 b8 bd 93 14 1d be
       0.018805578 -0.09563487 -0.0898822 -0.1533988
000030 55 54 8e 3d 2f 93 0b bf 98 0b d0 bc 61 d9 18 be
       0.06949679 -0.5452146 -0.025396153 -0.14926673
000040 57 de 33 bd 63 16 2d 3c 6f bb 03 3e bd ce 28 bd
       -0.04391321 0.010564419 0.12864469 -0.041212786
000050 58 02 ab 3d 87 54 ee 3b 17 f4 1d 3e af 1d 5d be
       0.083500564 0.00727326 0.15425144 -0.21593355
000060 db 01 c3 bd fb fd 6d 3e a1 b3 e6 3d 42 ee 7e 3e
       -0.09521838 0.23241417 0.1126473 0.24895576
000070 60 e7 97 bd ba 0c 5f bd 24 63 93 3d a7 ae 45 be
       -0.07417178 -0.054455496 0.07196644 -0.19304906
000080 b4 9c 2a 3d de d1 0f 3e 0c a6 b5 bc 47 62 62 bd
       0.04165335 0.14044902 -0.022173904 -0.055269506
000090 a8 82 bf bd b0 ca 14 be fb b8 e1 bd c0 e7 c8 bd
       -0.093510926 -0.14530444 -0.1102161 -0.09809828
0000a0 c2 d9 c2 bd 90 ef 71 3e 61 d2 c9 be af fe 8b bc
       -0.0951419 0.23626542 -0.3941832 -0.017089216
0000b0 42 d7 16 3d 02 8f 84 be 45 63 2a be 65 06 b9 3c
       0.03682638 -0.25890356 -0.16639431 0.022586057
0000c0 03 4b 49 be cd 6d 87 be b4 18 1d 3d 80 56 3a bd
       -0.19657521 -0.2645096 0.038353637 -0.04549265
0000d0 37 05 56 bd bb 62 23 bb d9 0b eb 3c 1a 03 a1 3d
       -0.052251067 -0.0024930674 0.028692173 0.0786192
0000e0 82 4c a2 bb d4 3a 6c be 3c 10 8f 3d 79 9b 3e be
       -0.004952968 -0.23069316 0.06985518 -0.18613996
0000f0 df d9 fc bd cb 74 d2 3e 92 ec c7 3c 5f 8c 8d 3d
       -0.12346243 0.4110473 0.024404798 0.06911539
000100 bc b7 be 3d cb 41 03 bd 7e f9 14 be 02 8f 09 be
       0.09312388 -0.032045167 -0.14548299 -0.1343346
000110 83 1f 29 3e 79 6d 22 bd 43 0c a8 bc d2 b5 61 bc
       0.16515927 -0.039655183 -0.02051366 -0.0137762595
000120 30 0b 26 be 7c 66 82 bd a3 3f 6b be 63 95 db 3d
       -0.16215205 -0.063672036 -0.22973494 0.10721853
000130 1a 16 28 be f9 2a ac bd 55 2f 08 3d 4f 79 97 3d
       -0.16414681 -0.08406634 0.033248264 0.07396185
000140 af 04 2d 3d fe 39 2d 3d b9 ad 97 bd 4b b5 57 3d
       0.042240795 0.042291634 -0.07406182 0.05266313
000150 72 a3 2f 3e 25 64 a2 3d 5f 00 d4 bd 5a bb 66 bd
       0.17152193 0.07929257 -0.10351633 -0.056331016
000160 2b 8f 01 be e2 61 80 3e df 34 95 3d 3e dd 0b 3f
       -0.1265227 0.2507468 0.07285475 0.54634464
000170 69 d2 39 3d 00 40 cf bd 28 c8 78 be 5d f7 97 3c
       0.04536668 -0.10119629 -0.24295104 0.01855057
000180 3b fb 08 be 8f 43 13 3d 23 42 f8 bd dc ee e4 3d
       -0.13377087 0.0359531 -0.121219896 0.11178371
000190 3c a0 07 bc 37 ce a0 3c cc eb 4f 3e 3e ea 08 bd
       -0.008277949 0.01962958 0.20304793 -0.033426516
0001a0 0c de 86 3d ea 09 cd 3d 95 1c 4c 3e 7e 7a 94 bd
       0.06585321 0.100116566 0.19932778 -0.07249926
0001b0 8f 00 7e bd 97 54 19 3e 9e a9 0e 3e 68 34 03 be
       -0.06201225 0.14973675 0.13931891 -0.1281296
0001c0 fc a7 48 be 4c e0 10 3e f7 bd 1f bb 81 84 10 3e
       -0.19595331 0.14148062 -0.0024374702 0.14113046
0001d0 68 c8 2c bc 7b 67 a9 bd 76 fc 91 bd 91 5a ee 3a
       -0.010545827 -0.082716905 -0.07128231 0.001818495
0001e0 f1 94 c0 3c e8 78 38 3e 51 71 02 3d 1b d0 bd 3d
       0.02350852 0.18014872 0.03184635 0.092682086
0001f0 4a 1a fa ba 34 db 55 bd d8 c0 80 bd e9 ae 6e bc
       -0.0019081321 -0.052211 -0.06286782 -0.014568069
000200 ae 7c 80 bd 98 6b c0 3d b3 ce 51 3e 91 31 1e 3d
       -0.06273781 0.09395522 0.20489006 0.03862149
000210 c0 db 7d 3b 31 f3 47 bc 73 9d 6e 3e 63 cd 83 3d
       0.0038735718 -0.012203977 0.2330225 0.06435659
000220 73 59 6f 3e 45 41 10 3d 9b 67 63 bd 5e 6c 05 bd
       0.23373966 0.035218496 -0.055518728 -0.03257405
000230 74 93 16 3d e3 51 91 bd 81 3a c4 3c 97 64 c2 3c
       0.036761716 -0.07095697 0.023953678 0.023729606
000240 9b f1 34 bd 22 47 c7 bc 5b a0 71 3d 9c a4 7f bc
       -0.044175725 -0.024325911 0.058990818 -0.015603211
000250 0e 80 57 3d 24 6e dc bc e7 a1 99 bc 55 99 9a 3d
       0.052612357 -0.026907988 -0.018753959 0.07548777
000260 60 6f ad 3c 3d 06 84 bd e3 b4 07 3e 2b 5e d8 be
       0.021171272 -0.06446502 0.13252597 -0.42259344
000270 89 8e d8 bc a1 2f 5e bd ce ca b2 bd 5c 8c 4e bd
       -0.026435154 -0.05424464 -0.08730088 -0.050426826
000280 8b 73 48 3c d1 5a 39 3d dc a6 60 bd c6 e0 94 bc
       0.012234579 0.045252625 -0.05484663 -0.018173587
000290 b5 98 32 bd c4 b2 2e be 95 d9 69 bd c1 26 4d 3d
       -0.043602664 -0.17060381 -0.057092268 0.050085787
0002a0 a1 93 8c bc 0b 22 fa 3c 3c b9 ea bd 53 4f 94 bd
       -0.017160239 0.030533811 -0.11461112 -0.072416924
0002b0 ec 5c 17 3e 29 93 aa bd 2c 17 b4 bd d5 99 d3 3b
       0.1478154 -0.0832885 -0.08793482 0.006457547
0002c0 62 da e6 bd 44 3d 61 be b7 55 42 be 02 8e f1 bd
       -0.11272122 -0.21996027 -0.1897801 -0.11794664
0002d0 ef 40 07 bd 52 96 ce bc 88 39 cf bd 0c 1b 00 be
       -0.03302091 -0.025218163 -0.10118395 -0.12510318
0002e0 02 30 24 3d 5a fb e1 3c 44 e0 47 bc 34 d7 f2 bc
       0.040084846 0.027585674 -0.012199465 -0.029643632
0002f0 47 b6 08 bd 5a 51 bb 3d 67 1f 2a 3d 42 4c db 3b
       -0.03337696 0.09146376 0.041533854 0.0066924402
000300 fc b8 f2 bd f7 f5 fc bc 86 4d 37 bc 66 58 5f bd
       -0.11851689 -0.030879004 -0.011187917 -0.054527663
000310 45 f9 94 be 38 b4 ac bd f3 37 72 be a5 61 df bc
       -0.29096428 -0.084328115 -0.23654155 -0.02726824
000320 4d 23 9c 3d a9 71 83 3d 9e e6 9b 3e 93 7e c4 3d
       0.076239206 0.06418163 0.30449384 0.095944546
000330 8d e7 03 3d 4d 76 66 3d 72 c2 9a bd 2b d9 84 3c
       0.032203246 0.056265164 -0.07556619 0.016216835
000340 ae 85 9e bd df 9c eb 3c a7 ee b9 3b 10 8c 8b bb
       -0.07740341 0.028761325 0.0056742015 -0.00425864
000350 0e b3 18 be ad f6 5b 3d 82 6b 33 3e 19 6f a9 bd
       -0.14912054 0.053702045 0.1752148 -0.08273143
000360 2a 9f 56 be 3e 64 94 bd 34 29 3e bc c5 7e 8f be
       -0.20959154 -0.07245682 -0.011606503 -0.28026405
000370 67 84 1e 3c 9d 40 89 3c 0d df 96 3d b0 7b 54 3d
       0.009675122 0.016754443 0.07366762 0.05187577
000380 f8 23 13 3e c2 96 8d bc bf 74 b8 3d dd 65 af 3c
       0.1436919 -0.017283801 0.090066426 0.021410877
000390 98 9f 94 be 54 7f be 3c 61 29 ce 3c 40 19 57 3c
       -0.2902801 0.023254074 0.025166215 0.013128579
0003a0 5f ac 07 be bf 74 88 bd 8f 67 fb bd ef f7 d8 bd
       -0.13249348 -0.066628926 -0.122756116 -0.105941646
0003b0 13 50 c6 bc bf 61 c0 be d1 06 a8 3d a0 71 0d 3d
       -0.024208104 -0.37574574 0.08204425 0.03453219
0003c0 44 3b 14 be ad 23 7d 3e 1f 93 00 be 03 ea fb 3d
       -0.14475733 0.2472064 -0.12556122 0.123004936
0003d0 1d ee 2b bc e9 53 e4 bc b0 08 e5 3b 03 eb 1e bb
       -0.010493782 -0.027872043 0.006989561 -0.0024248965
0003e0 48 44 f3 bc 86 12 e5 bc a5 5d c7 3b 1b 9e 31 bc
       -0.029695645 -0.027962934 0.0060841613 -0.010840918
0003f0 45 38 23 be 58 01 92 be c9 be 38 3d 6b 19 3b bc
       -0.15939434 -0.2851665 0.045103822 -0.011419634

_mean_net.2.bias f4 [32]
000000 b9 94 e9 3e 4d 4c ba be 53 2b 45 be b8 91 93 bd
       0.4562128 -0.36386338 -0.19254808 -0.07205528
000010 0d cf 15 3f 5e 2a 01 3f 31 c0 a7 bd ea 4b 70 3e
       0.5851906 0.5045527 -0.081909545 0.23466459
000020 9c c6 49 3e db 1d 3c 3e ed 29 29 3c d5 b4 a0 bd
       0.1970467 0.18370764 0.010324937 -0.07846991
000030 5e f4 49 3f f2 af 3d be 19 13 37 be 0f f6 af be
       0.788885 -0.18524149 -0.17878379 -0.34367415
000040 1c 29 73 3e fd b9 86 bd 23 cd 19 bf 07 f6 58 be
       0.2374615 -0.06578443 -0.6007864 -0.21187602
000050 7e bf 8d bd 55 b0 69 be 2d 3c c2 3e 53 f2 8d 3e
       -0.0692129 -0.22821172 0.37936535 0.2772394
000060 31 43 be bc d7 b7 e9 bd ee 25 e6 be c7 96 bb 3e
       -0.023225399 -0.11412018 -0.44950813 0.3663847
000070 f3 82 b7 3e 21 72 f6 3c b7 bf 3f be 1c 9b 31 be
       0.35842094 0.030083718 -0.18725477 -0.17344326

_mean_net.4.weight f4 [17, 32]
000000 de 25 f0 bd 51 b5 52 3e 15 63 21 be 3b 77 6b be
       -0.117259726 0.20576979 -0.15760453 -0.22994702
000010 b6 c6 d8 be 3a f7 88 be cd c8 aa be e1 50 2b bf
       -0.42339104 -0.2675112 -0.33356324 -0.66920286
000020 b0 72 9c 3e db 02 03 3d ff 38 72 be f5 6b 14 3e
       0.3055625 0.031985145 -0.23654555 0.14494307
000030 1f 42 be be 56 87 e0 3e 18 ee 94 be ec 7d fd be
       -0.3715982 0.43853253 -0.290879 -0.49510133
000040 e2 4c 11 bf e0 56 30 3f 13 60 72 bc d8 2e 65 3e
       -0.5675794 0.6888256 -0.014793414 0.2238115
000050 bc 00 58 bd 80 71 ed be 4a 26 58 3f 3d e0 f3 be
       -0.052735075 -0.46375656 0.84433424 -0.47632018
000060 3e d5 1a 3d ab 5e 6c bd dc 90 e3 3d 04 67 13 bb
       0.03780102 -0.05770747 0.11111614 -0.0022491822
000070 ad 00 7c be 93 fc de be 7d 28 9b be 4a 9b 13 3e
       -0.24609633 -0.43552074 -0.30304328 0.14414707
000080 68 c5 87 be c4 a9 85 3e b9 23 d5 be 3e 71 10 3f
       -0.26517797 0.26106083 -0.41628817 0.56422794
000090 e0 80 02 3e 4e 11 54 be 98 63 c1 be ea 48 02 bf
       0.12744474 -0.20709726 -0.37771297 -0.5089251
0000a0 cb 1f da 3c fa 1e 92 3e 08 b3 0a bf e1 7d cc be
       0.026626488 0.28539258 -0.5417943 -0.39939788
0000b0 54 d3 af 3d d1 b2 40 be 77 93 e2 bd 25 3a 8c 3e
       0.085852295 -0.18818213 -0.11063283 0.2738811
0000c0 61 0f 0c be 32 67 13 bf c8 eb a8 be 66 32 9c be
       -0.13677742 -0.5757934 -0.32992387 -0.305072
0000d0 b8 b2 72 be a1 4e 3f 3d 0d 3b 84 bd 2a 91 bc 3d
       -0.23700988 0.046705846 -0.064565755 0.09207375
0000e0 87 19 5e 3e 0f 28 2f be 8b 7c 8e 3e 16 41 bb 3e
       0.21689425 -0.17105125 0.27829394 0.36573094
0000f0 56 30 b1 be 7c 60 46 be 06 7e 7a 3e 9e 1f 48 3e
       -0.3460719 -0.19372743 0.24462137 0.19543311
000100 ef f3 09 3d 43 56 e2 be ae b4 e5 be d6 23 4f be
       0.0336799 -0.44206437 -0.4486441 -0.20228514
000110 d8 40 98 bd 7d b7 54 be 43 0e 64 bc 25 30 47 3f
       -0.07434243 -0.2077312 -0.013919416 0.7780784
000120 29 0e 36 3e 24 11 fc bc 4c e8 3d bf f5 59 1e 3e
       0.17778839 -0.030769892 -0.7418258 0.15464003
000130 d7 b1 c5 be 20 37 81 3f 27 40 82 3e 49 8d b2 3d
       -0.38612244 1.0094948 0.2543957 0.08718354
000140 33 eb e2 bd fa cf ac be a4 f6 7d 3e 10 15 5e 3e
       -0.11080017 -0.33752424 0.24801117 0.21687722
000150 2f 6c 38 3e aa 1f f8 bd 67 2a ef 3e ee 6f a2 3e
       0.18010019 -0.121154144 0.46712038 0.3172602
000160 d9 f7 95 bf ff 27 f5 be f8 fd 05 bc d2 f2 ba be
       -1.1716262 -0.47882077 -0.008178227 -0.36513382
000170 16 1d 63 be d2 0b 9e 3e 92 3b e2 3d d7 8c b0 3e
       -0.22179064 0.30868393 0.110465184 0.34482452
000180 6c e1 0c 3e 16 81 ef bc 7f ec 9a bd 85 7a 91 be
       0.13757867 -0.029236358 -0.07564639 -0.28413787
000190 59 b3 f5 be 29 1c 9f 3e 1f c1 93 3e 1e 33 32 be
       -0.47988394 0.31076172 0.28858277 -0.17402312
0001a0 c9 c4 b3 3e eb 02 8d bd 00 81 6b bf d6 8a 1b bf
       0.35111073 -0.06885322 -0.91993713 -0.6075872
0001b0 0c 4d ef 3e e2 c8 b8 3d e2 97 7a be fe 4b 7d 3e
       0.4673847 0.0902269 -0.24472001 0.2473602
0001c0 81 96 89 3e 7f c3 1d bf f2 40 de bd f2 98 7a be
       0.26872638 -0.6162643 -0.10852231 -0.24472407
0001d0 36 1a 18 3d 2e e4 d5 be db 95 21 3f 72 63 33 3f
       0.03713437 -0.4177565 0.63119286 0.70073617
0001e0 fe 07 b5 3e 72 7d c3 3e a2 67 c6 be 07 29 6c 3e
       0.3535766 0.38181645 -0.3875094 0.23062526
0001f0 a3 d9 11 3e fe 88 25 3f 1f e7 77 be d7 58 18 bf
       0.14243178 0.6466216 -0.2420926 -0.5951056
000200 a7 c9 bf bd 0d 49 dd be c5 15 69 bf c2 af f1 3e
       -0.09364634 -0.43219796 -0.9104884 0.47204405
000210 6e 89 bb bd 32 ed 3a bf d5 73 b5 be aa ad 92 3e
       -0.09157072 -0.7301818 -0.35439935 0.2864812
000220 83 55 f7 be 31 18 11 be 6f 67 0a 3f 79 57 a8 3d
       -0.48307428 -0.14169385 0.5406408 0.08219809
000230 74 c4 b6 3e 8e 49 0b bf b1 96 5c 3e 2c 3c ba be
       0.35696757 -0.5440911 0.21541859 -0.36374032
000240 c3 64 1f 3d 27 74 8d 3e 43 3e 7b 3e 8f 4b 1a 3e
       0.038914453 0.2762768 0.2453547 0.15067886
000250 1e 32 03 3e 39 e9 1a be 82 06 38 be cf 44 09 bd
       0.12812087 -0.1512803 -0.17971233 -0.033512887
000260 fb 74 40 be e3 7d c6 be 06 6a 0f 3f 7c c5 8c be
       -0.18794625 -0.3876792 0.56021154 -0.2749442
000270 ce 0d a3 be 05 e1 f3 be 7a a5 c9 3e 6a 4d f2 3e
       -0.3184647 -0.47632614 0.3938406 0.47324687
000280 c5 fa 1b bf 63 04 66 be d8 50 2a bf 00 24 6a bf
       -0.6092952 -0.22462611 -0.6652961 -0.9146118
000290 2f 7f ab be ce c0 89 bd 42 74 03 3f 3c 82 2f 3d
       -0.3349547 -0.06726228 0.5134927 0.04284881
0002a0 7f 60 d2 3e 01 ed d6 3d b1 d0 df 3d 14 a3 ca 3d
       0.41089246 0.10494424 0.109284766 0.09894386
0002b0 42 88 8d 3e 46 fd da bd f9 ea aa 3e 27 f5 6a bf
       0.2764302 -0.10692839 0.33382395 -0.9178032
0002c0 05 d6 63 be 53 0a 92 3e c6 ca ef 3e 1d e4 0f 3f
       -0.2224961 0.28523502 0.4683439 0.5620745
0002d0 0d 20 95 3e d3 f2 c4 bc 1f d7 0f bf f6 82 58 3e
       0.29126015 -0.024041569 -0.56187624 0.21143708
0002e0 d1 ee a2 bd cf b1 86 be 17 10 8a be 69 d3 85 3e
       -0.07955707 -0.26307532 -0.269654 0.26137856
0002f0 92 59 26 bd df de 63 bf 32 68 b9 be 09 b8 aa 3e
       -0.040612765 -0.8901195 -0.36212307 0.33343533
000300 30 e8 82 be 31 a2 94 3e 5d bf 41 bf 80 74 08 be
       -0.2556777 0.29029992 -0.7568262 -0.13325691
000310 d3 47 ce 3d 2f 60 56 bd 07 0d 4c 3e 33 bd 56 3e
       0.10072293 -0.05233782 0.19926845 0.20970611
000320 4d 75 a9 bf 4b e7 2e 3d 9b 96 07 3f 7f 6a f0 bd
       -1.3238922 0.042701047 0.5296418 -0.117390625
000330 57 c6 e8 3e 5a e9 91 3d 8b c4 c1 3d 7e 85 68 3e
       0.4546382 0.071245864 0.09461316 0.22707173
000340 b0 8d af bd 04 7c a1 be d6 ab c1 3e 07 7d 04 3f
       -0.085719466 -0.3153993 0.37826413 0.51753277
000350 1b 07 b9 3d d7 8e f3 be 63 61 3e 3f 1b 97 28 be
       0.090345584 -0.47569916 0.7436735 -0.16463892
000360 f4 ff 92 bd 35 b4 88 3e b6 b9 90 bf 93 9d c2 be
       -0.071777254 0.26699987 -1.1306674 -0.38010845
000370 06 51 a9 3e eb 19 28 3e fa ae f9 3d 19 63 78 be
       0.33069628 0.16416137 0.12191577 -0.24256553
000380 fe d2 d9 bc fe d7 b6 be 82 3c 5a 3f 24 83 cd bd
       -0.026589867 -0.35711664 0.8524858 -0.10034779
000390 5e 54 89 be 83 55 9f be 7a d5 14 3f 5d 4a 0a 3f
       -0.2682218 -0.31119928 0.5813824 0.5401972
0003a0 f6 98 b2 3e 4a 46 f8 be 06 35 8a be ef 43 93 be
       0.34882325 -0.48491126 -0.2699358 -0.28762767
0003b0 cd 9d dc bd 31 d4 25 3f 05 18 ce be ed c3 95 be
       -0.107722856 0.64776903 -0.402527 -0.29251042
0003c0 55 64 d0 3e 6d 63 a7 3d 1a 48 e3 bd 1c df 41 3e
       0.40701547 0.08173261 -0.11097737 0.18932766
0003d0 bf 57 46 3d 88 87 99 be da e7 a0 be 60 8c 14 3e
       0.048423525 -0.29986215 -0.3142689 0.14506674
0003e0 de b6 0e be 35 32 51 3f a1 0d 09 3f 60 f3 4d be
       -0.13936946 0.81717235 0.5353642 -0.20112371
0003f0 02 43 9e 3e b5 3f e2 3e e1 88 1b 3d 69 e1 0f 3e
       0.30910498 0.4418923 0.037972335 0.14050831

_mean_net.4.bias f4 [17]
000000 60 7a 34 3e 28 f1 35 bd 97 44 c0 3e 98 0d 43 be
       0.17624807 -0.044419438 0.3755233 -0.19048154
000010 78 d8 f0 3c 31 1a 44 3f b6 60 29 3f f8 21 3f 3e
       0.029400095 0.76602465 0.66163194 0.18665302
000020 77 6b 72 bc 48 5f 05 3e 54 8a 65 3e b6 3b 1f 3e
       -0.014796129 0.13024628 0.22416049 0.15550122
000030 20 ab 8c 3c d9 bc 31 be 0c d2 a1 3e 4e 8f 1d 3f
       0.017171443 -0.17357196 0.31605566 0.6154679
000040 6f 0b 74 be
       -0.23832487
