run_logs/q2_dagger_humanoid/policy_itr_17.pt (torch, 110342 bytes, 7 tensors)

_logstd f4 [17]
0	0xbfa540ff	-1.291046
1	0xbfb530c5	-1.4155508
2	0xbf93cdcb	-1.1547178
3	0xbf929cc1	-1.1454087
4	0xbf91ad8e	-1.138109
5	0xbf852fbd	-1.0405194
6	0xbf855ee8	-1.0419588
7	0xbf990e72	-1.1957533
8	0xbf90ac26	-1.1302536
9	0xbf8ff21e	-1.1245763
10	0xbf8f77a4	-1.1208386
11	0xbfc90520	-1.5704689
12	0xbfb34995	-1.400683
13	0xc0036841	-2.0532382
14	0xbfca61b3	-1.5811065
15	0xbfd77291	-1.6831838
16	0xc0014bf6	-2.0202613

_mean_net.0.weight f4 [64, 376]
0	0xbf721bd4	-0.9457371
1	0x3d515e18	0.051115125
2	0xbf58ce9b	-0.84690255
3	0xc031ef4d	-2.7802308
4	0xbeb49176	-0.35267228
5	0xbeb5fe49	-0.35545567
6	0xbe835228	-0.25648618
7	0x3c8118d7	0.015758915
8	0x3e297a98	0.16550672
9	0xbfcc0865	-1.5940062
10	0x3f0e3641	0.55551535
11	0xbf7e3dc6	-0.9931301
12	0x3eb371f9	0.35047892
13	0xbeaf51fb	-0.34242234
14	0xbf71e84a	-0.9449507
15	0x3ec54e7b	0.38536438
16	0x3ee588b3	0.44830856
17	0x3d1b613c	0.037934527
18	0x3d7b7867	0.06139412
19	0x3e2835fe	0.16426846
20	0x3e943431	0.2894607
21	0x3d0b8382	0.034060962
22	0x3d2277ed	0.03966515
23	0x3e0be13b	0.13660137
24	0xbc143b1c	-0.009047296
25	0xbe27faec	-0.16404313
26	0xbd68d47b	-0.056843262
27	0xbcf942f0	-0.030427426
28	0xbd155652	-0.036459275
29	0xbca2560c	-0.019816421
30	0xbc17cc3f	-0.009265005
31	0x3d124599	0.035710905
32	0xbd7313c7	-0.059345033
33	0x3cf529ae	0.029927101
34	0xbc0cd5dd	-0.008595911
35	0xbbeb0634	-0.0071723703
36	0x3d0924c5	0.03348233
37	0x3a99d144	0.001173534
38	0xbc17feba	-0.00927704
39	0xbd81687f	-0.06318759
40	0xbcb042e8	-0.021516278
41	0xbce22333	-0.027604675
42	0xbb51beea	-0.0032004663
43	0x3c4a5cdd	0.012351242
44	0x3ca06a58	0.019581959
45	0x3cd927eb	0.026508292
46	0xbce04173	-0.027374959
47	0x3c78803c	0.015167292
48	0xbc73fb8c	-0.014891516
49	0xbbb944e0	-0.0056539625
50	0xbd4b1432	-0.049579807
51	0xbcc96d12	-0.024588142
52	0x3ce53f26	0.027984213
53	0xbc4d62c3	-0.012535754
54	0x3d52668e	0.051367335
55	0x3c839c58	0.016065761
56	0xbd545c15	-0.05184563
57	0xbf1d0d6b	-0.613486
58	0xc06263fe	-3.537353
59	0x3f07941c	0.5296037
60	0xbc98144b	-0.018564364
61	0x3ea9c266	0.33156127
62	0x3d83c7a7	0.06434565
63	0x3d46b256	0.04850992
64	0x3dae3592	0.085063115
65	0xbe9ed764	-0.31023705
66	0x3dfebe6b	0.12438663
67	0x4010e9b2	2.2642636
68	0xc0dc22ca	-6.8792467
69	0xbe31be44	-0.17357737
70	0xc05cd4f7	-3.4504983
71	0x3f6a6a68	0.91568613
72	0x402c041e	2.6877513
73	0xbe2c2276	-0.16810021
74	0x3e060b9a	0.13090363
75	0xbf3995cb	-0.7249419
76	0x402e401c	2.722663
77	0x3fea828f	1.8321093
78	0x412300fc	10.18774
79	0x3f8f9a33	1.1218933
80	0x3ff0c018	1.8808622
81	0x3f870b2b	1.0550283
82	0x3f4ddb0c	0.80412364
83	0xbd9f53b5	-0.07779638
84	0x3e13b8ee	0.14426014
85	0x3f9dd026	1.2329147
86	0x3e86b43b	0.2630938
87	0xbf6f0537	-0.9336733
88	0x3dbd61ef	0.09247195
89	0x3fb5f436	1.4215152
90	0xbf574270	-0.8408575
91	0x3eaa394b	0.33246836
92	0xbf1b55f1	-0.6067801
93	0xbef524d1	-0.4787965
94	0x3da2b230	0.07944143
95	0x3e11a964	0.14224774
96	0xbec3bb95	-0.3822905
97	0xc01e3866	-2.4721923
98	0xbf67b2b2	-0.9050704
99	0x3fd81504	1.6881413
100	0xbf1c2282	-0.60990155
101	0xbf1da685	-0.61582214
102	0xbe0ff06d	-0.14056559
103	0xbe7097ac	-0.23495358
104	0x3da523f3	0.080634974
105	0xbf04f846	-0.51941335
106	0xbebeb52c	-0.37247598
107	0xbf878936	-1.0588748
108	0x3f9cb343	1.2242206
109	0x3fb0d916	1.3816249
110	0xbc8ff898	-0.017574593
111	0xbf3590fe	-0.70924366
112	0x3f76badd	0.9637888
113	0xbb498fb6	-0.0030755824
114	0x3df69df1	0.12041844
115	0xbf9704ac	-1.1798301
116	0xbee79412	-0.45230156
117	0xbe9982cd	-0.29982606
118	0x4001a563	2.0257194
119	0x3e39615f	0.1810355
120	0xc00604a3	-2.094033
121	0x3fa1742b	1.2613577
122	0xbf7ab466	-0.97931516
123	0x3ea3665c	0.31914032
124	0x3e10d8ea	0.14145246
125	0xbf5df377	-0.8669962
126	0xbf253bf0	-0.6454458
127	0x3f9705d2	1.1798651
128	0x40429812	3.0405316
129	0x3f4c7f5b	0.7988183
130	0xbf9a0ad2	-1.2034552
131	0x3e41f650	0.18941617
132	0xbe58e6b3	-0.21181755
133	0x3eb5e302	0.35524756
134	0x3e159e10	0.14611077
135	0xbf36ba4f	-0.71378034
136	0xbef92e30	-0.4866805
137	0x3fa56207	1.292054
138	0x403facf6	2.9949317
139	0x3e29d8b7	0.16586576
140	0xbd53068e	-0.051519923
141	0xbea9429a	-0.33058625
142	0x3fb3e7ea	1.405515
143	0x3e7b6506	0.24550256
144	0x3e050ca8	0.12993109
145	0xbf9e2475	-1.2354876
146	0xbda21f68	-0.079161465
147	0xbfd46e09	-1.659608
148	0x403a9098	2.9150753
149	0x3f49b959	0.78798443
150	0xbf7e2f1f	-0.9929065
151	0x3e808161	0.25098708
152	0x3ee16f40	0.4403019
153	0xbe38c5e9	-0.18044247
154	0x3d85b874	0.06529322
155	0xbf58d923	-0.84706324
156	0xbec72730	-0.38897085
157	0xbfa90452	-1.3204443
158	0x3f9ad331	1.20957
159	0x3dec4726	0.11537008
160	0xbf1b898b	-0.6075675
161	0xbf2276dc	-0.63462615
162	0xbdb976ae	-0.090558395
163	0x3f3d7179	0.7400127
164	0x3db2c17f	0.08728313
165	0x3e316bf7	0.17326342
166	0xbe4f9d2d	-0.20274802
167	0x3fd0e532	1.6319945
168	0xbff38879	-1.9026023
169	0xbbb813df	-0.005617603
170	0xbe306a8f	-0.17228149
171	0x3e9b5fb2	0.30346447
172	0x3efe411a	0.49659044
173	0xbdce12bb	-0.10062166
174	0x3e296a12	0.16544369
175	0x3f1e1264	0.6174681
176	0x3e869c89	0.26291302
177	0x3ecfba33	0.40571746
178	0xbf8b258b	-1.0870832
179	0xbeb410c9	-0.35169056
180	0xbf61d4df	-0.8821544
181	0xbc82c74e	-0.015964177
182	0x3f4a3a2b	0.7899501
183	0xbdb1750a	-0.086649016
184	0x3da549b7	0.080707006
185	0x3d421aed	0.04738896
186	0xbd369dff	-0.04458427
187	0xbd24a773	-0.040198755
188	0xbae5873f	-0.001751162
189	0xbce46fa7	-0.027885271
190	0x3c972a2e	0.01845273
191	0xbc28ac85	-0.010295038
192	0xbdf4f989	-0.119616576
193	0xbd140187	-0.03613427
194	0xbd15f05e	-0.036606185
195	0x3d4727a4	0.04862179
196	0xbea8e6ee	-0.32988685
197	0xbd9457dd	-0.07243321
198	0xbc55f1a3	-0.013058099
199	0xbd50a18f	-0.050935324
200	0x3c521bbf	0.012823998
201	0xbe4ca9b2	-0.19986609
202	0xbeef4d05	-0.4673845
203	0x3d42a9e4	0.0475253
204	0xb9785b59	-0.00023685153
205	0x3d07b6a1	0.033133153
206	0xbe27fe56	-0.16405615
207	0x3e05f5a0	0.1308198
208	0xbeb2a99a	-0.3489502
209	0x3daf0bed	0.085471965
210	0xbc3d56d8	-0.01155635
211	0xbb9a3bcb	-0.004706835
212	0xbe0510a4	-0.12994629
213	0x3e2c2742	0.1681185
214	0x3e85a4f8	0.26102424
215	0xbb110831	-0.0022130127
216	0x3d8d5d63	0.06902578
217	0x3c06ff95	0.008239646
218	0xbd3c69d8	-0.045999378
219	0x3d6a023e	0.057131045
220	0xbcae7f39	-0.021300899
221	0x3afedb4b	0.0019444017
222	0xbc1e39b0	-0.009657308
223	0x3c158ce5	0.00912783
224	0xbadae0d3	-0.0016699083
225	0xbcd006d2	-0.025393877
226	0x3bc9f8b0	0.006163679
227	0x3c37b204	0.011211876
228	0x3c168ee2	0.009189339
229	0x3d0cec2a	0.03440491
230	0x3d87f0e0	0.0663774
231	0x3e934715	0.2876517
232	0xbea89ff0	-0.32934523
233	0xbd0d82fa	-0.034548737
234	0x3b527db9	0.0032118394
235	0x3b7acaf1	0.0038267935
236	0xbc3e76a1	-0.011624963
237	0xbd80f0da	-0.06295939
238	0x3c02de98	0.007987641
239	0xbd840fcb	-0.06448325
240	0xbc92dfc2	-0.017928962
241	0xbc594a43	-0.013262334
242	0x3d3cd4ca	0.04610137
243	0xbdc96bab	-0.09834989
244	0xbd4ec8bd	-0.050484408
245	0xbd25a0b6	-0.04043647
246	0xbdf41cf1	-0.11919583
247	0x3d6b5a1a	0.057458974
248	0xbe1fad7d	-0.15593524
249	0x3c836579	0.016039597
250	0xbc90c641	-0.01767266
251	0xbc9c583b	-0.01908504
252	0x3d078a9f	0.033091184
253	0xbc9a12a6	-0.01880772
254	0xbde5b698	-0.112164676
255	0x3e636062	0.22204736

_mean_net.0.bias f4 [64]
0	0x3de6bb0a	0.112661436
1	0xbe3368df	-0.17520474
2	0x3ae76a03	0.0017655495
3	0xbee0a117	-0.43872902
4	0x3d30c25d	0.04315411
5	0x3daf8784	0.085707694
6	0x3d47a6b4	0.048742965
7	0x3eca3e75	0.39500776
8	0xbdd3ac7c	-0.10335633
9	0x3e1d43a7	0.15357839
10	0xbeb3f3dc	-0.35146987
11	0xbe6ad3a7	-0.22932301
12	0xbd3944ce	-0.045231633
13	0x3fda3002	1.7045901
14	0x3e0d3ed5	0.137935
15	0xbe9bf2cd	-0.3045868
16	0x3eba518e	0.36390346
17	0x3d9b100f	0.07571422
18	0xbe99a355	-0.30007425
19	0xbec5a1f8	-0.38600135
20	0xbe4fb289	-0.2028295
21	0x3da9f99d	0.08299563
22	0x3d708e1b	0.058729272
23	0xbf825c51	-1.0184423
24	0xbd34d8a0	-0.044151902
25	0x3e61e508	0.22060025
26	0xbf140821	-0.57824904
27	0xbf923080	-1.1421051
28	0x3c8103c8	0.015748873
29	0x3de7b306	0.11313443
30	0xbd3f49bf	-0.04670119
31	0x3c3fd63a	0.01170879
32	0xbf0847a0	-0.5323429
33	0x3e710944	0.23538691
34	0x3d88850e	0.06666003
35	0xbdce084b	-0.100601755
36	0x3b34c05c	0.0027580475
37	0x3d94be66	0.07262878
38	0xbcd57a62	-0.026059333
39	0xbe8f108c	-0.27942312
40	0x3eee9a6e	0.46602196
41	0xbdc15bfd	-0.094413735
42	0xbd82533c	-0.06363532
43	0x3e841eb0	0.25804663
44	0xbdacbab2	-0.08434047
45	0xbf81f543	-1.0152973
46	0x3f1eabf1	0.6198111
47	0xbd039fae	-0.032134704
48	0xbcbc1ad7	-0.022962017
49	0xbd2be750	-0.041968644
50	0xbae8e83b	-0.0017769405
51	0xbf03bdc5	-0.5146144
52	0x3de7fc62	0.11327435
53	0x3f2aaf3b	0.6667363
54	0x3decfda3	0.11571815
55	0x3f3f5604	0.74740624
56	0xbe847305	-0.25869003
57	0xbd3e3fc4	-0.04644753
58	0xbd8fbf59	-0.070189185
59	0xbe4029b2	-0.18765905
60	0x3c2be061	0.010490508
61	0xbc486d2b	-0.012233059
62	0xbdaba4d5	-0.083810486
63	0xbe2106dc	-0.15725273

_mean_net.2.weight f4 [32, 64]
0	0x3de35724	0.11100605
1	0x39a3b3fe	0.00031223887
2	0x3e14531b	0.14484827
3	0xbd62dac7	-0.055384424
4	0xbd9f9aeb	-0.0779322
5	0x3d304d06	0.043042205
6	0x3e8dea6a	0.27717906
7	0xbdc7dfdd	-0.097594954
8	0x3df88a3f	0.12135743
9	0xbd4d1b14	-0.05007465
10	0xbc8b2e33	-0.016989803
11	0xbe367317	-0.17817341
12	0xbb941112	-0.0045186365
13	0xbf04e4e5	-0.51911765
14	0xbda3f64a	-0.0800596
15	0xbdd62992	-0.10457148
16	0xbcbf6cfd	-0.0233674
17	0xbb44a42e	-0.0030005085
18	0x3d4261e9	0.047456656
19	0x3aee5207	0.0018182405
20	0x3dc086ba	0.09400697
21	0xb9c88cc2	-0.00038251845
22	0x3e3df5c9	0.18550791
23	0x3c81f855	0.015865484
24	0x3c1b47ba	0.00947755
25	0x3e44d7f9	0.19223012
26	0x3e39e36a	0.18153158
27	0x3dff078a	0.1245261
28	0xbbfd39f0	-0.007727854
29	0xbbdd67e4	-0.0067567695
30	0x3d982c49	0.07430322
31	0xbe0582d5	-0.1303819
32	0xbd00527c	-0.031328663
33	0x3dfb9c25	0.122856416
34	0x38e4e577	0.000109146284
35	0xbdc910b3	-0.09817638
36	0xbd8943e0	-0.06702399
37	0xbd983dc2	-0.07433654
38	0xbe3574f5	-0.17720397
39	0xbdb63da8	-0.08898479
40	0xbd323aed	-0.043513227
41	0x3e2e21b1	0.1700504
42	0xbe11c842	-0.14236549
43	0xbc989e24	-0.018630095
44	0x3de414f0	0.11136806
45	0xbe927e08	-0.2861178
46	0xbdb9f5cd	-0.09080086
47	0xbcf7eba4	-0.03026373
48	0xbdca3ffd	-0.09875486
49	0xbd53c6c2	-0.051703222
50	0xbe43fb2f	-0.19138788
51	0x3db4f2f9	0.08835406
52	0xbda1e57d	-0.079050995
53	0x3d3b4633	0.045721244
54	0x3d4fd96f	0.05074447
55	0xbd0e4c26	-0.03474059
56	0xbc23c46f	-0.009995564
57	0xbe38aa8b	-0.18033807
58	0x3d7722dd	0.060335983
59	0xbdff9bf4	-0.124809176
60	0xbdb9b832	-0.090683356
61	0x3e9bb6b3	0.30412826
62	0x3c93675d	0.017993623
63	0x3d5aacda	0.0533875
64	0x3d39134d	0.045184422
65	0x3bfad330	0.00765457
66	0xbdeb04b6	-0.11475508
67	0xbdafad6f	-0.08578002
68	0x3dee1d7f	0.1162672
69	0xbc956bf2	-0.018239949
70	0xbd64a672	-0.055822797
71	0x3cbf6c74	0.023367144
72	0xbda1252b	-0.07868417
73	0xbd614f56	-0.0550073
74	0xbe29ef99	-0.16595306
75	0x3d9c7aa4	0.07640579
76	0xbe35b9a7	-0.17746602
77	0xbeffa3cd	-0.49929658
78	0x3d743786	0.059623264
79	0xbdabef70	-0.083952785
80	0x3cb09ea3	0.021560019
81	0xbe183c7a	-0.1486682
82	0xbd7f2c3c	-0.062298045
83	0x3d016bb9	0.031596873
84	0x3ea00719	0.31255415
85	0x3db4924b	0.08816966
86	0xbd76d689	-0.06026319
87	0x3e1935f6	0.1496199
88	0xbe425881	-0.18979074
89	0x3ec17c2b	0.37790045
90	0xbd61f025	-0.05516066
91	0x3f25cee6	0.64768827
92	0x3d62f05b	0.055405002
93	0x3d8138e5	0.0630968
94	0xbdaaf1d9	-0.0834691
95	0x3e09d099	0.1345848
96	0xbe200950	-0.15628552
97	0x3d8d39d9	0.06895799
98	0xbe39b4f5	-0.18135436
99	0x3e59796e	0.21237728
100	0x3d99a7d6	0.07502715
101	0x3c5edc6a	0.0136023555
102	0x3e30081b	0.17190592
103	0x3d65f804	0.05614473
104	0x3d8a0c18	0.06740588
105	0x3ccbb7db	0.024867943
106	0x3d1a4dd3	0.037671875
107	0xbcd6201d	-0.02613836
108	0x3d8e4b90	0.06948006
109	0xbe23fec8	-0.1601516
110	0x3bd3528c	0.0064490493
111	0xbe03bd62	-0.12865213
112	0xbdb0e87c	-0.08638093
113	0x3d001b44	0.031276003
114	0x3e3ba131	0.18323208
115	0xbd7c8a74	-0.061655477
116	0xbd2014e7	-0.039082434
117	0x3d14b82b	0.03630845
118	0xbdc8bc32	-0.098015204
119	0x3c005c62	0.007834526
120	0x3d9aa024	0.07550076
121	0x3eacab9f	0.33724687
122	0xbd80718d	-0.06271658
123	0xbc80d19b	-0.015724948
124	0xbe2421a1	-0.16028453
125	0xbd8168b6	-0.063188
126	0x3d357f76	0.04431101
127	0xbde33d7c	-0.110957116
128	0xbcb7799f	-0.02239686
129	0x3d7ebea9	0.062193546
130	0x3e805788	0.2506678
131	0x3dd17c1b	0.10228749
132	0xbd815a48	-0.06316048
133	0xbd275982	-0.040856846
134	0x3e19e542	0.15028861
135	0x3c57e291	0.013176576
136	0x3e1702f8	0.14747226
137	0x3d81a500	0.063302994
138	0x3d440326	0.047854565
139	0x3db66322	0.08905627
140	0x3d6d78e6	0.057976626
141	0x3daf1246	0.08548407
142	0x3d0bc2f1	0.034121457
143	0x3c42fd64	0.011901233
144	0x3ce1adbb	0.027548661
145	0xbd609841	-0.0548327
146	0x3d4d2d3a	0.05009196
147	0x3d01ffb5	0.031738
148	0x3e30be19	0.17260017
149	0x3d3d4bb3	0.04621477
150	0xbd030578	-0.031987637
151	0x3cca60c2	0.02470434
152	0x3dc323ce	0.095283136
153	0xbd2f40bf	-0.042786356
154	0x3d6cf65f	0.057852145
155	0xbf12c21c	-0.5732744
156	0xbc02cb65	-0.007983063
157	0xbe15db03	-0.14634328
158	0xbdb1f282	-0.08688833
159	0xbdb36863	-0.087601446
160	0xbce0c109	-0.027435796
161	0xbd3bf9ba	-0.045892455
162	0x3db68232	0.089115515
163	0x3bc95f2c	0.0061453786
164	0x3d8c04b4	0.068368345
165	0xbe1abf0d	-0.15111943
166	0xbd5abe6e	-0.053404264
167	0x3d7eedc5	0.062238473
168	0xbc3afd96	-0.011412999
169	0xbc693053	-0.014232713
170	0xbbdcfce3	-0.0067440136
171	0xbda78a18	-0.08180636
172	0x3d96b93a	0.07359548
173	0x3e866079	0.26245478
174	0x3d54b364	0.051928893
175	0x3afe7d30	0.0019415971
176	0xbdf6c0f8	-0.120485246
177	0xbe9628c3	-0.29327974
178	0xbdcdd735	-0.10050813
179	0xbdeda704	-0.11604121
180	0x3d723b81	0.05913878
181	0xbd861721	-0.0654738
182	0xbe105a70	-0.14096999
183	0xbccf4505	-0.025301466
184	0x3c37e805	0.011224751
185	0x3e386c9b	0.1801018
186	0xbd00d4e9	-0.031453047
187	0xbb54663f	-0.0032409576
188	0xbd64bf83	-0.055846702
189	0x3db7eb8e	0.08980475
190	0xba934e72	-0.0011238588
191	0xbbb2d85a	-0.00545792
192	0xbe78fd61	-0.24315406
193	0xbd7f4ccc	-0.0623291
194	0xbc892023	-0.016738957
195	0xbd346186	-0.044038318
196	0xbec76430	-0.38943624
197	0x3c268309	0.010163077
198	0xbe9c60f9	-0.30542734
199	0xbe19d84d	-0.15023918
200	0x3d0e2eb3	0.034712505
201	0x3d914bb2	0.07094516
202	0x3e83af5b	0.25719723
203	0x3e13abd2	0.14421013
204	0x397e2ccd	0.00024240017
205	0xbe4621d9	-0.1934885
206	0xbd44c853	-0.048042607
207	0x3da5a284	0.08087638
208	0xbd11c1d5	-0.035585243
209	0x3da3e97a	0.080035165
210	0x3cecfc9b	0.028929045
211	0xbce87c93	-0.028379714
212	0xbe06d171	-0.13165833
213	0x3dc5dc6b	0.09661182
214	0x3e5944f4	0.2121771
215	0xbd675ad7	-0.056483116
216	0xbe62aae6	-0.22135505
217	0xbe149a35	-0.1451195
218	0x3a59ab44	0.00083034136
219	0xbea655e8	-0.32487416
220	0xbd6d76f5	-0.057974774
221	0xbd20f083	-0.03929187
222	0xbc69395c	-0.014234867
223	0xbcf63b3b	-0.03005754
224	0x3d5ecdcc	0.054395482
225	0xbd295cb0	-0.04134816
226	0x3cbb89eb	0.022892913
227	0xbc7a4849	-0.015276023
228	0xbed0c7ba	-0.4077738
229	0x3d880b9b	0.066428386
230	0x3cd0f979	0.025509583
231	0xbd03364b	-0.0320342
232	0xbe299c6f	-0.16563581
233	0xbdb6a4e6	-0.08918171
234	0xbdb5883a	-0.08863874
235	0xbd2bc75d	-0.041938175
236	0xbddf1960	-0.10893512
237	0xbee162cc	-0.4402069
238	0xbc42681b	-0.011865641
239	0x3d5fc7bd	0.054633845
240	0xbd849f88	-0.06475741
241	0x3e13aa61	0.14420463
242	0xbd38a20f	-0.045076426
243	0x3d81ed24	0.06344059
244	0x3d24ce48	0.040235788
245	0x3d1e1812	0.038597174
246	0x3c00e85b	0.007867898
247	0x3c7755fb	0.015096183
248	0x3d055a4e	0.032556824
249	0xbe0668fb	-0.13125984
250	0x3c820c12	0.015874896
251	0xbca44ea2	-0.020057026
252	0xbd1919da	-0.03737817
253	0xbdb29700	-0.08720207
254	0x3d1175c4	0.0355127
255	0x3dcf10c4	0.1011062

_mean_net.2.bias f4 [32]
0	0x3ef3aaa6	0.47591132
1	0xbf118d1b	-0.56855935
2	0xbe0468f9	-0.12930669
3	0xbd950be7	-0.07277661
4	0x3e85a56a	0.26102763
5	0x3f02f7cc	0.5115936
6	0xbe077053	-0.13226442
7	0x3ea10a38	0.3145311
8	0x3e1051e9	0.14093746
9	0xbc88c126	-0.016693663
10	0x3e513ce0	0.20433378
11	0xbdeb2a8b	-0.11482724
12	0x3f68becc	0.9091613
13	0xbe5c4581	-0.21510889
14	0xbe969ecc	-0.29418027
15	0xbea58eab	-0.3233541
16	0x3e86b419	0.2630928
17	0x3cdb7f4f	0.026794104
18	0xbe93210b	-0.28736147
19	0x3d6bebd6	0.057597958
20	0xb72b3ae6	-1.0206108e-05
21	0xbe132e9d	-0.1437325
22	0x3ed5de37	0.417711
23	0x3e6cfd7a	0.23143569
24	0x3c0ff20f	0.008785739
25	0xbea4c675	-0.3218266
26	0xbf0323ca	-0.51226485
27	0x3e2115ea	0.15731016
28	0x3f1e61f0	0.6186819
29	0xbe257193	-0.16156606
30	0xbe4ac4a5	-0.19801576
31	0xbe89e6e1	-0.2693396

_mean_net.4.weight f4 [17, 32]
0	0xbe3bb922	-0.18332341
1	0x3e5add21	0.21373416
2	0xbe56ff63	-0.2099586
3	0xbe16ca3c	-0.14725584
4	0xbec72cac	-0.3890127
5	0xbe574446	-0.21022138
6	0xbd8828dd	-0.06648419
7	0xbf36ea09	-0.7145086
8	0x3d97898d	0.073992826
9	0x3d09a156	0.033601128
10	0xbf36d30b	-0.71415776
11	0xbd8d2624	-0.0689204
12	0xbe8c2ac1	-0.2737637
13	0x3e841e06	0.25804156
14	0xbdc4ce64	-0.096096784
15	0xbedc619e	-0.43043226
16	0xbc6b69df	-0.014368503
17	0x3e280944	0.16409785
18	0xbce07b76	-0.02740262
19	0x3e8ed5ab	0.2789739
20	0xbd2646e4	-0.04059495
21	0xbf346f0f	-0.7048196
22	0x3f4f3ceb	0.8095233
23	0xbf5a7170	-0.8532934
24	0xbdf2dc7f	-0.118584625
25	0xbe6f1f4a	-0.2335178
26	0x3e8d2d77	0.2757375
27	0xbe51f4c5	-0.20503528
28	0xbddf5475	-0.10904781
29	0xbe9c1fd7	-0.30493042
30	0xbf2ef57a	-0.6834332
31	0x3c7d39aa	0.015455643
32	0xbea27384	-0.31728756
33	0x3e81516d	0.25257435
34	0xbe826a5b	-0.25471768
35	0x3f099f19	0.5375839
36	0x3e0ec6a6	0.13942966
37	0x3ca1280e	0.01967242
38	0xbe8953e5	-0.2682182
39	0xbdc1b5af	-0.094584815
40	0xbde8c46b	-0.11365589
41	0x3e41f6bc	0.18941778
42	0xbee707a3	-0.45123014
43	0xbeecf863	-0.46283254
44	0x3d290fb3	0.041274738
45	0xbebac160	-0.36475658
46	0xbe40a22f	-0.18811868
47	0x3e0cfc75	0.1376818
48	0xbe6514da	-0.22371235
49	0xbf17626b	-0.5913455
50	0xbec8e2ef	-0.39235637
51	0xbf1e1818	-0.61755514
52	0xbe9027b8	-0.28155303
53	0xbdd7a94e	-0.10530339
54	0x3c888c2a	0.016668398
55	0xbe0ea671	-0.1393068
56	0x3e47d923	0.19516425
57	0xbe9956d7	-0.29949066
58	0xbd937700	-0.07200432
59	0x3ef00882	0.4688149
60	0xbeb8245d	-0.35965243
61	0x3d54428b	0.051821273
62	0x3e3a19d1	0.1817391
63	0x3e0f098e	0.13968489
64	0x3ebc28ca	0.3674987
65	0xbe6a7656	-0.22896704
66	0xbf26282f	-0.64905065
67	0xbd01a310	-0.03164965
68	0x3e5048c7	0.20340262
69	0xbd1cb4e4	-0.03825845
70	0xbd0a9d69	-0.033841524
71	0x3f221daa	0.63326514
72	0xbd93bfe6	-0.07214336
73	0xbe5d5402	-0.21614078
74	0xbf257797	-0.64635605
75	0xba4a99aa	-0.0007728586
76	0xbeff33d5	-0.49844232
77	0x3f5186c9	0.8184629
78	0xbe37a0dd	-0.17932458
79	0xbe063523	-0.13106208
80	0xbdcb423e	-0.09924744
81	0xbf967fc2	-1.1757739
82	0x3eb76f8f	0.358273
83	0x3e1189c1	0.14212705
84	0x3dcbf206	0.09958272
85	0xbe44f275	-0.19233115
86	0x3d91a266	0.07111053
87	0x3ee11265	0.43959346
88	0xbf8049bf	-1.0022506
89	0xbdf64813	-0.12025466
90	0xbf00e396	-0.5034727
91	0xbf0646e5	-0.52451926
92	0xbebbbe68	-0.36668706
93	0x3df99a1d	0.12187598
94	0xbe2a9f36	-0.16662297
95	0x3f2d2e9a	0.67649233
96	0x3e958a22	0.2920695
97	0x3da58653	0.08082261
98	0x3d736384	0.059421077
99	0xbf084d3a	-0.5324284
100	0xbecf3f90	-0.40478182
101	0x3e876bb8	0.2644937
102	0x3edf715c	0.43641174
103	0xbd1552e9	-0.036456022
104	0x3f15eb9d	0.5856264
105	0xbd9e3f22	-0.077268854
106	0xbe9a468f	-0.30131957
107	0xbe231ea2	-0.15929654
108	0x3ef366fd	0.4753951
109	0x3c19f613	0.009397048
110	0xbd8342fb	-0.0640926
111	0x3ec4e38b	0.38454852
112	0x3d8ddfa0	0.06927419
113	0xbf2a5540	-0.6653633
114	0xbd9ae703	-0.07563593
115	0xbecfd7a9	-0.40594223
116	0x3e4b73e7	0.19868432
117	0xbf86ee58	-1.0541487
118	0x3e871246	0.2638113
119	0x3f84e473	1.0382217
120	0x3f0d8d75	0.5529397
121	0x3d0b76a8	0.034048706
122	0xbedc58d6	-0.43036526
123	0xbe0c90b9	-0.13727082
124	0x3e7fff23	0.2499967
125	0x3f078e9a	0.5295197
126	0xbe4105ce	-0.1884987
127	0xbee74cdd	-0.4517583
128	0xbedd2c73	-0.43197975
129	0xbee5c86d	-0.44879475
130	0xbf485d89	-0.78267723
131	0x3ec9daae	0.39424652
132	0xbe8187d9	-0.25298956
133	0xbf743d9e	-0.9540652
134	0xbece10c0	-0.40247154
135	0x3f07feb7	0.5312304
136	0xbf258a70	-0.64664364
137	0xbddfca19	-0.10927219
138	0x3e5a9434	0.21345598
139	0x3e22fbcd	0.15916367
140	0x3f3415b2	0.70345604
141	0xbef9be64	-0.4877807
142	0x3e359332	0.17731932
143	0xbeb1f377	-0.3475606
144	0x3e7aaae7	0.24479257
145	0xbde0f00c	-0.10983285
146	0x3eb0cdbe	0.3453197
147	0x3d88799e	0.06663822
148	0xbd97ad14	-0.07406059
149	0xbe4c3ecc	-0.1994583
150	0xbe119e8a	-0.14220634
151	0xbe59ee12	-0.21282223
152	0xbe48b2da	-0.19599476
153	0xbeb7f447	-0.35928556
154	0x3f394a6e	0.72379196
155	0xbe5e1e97	-0.21691357
156	0xbea6e3ff	-0.32595822
157	0xbe8fd234	-0.2809006
158	0x3f0c52c1	0.5481377
159	0x3f4296c6	0.7601131
160	0xbf59432c	-0.8486812
161	0xbea57c4b	-0.3232139
162	0xbf060411	-0.52349955
163	0xbf332638	-0.6998019
164	0xbf2cde74	-0.67526937
165	0x3daaf573	0.08347597
166	0x3e86dcf4	0.2634045
167	0xbe32d3e1	-0.17463638
168	0x3e8760fb	0.26441178
169	0x3d988d26	0.07448797
170	0x3e2dcbab	0.16972224
171	0x3f3cc4be	0.73737705
172	0x3f05f186	0.5232166
173	0x3dfb5fc1	0.12274123
174	0x3e19e3b5	0.1502827
175	0xbf49e43d	-0.7886389
176	0xbe0c640f	-0.13710044
177	0x3ed12c14	0.4085394
178	0x3e86db23	0.26339063
179	0x3ea64695	0.32475725
180	0x3e8a9c60	0.2707243
181	0x3e314c10	0.17314172
182	0xbf068971	-0.5255347
183	0x3e5fe6ed	0.21865435
184	0xbe1a7a32	-0.15085676
185	0xbf2df54a	-0.67952406
186	0xbdbef94c	-0.09324893
187	0x3db6bfce	0.089233026
188	0xbe8c4c49	-0.2740195
189	0xbf64c16a	-0.89357626
190	0xbea0cd55	-0.31406656
191	0x3f1bb81c	0.60827804
192	0xbe8dafdb	-0.2767323
193	0x3e6c6815	0.23086579
194	0xbdb56529	-0.088571854
195	0xbe8d5841	-0.27606395
196	0x3dc59867	0.09648209
197	0xbec14c2c	-0.37753427
198	0x3e193618	0.14962041
199	0xbd1ffb2c	-0.039057896
200	0xbfa838f5	-1.3142382
201	0x3ea95d0f	0.3307881
202	0x3f646701	0.8921967
203	0x3e974560	0.29545116
204	0x3f113a39	0.56729466
205	0x3e823732	0.25432736
206	0x3e3b3d53	0.18285112
207	0x3e709a05	0.23496254
208	0x3e2e0003	0.16992192
209	0xbf08cfbf	-0.53441995
210	0x3ecb2908	0.39679742
211	0x3f1a891c	0.6036546
212	0x3d71b282	0.05900813
213	0xbf93f605	-1.1559454
214	0x3de9aa6f	0.11409461
215	0xbe8110d6	-0.25208157
216	0x3e3bf923	0.18356757
217	0x3ed8cbf1	0.42343095
218	0xbfa1202a	-1.2587941
219	0xbea26379	-0.31716517
220	0x3d1d8fd3	0.03846724
221	0x3e154b5a	0.14579526
222	0x3ecf4924	0.4048549
223	0x3d30c0cc	0.043152615
224	0x3e3d6476	0.18495354
225	0xbf110bf4	-0.56658864
226	0x3f384994	0.7198727
227	0xbe9b7263	-0.30360708
228	0xbeb47a14	-0.35249388
229	0xbeacfbc1	-0.33785823
230	0x3f27be2d	0.6552456
231	0x3ed4a170	0.41529417
232	0x3f29c429	0.6631494
233	0xbebb720e	-0.36610454
234	0xbe822bd4	-0.25424063
235	0x3db206fa	0.08692737
236	0xbe17ac61	-0.14811851
237	0x3f8b79ef	1.0896586
238	0xbf0d7500	-0.5525665
239	0xbe8ff98a	-0.2812007
240	0xbc358e59	-0.011081302
241	0x3e4dad7d	0.20085712
242	0xbce63939	-0.028103458
243	0x3e04c070	0.12964034
244	0x3d8b876f	0.06812941
245	0xbf08cfde	-0.5344218
246	0xbe4f8693	-0.2026618
247	0x3e34ad6b	0.17644279
248	0xbc1e5b0a	-0.00966526
249	0x3f4b63fa	0.7944943
250	0x3eff5ca1	0.49875358
251	0x3e351ea6	0.17687473
252	0x3ec4ff25	0.3847591
253	0x3cf0e378	0.02940534
254	0x3e20f70b	0.1571924
255	0x3e225e0c	0.15856189

_mean_net.4.bias f4 [17]
0	0x3e26a82d	0.16275091
1	0x3db201a6	0.08691721
2	0x3edaabea	0.42709285
3	0xbd1add9d	-0.037809003
4	0x3e132f10	0.14373422
5	0x3f3ab065	0.72925407
6	0x3f81d971	1.0144483
7	0xbd82be13	-0.0638391
8	0xbe131a6f	-0.14365552
9	0x3e2d0065	0.16894682
10	0x3ed1eede	0.41002554
11	0x3e9bafc7	0.30407545
12	0xbdbdeddb	-0.09273883
13	0xbe9f9415	-0.31167665
14	0x3e91d368	0.28481603
15	0x3f0fa27b	0.561073
16	0xbec81192	-0.39075905
