run_logs/q2_dagger_humanoid/policy_itr_19.pt (torch, 110342 bytes, 7 tensors)

_logstd f4 [17]
0	0xbfa776b0	-1.3083096
1	0xbfb96d69	-1.4486514
2	0xbf96acf2	-1.1771529
3	0xbf995770	-1.1979809
4	0xbf984694	-1.1896539
5	0xbf8b706b	-1.0893682
6	0xbf8e6e83	-1.1127476
7	0xbf9bd0b8	-1.2173071
8	0xbf990e0e	-1.1957414
9	0xbf92cf6a	-1.1469548
10	0xbf93a95e	-1.1536062
11	0xbfd2d710	-1.6471882
12	0xbfb9cc5f	-1.4515494
13	0xc006baeb	-2.1051586
14	0xbfcd8ce9	-1.6058627
15	0xbfda879b	-1.7072634
16	0xc0037230	-2.0538445

_mean_net.0.weight f4 [64, 376]
0	0xbf90869d	-1.1291081
1	0x3d47df96	0.048797213
2	0xbf58c912	-0.8468181
3	0xc03faa55	-2.9947712
4	0xbeb30d8e	-0.3497128
5	0xbebc52ff	-0.3678207
6	0xbe7ede7d	-0.2488956
7	0xbd96be9d	-0.07360575
8	0x3e2e6cae	0.17033646
9	0xbfc6f898	-1.5544615
10	0x3f1455ae	0.57943237
11	0xbf7ea9a3	-0.99477595
12	0x3eba5052	0.36389405
13	0xbec1785e	-0.37787145
14	0xbf6cac4e	-0.92450416
15	0x3ec588a1	0.38580802
16	0x3ed2a14b	0.41138682
17	0x3c879774	0.01655171
18	0x3d3c2c09	0.045940433
19	0x3e1286f4	0.14309293
20	0x3e9571fc	0.29188526
21	0x3d1c21cd	0.038118172
22	0x3d0f4d3a	0.03498576
23	0x3e0ebf07	0.13940059
24	0xbd4f7e80	-0.05065775
25	0xbe233871	-0.159395
26	0xbd837aed	-0.064199306
27	0xbca95be2	-0.020673696
28	0xbcaa4420	-0.020784438
29	0xbc977b42	-0.018491391
30	0xbbf54c2c	-0.007485887
31	0x3cf0c069	0.029388623
32	0xbd61d542	-0.05513502
33	0x3cff2c8e	0.031149175
34	0xbb63d313	-0.0034763261
35	0xbb77c049	-0.003780382
36	0x3cd08f0a	0.025458831
37	0xb98ba2a0	-0.0002663331
38	0xbc48c1be	-0.012253223
39	0xbd8095f0	-0.06278598
40	0xbcc8a07c	-0.024490587
41	0xbcef9de9	-0.029250102
42	0xbbdd4358	-0.0067524128
43	0x3c486f53	0.012233573
44	0x3c3a6893	0.0113774715
45	0x3cd927eb	0.026508292
46	0xbce04173	-0.027374959
47	0x3c78803c	0.015167292
48	0xbc73fb8c	-0.014891516
49	0xbbb944e0	-0.0056539625
50	0xbd4b1432	-0.049579807
51	0xbcc96d12	-0.024588142
52	0x3ce53f26	0.027984213
53	0xbc4d62c3	-0.012535754
54	0x3d52668e	0.051367335
55	0x3cf7d32d	0.030252064
56	0xbd21e620	-0.039526105
57	0xbf4b716d	-0.7946995
58	0xc0646827	-3.568857
59	0x3f04190a	0.51600707
60	0xbc26fe10	-0.010192409
61	0x3eb95d0a	0.36203796
62	0x3d399485	0.045307655
63	0x3d71ca99	0.059031103
64	0x3dba8275	0.09106914
65	0xbe9afa90	-0.3026929
66	0x3dde7f8f	0.108641736
67	0x400f1e54	2.236226
68	0xc0ff5523	-7.9791427
69	0xbe39e9a3	-0.18155532
70	0xc056e7f5	-3.3579075
71	0x3f6f5569	0.934897
72	0x40312dc6	2.7684188
73	0xbe2bd8b2	-0.16781881
74	0x3e0c31f2	0.13690928
75	0xbf65f7fd	-0.89831525
76	0x403eb546	2.979814
77	0x3ff3c107	1.9043282
78	0x41370d6c	11.440777
79	0x3f58c4b8	0.8467517
80	0x400dc79f	2.215309
81	0x3f82b3f4	1.0211167
82	0x3f220956	0.63295496
83	0x3c89b84c	0.016811512
84	0x3e19df46	0.15026578
85	0x3fa11223	1.258366
86	0x3ea3c3bd	0.31985274
87	0xbf69fc36	-0.9140047
88	0x3caf5ad7	0.02140562
89	0x3fbe78a7	1.488057
90	0xbf505bad	-0.81389886
91	0x3eb7f4c1	0.3592892
92	0xbf12a0f2	-0.57276833
93	0xbefda983	-0.4954339
94	0x3daeff13	0.08544745
95	0x3e0e9a91	0.1392615
96	0xbed0d416	-0.4078681
97	0xc0219f77	-2.525358
98	0xbf8b3a7a	-1.0877221
99	0x3fe2d2bd	1.7720562
100	0xbf2392a6	-0.6389564
101	0xbf262586	-0.64901006
102	0xbe05f191	-0.13080432
103	0xbe8509cf	-0.25984046
104	0x3db170d9	0.08664102
105	0xbf1116dd	-0.5667551
106	0xbed1f98f	-0.4101071
107	0xbf8353a7	-1.0259904
108	0x3f924232	1.1426451
109	0x3fb2614c	1.3935943
110	0xbd8c0dd0	-0.06838572
111	0xbf48fc7b	-0.78510255
112	0x3f701801	0.9378663
113	0xbcbcd9f0	-0.02305314
114	0x3e017562	0.12642434
115	0xbf97abb1	-1.1849271
116	0xbf02d0bd	-0.5109976
117	0xbeb12805	-0.34600845
118	0x4001bd2a	2.0271707
119	0x3e4af08a	0.19818321
120	0xc0022d33	-2.0340087
121	0x3f9a80dd	1.2070576
122	0xbf6f7ba5	-0.9354804
123	0x3ea3a114	0.3195883
124	0x3e16ff3c	0.14745802
125	0xbf6b50d0	-0.91920185
126	0xbf3720e1	-0.71534544
127	0x3f8f94de	1.1217306
128	0x4048bb19	3.1364195
129	0x3f61cb36	0.882007
130	0xbf8f06a9	-1.1173908
131	0x3e14a8cc	0.14517516
132	0xbe063cb2	-0.13109091
133	0x3eb4b420	0.35293674
134	0x3e1bc462	0.15211633
135	0xbf4c7566	-0.79866636
136	0xbf0bbc63	-0.5458433
137	0x3fa2923b	1.2700876
138	0x4045b8eb	3.0894115
139	0x3e51f186	0.2050229
140	0xbcd94001	-0.026519777
141	0xbeb660dc	-0.35620773
142	0x3fb03a3c	1.3767772
143	0x3e738b85	0.23783691
144	0x3e0b32ff	0.13593672
145	0xbfa34944	-1.2756734
146	0xbd63c7f8	-0.055610627
147	0xbfde532e	-1.7369134
148	0x40449caf	3.0720632
149	0x3f3b7b91	0.7323542
150	0xbf80519d	-1.0024906
151	0x3e9cff42	0.30663496
152	0x3eea8e36	0.45811623
153	0xbe27180c	-0.16317767
154	0x3d92054e	0.07129918
155	0xbf648f6e	-0.89281356
156	0xbefb62c8	-0.49098802
157	0xbf9ca640	-1.2238235
158	0x3f9ac270	1.2090588
159	0x3d150281	0.03637934
160	0xbf27a868	-0.6549134
161	0xbf0be978	-0.5465312
162	0xbdeac812	-0.11463942
163	0x3f5ccecb	0.8625304
164	0x3dbf0e67	0.09328919
165	0x3e39d129	0.18146195
166	0xbe60ff81	-0.21972467
167	0x3fd1642b	1.6358694
168	0xbfe89918	-1.817172
169	0x3c0740c6	0.008255189
170	0xbde8b3f5	-0.11362449
171	0x3eb784a8	0.35843396
172	0x3eebac78	0.4603002
173	0xbdd06306	-0.10175137
174	0x3e2f906f	0.17144941
175	0x3f20cb2d	0.6281002
176	0x3e5a1f47	0.21300994
177	0x3ebc7594	0.36808455
178	0xbf901b48	-1.1258326
179	0xbeb4cd3b	-0.35312828
180	0xbf43bdbb	-0.7646138
181	0x3d1910f7	0.037369695
182	0x3f354213	0.70803946
183	0xbdbce3f1	-0.09223164
184	0x3db1969f	0.08671307
185	0x3d421aed	0.04738896
186	0xbd369dff	-0.04458427
187	0xbd24a773	-0.040198755
188	0xbae5873f	-0.001751162
189	0xbce46fa7	-0.027885271
190	0x3c972a2e	0.01845273
191	0xbad433d7	-0.0016189766
192	0xbdf2d205	-0.11856464
193	0xbd18e9a3	-0.03733219
194	0xbd2bd2a1	-0.04194892
195	0x3ca391f6	0.01996706
196	0xbea3ad90	-0.31968355
197	0xbd935962	-0.07194783
198	0xbc1f6c3b	-0.009730394
199	0xbd6787ff	-0.05652618
200	0x3cb1ae14	0.021689452
201	0xbe76cd0e	-0.2410166
202	0xbefa690d	-0.48908272
203	0x3d41ca56	0.047312103
204	0xbc626e3c	-0.013820227
205	0x3cc027f6	0.023456555
206	0xbe24a2b5	-0.16077693
207	0x3dde9484	0.10868171
208	0xbec2fd02	-0.38083655
209	0x3db006d3	0.085950516
210	0xbc8a22ae	-0.01686224
211	0xbc632ba7	-0.013865388
212	0xbde0b7b1	-0.10972536
213	0x3e30508b	0.17218225
214	0x3e780131	0.24219204
215	0xbbf85f29	-0.0075797033
216	0x3d8e9d70	0.069636226
217	0x3bf319ab	0.0074188313
218	0xbd2bd4b8	-0.04195091
219	0x3d4be790	0.049781382
220	0xbcc1453c	-0.023592584
221	0xbb604874	-0.0034222873
222	0xbc143877	-0.009046665
223	0x3c081a33	0.008307028
224	0x3b1be1a8	0.0023785625
225	0xbd061e15	-0.032743532
226	0x3b7dc1c7	0.0038720237
227	0x3c272a8a	0.010203013
228	0x3c4a6fe7	0.012355781
229	0x3d06b145	0.0328839
230	0x3d7f8659	0.062383983
231	0x3ea2e7e1	0.31817535
232	0xbeae521b	-0.34047017
233	0xbd0315a0	-0.032003045
234	0x3b1ce35e	0.0023939232
235	0xb9904a38	-0.00027521118
236	0xbc9c2591	-0.019060882
237	0xbd5f7c52	-0.05456192
238	0x3b8be4c3	0.004269214
239	0xbd7db214	-0.061937407
240	0xbc99930c	-0.018746875
241	0xbc8e3fab	-0.017364344
242	0x3d1e5fb4	0.03866549
243	0xbdb838f7	-0.0899524
244	0xbd5e03b8	-0.054202765
245	0xbcfde4e6	-0.030992936
246	0xbde71f0a	-0.11285217
247	0x3d388029	0.045044098
248	0xbe11baae	-0.14231369
249	0x3b7e30b6	0.0038786358
250	0xbc89f4cc	-0.016840361
251	0xbc7341ba	-0.014847213
252	0x3d09523f	0.0335257
253	0xbc48eead	-0.012263936
254	0xbdd688de	-0.10475324
255	0x3e5ba1d4	0.21448451

_mean_net.0.bias f4 [64]
0	0x3df307f2	0.1186675
1	0xbe40a959	-0.18814601
2	0xba2b8b77	-0.0006543914
3	0xbeefe6c2	-0.46855742
4	0x3d4223df	0.04739749
5	0x3d607111	0.05479533
6	0x3d3da716	0.046301924
7	0x3ed20d60	0.4102583
8	0xbdde0f0e	-0.10842715
9	0x3e48d61e	0.19612929
10	0xbeb6b55d	-0.35685244
11	0xbe708a05	-0.2349015
12	0xbd36a687	-0.044592407
13	0x3feea473	1.8643936
14	0x3dfe7070	0.124237895
15	0xbea4923a	-0.32142812
16	0x3ed0f17a	0.40809232
17	0x3db2d7ca	0.08732565
18	0xbeb34105	-0.35010543
19	0xbecfaadf	-0.40560052
20	0xbe4abae8	-0.19797862
21	0x3da97c2f	0.08275639
22	0x3d84e126	0.06488256
23	0xbf8404c0	-1.031395
24	0xbd287620	-0.041128278
25	0x3e57a181	0.21057703
26	0xbf149e2f	-0.5805387
27	0xbf923080	-1.1421051
28	0x3c6fe030	0.014640853
29	0x3dd25ab9	0.1027121
30	0xbd4fe372	-0.050754018
31	0x3c808abe	0.015691157
32	0xbf084dc3	-0.53243655
33	0x3ea85237	0.32875225
34	0x3d9290cf	0.07156526
35	0xbdc61d4d	-0.096735574
36	0x3ad5bc02	0.0016306641
37	0x3d84a61a	0.06476994
38	0xbcc91fe8	-0.024551347
39	0xbe97fb1f	-0.29683778
40	0x3f0fec11	0.56219584
41	0xbdc7f633	-0.09763756
42	0xbd96a626	-0.07355909
43	0x3e7f30bb	0.24920933
44	0xbda9c188	-0.08288866
45	0xbf81fae9	-1.0154697
46	0x3f332409	0.6997686
47	0xbcc5c44a	-0.02414145
48	0xbcac74dd	-0.021051819
49	0xbd265ae6	-0.04061403
50	0xbad6d514	-0.0016390407
51	0xbf09d85e	-0.53845775
52	0x3deb4dcf	0.1148945
53	0x3f22b18b	0.6355216
54	0x3de88030	0.11352575
55	0x3f4c8e90	0.79905033
56	0xbe5adb47	-0.2137271
57	0xbd4e14f1	-0.05031294
58	0xbbb6a777	-0.0055741626
59	0xbe44bcae	-0.192126
60	0x3b1f51e1	0.0024310278
61	0xbc6c9835	-0.014440586
62	0xbdfab1f7	-0.12240975
63	0xbe32704e	-0.17425653

_mean_net.2.weight f4 [32, 64]
0	0x3ddbb082	0.107270256
1	0x3aa0c485	0.0012265599
2	0x3e2a7792	0.16647175
3	0xbd0d7d27	-0.034543183
4	0xbd785d25	-0.060635705
5	0x3d3da52c	0.0463001
6	0x3ea23097	0.31677696
7	0xbdb5064e	-0.08839093
8	0x3db84f3a	0.08999486
9	0xbd26be3f	-0.040708777
10	0xbc1c3f8a	-0.009536633
11	0xbe30ea36	-0.17276844
12	0x3c3afd3c	0.011412915
13	0xbf020fcf	-0.5080537
14	0xbda28da1	-0.0793717
15	0xbdc3998c	-0.09550771
16	0xbcfd658d	-0.030932212
17	0xbca61398	-0.020273015
18	0x3ce9e6b6	0.028552394
19	0xbc1e2705	-0.009652858
20	0x3de0558d	0.109538175
21	0xbc323c98	-0.0108787045
22	0x3e5d5722	0.2161527
23	0x3c69b92e	0.014265342
24	0x3c3f7045	0.011684482
25	0x3e64d687	0.2234746
26	0x3e23f640	0.16011906
27	0x3dee6968	0.116411984
28	0xbbd15e94	-0.0063894484
29	0xbc96e98f	-0.018421916
30	0x3dca9af4	0.09892836
31	0xbdd0985b	-0.101853095
32	0xbccbe1ff	-0.024888037
33	0x3de90104	0.11377147
34	0x3bd87378	0.006605562
35	0xbdd39124	-0.10330418
36	0xbd5a72fe	-0.05333232
37	0xbdb39b59	-0.087698646
38	0xbe2bed9a	-0.16789857
39	0xbdb4914e	-0.08816777
40	0xbd439e5a	-0.047758438
41	0x3e1be86d	0.15225382
42	0xbdb3864c	-0.087658495
43	0xbccedb9d	-0.025251204
44	0x3df00028	0.1171878
45	0xbe89a1d0	-0.26881266
46	0xbd9467ec	-0.07246384
47	0xbd0c5463	-0.034260165
48	0xbdaad932	-0.08342208
49	0xbc87dda2	-0.016585175
50	0xbe53f244	-0.20697886
51	0x3d895fc2	0.067077175
52	0xbda682cf	-0.081304185
53	0x3d21e57a	0.039525487
54	0x3d813bfe	0.06310271
55	0xbd450377	-0.048099007
56	0xbc7c52fa	-0.0154006425
57	0xbe2510c6	-0.1611968
58	0x3d544c5c	0.051830634
59	0xbde97d26	-0.11400823
60	0xbdd8353b	-0.10557028
61	0x3e7cd9cb	0.24692456
62	0x3c54c3c3	0.012986126
63	0x3d0659e2	0.032800563
64	0xbcdbeed6	-0.026847284
65	0x3d1a47b1	0.037666027
66	0xbdc4033b	-0.09570929
67	0xbdb9f281	-0.09079457
68	0x3ddc3dfb	0.10754009
69	0xbb9c47b2	-0.004769289
70	0xbd31a3c1	-0.04336906
71	0x3d122419	0.035678957
72	0xbdc6671c	-0.09687635
73	0xbd096b3d	-0.033549536
74	0xbe12e0cc	-0.14343566
75	0x3d88a58b	0.066722
76	0xbe0faf3d	-0.14031692
77	0xbf02a8d0	-0.5103884
78	0x3dc4bc80	0.09606266
79	0xbdcca32b	-0.09992059
80	0x3d2f3a2a	0.04278008
81	0xbe45a97f	-0.19302939
82	0xbd522c09	-0.051311526
83	0x3d0bc11d	0.034119714
84	0x3e8c54e5	0.2740852
85	0x3dca1240	0.09866762
86	0xbde3b7dd	-0.111190535
87	0x3e21cc90	0.1580069
88	0xbe6d3629	-0.23165192
89	0x3eb0edd1	0.3455644
90	0xbd96d032	-0.07363929
91	0x3f29a9a3	0.6627447
92	0x3d476e14	0.048688963
93	0x3d523a9e	0.051325433
94	0xbdb939d3	-0.09044232
95	0x3e211cbe	0.1573362
96	0xbe04eac3	-0.1298018
97	0x3d94354b	0.07236727
98	0xbe46168a	-0.19344535
99	0x3e6fb539	0.23408975
100	0x3db46e9d	0.0881016
101	0x3cb23902	0.021755699
102	0x3e31cd93	0.17363577
103	0x3d2471b4	0.0401475
104	0x3db7804d	0.08960018
105	0xbbb8069c	-0.0056160223
106	0x3d526589	0.051366363
107	0xbd227fe2	-0.03967274
108	0x3d19611e	0.037446134
109	0xbe64d2a7	-0.22345982
110	0x3ccefa38	0.025265798
111	0xbddfde9c	-0.10931131
112	0xbd9b5395	-0.075843014
113	0xbc97ea77	-0.018544419
114	0x3e4b0696	0.19826731
115	0xbd630fa3	-0.055434834
116	0xbcd4411b	-0.025909951
117	0x3cfd6f50	0.030936867
118	0xbdd8e5cd	-0.10590706
119	0xbca48653	-0.020083582
120	0x3d47e9a1	0.04880679
121	0x3eacd75f	0.33758065
122	0xbd84167b	-0.064496
123	0xbcb09e82	-0.021559957
124	0xbe2ca062	-0.16858056
125	0xbd93e552	-0.07221474
126	0x3cbb8442	0.022890214
127	0xbdc4caae	-0.096089706
128	0xbcbcaf05	-0.023032675
129	0x3d8a7be4	0.067619115
130	0x3e80fd18	0.25193095
131	0x3dd2222a	0.102604225
132	0xbdc6bba7	-0.097037606
133	0xbd40614f	-0.0469678
134	0x3e2ab969	0.16672291
135	0x3c546735	0.01296406
136	0x3e0d6979	0.13809766
137	0x3d83729c	0.064183444
138	0x3dc2bd2b	0.09508737
139	0x3dd6b81f	0.10484337
140	0x3d71b332	0.059008785
141	0x3d9e09c7	0.07716709
142	0x3d2b1015	0.041763384
143	0x3cd77148	0.026299134
144	0x3cfdd5d8	0.030985758
145	0xbd8c1bb5	-0.06841222
146	0x3d6a791a	0.057244398
147	0x3cd84ac6	0.026402842
148	0x3e48bd17	0.19603382
149	0x3d8c909b	0.06863519
150	0x3c495e92	0.012290614
151	0x3d0fd7da	0.03511796
152	0x3dd9d3ad	0.10636077
153	0xbd5c92fe	-0.05385112
154	0x3d382615	0.044958193
155	0xbf1d56d4	-0.61460614
156	0xbaeedcde	-0.0018223783
157	0xbdfce95c	-0.12349197
158	0xbddfe2e1	-0.109319456
159	0xbdc4d07a	-0.09610076
160	0xbd25a85d	-0.040443767
161	0xbd2cd2ab	-0.042193096
162	0x3def3094	0.116791874
163	0x3d0d8784	0.034553066
164	0x3da81296	0.0820667
165	0xbe1c48e3	-0.15262179
166	0xbd2adfc2	-0.0417173
167	0x3d5d8d24	0.05408968
168	0xbcc955af	-0.02457699
169	0x3bebb112	0.0071927393
170	0xbcaaebc2	-0.020864371
171	0xbdb40406	-0.0878983
172	0x3d8c1c9e	0.06841396
173	0x3e93178c	0.28728902
174	0x3d917372	0.071020976
175	0x3c3ab2f2	0.011395203
176	0xbe065f0c	-0.13122195
177	0xbe6fa148	-0.23401368
178	0xbdcd4f07	-0.10024839
179	0xbde95571	-0.1139325
180	0x3d459d30	0.04824561
181	0xbd540cd2	-0.05177004
182	0xbe159b4b	-0.14610021
183	0xbb9a4b87	-0.0047087106
184	0x3bac6698	0.0052612536
185	0x3e415996	0.1888183
186	0xbcd15c5a	-0.025556732
187	0xba017da1	-0.00049396796
188	0xbd53820d	-0.051637698
189	0x3d80d0b2	0.062898055
190	0x3c60a918	0.01371219
191	0xbc01f756	-0.007932505
192	0xbe73a14a	-0.23791996
193	0xbd5de5e9	-0.054174338
194	0xbc8a101b	-0.016853383
195	0xbd93680c	-0.0719758
196	0xbec89ebf	-0.39183614
197	0x3c9d3694	0.019191064
198	0xbea8ba5d	-0.32954684
199	0xbe1dc897	-0.1540855
200	0x3d27bbac	0.040950462
201	0x3db921ff	0.09039687
202	0x3e868e9d	0.2628068
203	0x3e1fe4f7	0.15614687
204	0xbce7ad58	-0.028280899
205	0xbe54063c	-0.20705503
206	0xbd7571b0	-0.059922874
207	0x3daa5ff7	0.08319085
208	0xbcf06d07	-0.029348863
209	0x3dc6aaa5	0.097005166
210	0x3d2cfbf1	0.042232458
211	0xbd1eae4e	-0.03874045
212	0xbe146c98	-0.1449455
213	0x3d7537b4	0.059867576
214	0x3e620e0c	0.22075671
215	0xbd258010	-0.040405333
216	0xbe61a0ee	-0.22034046
217	0xbe114ac0	-0.14188671
218	0xbc9ede3e	-0.019393083
219	0xbea1df5b	-0.3161572
220	0xbd9ba934	-0.07600632
221	0xbcd0a439	-0.025468932
222	0xbcc804ce	-0.024416354
223	0xbd38d538	-0.045125216
224	0x3ccfcda2	0.025366608
225	0xbd86eeed	-0.0658854
226	0x3cc30830	0.023807615
227	0xbca6241b	-0.020280888
228	0xbee15770	-0.44012022
229	0x3d7854ef	0.060627874
230	0x3c7f6ac1	0.015589417
231	0xbd0b1cee	-0.033963136
232	0xbe325df6	-0.17418656
233	0xbdc89442	-0.09793903
234	0xbdb10d6f	-0.086451404
235	0xbd1d39aa	-0.03838507
236	0xbe077e43	-0.13231759
237	0xbee8066a	-0.45317394
238	0xbc26d717	-0.010183117
239	0x3d12cd24	0.03584017
240	0xbd99b186	-0.07504563
241	0x3e0405af	0.12892793
242	0xbd37f5b9	-0.044912074
243	0x3d6a90ba	0.05726693
244	0x3d7623fd	0.060092915
245	0x3ccb8483	0.02484346
246	0x3ccae1c4	0.024765857
247	0x3cebbb4f	0.02877584
248	0x3c7aa3ec	0.015297871
249	0xbe11f5a2	-0.14253858
250	0x3c886209	0.01664831
251	0xbccb9d8f	-0.024855403
252	0xbca31120	-0.019905627
253	0xbd5df422	-0.0541879
254	0x3d458611	0.04822356
255	0x3dde2427	0.10846739

_mean_net.2.bias f4 [32]
0	0x3ef6e5a1	0.48222068
1	0xbf1c4eca	-0.6105772
2	0xbdc4e45e	-0.0961387
3	0xbdb63065	-0.08895949
4	0x3e7057e4	0.23471028
5	0x3f0619bc	0.5238302
6	0xbe1aa925	-0.15103586
7	0x3e9fd555	0.31217447
8	0x3df645e5	0.1202505
9	0xbd3644ef	-0.044499334
10	0x3e517f7e	0.2045879
11	0xbdd80012	-0.105468884
12	0x3f6c9b26	0.9242424
13	0xbe4649f6	-0.19364151
14	0xbe94247b	-0.28934082
15	0xbea005d5	-0.3125445
16	0x3e8a4369	0.27004555
17	0x3d339286	0.043840908
18	0xbe829f2a	-0.25512058
19	0x3d919f08	0.07110411
20	0x3c9941f0	0.0187082
21	0xbe1a9ea0	-0.15099573
22	0x3ed7b3ad	0.4212927
23	0x3e6a171c	0.22860378
24	0x3c2c16bc	0.010503467
25	0xbe9abade	-0.30220693
26	0xbf0074b6	-0.50178087
27	0x3dd3d57f	0.103434555
28	0x3f3034d2	0.688306
29	0xbe4eb2d4	-0.20185405
30	0xbe2309c9	-0.15921701
31	0xbea03773	-0.31292304

_mean_net.4.weight f4 [17, 32]
0	0xbe47fab7	-0.19529234
1	0x3e69d5ef	0.22835515
2	0xbe335e50	-0.17516446
3	0xbe0a8534	-0.13527375
4	0xbec78412	-0.3896795
5	0xbe15a89e	-0.14615104
6	0xbd795813	-0.06087501
7	0xbf20f210	-0.6286936
8	0x3d56eab7	0.052469935
9	0x3ce9ddfd	0.028548235
10	0xbf44d70d	-0.7689064
11	0xbda4dc17	-0.08049791
12	0xbe957cf8	-0.29196906
13	0x3e50f96c	0.20407647
14	0xbd9bbe8f	-0.076047055
15	0xbedc19ad	-0.4298834
16	0x3cb110ff	0.02161455
17	0x3d51ccb3	0.051220607
18	0xbca1c959	-0.01974933
19	0x3e9f37aa	0.31097156
20	0xbd573bf7	-0.05254742
21	0xbf447895	-0.76746494
22	0x3f3d94ec	0.7405536
23	0xbf5de661	-0.86679655
24	0xbe055b1c	-0.13023037
25	0xbe5d6a0c	-0.21622485
26	0x3e8b1fb4	0.27172625
27	0xbe6577ce	-0.22408983
28	0xbda5df4c	-0.08099231
29	0xbe9af842	-0.3026753
30	0xbf305153	-0.6887409
31	0xbb141725	-0.0022596803
32	0xbe9efe6a	-0.31053478
33	0x3e788f17	0.24273334
34	0xbe6cb110	-0.23114419
35	0x3f031e0b	0.51217717
36	0x3de30779	0.1108541
37	0x3d16f1d7	0.03685173
38	0xbe90e101	-0.28296664
39	0xbd46f2ae	-0.04857128
40	0xbde1c2ca	-0.11023481
41	0x3dfdb48a	0.12387951
42	0xbec0f5cf	-0.37687537
43	0xbed86bde	-0.42269796
44	0x3d90df22	0.07073809
45	0xbeb09208	-0.34486413
46	0xbe63c7ba	-0.22244158
47	0x3e20ff9c	0.15722507
48	0xbe8cb08f	-0.27478454
49	0xbf167ff6	-0.58789
50	0xbec5f059	-0.38659933
51	0xbf2828ca	-0.6568724
52	0xbe9b8f21	-0.30382636
53	0xbdd22233	-0.10260429
54	0x3d05da3b	0.032678824
55	0xbe44c559	-0.19215907
56	0x3e362806	0.17788705
57	0xbe95bc94	-0.29245436
58	0xbe099e68	-0.13439333
59	0x3f01029a	0.50394595
60	0xbead1f4e	-0.33812946
61	0x3d66f307	0.056384113
62	0x3e120a9d	0.14261861
63	0x3dcbfd0d	0.09960375
64	0x3ec3c071	0.3823276
65	0xbe1360fc	-0.14392465
66	0xbf139013	-0.57641715
67	0xbd2a5280	-0.041582584
68	0x3e87c7b3	0.26519546
69	0xbdc581d5	-0.09643904
70	0x3b0ba630	0.0021308772
71	0x3f237723	0.63853663
72	0xbe37b966	-0.17941818
73	0xbe6a1f5f	-0.2286353
74	0xbf21f081	-0.63257605
75	0x3c9913dd	0.01868623
76	0xbee2c348	-0.44289613
77	0x3f39482d	0.72375757
78	0xbe1f6a1c	-0.15567821
79	0xbe31cbba	-0.17362872
80	0xbe091048	-0.13385117
81	0xbf9fcdef	-1.2484721
82	0x3eb43884	0.35199368
83	0x3e28feb8	0.16503417
84	0x3de10dff	0.10988998
85	0xbe6cef0a	-0.23138061
86	0xbd6b98ff	-0.057518955
87	0x3f0411b3	0.51589507
88	0xbf79d871	-0.9759589
89	0x3d0d469f	0.034491178
90	0xbf06d35c	-0.5266626
91	0xbf14b0fc	-0.58082557
92	0xbec57ec7	-0.38573286
93	0x3e02f940	0.12790394
94	0xbe2d178b	-0.16903512
95	0x3f336220	0.700716
96	0x3e850bc6	0.25985545
97	0x3d8c0b01	0.06838036
98	0x3d8dfc68	0.06932908
99	0xbefc5b33	-0.4928833
100	0xbedf7250	-0.436419
101	0x3e60022b	0.21875827
102	0x3ee74b7d	0.4517478
103	0xbbfef38d	-0.0077804984
104	0x3f1c1d38	0.60982084
105	0xbdd013ba	-0.101600125
106	0xbe92793e	-0.28608125
107	0xbdc867d9	-0.09785432
108	0x3ee31d6c	0.44358385
109	0x3c23425b	0.009964551
110	0xbd8e85cf	-0.06959116
111	0x3eb74a59	0.3579891
112	0x3d9e9c14	0.07744613
113	0xbf242129	-0.641131
114	0xbd5cdbd0	-0.053920567
115	0xbede7e21	-0.43455604
116	0x3e4f02b8	0.20215881
117	0xbf908847	-1.1291589
118	0x3e594f8d	0.21221752
119	0x3f88bb52	1.0682166
120	0x3f14f612	0.58187973
121	0xbd8df8c0	-0.06932211
122	0xbeb6b610	-0.35685778
123	0xbe2754fb	-0.16341011
124	0x3e98dc08	0.2985537
125	0x3ef66207	0.48121664
126	0xbdfc082a	-0.12306245
127	0xbee35d51	-0.44407132
128	0xbed53437	-0.416414
129	0xbed58f5d	-0.4171094
130	0xbf2dee6c	-0.6794193
131	0x3ec0915d	0.37610903
132	0xbe88933e	-0.26674837
133	0xbf755185	-0.95827514
134	0xbed3871f	-0.41314027
135	0x3f146cd8	0.5797858
136	0xbf236490	-0.6382532
137	0xbe135776	-0.14388832
138	0x3e6d2efd	0.23162456
139	0x3e221525	0.15828378
140	0x3f3e4a31	0.7433196
141	0xbeee5b3b	-0.46553978
142	0x3e0b2b54	0.13590747
143	0xbeba61b5	-0.3640267
144	0x3e576093	0.21032934
145	0xbd98da6e	-0.07463537
146	0x3eb68f22	0.35656077
147	0x3d88f809	0.06687934
148	0xbdc2f19b	-0.09518739
149	0xbe1b2dda	-0.1515421
150	0xbe41db4b	-0.1893131
151	0xbe9a6a88	-0.30159402
152	0xbe62e399	-0.22157134
153	0xbebd6cd8	-0.36997104
154	0x3f2f5c3d	0.6850012
155	0xbe3bb0cf	-0.18329166
156	0xbeb3f030	-0.35144186
157	0xbe86750a	-0.2626117
158	0x3f1a67c6	0.60314596
159	0x3f3c260b	0.7349555
160	0xbf592bb4	-0.8483231
161	0xbea0f5ef	-0.31437632
162	0xbef7205e	-0.48266882
163	0xbf2d459a	-0.6768433
164	0xbf3d519c	-0.7395265
165	0x3e1aa517	0.1510204
166	0x3e6ba62e	0.23012611
167	0xbe2fcbe4	-0.17167622
168	0x3e501f96	0.20324549
169	0x3db0f7b0	0.08640993
170	0x3e240a66	0.16019592
171	0x3f3fa9fe	0.7486876
172	0x3ef06fcb	0.4696029
173	0x3e15844d	0.1460125
174	0x3de2f5d9	0.11082048
175	0xbf4767f6	-0.77893007
176	0xbe380782	-0.17971614
177	0x3ec890fb	0.3917311
178	0x3e905037	0.281862
179	0x3eacc3e2	0.33743197
180	0x3e7a3d78	0.24437511
181	0x3e386d00	0.1801033
182	0xbee4ed17	-0.44712135
183	0x3e6f00e5	0.23340185
184	0xbe6a52d0	-0.22883153
185	0xbf31c340	-0.6943855
186	0xbd192550	-0.0373891
187	0x3dac4015	0.0841066
188	0xbe9bd5c0	-0.30436516
189	0xbf5b109c	-0.8557222
190	0xbe9c17c3	-0.3048688
191	0x3f0e631b	0.5561997
192	0xbe75d327	-0.2400633
193	0x3e8088e0	0.25104427
194	0x3cf97402	0.030450825
195	0xbe94ae22	-0.29039103
196	0x3e12d881	0.14340402
197	0xbeeac358	-0.4585216
198	0x3dfdfa96	0.12401311
199	0xbd4d3b3b	-0.050105315
200	0xbfa8ac4c	-1.3177581
201	0x3eace693	0.33769664
202	0x3f65858d	0.8965691
203	0x3ec40b29	0.38289765
204	0x3f204409	0.62603813
205	0x3e8c1221	0.2735758
206	0x3e16aaac	0.14713544
207	0x3e846387	0.25857183
208	0x3d82649e	0.063668475
209	0xbed471ad	-0.41492978
210	0x3ecfb21c	0.40565574
211	0x3f23a884	0.6392901
212	0x3d620b5d	0.055186618
213	0xbfa1c1bc	-1.2637248
214	0x3d1af271	0.037828866
215	0xbe34f52c	-0.1767165
216	0x3e45b80e	0.19308493
217	0x3ebfe02e	0.37475723
218	0xbf91e543	-1.139809
219	0xbeb5c81a	-0.35504228
220	0xba74ee18	-0.000934334
221	0x3e27a388	0.16370976
222	0x3ee3dd9c	0.44505012
223	0x3d5d8945	0.05408599
224	0x3e33a52a	0.17543474
225	0xbf1e2de9	-0.61788803
226	0x3f31ea57	0.694982
227	0xbea60b6b	-0.32430586
228	0xbeb89aa1	-0.36055472
229	0xbea602f3	-0.32424125
230	0x3f1ee7fd	0.62072736
231	0x3ec00e3c	0.3751086
232	0x3f22f889	0.63660485
233	0xbeb86209	-0.36012295
234	0xbe91626b	-0.283954
235	0x3d994523	0.0748389
236	0xbe45c4fa	-0.19313422
237	0x3f83ca34	1.0296082
238	0xbf15c754	-0.58507276
239	0xbeb37900	-0.35053253
240	0x3d6bf4f6	0.05760666
241	0x3e23a144	0.15979487
242	0xbd4c62a9	-0.049898777
243	0x3dfaaf91	0.12240518
244	0x3dd12948	0.10212952
245	0xbf163532	-0.5867492
246	0xbe63de1b	-0.22252695
247	0x3debb30a	0.11508758
248	0xbd40951b	-0.047017198
249	0x3f45ef81	0.7731858
250	0x3f0c3902	0.54774487
251	0x3e414f88	0.18877995
252	0x3ec0a2cb	0.376242
253	0xbd11379e	-0.03545343
254	0x3e52178a	0.20516792
255	0x3e3cbac8	0.18430626

_mean_net.4.bias f4 [17]
0	0x3dfc64b2	0.123238936
1	0x3dbee7a0	0.09321523
2	0x3ee088c9	0.4385436
3	0xbc9b2c8b	-0.018942138
4	0x3e1ff78a	0.15621772
5	0x3f408918	0.7520919
6	0x3f8508f8	1.0393362
7	0xbdd5b89d	-0.10435603
8	0xbe155ef5	-0.14587004
9	0x3e3c49fc	0.18387598
10	0x3ed4c344	0.41555226
11	0x3e88c23e	0.26710695
12	0xbde36875	-0.11103908
13	0xbea858a9	-0.32880142
14	0x3e71f1ba	0.23627368
15	0x3f0c59b6	0.5482439
16	0xbed1c966	-0.40973967
