run_logs/q1_bc_custom/policy_itr_0.pt (torch, 110267 bytes, 7 tensors)

_logstd f4 [17]
-0.99037457 -1.0689477 -0.7959698 -0.8019857 -0.85422355 -0.7037438 -0.7474596 -0.7683562
-0.75864744 -0.88083255 -0.6683428 -1.22241 -1.0649012 -1.7468854 -1.1416371 -1.350048
-1.7088629
00000000: 3089 7dbf 47d3 88bf adc4 4bbf ef4e 4dbf
00000010: 65ae 5abf 8e28 34bf 8359 3fbf feb2 44bf
00000020: b836 42bf 3e7e 61bf 8418 2bbf ee77 9cbf
00000030: af4e 88bf f199 dfbf 2a21 92bf 5fce acbf
00000040: 05bc dabf

_mean_net.0.weight f4 [64, 376]
0.048851855 0.006637938 0.3664295 0.22336923 -0.1855631 0.29650217 -0.06468987 -0.26386827
0.11487107 -0.44773686 0.020933393 0.30751652 0.045445174 1.3690299 -0.08806352 0.031676613
-0.05266834 -0.07383373 0.18521392 -0.0407886 -0.20886955 0.08049544 -0.10176121 0.61615723
-0.08002102 0.5577664 0.69354063 0.12808417 -0.38451964 -0.4244847 -0.41237465 -0.41908804
0.056700826 0.11691029 0.13912109 -0.27994972 0.18310578 -0.28137338 -0.19138326 -0.43056026
0.1500955 0.052149877 0.06684469 0.570673 0.08303251 0.026508292 -0.027374959 0.015167292
-0.014891516 -0.0056539625 -0.049579807 -0.024588142 0.027984213 -0.012535754 0.051367335 0.0585984
0.01624948 0.05214917 0.08540261 -0.08066049 0.076550804 0.13546993 -0.047272865 0.062229536
-0.008266162 0.03283125 0.014714181 0.080590285 -0.49811962 0.17480549 -0.3163082 -0.16110851
0.4578515 0.010746886 0.037575472 0.14990091 0.11439518 0.08966305 0.31869936 0.033270407
0.6054847 -0.5064301 0.27532685 -0.017116534 0.050931443 -0.059828274 -0.086399004 0.12319774
-0.019890694 -0.15064402 -0.023692412 -0.20693375 -0.046905458 0.030549375 -0.013887387 0.16959454
0.19629082 0.058840673 -0.042566594 -0.060006537 -0.05817246 -0.014878323 -0.013865611 -0.097116925
-0.012693517 0.2817538 0.3035986 -0.04596122 0.08815924 -0.027726134 -0.07204287 0.12317025
0.106474064 -0.26992884 0.027090183 -0.08357119 -0.046871323 -0.05125588 0.19455506 -0.3136389
-0.21131837 -0.1284819 -0.02090572 0.022064563 0.048123717 -0.057316754 -0.036236756 0.027232569
0.19034176 -0.053795718 -0.1462811 -0.0046418565 -0.0456568 0.06185634 0.0527827 0.08183695
0.08900437 0.14194004 0.035806734 0.014218999 0.023570616 0.030354187 0.060668655 0.006880113
0.036602948 0.033857647 0.011267995 0.06340934 0.0038153878 0.16882297 0.076829895 -0.043498162
-0.10404448 0.008869803 -0.028034605 0.24194133 0.037134442 -0.07986729 0.010392027 -0.32162124
0.057748597 -0.08703766 -0.094792895 0.27091888 -0.006044364 0.13349365 0.040462185 0.012075848
-0.28213492 -0.2369776 -0.20002568 0.28353447 0.1693217 0.07608686 0.07211566 0.3670766
0.15838034 -0.031827733 -0.0876325 0.010124753 -0.3414375 0.22105417 0.113814 0.24807808
-0.012620498 0.04738896 -0.04458427 -0.040198755 -0.001751162 -0.027885271 0.01845273 -0.5402986
0.6088785 0.12684585 -0.17327449 0.054767266 0.33835128 -0.073426075 0.12844907 -0.31290346
-0.14636627 0.6953935 0.101031244 -0.47556835 -0.17301506 -0.29918826 -0.15484907 0.63619214
0.06277841 -0.40027684 0.19828363 -0.21337931 -0.18223017 0.63452023 -0.07377148 -0.4278858
-0.09033157 -0.31682292 -0.254068 0.2950684 -0.24464498 -0.42372835 -0.16901465 -0.31593463
-0.20973875 0.2125437 -0.21718037 0.119792596 -0.2172683 -0.35808173 -0.17437796 0.19269648
-0.6019786 -0.14740135 0.0518145 -0.33021462 0.13277023 0.061926384 0.03498962 -0.1773362
0.030673584 -0.34730375 0.19049628 0.026536137 -0.023482144 -0.20682433 0.004529346 -0.093247436
-0.11256585 0.27531287 -0.5304187 -0.109931715 0.06544376 -0.0031615887 -0.08428203 0.20240524
00000000: e218 483d 0f83 d93b a69c bb3e e7ba 643e
00000010: 4104 3ebe 22cf 973e 1f7c 84bd be19 87be
00000020: 8641 eb3d c43d e5be 827c ab3c ce72 9d3e
00000030: b824 3a3d 5f3c af3f a65a b4bd 56bf 013d
00000040: c2ba 57bd 2336 97bd b8a8 3d3e f211 27bd
00000050: e6e1 55be cbda a43d 2e68 d0bd 7bbc 1d3f
00000060: 0fe2 a3bd c7c9 0e3f e18b 313f 7f28 033e
00000070: c2df c4be 0f56 d9be c522 d3be b592 d6be
00000080: 203f 683d aa6e ef3d c275 0e3e 9255 8fbe
00000090: 1580 3b3e 2c10 90be f9f9 43be 6572 dcbe
000000a0: a2b2 193e 1c9b 553d dee5 883d a017 123f
000000b0: f30c aa3d eb27 d93c 7341 e0bc 3c80 783c
000000c0: 8cfb 73bc e044 b9bb 3214 4bbd 126d c9bc
000000d0: 263f e53c c362 4dbc 8e66 523d e004 703d
000000e0: a11d 853c 5e9a 553d 90e7 ae3d 5431 a5bd
000000f0: abc6 9c3d a1b8 0a3e 31a1 41bd 66e4 7e3d
00000100: cc6e 07bc 107a 063d c013 713c 850c a53d
00000110: 8909 ffbe 3600 333e 26f3 a1be a1f9 24be
00000120: 836b ea3e b513 303c bde8 193d a07f 193e
00000130: 0548 ea3d 43a1 b73d 902c a33e 8d46 083d
00000140: 0c01 1b3f 67a5 01bf a4f7 8c3e f937 8cbc
00000150: 7d9d 503d 7e0e 75bd f6f1 b0bd 194f fc3d
00000160: cff1 a2bc 6d42 1abe 9716 c2bc 71e6 53be
00000170: f01f 40bd af42 fa3c ec87 63bc 31aa 2d3e
00000180: 7600 493e eb02 713d 4f5a 2ebd 6ac9 75bd
00000190: 3f46 6ebd 36c4 73bc 962c 63bc 3de5 c6bd
000001a0: 78f8 4fbc 0942 903e 4771 9b3e d541 3cbd
000001b0: d58c b43d eb21 e3bc 368b 93bd af40 fc3d
000001c0: 130f da3d 1d34 8abe 3bec dd3c 5f27 abbd
000001d0: 25fc 3fbd b0f1 51bd 7139 473e 4795 a0be
000001e0: d863 58be c290 03be 7942 abbc bec0 b43c
000001f0: 601d 453d f9c4 6abd fe6c 14bd d616 df3c
00000200: f3e8 423e e658 5cbd b6ca 15be b71a 98bb
00000210: a002 3bbd 135d 7d3d ac32 583d 219a a73d
00000220: ec47 b63d bb58 113e 15aa 123d cef6 683c
00000230: 2a17 c13c 58a9 f83c b27f 783d 9272 e13b
00000240: f9ec 153d 51ae 0a3d 669d 383c c2dc 813d
00000250: 960b 7a3b eedf 2c3e fe58 9d3d 212b 32bd
00000260: 4615 d5bd a652 113c d4a8 e5bc 78bf 773e
00000270: 491a 183d 7691 a3bd 5243 2a3c 8aab a4be
00000280: cb89 6c3d cd40 b2bd c722 c2bd e1b5 8a3e
00000290: cd0f c6bb 8fb2 083e adbb 253d c7d9 453c
000002a0: fd73 90be 42aa 72be 88d3 4cbe 6e2b 913e
000002b0: ab62 2d3e 6dd3 9b3d 60b1 933d 77f1 bb3e
000002c0: 752e 223e cc5d 02bd ab78 b3bd 4be2 253c
000002d0: e5d0 aebe 065c 623e 5017 e93d 2e08 7e3e
000002e0: 35c6 4ebc ed1a 423d ff9d 36bd 73a7 24bd
000002f0: 3f87 e5ba a76f e4bc 2e2a 973c 0251 0abf
00000300: 76df 1b3f e1e3 013e de6e 31be a453 603d
00000310: 613c ad3e 6960 96bd 2788 033e e234 a0be
00000320: 0ae1 15be 4f05 323f 78e9 ce3d b27d f3be
00000330: dc2a 31be 342f 99be c190 1ebe 7ddd 223f
00000340: f891 803d 16f1 ccbe dd0a 4b3e 1b80 5abe
00000350: 8c9a 3abe eb6f 223f 8015 97bd d913 dbbe
00000360: c2ff b8bd 9d36 a2be 3315 82be 3513 973e
00000370: 3784 7abe ecf2 d8be 2d12 2dbe 2fc2 a1be
00000380: c1c5 56be 0ea5 593e 8864 5ebe d255 f53d
00000390: 957b 5ebe 7d56 b7be 2390 32be 3a52 453e
000003a0: 451b 1abf 61f0 16be 713b 543d e411 a9be
000003b0: ebf4 073e 85a6 7d3d 4751 0f3d 9f97 35be
000003c0: 2b47 fb3c ccd1 b1be 7511 433e 5062 d93c
000003d0: a05d c0bc c2c9 53be e86a 943b 83f8 bebd
000003e0: ed88 e6bd cff5 8c3e 85c9 07bf e123 e1bd
000003f0: 6107 863d a832 4fbb 0f9c acbd 5243 4f3e

_mean_net.0.bias f4 [64]
0.019334229 -0.17784223 0.20153941 -0.16468628 0.07490468 0.21574394 -0.11258385 0.03135167
-0.02310685 -0.0029522674 0.0039355573 -0.18366958 0.14688973 0.09980815 -0.0150597505 -0.061826523
0.27104285 -0.15299395 0.00432525 -0.1654507 -0.29857108 -0.04080427 0.1301906 -0.120957196
0.03906215 0.18923594 0.056554496 -0.0067392723 0.06518015 -0.3094734 0.2655018 0.015363388
-0.31207758 -0.055243686 0.07524568 -0.038420882 0.17341883 -0.043998513 -0.11874297 -0.1523118
0.23227802 0.16439633 0.19010031 -0.077308185 -0.2039278 -0.22865503 0.16008587 -0.04405538
-0.089515336 -0.14068802 -0.26509348 -0.27898517 0.08059258 0.21946022 0.18716623 0.0435988
-0.24027018 -0.05392228 -0.042734284 -0.059264075 0.14482757 0.14056535 -0.008845671 -0.0008845453
00000000: d162 9e3c 461c 36be 5960 4e3e 85a3 28be
00000010: a067 993d fbeb 5c3e 5d92 e6bd 9c6a 003d
00000020: 944a bdbc d47a 41bb d9f5 803b e113 3cbe
00000030: 436a 163e 3768 cc3d 2cbd 76bc cf3d 7dbd
00000040: 21c6 8a3e 72aa 1cbe d4ba 8d3b e96b 29be
00000050: 4fde 98be 6122 27bd af50 053e 68b8 f7bd
00000060: a2ff 1f3d 11c7 413e b0a5 673d 1dd5 dcbb
00000070: 2c7d 853d 4c73 9ebe daef 873e b8b6 7b3c
00000080: a2c8 9fbe 3447 62bd 681a 9a3d 375f 1dbd
00000090: b594 313e c937 34bd 842f f3bd a0f7 1bbe
000000a0: 4ada 6d3e 8357 283e a8a9 423e c153 9ebd
000000b0: 73d2 50be 8b24 6abe 8ded 233e 6a73 34bd
000000c0: d153 b7bd 8510 10be 55ba 87be 25d7 8ebe
000000d0: b90d a53d 2eba 603e 81a8 3f3e a894 323d
000000e0: 6309 76be 9cdd 5cbd 250a 2fbd e3be 72bd
000000f0: ae4d 143e 5df0 0f3e 6fed 10bc d5e0 67ba

_mean_net.2.weight f4 [32, 64]
-0.29967454 0.018183744 0.09367019 -0.2083335 -0.02354366 0.119792655 -0.21032143 -0.067235544
0.012364269 -0.21521291 -0.21598119 -0.23211877 -0.2306116 0.06705782 -0.06722869 -0.12058465
-0.032960095 0.2850673 0.013092285 -0.04057097 0.042004544 -0.07691198 0.2851435 -0.23830865
-0.08312874 -0.10824586 -0.029950486 0.10197281 0.4723946 0.10285962 0.04333301 0.13700527
0.14622328 0.0035148545 -0.1166342 -0.09637851 -0.3478835 -0.08071926 -0.11644965 -0.547979
0.024344662 0.3525503 -0.11074878 0.08645836 -0.071286805 -0.14574806 -0.24593389 -0.007540025
-0.021852579 -0.031783532 -0.03919598 0.13714331 0.29241067 0.07069517 -0.123324275 -0.04518841
0.2087318 0.01188086 -0.065823734 0.015304771 -0.46203247 -0.12567972 0.3909127 0.09109933
-0.05684056 -0.0485123 0.031704333 0.21913162 0.061695542 -0.36442897 0.092907086 0.091007695
-0.18937384 0.23755951 0.053362 0.006811754 0.04255458 -0.097191386 0.0038200056 -0.15938391
-0.08900743 0.15993185 -0.081354074 -0.0705499 0.25046962 0.26050657 0.055962764 0.30478713
0.002110668 -0.060453866 -0.037114903 0.10351594 -0.007809849 -0.25064382 0.15862766 0.10810034
-0.09985133 0.08585907 0.05866109 -0.07178079 -0.13159749 -0.02533091 -0.111605406 -0.01725668
-0.09191526 -0.20687217 -0.09813013 0.08631025 -0.26916543 0.35292777 0.118579134 -0.13020772
-0.020594453 -0.069384396 0.19129008 0.02199378 -0.3706339 0.126102 0.053046923 0.08205285
-0.025049437 -0.12918514 -0.033005487 -0.031742614 0.055736803 -0.30451888 -0.08788526 -0.063938424
-0.11044474 0.38222745 0.10401531 0.352404 -0.18784115 0.0008576359 0.17552663 0.17550191
0.061572574 -0.036019456 -0.042329054 0.008054438 -0.1012283 0.08638515 0.14153926 0.22711979
0.09344812 0.009879647 0.12147486 -0.3843589 0.023974625 0.013935641 0.17817937 0.06627043
0.041353136 0.11014716 -0.036888797 -0.17290658 -0.009174045 -0.21344365 -0.23061892 -0.0973629
0.056278948 -0.03133926 -0.036721263 0.09675576 -0.0392413 0.033543345 0.04872359 -0.020374399
0.25255695 0.17517298 -0.2306278 0.22210994 0.006515333 -0.13393022 -0.19514832 0.065541044
0.06879812 0.01719975 0.05378028 0.11218845 0.1568432 0.1724595 -0.29307517 -0.14270486
0.2764299 -0.13139035 -0.034949012 0.2317372 -0.064841725 0.14438255 0.15289068 0.20580433
-0.16785571 0.3983331 -0.10001892 -0.017058883 -0.2562064 -0.31622043 0.011939032 0.019411972
-0.10266607 0.13999932 0.0320206 -0.13171183 0.11991601 0.049065214 -0.37983865 -0.08020662
0.019738784 -0.22072388 0.20778696 -0.099696 0.14538799 -0.058659706 0.49193078 -0.21269548
0.13585345 -0.20331745 -0.0647544 0.1507759 0.06483669 0.22999623 -0.009022814 0.17349058
0.15545167 0.19613837 -0.12948711 -0.04871695 -0.23992097 0.11981625 -0.1673301 -0.19848956
0.07319959 -0.059690643 -0.22696742 -0.14890413 -0.060398825 -0.0007284403 -0.34747583 0.076365225
0.06265329 -0.04108408 0.20343077 0.17878416 0.24503468 0.022269016 0.025400992 -0.06521607
0.28960004 -0.124118306 0.105738945 0.37157804 -0.3564448 -0.22617535 0.020585526 0.30321455
00000000: f16e 99be 13f6 943c 28d6 bf3d 6155 55be
00000010: a2de c0bc da55 f53d 805e 57be cab2 89bd
00000020: 8193 4a3c c660 5cbe 2c2a 5dbe 8bb0 6dbe
00000030: 7325 6cbe 9c55 893d 32af 89bd 16f5 f6bd
00000040: 2a01 07bd 57f4 913e 0681 563c bf2d 26bd
00000050: f50c 2c3d 0784 9dbd 54fe 913e 2f07 74be
00000060: 673f aabd 01b0 ddbd b95a f5bc 1fd7 d03d
00000070: b4dd f13e 10a8 d23d f47d 313d 1c4b 0c3e
00000080: 8ebb 153e 7959 663b e9dd eebd 1962 c5bd
00000090: c91d b2be 2450 a5bd 277d eebd 5a48 0cbf
000000a0: 756e c73c 7981 b43e 42d0 e2bd 1511 b13d
000000b0: d1fe 91bd fb3e 15be 18d6 7bbe 5012 f7bb
000000c0: 2e04 b3bc 732f 02bd f78b 20bd 4c6f 0c3e
000000d0: dab6 953e a1c8 903d 7091 fcbd 7b17 39bd
000000e0: cabd 553e f0a7 423c 98ce 86bd ddc0 7a3c
000000f0: 858f ecbe 2fb2 00be b625 c83e 4992 ba3d
00000100: a6d1 68bd d5b4 46bd 67dc 013d 0a64 603e
00000110: 77b4 7c3d 6f96 babe 1246 be3d 3e62 ba3d
00000120: 37eb 41be cd42 733e 1d92 5a3d 2235 df3b
00000130: b64d 2e3d 470c c7bd 0f59 7a3b 8935 23be
00000140: 8749 b6bd 2dc5 233e f79c a6bd 777c 90bd
00000150: 8e3d 803e 1e61 853e 3639 653d 0f0d 9c3e
00000160: 2253 0a3b 799e 77bd cc05 18bd 2a00 d43d
00000170: c3e9 ffbb 6354 80be 4a6f 223e b663 dd3d
00000180: db7e ccbd e1d6 af3d 9c46 703d cf01 93bd
00000190: 7ec1 06be c582 cfbc 6091 e4bd e25d 8dbc
000001a0: 113e bcbd 4cd6 53be 73f8 c8bd 6ec3 b03d
000001b0: 0dd0 89be f3b2 b43e 9ed9 f23d 2c55 05be
000001c0: b3b5 a8bc 6819 8ebd 8ce1 433e 4d2c b43c
000001d0: bac3 bdbe e220 013e bb47 593d 530b a83d
000001e0: 7a34 cdbc 1c49 04be c330 07bd 8b04 02bd
000001f0: 464c 643d e6e9 9bbe 30fd b3bd 26f2 82bd
00000200: da30 e2bd 51b3 c33e fb05 d53d 4c6e b43e
00000210: 6e59 40be f9d2 603a 41bd 333e c6b6 333e
00000220: 8633 7c3d 2389 13bd 3b61 2dbd c3f6 033c
00000230: c850 cfbd b3ea b03d abef 103e 1792 683e
00000240: ba61 bf3d 3ede 213c d0c7 f83d b1ca c4be
00000250: 6f66 c43c 5152 643c a774 363e cbb8 873d
00000260: e861 293d d694 e13d b518 17bd 6c0e 31be
00000270: bc4e 16bc f990 5abe 5e27 6cbe 3366 c7bd
00000280: c184 663d 995d 00bd 0969 16bd e227 c63d
00000290: 7cbb 20bd bf64 093d 6392 473d 36e8 a6bc
000002a0: 254f 813e 8c60 333e b229 6cbe ca70 633e
000002b0: 937e d53b 0125 09be f6d4 47be 623a 863d
000002c0: 07e6 8c3d 7de6 8c3c b648 5c3d 0fc3 e53d
000002d0: 819b 203e 3999 303e f30d 96be 3921 12be
000002e0: 3888 8d3e 318b 06be b226 0fbd 844c 6d3e
000002f0: bdcb 84bd 05d9 133e 608f 1c3e 5fbe 523e
00000300: 5ee2 2bbe 51f2 cb3e b8d6 ccbd 12bf 8bbc
00000310: 7c2d 83be a5e7 a1be ee9b 433c db05 9f3c
00000320: 9742 d2bd fb5b 0f3e 0828 033d 77df 06be
00000330: 8696 f53d 9bf8 483d 367a c2be 5e43 a4bd
00000340: 3bb3 a13c 7105 62be 1bc6 543e 6b2d ccbd
00000350: 97e0 143e 2945 70bd 5ade fb3e d8cc 59be
00000360: 2b1d 0b3e 7332 50be f49d 84bd ff64 1a3e
00000370: 19c9 843d 2284 6b3e 6dd4 13bc 84a7 313e
00000380: b92e 1f3e 7fd8 483e 4598 04be 6d8b 47bd
00000390: d8ad 75be 3962 f53d 9558 2bbe d940 4bbe
000003a0: abe9 953d 2d7e 74bd 266a 68be 537a 18be
000003b0: c264 77bd cdf4 3eba 5ae8 b1be 5f65 9c3d
000003c0: 5e50 803d c847 28bd 2850 503e 3213 373e
000003d0: 5fea 7a3e 836d b63c be15 d03c 0190 85bd
000003e0: 7546 943e bd31 febd a98d d83d 7a3f be3e
000003f0: ef7f b6be 839a 67be faa2 a83c f03e 9b3e

_mean_net.2.bias f4 [32]
-0.036905847 0.10011174 0.06936826 -0.13199274 0.22561984 0.25524497 -0.13544837 0.25413504
0.027646974 0.14832479 -0.13459398 -0.055265352 0.31162292 -0.3044719 0.09703399 0.07732893
0.14470309 0.31784302 -0.04114005 0.026404567 0.19386373 -0.13195835 0.2882637 0.026362153
-0.10578595 0.08118291 -0.35070118 0.06978997 0.20201273 0.026561435 0.20998983 -0.026777862
00000000: 962a 17bd 6207 cd3d f210 8e3d 1b29 07be
00000010: e308 673e 78af 823e fab2 0abe fd1d 823e
00000020: e87b e23c 74e2 173e 01d3 09be ec5d 62bd
00000030: 0a8d 9f3e bee3 9bbe c2b9 c63d a15e 9e3d
00000040: 0c2d 143e 52bc a23e 7882 28bd 644e d83c
00000050: 3784 463e 1720 07be 4d97 933e 71f5 d73c
00000060: 4ea6 d8bd 3a43 a63d 1b8f b3be 0bee 8e3d
00000070: 6ddc 4e3e 5e97 d93c 9307 573e 3f5d dbbc

_mean_net.4.weight f4 [17, 32]
-0.0463307 -0.25010583 0.09268638 -0.1544135 -0.26230413 0.17222801 -0.074107155 -0.21538524
-0.016185353 -0.03942019 0.06319988 0.023610862 -0.29652014 -0.26681712 -0.10910144 -0.4781368
-0.13218383 0.34782225 0.13945518 0.032226466 -0.14587982 -0.051287286 0.18477301 -0.023489509
0.28169957 -0.023639208 0.11448419 -0.069717206 -0.0478837 -0.09671538 -0.1549908 0.20649883
0.022695718 0.26335517 -0.19660006 0.16349484 0.16716404 -0.062228158 -0.34112322 -0.026725339
0.10217669 -0.043900825 -0.107143424 -0.042972025 0.09065177 -0.0878282 0.048629686 0.12593696
0.026134543 -0.08967529 -0.19896223 -0.14769012 -0.1100067 0.0024064058 -0.09240529 -0.039534237
0.2794016 0.025861641 -0.01871908 0.1462896 -0.2631373 -0.354485 -0.11661888 0.36625543
-0.12045917 0.21558648 -0.056924198 0.26982448 -0.20880133 -0.35313562 0.18648894 0.06792844
0.07833557 0.13915588 -0.15312381 0.24078725 -0.07686299 -0.01626438 0.011590252 0.19596876
0.0010365566 0.21542138 0.22575705 0.38267574 0.06921131 0.074236214 0.4778609 0.14033999
-0.2528249 0.10828297 -0.053754292 0.25475824 -0.19489674 -0.017023426 -0.10178659 -0.13594459
0.1334465 -0.015763102 0.27494955 0.054258708 0.16204359 0.26873752 -0.037110385 0.11745111
0.13567151 0.14120053 -0.21031024 -0.5258055 0.18220705 0.122396536 -0.18133792 -0.069883995
0.123399235 -0.22910511 -0.20652525 -0.37630367 0.00344378 -0.22298707 0.18559721 0.2470528
0.14324379 -0.026039764 -0.19812913 0.34598395 -0.005690648 -0.07968821 -0.027304886 0.029828032
-0.13665542 -0.037846737 -0.25189286 -0.18878621 -0.105923615 -0.27283412 0.029961111 0.17045245
-0.15363882 -0.3997524 -0.029899063 0.01312488 0.25933018 -0.30215186 0.12295449 -0.13835308
0.17234759 0.07043286 0.35298097 0.49305105 -0.13948266 0.07795842 -0.012090289 -0.27567735
-0.09340322 0.0028740175 -0.08983747 -0.10395072 -0.111145794 0.03999327 -0.14039852 0.0034518489
-0.11400273 0.083172105 -0.026414517 -0.3405034 -0.1381953 0.27094012 0.10914849 -0.20772086
-0.20038816 0.47257957 -0.12374877 0.05213195 0.08266028 -0.23688312 -0.086864986 -0.49360502
0.11200268 0.22243422 0.3792838 0.4386118 0.104694985 0.30339357 0.14235827 0.104770176
-0.19576201 -0.45326385 -0.15187222 -0.094489895 0.19483949 0.15112293 -0.2385489 -0.071214
-0.37850916 0.30186877 0.2635215 -0.17897794 0.11238851 0.1931415 0.09946189 0.39085948
-0.14816089 0.047085676 -0.03146437 -0.03715371 0.32877502 -0.08548594 0.2617165 -0.02435413
-0.077426285 0.122993 0.22466168 0.16534272 -0.18849431 0.15180117 0.16424234 -0.06617669
0.17613775 -0.11339714 -0.26090363 0.071649276 0.01675599 0.33047843 0.2246218 -0.23629864
0.050024718 0.06998614 0.2883961 -0.10205538 -0.16386065 0.028452573 0.31651 0.15198876
0.29886883 0.23778404 -0.026464537 0.1780878 -0.14022376 0.25360596 -0.23808032 -0.19489548
0.16700351 0.046819624 -0.43286943 0.3435992 0.06561328 -0.0067264275 -0.06016336 0.088851355
-0.16264862 0.36210066 0.012870147 0.30031997 0.123201154 0.27843338 0.082455665 -0.12778401
00000000: 43c5 3dbd df0d 80be 5bd2 bd3d 931e 1ebe
00000010: ba4c 86be 8a5c 303e 7ec5 97bd f38d 5cbe
00000020: 2597 84bc 1177 21bd f06e 813d 916b c13c
00000030: 7dd1 97be 419c 88be 9370 dfbd 59ce f4be
00000040: 335b 07be c215 b23e 57cd 0e3e e6ff 033d
00000050: 8561 15be 9e12 52bd 2335 3d3e 126d c0bc
00000060: ed3a 903e 03a7 c1bc b076 ea3d e5c7 8ebd
00000070: b321 44bd b712 c6bd e9b5 1ebe 6e74 533e
00000080: 5fec b93c 7dd6 863e 8751 49be 316b 273e
00000090: 0d2d 2b3e f4e2 7ebd b4a7 aebe 19ef dabc
000000a0: 0342 d13d 5ad1 33bd 036e dbbd 6f03 30bd
000000b0: a3a7 b93d 45df b3bd ec2f 473d 9ef5 003e
000000c0: 1c18 d63c aea7 b7bd c1bc 4bbe 143c 17be
000000d0: 314b e1bd cab4 1d3b fc3e bdbd a7ee 21bd
000000e0: ba0d 8f3e cbdb d33c c258 99bc f1cc 153e
000000f0: efb9 86be 0f7f b5be e1d5 eebd d585 bb3e
00000100: 4cb3 f6bd b4c2 5c3e 5929 69bd 6f26 8a3e
00000110: 04d0 55be 31ce b4be f5f6 3e3e 111e 8b3d
00000120: 666e a03d e17e 0e3e 7dcc 1cbe ef90 763e
00000130: 586a 9dbd e13c 85bc 0ae5 3d3c 09ac 483e
00000140: 11dd 873a 6c97 5c3e db2c 673e 13ee c33e
00000150: a9be 8d3d 2809 983d 2faa f43e 49b5 0f3e
00000160: 4472 81be 76c3 dd3d 762d 5cbd ac6f 823e
00000170: 0393 47be b674 8bbc 7d75 d0bd 0f35 0bbe
00000180: 33a6 083e 9f21 81bc 30c6 8c3e 613e 5e3d
00000190: c1ee 253e f797 893e 0f01 18bd 358a f03d
000001a0: 79ed 0a3e df96 103e 915b 57be 309b 06bf
000001b0: 7c94 3a3e 09ab fa3d a6b0 39be 571f 8fbd
000001c0: bdb8 fc3d 889a 6abe 5b7b 53be e0aa c0be
000001d0: 0ab1 613b b956 64be 320d 3e3e 69fb 7c3e
000001e0: 80ae 123e 5851 d5bc 5de2 4abe cf24 b13e
000001f0: 9e78 babb 9233 a3bd 7fae dfbc eb59 f43c
00000200: 66ef 0bbe 2e05 1bbd 1af8 80be 2c51 41be
00000210: 7bee d8bd eab0 8bbe 0171 f53c 168b 2e3e
00000220: 7f53 1dbe 59ac ccbe e1ee f4bc bd09 573c
00000230: edc6 843e a6b3 9abe 90cf fb3d 6eac 0dbe
00000240: e37b 303e 1a3f 903d ecb9 b43e 3071 fc3e
00000250: 8bd4 0ebe aaa8 9f3d 5916 46bc 9525 8dbe
00000260: 304a bfbd 035a 3c3b b5fc b7bd 1de4 d4bd
00000270: 68a0 e3bd fccf 233d a1c4 0fbe 6a38 623b
00000280: 437a e9bd 2356 aa3d 4263 d8bc 7656 aebe
00000290: 1283 0dbe aab8 8a3e 3e89 df3d c7b4 54be
000002a0: 8e32 4dbe f3f5 f13e ff6f fdbd 5088 553d
000002b0: cb49 a93d 7d91 72be 45e6 b1bd ccb9 fcbe
000002c0: a961 e53d ccc5 633e 7c31 c23e ba91 e03e
000002d0: 536a d63d 6756 9b3e 5ec6 113e bf91 d63d
000002e0: d675 48be 3312 e8be 6484 1bbe eb83 c1bd
000002f0: 0184 473e f8bf 1a3e 2a46 74be a5d8 91bd
00000300: f4cb c1be 8b8e 9a3e 4aec 863e fe45 37be
00000310: f22b e63d e3c6 453e adb2 cb3d bc1e c83e
00000320: 7db7 17be e9dc 403d c9e0 00bd 7d2e 18bd
00000330: 3355 a83e 4113 afbd b5ff 853e 5082 c7bc
00000340: ac91 9ebd c1e3 fb3d b60d 663e 9a4f 293e
00000350: a704 41be c471 1b3e 252f 283e a587 87bd
00000360: 745d 343e c23c e8bd 2995 85be dbbc 923d
00000370: dc43 893c 7834 a93e 4203 663e 45f8 71be
00000380: b8e6 4c3d e554 8f3d a7a8 933e 6902 d1bd
00000390: 16cb 27be 5f15 e93c 990d a23e f1a2 1b3e
000003a0: 5605 993e a97d 733e 28cc d8bc a65c 363e
000003b0: d196 0fbe a4d8 813e 54cb 73be ae92 47be
000003c0: f802 2b3e efc5 3f3d 10a1 ddbe 3cec af3e
000003d0: 4160 863d 5d69 dcbb db6d 76bd b3f7 b53d
000003e0: 5c8d 26be 4265 b93e 4fdd 523c 8ac3 993e
000003f0: e350 fc3d d28e 8e3e 84de a83d d0d9 02be

_mean_net.4.bias f4 [17]
-0.02330633 -0.20820038 0.23949899 -0.018218042 0.17179985 0.44358024 0.24912451 -0.21632172
0.1238811 0.21974006 0.073641695 -0.12049103 0.01649035 -0.28520182 0.42266217 0.32044408
-0.3212372
00000000: ebec bebc 7b32 55be 393f 753e 013e 95bc
00000010: 4dec 2f3e f31c e33e 7f1a 7f3e 7183 5dbe
00000020: 60b5 fd3d 8a03 613e 75d1 963d 00c4 f6bd
00000030: c516 873c f905 92be 2d67 d83e 3f11 a43e
00000040: 3479 a4be
