hw1/run_logs/q2_dagger_ant/policy_itr_4.pt (torch, 41083 bytes, 7 tensors)

_logstd f4 [8]
000000 ab 68 7d c0 63 0b 70 c0 c5 26 63 c0 47 fd 6b c0
       -3.9595134 -3.750695 -3.5492413 -3.6873338
000010 94 26 7b c0 b6 2c 8b c0 f0 eb 69 c0 be 10 85 c0
       -3.9242296 -4.349208 -3.6550255 -4.1582937

_mean_net.0.weight f4 [64, 111]
000000 83 fb 94 3f 68 0f ad b9 d7 9b af be 3e 26 87 bf
       1.1639255 -0.0003300861 -0.34298584 -1.0558546
000010 f1 67 f2 be d5 0e f7 bd 31 5c e5 be 1d 81 33 be
       -0.47344926 -0.12063376 -0.447969 -0.17529722
000020 83 b0 98 3d 92 21 22 be e2 ee 8f 3d 97 5f 9f bd
       0.07455542 -0.15833119 0.07027985 -0.07781904
000030 5b 7a 90 bd 21 37 19 3d 89 86 86 3d 99 20 ac 3e
       -0.070545875 0.03740609 0.06568629 0.3361862
000040 92 6b 5f 3d e2 53 6d bd b2 ee 97 bd 3c fd 4d 3d
       0.054545946 -0.057941325 -0.074185744 0.05029033
000050 b7 bf 1d be 3d b6 b1 3a aa 6b 30 bd 05 b9 82 3c
       -0.15405165 0.001355834 -0.043071426 0.015957365
000060 7d d8 dc 3d 99 40 0a 3d 31 c7 a2 3c 81 b1 59 bd
       0.10783479 0.03375301 0.019870372 -0.053147797
000070 9b 5a 5c bd 4d e1 3c bd 20 95 b0 bd e4 4e 7c bd
       -0.053797346 -0.0461133 -0.08622193 -0.061598673
000080 e1 fe b6 3c ed de 7f 3d 32 37 99 3b e5 35 32 bd
       0.022338333 0.062468458 0.0046757692 -0.04350843
000090 3a dc 2a 3d 79 3d 15 bd f7 3d ac bc 1d 21 55 bd
       0.04171393 -0.036435578 -0.02102564 -0.052033532
0000a0 19 27 f4 bc 95 1e b4 bd eb e2 25 3d 70 2b 17 3d
       -0.0298038 -0.087948956 0.04049961 0.03690666
0000b0 94 72 9a 3c 9c e1 3e 3d 78 c6 24 3d dc 9a 89 3b
       0.018853463 0.046601877 0.040228337 0.004199369
0000c0 99 b1 24 3c a5 7f ed 3b 13 73 4f 3d f1 84 17 3e
       0.010052108 0.0072478824 0.050646853 0.14796807
0000d0 cb 46 bb 3e 3d a1 cd 3e 60 2b 91 be 4b 58 e0 be
       0.36577448 0.40162078 -0.28353405 -0.43817362
0000e0 34 ec f1 3c b3 29 62 3d df b4 2c 3c b2 e9 b3 3d
       0.029531576 0.05521555 0.01054117 0.08784808
0000f0 0c 2f 45 3d 95 22 a6 bd 5f 75 e3 3c 30 c8 ba 3d
       0.04814057 -0.08112065 0.027765928 0.09120214
000100 df a9 ac 3d 1a 81 c3 ba 47 fa 00 3d 76 58 b6 bd
       0.08430838 -0.0014915795 0.031488683 -0.08903591
000110 3c e2 f7 bc e6 b3 62 be 33 f0 82 bc 6e ce 30 3e
       -0.030259244 -0.22138938 -0.015983677 0.17266247
000120 f9 49 91 be 1d b5 ac 3e a1 d6 0c 3d 8a 04 89 3c
       -0.2837675 0.33731928 0.034384374 0.016725797
000130 69 aa 16 3c 45 b8 b5 bd 94 04 a7 bc c2 bf 75 bd
       0.009195902 -0.08873037 -0.020387925 -0.059997328
000140 67 42 a5 3d 4e e3 3e bc 1c 8e c1 bd 64 52 bc 3c
       0.08069306 -0.011650873 -0.09450933 0.022988506
000150 5e d5 28 3d db 09 2e bd 7a e1 11 bc 4e f3 f4 3d
       0.041219108 -0.042489868 -0.008903855 0.11960469
000160 ea 96 ac 3d 54 61 55 be 2d 84 a1 3d 4c 80 00 be
       0.08427222 -0.20837909 0.07886539 -0.12548941
000170 fe 09 30 bd 0f 63 fe 3b 17 9b 68 3d 0a 22 50 3d
       -0.04297828 0.0077632735 0.05678853 0.050813712
000180 99 ce 95 bd 40 52 72 bd 26 f5 84 bd c4 e7 f9 bc
       -0.07314796 -0.05916047 -0.06492071 -0.030506022
000190 63 11 0e bd fe 92 7a bc f6 0c bc bd b0 2d 24 3d
       -0.03468455 -0.015293835 -0.091821596 0.040082633
0001a0 01 8e 5c 3d a4 11 97 bd a8 21 7f be 7e cd 3e be
       0.053846363 -0.073764116 -0.24915183 -0.18633077
0001b0 5b f0 39 be c8 20 0b 3f ea a1 b3 3e a9 a3 10 3f
       -0.18158095 0.54346895 0.35084468 0.56499726
0001c0 8e d1 e2 be 87 ca 36 bf 12 4e 63 bf 9a 36 63 be
       -0.44300503 -0.7140278 -0.88791 -0.22188798
0001d0 c7 61 5e 3d 68 7f fd 3e da 13 64 be c0 3a 50 3e
       0.054292466 0.49511266 -0.22273198 0.20334911
0001e0 62 9b 22 3e 35 96 52 3e 04 7c ff be 49 69 16 3e
       0.15879586 0.20565112 -0.49899304 0.146886
0001f0 5c d8 78 3d 1e 20 c2 bb bb 52 32 3e 9b df 77 3e
       0.06075321 -0.005924239 0.17414372 0.24206392
000200 66 eb 31 be 38 58 53 3d e8 92 6b 3c 22 3f c6 bd
       -0.17374954 0.051597804 0.014378287 -0.096800104
000210 02 7f 41 3d 0b 71 61 bd 54 8e 4a 3d 3f 3f 72 be
       0.047240265 -0.055039447 0.04945214 -0.23656939
000220 2a bb c9 bc 88 58 8a bc 56 47 bd 3d 65 aa ea bb
       -0.02462538 -0.016887918 0.09242122 -0.007161426
000230 65 03 b9 bd 4f 1b 6a bc 1c ee 7d 3d d1 0a 33 3d
       -0.090338506 -0.014288737 0.061994657 0.043711487
000240 2f f5 84 ba 09 09 89 3d ee 5a b1 bd f7 df 86 3d
       -0.0010143871 0.066911764 -0.086599216 0.06585687
000250 98 f5 c0 3d 84 66 6c bd e1 c7 a6 3c 1c c5 7a bc
       0.09421843 -0.057714954 0.020358982 -0.015305784
000260 9a 19 a4 bd 9f 21 5a ba 97 49 02 bd fb 08 a6 bd
       -0.080126956 -0.000832105 -0.031808462 -0.08107182
000270 e9 a4 8d bd 96 ba 07 3b cb 35 b4 3d ab 31 0b 3d
       -0.0691622 0.002071058 0.08799323 0.033982914
000280 4d 55 81 bd 12 14 86 3d a4 95 a3 3c 74 26 fb bd
       -0.06315098 0.06546797 0.019968815 -0.12263194
000290 39 6b 42 3e c9 5e 0f 3d b6 eb 51 be ef 49 dd 3c
       0.18986215 0.035002504 -0.20500073 0.027012793
0002a0 bf b1 41 bd a8 46 99 bd 3f e8 5c bd 59 29 1c 3c
       -0.047288653 -0.0748418 -0.053932425 0.009531342
0002b0 45 4f 7b 3d 79 7c 90 bc b1 d0 ae bd f3 fc 54 ba
       0.061354894 -0.017637478 -0.085358985 -0.00081248506
0002c0 60 10 a9 bd ff b2 b6 3b 90 1f 90 3d 57 ec 25 3d
       -0.082550764 0.005575537 0.0703727 0.040508594
0002d0 d0 aa 94 be 88 25 f3 bd 95 62 e8 3d 58 51 21 3e
       -0.2903657 -0.11872393 0.11346928 0.15753686
0002e0 a1 84 ae bd 04 65 c3 bd 78 7e 09 bd fc de 0e 3d
       -0.08521391 -0.095407516 -0.033567876 0.034880623
0002f0 94 af ad 3d 55 3e 2d 3d 13 dd 12 3d 19 f3 a4 bd
       0.084807545 0.042295773 0.035855364 -0.0805418
000300 5f 90 7b 3d 31 3c 0b 3d cc 07 fa bc ca 89 3a bd
       0.06141698 0.03399295 -0.030521296 -0.045541562
000310 10 0d dd 3c ef bb 52 bd 65 16 d9 3e d7 3f 8e 3f
       0.026983768 -0.05144876 0.42399898 1.1113232
000320 7d eb b2 3e 67 ec ae be c7 be a7 3d cf b6 00 bf
       0.34945288 -0.34164736 0.08190685 -0.50278944
000330 ec 58 32 bc 76 25 72 3d 1f 82 11 3d 98 91 fa bc
       -0.010885458 0.059117757 0.035524484 -0.030587003
000340 a8 0e 41 bc 56 10 29 bd e5 ea 9c bd 3c 39 d4 bc
       -0.0117832795 -0.041275345 -0.0766199 -0.025906198
000350 52 a5 d6 3b 4c 28 45 bd 67 a1 91 bd 29 20 e3 3c
       0.0065504694 -0.048134133 -0.07110863 0.027725296
000360 97 64 47 3f bc 1e ad 3e 36 8d 9e be a2 f8 8a 3f
       0.7788786 0.3381251 -0.3096711 1.0857127
000370 68 06 d2 be c0 ce cb be 94 a3 86 3f c5 f7 84 be
       -0.41020513 -0.39806175 1.051867 -0.25970283
000380 c1 c3 8e 3e 6a e8 85 bf cb a9 1f bf c8 d3 0c 3e
       0.27883723 -1.0461552 -0.6236846 0.13752663
000390 f8 f3 07 bd a9 ed fb 3d a4 27 81 3e 03 f1 2d be
       -0.03319165 0.123011895 0.25225556 -0.1698647
0003a0 50 2c a7 3e 28 27 89 be 7a b6 77 3e 00 57 ac 3c
       0.32650995 -0.26787686 0.24190703 0.021037579
0003b0 23 38 c3 bd 34 e8 4e be 29 a6 8f bc d7 b8 46 3d
       -0.095321916 -0.20205766 -0.017535286 0.04851612
0003c0 a7 2d 67 be 88 85 c9 3c 98 24 b9 3d ae b7 87 3d
       -0.22576009 0.024599805 0.09040183 0.06626831
0003d0 67 69 29 3f f1 23 8e bd 0e e7 94 3e 28 a0 08 3d
       0.66176456 -0.06940449 0.2908253 0.033355862
0003e0 24 6b e6 3c cf 2b 74 bd 9d 81 84 bd c4 45 c4 bb
       0.02812726 -0.05961209 -0.06470034 -0.005989762
0003f0 50 d9 c0 3c 71 16 b6 bd 31 41 95 bd 3f d6 5a 3d
       0.023541123 -0.08890999 -0.07287825 0.053426977

_mean_net.0.bias f4 [64]
000000 53 c0 a6 3d 46 91 b8 be 22 68 b0 be 3e 66 2b 3e
       0.08142152 -0.36048335 -0.34454447 0.16738221
000010 8f bd 2e be 86 f3 7a 3e 9e ca cb be f8 e2 4b be
       -0.17064498 0.2450696 -0.39803022 -0.199108
000020 62 f1 4c be f2 b7 e3 bc 3f 0f 77 3e 8e e6 8f 3e
       -0.20013955 -0.027797673 0.2412691 0.28105587
000030 ad 1b 93 3e 37 b4 8f be 99 52 43 3e 2f 40 c6 be
       0.28732052 -0.2806718 0.19074477 -0.38720843
000040 27 6b b0 3e 02 98 f4 be fb 8c 26 be 8a a7 8c 3e
       0.3445675 -0.47772223 -0.16264717 0.27471572
000050 55 d6 ba bc 3e a0 97 be 9b 9a 5c be 0a 83 dd bd
       -0.02280728 -0.29614443 -0.21543352 -0.10816009
000060 1c e0 9e 3e ee e3 03 3d a0 90 32 3e bc 76 79 3e
       0.31030357 0.032199793 0.17437983 0.243617
000070 5a b8 29 be 1d 02 86 be b8 be 91 3d 50 a6 99 3d
       -0.16574231 -0.26173487 0.07116455 0.07502425
000080 26 bd 97 be 31 c2 37 3e ec 06 ae 3e 6c 6d b4 3e
       -0.29636496 0.17945172 0.33989656 0.35239732
000090 84 92 61 3e b8 d7 d1 bd f2 33 03 be a2 c1 ef 3d
       0.22028548 -0.10246223 -0.12812784 0.117068544
0000a0 3e 84 c5 3e 50 4b 77 bd db cf 6a 3e fe 2a f3 3d
       0.38577455 -0.060374558 0.22930853 0.118734345
0000b0 2d 7d 07 be c9 f5 eb 3d c6 40 4c bd 8a 72 6e 3e
       -0.13231345 0.11521489 -0.04986646 0.2328588
0000c0 3e ef 22 3e bf 75 da be 45 42 64 bd 62 06 ee be
       0.15911576 -0.42667958 -0.055727262 -0.46489245
0000d0 a4 31 11 be 6a b1 4f bd 89 94 38 3e 9c 43 fe bc
       -0.14179093 -0.050706305 0.18025412 -0.031038098
0000e0 8e cf a9 3e cf 47 ca 3e 46 aa 2b 3d 39 93 4b 3d
       0.33166164 0.3950791 0.041910432 0.04970095
0000f0 88 3c 6c be 5c 17 a2 3e e3 0e ce bd ee d7 50 3e
       -0.23069966 0.31658447 -0.10061433 0.2039487

_mean_net.2.weight f4 [32, 64]
000000 ef cf cc 3d 69 ab 98 bd 21 48 de bd 01 76 33 3c
       0.10000598 -0.07454569 -0.10853601 0.010953427
000010 35 6a 09 3e fe 91 9c 3d 94 81 12 3d 30 22 de 3b
       0.13419421 0.07645033 0.035768107 0.006778978
000020 0d fa bd 3b be ca fd 3d e9 98 25 bd 1c 1d c9 3d
       0.0057976306 0.12392186 -0.04042903 0.09820005
000030 cc 7c da 3c 59 23 27 be e5 d4 99 bd 1a 23 00 3d
       0.026670836 -0.16322078 -0.075113095 0.031283475
000040 d9 bf e4 3d 82 d4 46 3d 34 57 eb 3d b3 cf b5 be
       0.111694045 0.048542507 0.11491242 -0.35510024
000050 06 65 6a 3c c5 03 c7 3e 52 d8 02 3e ea 63 00 be
       0.014306312 0.38870063 0.12777832 -0.12538114
000060 53 2c 07 3e ba 1d 2a 3e b2 79 49 3e 94 49 14 be
       0.13200502 0.16612902 0.1967533 -0.14481193
000070 04 55 ac bd 02 5e 2c be c2 85 88 3d ed 97 5c be
       -0.08414653 -0.16832736 0.06666137 -0.2154233
000080 9a a5 64 3e 15 ed 82 bd e6 27 31 3e 6e c1 04 3e
       0.22328797 -0.06392876 0.17300376 0.12964413
000090 3b 21 82 bd 4a 05 a4 3d e5 f2 8a bd e5 85 45 bd
       -0.063539945 0.08008821 -0.0678461 -0.048223395
0000a0 d6 03 80 bd 2b fb 2c be f5 f7 ad bc 2e 62 3e 3e
       -0.06250732 -0.16892688 -0.0212364 0.1859214
0000b0 49 f5 09 3e 2f 76 64 be 98 b5 b5 3d 07 3d 57 3e
       0.13472475 -0.22310708 0.08872527 0.21019374
0000c0 56 a1 e6 3c 23 65 96 be 55 5d c4 bc 63 7f b2 3d
       0.028153103 -0.29374036 -0.023970285 0.08715703
0000d0 f1 b1 1f 3e 98 0c 74 bd 3b 16 99 bd b1 9d a7 bd
       0.15595223 -0.059582323 -0.07474943 -0.08184374
0000e0 dc 67 f8 3c 51 15 f2 bd 71 9c 9a bd d3 09 3c 3c
       0.030322962 -0.11820472 -0.0754937 0.011476952
0000f0 e6 12 51 bd 1b d6 22 be a6 ec 16 be b5 49 28 bd
       -0.051043414 -0.15901987 -0.14738712 -0.041085918
000100 39 39 05 be b6 63 e8 3d c3 fc 62 3e f0 b0 9e bc
       -0.1301011 0.11347143 0.22166733 -0.01937148
000110 68 c7 75 3e 38 14 2b be 6e b6 82 3e 03 bd 7f 3e
       0.24001849 -0.16706932 0.25529808 0.24974446
000120 3a fc 11 3e 19 85 c2 bb a3 3e db bd d5 77 ab be
       0.14256373 -0.0059362766 -0.107053064 -0.33489862
000130 37 18 f6 3d 6c 61 20 3f 0a ff a0 3d f9 05 2d 3e
       0.12016337 0.62648654 0.07861145 0.1689681
000140 11 83 8e 3d fb ae ea 3d 36 20 fc 3d eb e6 e0 3b
       0.06958593 0.11459156 0.12310831 0.006863465
000150 f7 c0 2c 3e ff 7d ae 3d 95 74 87 bd 9d 53 a9 3d
       0.16870485 0.085201256 -0.06614033 0.08267901
000160 d8 84 28 be 8a dd c7 3d 35 17 1b 3d fd 38 98 be
       -0.16456926 0.09759052 0.03786393 -0.2973098
000170 ac 7d 50 bd 9f 9a 56 3e 05 a9 8e 3d 91 5e 0f 3e
       -0.0509011 0.20957421 0.06965832 0.14000918
000180 0f af 9b 3e 12 66 84 3d de 7d 35 be f4 b2 1c 3e
       0.30406997 0.06464781 -0.17723796 0.1530264
000190 4c ea 31 3e 99 f2 f4 bd c3 d8 4b 3e 69 18 d9 bd
       0.17374533 -0.11960334 0.19906907 -0.10600359
0001a0 a3 0d 89 bd 04 c3 ca bd e0 57 6a 3e 2f 78 24 be
       -0.06692054 -0.099004775 0.22885084 -0.16061471
0001b0 ea 32 3d 3d a8 9e 3b be 9a 79 95 be 8b f4 ba be
       0.046191134 -0.18322241 -0.29194337 -0.36514696
0001c0 2d f4 81 be 07 bc 08 bc 02 fa a1 3d ea 47 c7 3e
       -0.25381604 -0.00834561 0.07909013 0.38922054
0001d0 8f 06 25 3d d4 ec 4b 3e 21 41 9d bd 7d 90 8d be
       0.040289458 0.19914562 -0.07678438 -0.27649298
0001e0 56 b7 47 be dd 68 0d bf 3f e7 8b bd b1 e1 80 3e
       -0.19503531 -0.55238134 -0.06831216 0.2517219
0001f0 8e 1e bf be 71 a1 5d be 54 ca 8b 3e 2d 1b 0a 3e
       -0.37328 -0.21643616 0.27302802 0.13486929
000200 eb 5b 5f be 8f 36 6d bd 59 3a 63 be fa c6 99 3d
       -0.21812408 -0.05791336 -0.22190227 0.07508655
000210 64 51 88 3d da 7c cc bc 29 f8 5b be ec 94 22 3e
       0.06656149 -0.024961878 -0.21481384 0.15877122
000220 23 d0 71 bc b7 65 c8 3d 06 f4 a9 3e 1d a6 4a bd
       -0.014759096 0.097850256 0.33193988 -0.049474824
000230 28 f5 a3 bd 35 5c b7 3c bf 9d 96 bc 4e 2c e3 be
       -0.08005744 0.022382835 -0.018385766 -0.4436974
000240 af 20 b9 bd f8 df 0d be d3 57 93 bd a4 3a 6a 3e
       -0.09039437 -0.13854969 -0.071944855 0.22873932
000250 e5 b1 21 be 25 00 af be d6 a4 ae be 87 8c 9d 3c
       -0.15790518 -0.34179798 -0.34110135 0.019232048
000260 68 70 5b 3e 5c 16 74 3e 16 1e 7d 3c 8a 9d b5 3e
       0.21429598 0.23836654 0.015449068 0.35471755
000270 d4 ea 98 3c cf ef 25 be 3a 70 ac 3e 1c a8 12 be
       0.018666662 -0.16204761 0.33679372 -0.14321941
000280 9e 25 a4 be f9 ea d5 3e 9d 58 be 3e 8f 25 64 3e
       -0.3205995 0.41780832 0.37176982 0.22279952
000290 a9 7b 05 3e f4 ba 1d 3e 4e b8 2d bd be 6c 39 be
       0.13035454 0.15403348 -0.042412095 -0.18107888
0002a0 0f a5 f8 3d 93 b8 82 be a3 22 3b 3e 98 52 0d bc
       0.121408574 -0.25531444 0.18274932 -0.008625649
0002b0 49 c9 1b bd cf af d0 bd 9b b3 a3 3d 22 56 5e 3d
       -0.038033757 -0.10189783 0.079932414 0.05428136
0002c0 96 34 2f bc 40 cd 83 3d c4 fe a9 be 90 7e e1 be
       -0.01069369 0.06435633 -0.33202183 -0.44041872
0002d0 f2 e1 21 3e 81 c7 aa bc 98 e6 1e 3e 54 4a e7 bd
       0.15808848 -0.020847084 0.15517652 -0.11293474
0002e0 60 b6 83 bd b2 0a 0b 3e d6 d4 3f be 72 ae 4a 3e
       -0.0643127 0.13578299 -0.18733534 0.19793108
0002f0 a8 ef b0 3d 8d 28 b3 3d 7f a8 dd 3d f9 d4 ec 3d
       0.08639461 0.08747969 0.10823154 0.11564059
000300 f2 36 88 bb 09 bc 88 3e ba 7a ce 3d da 2f 23 be
       -0.0041569406 0.2670596 0.10082002 -0.15936223
000310 25 cf 98 bc eb f5 9b be 3d f6 5e 3e 54 23 d2 3e
       -0.018653462 -0.30461058 0.2177362 0.41042578
000320 6d d0 c0 3d d4 87 07 bd 4b 3f 34 be c3 81 d4 3d
       0.09414754 -0.03308852 -0.1760227 0.103763126
000330 6d 01 2a 3e 04 df 01 3e 72 89 5d bd 25 93 89 bd
       0.16602106 0.1268273 -0.054086156 -0.06717519
000340 0b 0d d4 be 18 60 b0 3e 8c 3e 91 3c 8a 50 f8 bc
       -0.414162 0.34448314 0.01773002 -0.030311842
000350 fd 55 df bd 88 a0 13 3e c4 a2 5c 3e 27 30 0c 3d
       -0.10905073 0.14416707 0.21546465 0.03422561
000360 7b e7 74 be 24 81 cc bc 27 94 f7 bd 8d 16 6a bc
       -0.23916428 -0.024963923 -0.12088805 -0.014287603
000370 5d 78 25 be f6 86 95 3c 89 82 c8 be 20 ee 22 3d
       -0.16159196 0.018252831 -0.3916209 0.039777875
000380 1c 60 23 3e 5d 5a cc 3d 96 0f c0 be fa 27 e7 be
       0.15954632 0.09978173 -0.3751189 -0.45147687
000390 34 f8 6b 3d f4 00 08 3e 9c 04 35 be db d5 c1 3d
       0.05760975 0.13281614 -0.1767754 0.09464618
0003a0 7f 7d 19 be 2a d2 12 be c0 79 20 be 44 df 2e be
       -0.14989279 -0.14337984 -0.15671444 -0.17077357
0003b0 33 e7 a5 bd 0e 92 43 be 28 96 92 3d 37 15 e4 bd
       -0.081007384 -0.19098684 0.07157546 -0.11136859
0003c0 8a 69 c5 3d 2d 6b 30 3e 05 30 ab 3d ee db f3 3e
       0.096392706 0.17228384 0.083587684 0.4762873
0003d0 db b5 c2 3b a0 04 13 3e b7 7e 50 bc b6 45 ac 3d
       0.005942089 0.14357233 -0.012725524 0.08411734
0003e0 26 dd 24 be c9 dd 4f be 01 fa f4 bd fd 53 cb bd
       -0.16099986 -0.20299448 -0.11961747 -0.09928129
0003f0 4c 2b fa b9 a2 e1 1b be 4c 7f 37 3d 74 09 d5 bd
       -0.00047715975 -0.15222791 0.044799134 -0.10402194

_mean_net.2.bias f4 [32]
000000 fc 74 d2 bc 65 ba 0d 3e 6d f3 00 3e 36 de 8a be
       -0.025690548 0.13840635 0.1259286 -0.27122658
000010 a1 92 3f bc 32 ff 82 3b b5 ec bd 3d 2d 3d e9 3c
       -0.011692674 0.003997707 0.09273664 0.028471554
000020 0a 71 56 3d b4 10 93 3d 75 b6 17 bd fb 57 b7 bd
       0.052353896 0.0718092 -0.03703924 -0.08952328
000030 59 49 77 ba 74 6f 0a 3b 49 5f 95 3e dc 3d 9d bd
       -0.0009433232 0.002112356 0.2917426 -0.07677814
000040 1e 61 1f be e2 6a 84 bd e5 c3 d9 3d ee 4c 29 be
       -0.15564391 -0.06465699 0.10633067 -0.16533253
000050 05 d7 22 be 9a 2b a5 3d 8b a9 a4 bc 35 55 3f be
       -0.15902336 0.08064957 -0.020100376 -0.18684848
000060 58 35 8f be e2 2e 6b be d4 2c a0 3d af a8 04 be
       -0.27970386 -0.22967103 0.0782105 -0.12954973
000070 96 16 07 3e 00 db 3b bc 8c 50 ea 3d 7b 8c 81 3e
       0.1319221 -0.011465788 0.11441144 0.2530249

_mean_net.4.weight f4 [8, 32]
000000 f8 c1 2b 3d 56 35 af bd 1b 5d 2d bd 07 e5 83 bd
       0.04193303 -0.08555095 -0.04232512 -0.06440168
000010 02 b7 85 3d 62 b3 d9 3d 9f 2d e8 3a bf 57 c4 3c
       0.065290466 0.10629918 0.0017713791 0.023967622
000020 8b c5 ec 3c ad d3 6f bc 52 59 f6 bb c2 e5 b4 3d
       0.02890279 -0.01463787 -0.007517972 0.08832885
000030 17 55 0e 3e e2 27 72 bd 32 8d c0 3d a3 35 6c 3b
       0.13899647 -0.059120066 0.09401931 0.0036042712
000040 38 6a b7 3b 1e 11 af 3a 35 f7 2f bd 2d 64 83 3d
       0.005597379 0.0013356542 -0.042960364 0.064155914
000050 c2 db dc bd e8 d8 cc bd f0 82 e9 3b 37 39 a1 bd
       -0.10784103 -0.10002309 0.0071262047 -0.07872241
000060 9a 58 45 3e eb b6 b9 3c 3b b9 33 be c7 5b e8 3b
       0.1927208 0.02267023 -0.17551129 0.007091019
000070 ac 77 12 3d 01 51 88 bc e0 ba 22 bd f9 35 a6 bd
       0.03575866 -0.016640188 -0.039729 -0.08115763
000080 f7 cb 22 bd 29 93 87 bd 72 9b 5b bd 85 c0 97 bd
       -0.039745297 -0.066198654 -0.05361504 -0.07409767
000090 3e fa e2 3d 1b 0b f0 3d 01 72 1b 3d ec 86 af bd
       0.11082886 0.11720868 0.03795052 -0.08570656
0000a0 48 44 17 3d 85 75 9a bc a3 95 0b be de 06 73 bd
       0.036930352 -0.018854866 -0.136313 -0.05933272
0000b0 66 18 43 3c 26 53 e6 3d db 8b 2e bd a9 b7 71 3d
       0.0119076725 0.11246328 -0.042613845 0.059013043
0000c0 59 c6 e7 bd 22 9d 6e 3e de c3 67 bd d0 7d a0 3d
       -0.11317129 0.23302129 -0.056583278 0.07836497
0000d0 31 a0 5d 3d 4c 0a df 3d 1e 85 26 3a 23 c4 9a bc
       0.05410785 0.10890636 0.00063522335 -0.018892353
0000e0 55 b9 43 bd 0b 66 8c 3c ae 90 d5 bd d9 c0 a1 bc
       -0.04778417 0.017138502 -0.10427986 -0.019745277
0000f0 2b 46 58 3c d4 cc 1d 3e 99 19 cc bd ee 7d 4b 3d
       0.013200323 0.15410167 -0.0996582 0.049680643
000100 bd c7 de bc 75 3d 27 3e d5 e1 db 3d 64 06 b5 3c
       -0.027194852 0.16332038 0.107364334 0.022097774
000110 12 ec fc 3d 1e 6c f0 bd 3d 4e a4 bc 88 af 0f be
       0.12349714 -0.11739372 -0.020056838 -0.14031804
000120 37 59 b0 3c 0a 81 b2 ba db 85 62 3c 82 5f 3e bd
       0.021526916 -0.0013618779 0.013825859 -0.046477802
000130 7f 8e 8b bd 2f 04 2a bd 00 27 f9 3d fd 33 a2 bd
       -0.06814288 -0.041507896 0.12165642 -0.07920072
000140 a5 2f 25 3d 99 4a 5d be 5e e9 3d be 00 0c f0 ba
       0.04032864 -0.21610488 -0.18546054 -0.0018314123
000150 d6 d0 8d 3d dc f5 a4 3d 50 69 06 bc 99 b5 24 3c
       0.06924598 0.080547065 -0.008203819 0.010053062
000160 d0 e0 6d be 6b cd 2f be e6 c9 db 3c cc a5 06 be
       -0.2323029 -0.17168204 0.026829671 -0.13149184
000170 21 f1 e5 bc 41 15 89 bd 32 ad 3d 3d 7a d1 f6 bc
       -0.02806908 -0.06693507 0.04630775 -0.030129183
000180 44 fe bf bb 6e 44 d6 bd f0 21 54 3d 40 da 3e be
       -0.0058591682 -0.10462271 0.051790178 -0.18637943
000190 21 0b 8f bd 27 36 b9 bd 50 13 12 3e f2 8b 1f 3d
       -0.069845445 -0.09043532 0.1426518 0.03895182
0001a0 18 b4 77 bc d0 06 07 3b e3 6c a8 bd b9 8b 23 bc
       -0.015118621 0.0020603426 -0.082238935 -0.009982043
0001b0 b7 0a 6a 3d ef fd 32 3d 30 2d 65 3e a9 f8 05 bd
       0.057139125 0.0436992 0.22380519 -0.032707844
0001c0 0a e6 6f bd be d5 cc 3d 67 8e 04 3e bd a7 cc 3d
       -0.05856899 0.100017056 0.12944947 0.09992931
0001d0 e1 a4 01 3d b4 d5 02 3e 6a e4 4e bb 24 09 07 3d
       0.03165138 0.12776834 -0.003156925 0.0329677
0001e0 a4 97 1e 3b 3a 4c 11 bc c3 a5 48 3c 07 18 5d bd
       0.0024199272 -0.0088682715 0.012246552 -0.053977992
0001f0 3f 6f b2 3d f6 0c 1b 3e c7 9d 54 bc 1d c4 c8 bd
       0.08712625 0.15141663 -0.01297707 -0.09803031
000200 29 5c 69 3d 46 d4 8a bc e7 31 a3 3d 3f 3c 13 bd
       0.056972656 -0.016946923 0.079685025 -0.035946127
000210 90 ef 01 bd a2 30 88 bc 34 02 fd 3c 3a 9a 06 3d
       -0.031722605 -0.016624752 0.03088484 0.032861926
000220 73 85 cb bd 2e 5c 5e 3c 96 e3 7a ba 30 43 07 be
       -0.09937563 0.013571782 -0.0009570656 -0.13209224
000230 29 a5 b6 3c 67 1b 87 bd e9 dc 4d bd bf f2 c0 bd
       0.022295551 -0.065970235 -0.050259504 -0.094213
000240 2f 08 2e 3d 26 a0 67 bd a5 ca 66 bd 56 20 9e 3c
       0.042488273 -0.056549214 -0.0563456 0.019302528
000250 aa bb ee 3c ee 68 63 bd 68 6b 47 3c ac 13 e0 3c
       0.02914222 -0.05551999 0.012171604 0.02735313
000260 c4 5f b1 3d 60 ed 12 3d 3f fe 40 bd 24 04 28 bd
       0.08660844 0.03587091 -0.047117468 -0.041019574
000270 8d bf 0c 3e 17 46 ae bc fc 2e 0e be be 6a 13 3d
       0.13744946 -0.021273656 -0.1388511 0.03599047
000280 f8 09 a5 bd ed 15 1d bc 89 1b 1a 3b 5a 88 cb 3c
       -0.08058542 -0.009587747 0.0023514947 0.02484529
000290 bc ec 00 3d bc a2 33 3c e6 4b 8b 3c 9b 9d 0b 3d
       0.031475767 0.010964092 0.017003965 0.03408585
0002a0 7d 10 14 3d ff c7 e9 bb ad 93 b9 3c 33 c7 bb bc
       0.036148537 -0.007134437 0.022653425 -0.022922134
0002b0 e4 a1 77 bd 30 61 dc 3c d1 57 e8 3c 23 7d a8 bc
       -0.060457125 0.026901811 0.028362187 -0.020567482
0002c0 49 7a 2d 3d 41 85 09 bd d8 d1 aa 3d ec c4 b1 3b
       0.04235295 -0.033574346 0.08340806 0.0054250862
0002d0 1e c4 99 3c fb 44 f3 bd ba a6 80 3b 7b 14 d5 bd
       0.018770274 -0.11878391 0.0039261254 -0.10404297
0002e0 e1 b3 f1 3c 74 4f 89 3c e5 23 a3 bc 53 1d 36 3d
       0.029504718 0.016761519 -0.019914577 0.04446156
0002f0 37 dd 73 bc 16 aa 9c bd 8b 00 43 bd fe 47 64 3c
       -0.014884285 -0.07649629 -0.04760794 0.01393318
000300 61 98 6a 3b a8 8d 77 3d cf 30 16 bd 44 07 7e 3d
       0.0035796391 0.06043783 -0.03666764 0.062018648
000310 dc f4 11 bd c4 fe b8 bd 4c be da 3d 3d fa 04 be
       -0.035633907 -0.09032968 0.106808275 -0.12986083
000320 b8 d4 c4 3d 8c 84 84 3b 0d a6 d0 bc 9a 53 20 3c
       0.096108854 0.004044121 -0.025469804 0.009785557
000330 26 b3 76 bc 28 38 14 be 44 a0 76 3d 84 a2 ab 3d
       -0.015057361 -0.14474547 0.060211435 0.08380607
000340 31 d0 96 bd b9 58 55 3e 30 6a 49 bd 3b f6 d6 3d
       -0.07363928 0.20834626 -0.049173534 0.104961835
000350 a5 38 1b bc 97 56 8e bd 96 64 62 3b 07 a1 a3 3c
       -0.009473954 -0.069501095 0.0034544817 0.019974245
000360 d3 0e 72 3d 66 e6 eb 3d 4f 25 9d 3d 5d dc 21 3e
       0.05909617 0.115185544 0.07673132 0.15806718
000370 a0 dc 3d 3c 1e c4 f1 3d 4d 27 b4 3c 32 15 b8 3d
       0.011588246 0.118049845 0.021991396 0.08988418
000380 9b 90 b4 3b 44 ef 89 3c 06 55 a4 3d 6a fd 42 3c
       0.0055104024 0.016837724 0.080240294 0.011901239
000390 47 e9 15 3c 08 9b e0 bc ba 07 df 3d 40 eb 60 3d
       0.009149856 -0.027417675 0.108901456 0.054911852
0003a0 a3 04 54 3d 6c 6c cb 3b 9e 39 bd 3a 0d d7 6a bd
       0.051762234 0.0062079933 0.0014436727 -0.057333995
0003b0 b2 8c 12 3d 28 b7 56 3d 90 af b0 bd d8 ef ba 3d
       0.03577871 0.052420765 -0.08627236 0.09127778
0003c0 94 94 9b 3d f3 be 16 bd 98 88 75 3c 2e ad bf bd
       0.075966984 -0.036803197 0.01498618 -0.09359203
0003d0 3b 1e f7 bd 36 4c d1 bc c2 a7 57 bc 65 aa cf bd
       -0.12066313 -0.025549036 -0.013162555 -0.10139922
0003e0 4f b0 2f 3c 03 5f 63 bd fa 5f f8 bc a3 03 45 bd
       0.010723188 -0.055510532 -0.030319203 -0.04809917
0003f0 aa 33 45 bd e3 e4 22 bd 86 d3 86 3d ff c9 2d 3d
       -0.048144974 -0.039769065 0.06583314 0.042428967

_mean_net.4.bias f4 [8]
000000 2b 66 18 3d 64 2a 5b be 31 57 c4 3d 3d 0e 3c 3d
       0.03720681 -0.2140289 0.09586943 0.045912016
000010 f0 78 86 bc ad 6c 3d 3e ac 41 cf 3c 5a 18 35 3e
       -0.01641509 0.18498488 0.02529987 0.1768507
