hw1/run_logs/q2_dagger_ant/policy_itr_3.pt (torch, 41083 bytes, 7 tensors)

_logstd f4 [8]
000000 c3 57 76 c0 90 27 6a c0 88 02 55 c0 02 3e 5e c0
       -3.8491066 -3.6586647 -3.3282795 -3.4725347
000010 ad 8a 6c c0 73 e8 88 c0 64 31 5b c0 d2 61 83 c0
       -3.695964 -4.278375 -3.4248896 -4.105691

_mean_net.0.weight f4 [64, 111]
000000 f9 43 8e 3f c2 ba 7d 3a 76 ea bf be aa 0f 82 bf
       1.1114494 0.0009679013 -0.37483567 -1.016103
000010 17 84 f1 be 53 29 c9 bd 48 72 d0 be 88 97 57 be
       -0.4717109 -0.09822335 -0.4071219 -0.21053898
000020 86 24 89 3d a1 76 1d be c8 32 86 3d bc 70 92 bd
       0.066964194 -0.15377285 0.065526545 -0.071504086
000030 21 79 96 bd 31 39 23 3d 8f fe 98 3d aa f3 a2 3e
       -0.07347322 0.039849464 0.07470428 0.31826526
000040 9b 2f 32 3d 99 0a 9a bd 0b 3e 5e bd 01 fe 58 3d
       0.04350243 -0.075215526 -0.054258388 0.052976612
000050 41 4a 09 be 08 f6 29 3c c2 16 86 bd 91 f9 ef 3c
       -0.13407232 0.0103736 -0.065473095 0.029293807
000060 43 17 b9 3d 9b 01 1e 3d 71 e2 e4 3c 81 b1 59 bd
       0.0903764 0.03857575 0.027940007 -0.053147797
000070 9b 5a 5c bd 4d e1 3c bd 20 95 b0 bd e4 4e 7c bd
       -0.053797346 -0.0461133 -0.08622193 -0.061598673
000080 e1 fe b6 3c ed de 7f 3d 32 37 99 3b e5 35 32 bd
       0.022338333 0.062468458 0.0046757692 -0.04350843
000090 3a dc 2a 3d 79 3d 15 bd f7 3d ac bc 1d 21 55 bd
       0.04171393 -0.036435578 -0.02102564 -0.052033532
0000a0 19 27 f4 bc 95 1e b4 bd eb e2 25 3d 70 2b 17 3d
       -0.0298038 -0.087948956 0.04049961 0.03690666
0000b0 94 72 9a 3c 9c e1 3e 3d 78 c6 24 3d dc 9a 89 3b
       0.018853463 0.046601877 0.040228337 0.004199369
0000c0 99 b1 24 3c a5 7f ed 3b 13 73 4f 3d 29 d7 15 3e
       0.010052108 0.0072478824 0.050646853 0.14632858
0000d0 c3 7d b5 3e 86 96 db 3e 6b 7c 95 be c2 7c d6 be
       0.3544751 0.42888278 -0.29196486 -0.41892058
0000e0 12 35 fd 3c b3 29 62 3d df b4 2c 3c b2 e9 b3 3d
       0.030909095 0.05521555 0.01054117 0.08784808
0000f0 0c 2f 45 3d 95 22 a6 bd 5f 75 e3 3c 30 c8 ba 3d
       0.04814057 -0.08112065 0.027765928 0.09120214
000100 df a9 ac 3d 1a 81 c3 ba 47 fa 00 3d 76 58 b6 bd
       0.08430838 -0.0014915795 0.031488683 -0.08903591
000110 3c e2 f7 bc 4b e3 55 be c5 ad 2e bd 9e ac f5 3d
       -0.030259244 -0.20887487 -0.04264619 0.11995815
000120 35 85 83 be 5f 70 9f 3e bf d1 03 3b 8a 04 89 3c
       -0.25687566 0.3114042 0.0020114032 0.016725797
000130 69 aa 16 3c 45 b8 b5 bd 94 04 a7 bc c2 bf 75 bd
       0.009195902 -0.08873037 -0.020387925 -0.059997328
000140 67 42 a5 3d 4e e3 3e bc 1c 8e c1 bd 64 52 bc 3c
       0.08069306 -0.011650873 -0.09450933 0.022988506
000150 5e d5 28 3d db 09 2e bd 7a e1 11 bc 5d 0e 08 3e
       0.041219108 -0.042489868 -0.008903855 0.13286729
000160 a8 75 24 3e 0a 0a 3c be 51 3c 9b 3d de c5 fa bd
       0.16060507 -0.18363205 0.07579864 -0.122447714
000170 b8 0d 5b bd 0f 63 fe 3b 17 9b 68 3d 0a 22 50 3d
       -0.05347988 0.0077632735 0.05678853 0.050813712
000180 99 ce 95 bd 40 52 72 bd 26 f5 84 bd c4 e7 f9 bc
       -0.07314796 -0.05916047 -0.06492071 -0.030506022
000190 63 11 0e bd fe 92 7a bc f6 0c bc bd b0 2d 24 3d
       -0.03468455 -0.015293835 -0.091821596 0.040082633
0001a0 01 8e 5c 3d 3e 19 e9 bc 0c 48 8c be 3b cc 87 be
       0.053846363 -0.02845442 -0.27398717 -0.26523003
0001b0 ff d9 4f be 23 5f 08 3f d4 34 c0 3e 37 e0 05 3f
       -0.20298003 0.5327017 0.37540305 0.5229525
0001c0 32 b4 d6 be 65 ad 49 bf c4 26 56 bf e9 f1 38 be
       -0.41934353 -0.78780204 -0.836529 -0.18061031
0001d0 28 81 d9 3c 80 54 f9 3e e8 8a 18 be 26 61 41 3e
       0.026550844 0.4869728 -0.14896739 0.18884715
0001e0 88 13 3b 3e 94 7b 44 3e 3b f0 fc be de 0f 14 3e
       0.1826917 0.19187766 -0.4940203 0.14459178
0001f0 2d 45 74 3d 3e a9 62 bd fe 8f 1d 3e a4 be 4a 3e
       0.059636284 -0.055337183 0.1538696 0.19799286
000200 a8 f6 3d be 8b 64 0b 3d 2c a3 a1 3c c7 67 b0 bd
       -0.18551123 0.034031432 0.019731127 -0.08613544
000210 94 6a 33 3d 27 2d d6 bd a5 35 21 3d 07 58 55 be
       0.043802813 -0.10457831 0.0393578 -0.20834361
000220 4c 68 44 bc 67 26 f3 bc 56 47 bd 3d 65 aa ea bb
       -0.011987757 -0.029681398 0.09242122 -0.007161426
000230 65 03 b9 bd 4f 1b 6a bc 1c ee 7d 3d d1 0a 33 3d
       -0.090338506 -0.014288737 0.061994657 0.043711487
000240 2f f5 84 ba 09 09 89 3d ee 5a b1 bd f7 df 86 3d
       -0.0010143871 0.066911764 -0.086599216 0.06585687
000250 98 f5 c0 3d 84 66 6c bd e1 c7 a6 3c 1c c5 7a bc
       0.09421843 -0.057714954 0.020358982 -0.015305784
000260 9a 19 a4 bd 9f 21 5a ba 97 49 02 bd fb 08 a6 bd
       -0.080126956 -0.000832105 -0.031808462 -0.08107182
000270 e9 a4 8d bd 96 ba 07 3b cb 35 b4 3d ab 31 0b 3d
       -0.0691622 0.002071058 0.08799323 0.033982914
000280 4d 55 81 bd 12 14 86 3d f0 55 05 bc 4d cf 98 bd
       -0.06315098 0.06546797 -0.008138165 -0.074614145
000290 8d c6 50 3e 6b 68 84 3d a7 78 ca bd 95 96 60 3c
       0.20388241 0.06465229 -0.09886294 0.013707777
0002a0 bf b1 41 bd a8 46 99 bd 3f e8 5c bd 59 29 1c 3c
       -0.047288653 -0.0748418 -0.053932425 0.009531342
0002b0 45 4f 7b 3d 79 7c 90 bc b1 d0 ae bd f3 fc 54 ba
       0.061354894 -0.017637478 -0.085358985 -0.00081248506
0002c0 60 10 a9 bd ff b2 b6 3b 90 1f 90 3d 57 ec 25 3d
       -0.082550764 0.005575537 0.0703727 0.040508594
0002d0 33 87 77 be e5 72 dc bd 72 9f 6d 3d a2 af 2f 3e
       -0.24172668 -0.10764102 0.058013387 0.17156842
0002e0 fc 19 bc bd a7 bb bf bd 78 7e 09 bd fc de 0e 3d
       -0.091846436 -0.09361964 -0.033567876 0.034880623
0002f0 94 af ad 3d 55 3e 2d 3d 13 dd 12 3d 19 f3 a4 bd
       0.084807545 0.042295773 0.035855364 -0.0805418
000300 5f 90 7b 3d 31 3c 0b 3d cc 07 fa bc ca 89 3a bd
       0.06141698 0.03399295 -0.030521296 -0.045541562
000310 10 0d dd 3c ef bb 52 bd 71 10 ce 3e 7e 78 86 3f
       0.026983768 -0.05144876 0.4024692 1.0505521
000320 c0 c9 a7 3e ab dc 91 be 25 55 f4 3d 9b 30 f5 be
       0.3277111 -0.2848867 0.119303025 -0.47888646
000330 ec 58 32 bc 76 25 72 3d 1f 82 11 3d 98 91 fa bc
       -0.010885458 0.059117757 0.035524484 -0.030587003
000340 a8 0e 41 bc 56 10 29 bd e5 ea 9c bd 3c 39 d4 bc
       -0.0117832795 -0.041275345 -0.0766199 -0.025906198
000350 52 a5 d6 3b 4c 28 45 bd 67 a1 91 bd 29 20 e3 3c
       0.0065504694 -0.048134133 -0.07110863 0.027725296
000360 b0 b0 47 3f c3 5f 92 3e ed 77 76 be 7f 6f 7f 3f
       0.7800398 0.28588685 -0.24069186 0.99779505
000370 74 c8 b5 be c7 17 af be 27 e0 7f 3f fa 64 7f be
       -0.35504496 -0.34197828 0.99951404 -0.24940863
000380 d5 98 04 3e 9a 3c 83 bf c2 45 17 bf 39 2d 01 3e
       0.12948926 -1.0252869 -0.59090817 0.12614907
000390 3a 51 06 bd da 26 fd 3d 1f a8 79 3e 4d 5b 0e be
       -0.032792307 0.12360926 0.2438054 -0.13902016
0003a0 77 ed 9f 3e 3c 00 65 be 9b 04 76 3e bc a8 c3 3c
       0.3123586 -0.2236337 0.24025194 0.02388417
0003b0 b9 93 c8 bd b9 30 42 be 42 6e ae 3b 5f 15 66 3d
       -0.09793801 -0.18963899 0.0053232023 0.056172725
0003c0 22 bf 69 be 37 d0 10 3d 5b 1c b4 3d fc 46 96 3d
       -0.22826818 0.03535482 0.08794471 0.07337758
0003d0 0a 8e 52 3f 07 f0 89 bd 53 8f c1 3e c2 ac 02 3d
       0.82247984 -0.06735235 0.3780466 0.031903036
0003e0 b0 23 aa 3c cf 2b 74 bd 9d 81 84 bd c4 45 c4 bb
       0.02076897 -0.05961209 -0.06470034 -0.005989762
0003f0 50 d9 c0 3c 71 16 b6 bd 31 41 95 bd 3f d6 5a 3d
       0.023541123 -0.08890999 -0.07287825 0.053426977

_mean_net.0.bias f4 [64]
000000 de 57 a8 3d 35 b2 aa be 68 4b aa be 96 1d 29 3e
       0.08219884 -0.33339086 -0.33260655 0.16515192
000010 33 b4 19 be 11 bc 65 3e 25 d6 bd be 63 37 3f be
       -0.15010147 0.22435023 -0.37077442 -0.18673472
000020 ae 0f 51 be 1f 61 f0 bc f3 d0 6a 3e a6 c6 8c 3e
       -0.20416138 -0.029343186 0.2293127 0.27495307
000030 32 4f 89 3e e7 a1 8c be 32 dc 48 3e 9d a6 bb be
       0.26818234 -0.27467272 0.19615248 -0.36650553
000040 0d 85 a7 3e a4 ad e5 be 09 d2 1e be d9 aa 8d 3e
       0.32718697 -0.4485904 -0.1550981 0.2766941
000050 83 5b b7 bc 11 81 8f be 9d 35 4e be 4a 9c e3 bd
       -0.022382503 -0.28028157 -0.2013764 -0.11113794
000060 34 b9 9a 3e 8c 6d fa 3c 89 d3 2f 3e 86 fe 64 3e
       0.30219424 0.030569814 0.17170538 0.22362718
000070 8f 32 25 be cd f5 81 be 9d c8 74 3d 19 03 95 3d
       -0.16132568 -0.25382844 0.059761632 0.072759815
000080 02 f1 92 be 41 bf 2a 3e 67 83 a5 3e 68 fd ad 3e
       -0.286995 0.1667452 0.32326815 0.33982396
000090 57 d8 4a 3e d9 59 bd bd 04 5e ea bd 02 03 e6 3d
       0.1980909 -0.09245653 -0.11443713 0.112310424
0000a0 cf cd b9 3e 0d 6f 8c bd d9 04 64 3e 4d 1b d2 3d
       0.36289832 -0.06857119 0.22267474 0.102591135
0000b0 bc 44 00 be f4 c1 e2 3d 38 d1 2d bd dd 62 63 3e
       -0.1252622 0.1107215 -0.042435855 0.22205682
0000c0 83 b8 19 3e 05 13 d1 be 43 3f 75 bd 11 17 e4 be
       0.15011792 -0.40834823 -0.059874784 -0.44548848
0000d0 9c b7 0b be 84 4a 28 bd de 3f 1f 3e 7b f6 0d bd
       -0.1364426 -0.04108669 0.15551707 -0.03465889
0000e0 4a 98 a3 3e 48 e9 c1 3e 83 73 1e 3d 1b 01 39 3d
       0.31952125 0.37873292 0.03868438 0.04516707
0000f0 17 8b 5c be 36 19 9e 3e 33 e8 ba bd 49 b6 3a 3e
       -0.21537434 0.3087861 -0.0912632 0.18233599

_mean_net.2.weight f4 [32, 64]
000000 8c 93 ad 3d 79 b9 26 bd 86 09 b1 bd cc 7b 0b b8
       0.08475408 -0.040704224 -0.086443946 -3.3255477e-05
000010 43 59 06 3e ac 71 ad 3d 66 84 32 3d 2e 01 51 3c
       0.13119988 0.08468947 0.043583296 0.012756629
000020 60 24 9c bb 43 d8 03 3e bf a1 20 bd 8e 09 a3 3d
       -0.0047650784 0.12875466 -0.039216753 0.07960807
000030 f8 c3 b5 3c aa 05 28 be 02 02 8e bd f3 18 47 3c
       0.022188172 -0.1640841 -0.06933977 0.012151944
000040 8d f0 df 3d 8e 27 26 3d f3 bd fb 3d b7 d9 b6 be
       0.10934553 0.040565066 0.12292089 -0.35712978
000050 42 36 2c 3d 87 b5 ce 3e 82 eb 08 3e 78 85 ed bd
       0.04204393 0.4037287 0.13371089 -0.11597723
000060 d2 a9 19 3e 23 a9 26 3e 36 26 26 3e f1 6d 16 be
       0.15006188 0.16275458 0.16225514 -0.14690377
000070 72 67 f6 bd 73 0d 26 be 84 b8 8d 3d 42 2e 47 be
       -0.120314494 -0.16216068 0.06919959 -0.1945124
000080 64 d7 77 3e 92 d9 44 bd 8f 58 03 3e 72 af f6 3d
       0.24203259 -0.048059054 0.12826751 0.12045182
000090 0a 67 f3 bd 81 bd 82 3d 63 22 85 bd 48 42 62 bd
       -0.118848875 0.06383801 -0.06500699 -0.055238992
0000a0 85 77 a4 bd b4 61 1e be 12 8d 6e 3a f6 c8 4d 3e
       -0.08030609 -0.15466958 0.00091000006 0.20096192
0000b0 a4 3a fa 3d 3c a8 2e be 1f bc 94 3d bf 26 4a 3e
       0.12218216 -0.17056364 0.07262444 0.19741343
0000c0 19 10 2a 3d 15 45 92 be 0e 83 50 bd cf cc ca 3d
       0.04151926 -0.2856833 -0.050906233 0.099023454
0000d0 54 29 2e 3e 89 d4 62 bd a5 1c 56 bd 88 92 db bd
       0.17007953 -0.05537847 -0.05227341 -0.10721308
0000e0 4f ba ce 3c c5 95 f8 bd 7c c0 92 bd 7a 70 86 3b
       0.025235323 -0.12137941 -0.0716562 0.0041027637
0000f0 f6 b8 85 bd f9 27 26 be 58 10 19 be 9a e7 2c bd
       -0.06529419 -0.16226186 -0.14947641 -0.04221306
000100 65 81 ef bd 5b 35 02 3e bf 5a 32 3e 41 e5 1e bd
       -0.11694602 0.12715666 0.1741743 -0.038792852
000110 67 81 62 3e 5d cf 0b be e8 62 89 3e 0f 2f 5f 3e
       0.22119676 -0.13653322 0.26833272 0.21795295
000120 53 04 0d 3e 3f 5c 41 3c 5e 15 01 be 96 0a 9b be
       0.13771181 0.011801778 -0.12605807 -0.30281514
000130 33 d6 fe 3d 32 75 1d 3f 2f dd ae 3d bf 09 1f 3e
       0.12443199 0.6150695 0.08538281 0.15531062
000140 6a 7a 9b 3d 7b 6e f0 3d 61 67 e8 3d 3a b9 06 3c
       0.07591708 0.117398225 0.11347843 0.008222872
000150 e1 02 1b 3e 83 b8 0c 3e 8b ac fd bc 33 3f c6 3d
       0.15137817 0.1374226 -0.030966064 0.09680023
000160 43 2a 27 be 7f a2 ab 3d 25 03 fc 3c ee de 7c be
       -0.16324715 0.08380603 0.030763218 -0.24694416
000170 cd a2 5a bd 00 e4 45 3e c5 6a e4 3d b2 a5 e9 3d
       -0.053377915 0.19325256 0.11153177 0.11408557
000180 da 62 9b 3e d9 2b 9c 3d c6 97 33 be 78 7b 30 3e
       0.30348855 0.07625551 -0.17538366 0.172346
000190 68 31 4f 3e 19 52 b0 bd 9e 36 37 3e 17 38 0b be
       0.2023369 -0.08609409 0.17891929 -0.13595615
0001a0 33 ce 8b bd e3 b9 03 be b1 23 44 3e a0 74 28 be
       -0.06826439 -0.12863879 0.1915424 -0.16450739
0001b0 9a c7 aa 3d d1 33 47 be 4c c6 8a be 31 17 9a be
       0.08338852 -0.1945336 -0.27104414 -0.3009582
0001c0 92 d2 72 be 03 6a 8b 3c 47 51 e0 3c 3e 0a cf 3e
       -0.23713139 0.017018324 0.027382506 0.40437502
0001d0 13 6c 0c 3d 00 a4 25 3e 13 1c 7a bd 6b 84 7a be
       0.034282755 0.16175842 -0.06106193 -0.24464576
0001e0 38 5f 65 be 4a 0a 05 bf 94 9e 88 bd 5f 9d 81 3e
       -0.22399604 -0.51968825 -0.066708714 0.25315377
0001f0 f3 c6 c6 be 73 9c 5b be 93 48 99 3e 31 f3 d2 3d
       -0.3882366 -0.214464 0.29938182 0.10300291
000200 eb 63 72 be bc 41 46 bd 4c cd 76 be 1a 91 a5 3d
       -0.23670928 -0.048402533 -0.24101752 0.080843166
000210 a0 e2 82 3d 18 fa 74 bd a4 ab 58 be f9 33 1a 3e
       0.063908815 -0.05980882 -0.21159226 0.15058888
000220 79 72 02 bd 52 a5 b5 3d 50 20 a7 3e e7 22 f7 bc
       -0.03184745 0.08869423 0.3264184 -0.03016801
000230 3b 1b 83 bd b0 84 4a 3d 61 5b 9f bc ac 46 df be
       -0.06401678 0.049442947 -0.019452753 -0.43608606
000240 99 d0 af bd d1 41 1e be 6b 6e ba bd 6f fc 60 3e
       -0.08584709 -0.15454794 -0.09103092 0.21971296
000250 ea 23 e9 bd 3e cc b6 be 6d 69 ba be f6 0f 77 bb
       -0.11383803 -0.357027 -0.36408558 -0.0037698722
000260 36 c8 52 3e 11 27 5d 3e 8d fe b5 3c ec a3 b3 3e
       0.20584187 0.21596934 0.022216106 0.35086
000270 9e 35 bc 3b bd 65 25 be 63 53 b7 3e 94 32 11 be
       0.0057436964 -0.16152091 0.35805807 -0.1417945
000280 69 c8 97 be 4e d5 e6 3e c5 b9 9f 3e 1e 67 70 3e
       -0.29645088 0.45084614 0.31196418 0.23476836
000290 58 cb 00 3e 6a 3c 1e 3e 21 67 21 bd 13 4f 3a be
       0.1257757 0.15452734 -0.039404992 -0.18194227
0002a0 18 ba ca 3d cc e5 88 be c2 da 45 3e d9 0f c1 bb
       0.09898776 -0.2673782 0.1932173 -0.0058917818
0002b0 11 87 a2 bd ee 10 15 be 5e 23 b6 3d 5e d3 74 3d
       -0.07935918 -0.1455724 0.088934645 0.059771888
0002c0 cd 09 68 bc 7f 12 6f 3d 58 6c ad be d8 46 de be
       -0.014162493 0.05836725 -0.33871722 -0.43413424
0002d0 b5 ff 0f 3e 20 fb cb 3b cc 81 20 3e 5a c5 01 be
       0.14062388 0.006225005 0.15674514 -0.1267294
0002e0 12 cb 81 bd 45 a7 e9 3d d6 93 24 be 48 af 31 3e
       -0.06337561 0.11408857 -0.1607202 0.1735202
0002f0 c5 e7 9f 3d 5f df 89 3d 8a 68 00 3e e5 2d ed 3d
       0.078078784 0.06732058 0.12539878 0.11581019
000300 52 a3 59 bb 6f 56 83 3e 7f 8f d7 3d 54 d4 06 be
       -0.0033208919 0.2565188 0.105254166 -0.13166934
000310 e4 d8 8a bc 8a 18 9c be 48 c8 62 3e 1d b1 d5 3e
       -0.016949125 -0.30487472 0.22146714 0.4173669
000320 33 bf bb 3d cf da 24 bd 2a db 45 be 2a 26 a4 3d
       0.09167328 -0.040247735 -0.19321886 0.08015092
000330 c7 72 1f 3e cc 2f ef 3d 99 73 88 bd 23 8c 8c bd
       0.15571128 0.116790384 -0.066626735 -0.068626665
000340 08 84 d4 be f3 34 b1 3e 1c a2 82 bc 1d 1d 43 bd
       -0.41506982 0.3461071 -0.01594644 -0.047635186
000350 04 4b d7 bd 0c 36 2c 3e 94 ed 4b 3e a5 22 e5 3c
       -0.10512355 0.16817492 0.19914848 0.027970621
000360 88 e5 70 be 9e 78 f5 bc 01 55 02 be 0e 3e 88 bc
       -0.23525059 -0.029964741 -0.12727739 -0.016631152
000370 59 e6 ee bd af 60 57 3c f3 64 c4 be 00 8d 41 3d
       -0.11665029 0.01314561 -0.38358268 0.04725361
000380 9b 27 2e 3e 27 ab b7 3d 9e c4 c5 be 0c 80 e4 be
       0.17007296 0.089681916 -0.3862657 -0.44628942
000390 bd 68 29 3d 67 c5 16 3e dd a1 2b be 47 c7 e6 3d
       0.04135965 0.1472374 -0.16760965 0.11268478
0003a0 3d da f8 bd 20 71 19 be 78 a8 33 be 68 98 21 be
       -0.12151001 -0.1498456 -0.17544734 -0.15780795
0003b0 a5 11 c1 bd c7 dd 32 be 54 69 a4 3d 13 3c 01 be
       -0.094271936 -0.17467414 0.08027902 -0.12620573
0003c0 fc d8 ba 3d ed ba 3a 3e 95 3e 94 3d ef 1f f0 3e
       0.09123418 0.18235369 0.07238499 0.46899363
0003d0 6a 60 26 bb d8 6c 22 3e 42 66 23 bd 15 cb 04 3d
       -0.0025387057 0.15861833 -0.039892443 0.032420237
0003e0 b6 32 05 be 4f 11 41 be 08 eb ed bd 14 df 87 bd
       -0.13007626 -0.18854259 -0.11617094 -0.06634346
0003f0 f4 c0 a2 3c 6c 53 1a be 80 18 55 3d bc 81 d9 bd
       0.019867398 -0.15070885 0.05202532 -0.10620448

_mean_net.2.bias f4 [32]
000000 20 a0 ed bc 06 72 08 3e fc 93 f4 3d d4 d6 85 be
       -0.029007018 0.13324746 0.11942288 -0.26140463
000010 d9 8c a5 3b f0 d4 4d bc db 73 c2 3d 6d 72 c5 3c
       0.0050521907 -0.012562975 0.09494754 0.024102414
000020 6e 53 55 3d 5e 0a 91 3d 32 48 a6 bc be f6 ae bd
       0.052081518 0.070820555 -0.020298097 -0.08543156
000030 e4 2b 32 3a 27 2f 23 ba 43 34 97 3e 2a c0 9c bd
       0.00067967013 -0.0006224983 0.2953206 -0.0765384
000040 9d aa 07 be f7 3c 92 bd c4 f8 e0 3d 4b a6 26 be
       -0.13248678 -0.07140534 0.10984948 -0.16274373
000050 79 d2 13 be d4 45 8c 3d a2 4e 1d bc a9 a6 3c be
       -0.14435758 0.06849256 -0.009601267 -0.18422951
000060 11 38 87 be 62 c2 6d be 4f 53 80 3d cd e0 0e be
       -0.26409963 -0.23218682 0.0626589 -0.13952942
000070 af 3a f1 3d 5e 5c 00 bc 03 cc de 3d 35 9b 7b 3e
       0.11778771 -0.007834522 0.10878756 0.24570926

_mean_net.4.weight f4 [8, 32]
000000 a4 f3 40 3d df 62 b8 bd 57 f4 38 bd fd d9 92 bd
       0.047107354 -0.09003233 -0.045154896 -0.07170484
000010 86 f3 83 3d 04 5a cd 3d 4e d0 0c 3c d0 3e dd 3c
       0.06442933 0.10026935 0.008594586 0.02700749
000020 40 05 de 3c ca 54 31 3a e4 a1 db bb 41 ce 9b 3d
       0.027102113 0.0006764649 -0.0067026485 0.07607699
000030 1b ae 0d 3e a5 d6 47 bd bc 04 9e 3d f0 7a 52 3a
       0.13835947 -0.048788685 0.07715747 0.00080291834
000040 b3 54 a4 3b 0d 1c a6 3b 66 9f 50 bd db a1 5e 3d
       0.0050149797 0.005069262 -0.050933264 0.054353576
000050 59 fd df bd 94 54 cd bd 14 20 84 b9 6a ae b3 bd
       -0.10936994 -0.100258976 -0.00025200902 -0.08773501
000060 31 16 48 3e ea 36 4e 3c 63 f1 36 be b8 04 d7 ba
       0.19539715 0.012586335 -0.17865519 -0.0016404605
000070 c6 94 32 3d 44 f3 8d bc 51 94 0f bd 93 67 a3 bd
       0.043598913 -0.017327912 -0.035053555 -0.079787396
000080 d6 34 12 bd ac 39 8a bd 20 36 45 bd cf 58 95 bd
       -0.03569492 -0.06749281 -0.04814732 -0.072923295
000090 11 86 d5 3d ef eb f6 3d 12 47 29 3d 6e 0c b8 bd
       0.10425962 0.120567195 0.041327544 -0.08986746
0000a0 07 d4 46 3d 3c 08 6b bc 25 d1 09 be c3 80 9d bd
       0.04854205 -0.014345225 -0.13458689 -0.07690575
0000b0 c1 e3 9d 3c 1b 95 f8 3d 9a f1 77 bd f0 30 7a 3d
       0.01927364 0.121378146 -0.060533144 0.061081827
0000c0 69 9c eb bd 92 da 6e 3e ad de 3e bd ca 58 b3 3d
       -0.11504442 0.23325565 -0.04659908 0.087571695
0000d0 a7 ca 38 3d ff 48 c6 3d ca 54 56 bb 50 80 0f bd
       0.04511514 0.09681892 -0.0032704347 -0.035034478
0000e0 e8 fa 69 bd 3d 02 37 bb e5 43 e3 bd 8a 0f b4 bc
       -0.05712405 -0.0027924918 -0.11096934 -0.021980066
0000f0 f8 01 a0 3c 93 e0 18 3e c8 16 d1 bd 31 18 80 3d
       0.019532189 0.14929418 -0.10209423 0.06254614
000100 52 5f f7 bc bc 16 24 3e 97 a1 d5 3d 30 4b f1 3c
       -0.03019682 0.16024297 0.104312114 0.029454798
000110 9a b7 f5 3d dd 66 dc bd 6e 28 12 bd f6 42 10 be
       0.1199791 -0.10761807 -0.035683088 -0.14088044
000120 9b 3d 94 3c 9b 8b 2e bb a4 1e 21 bb 62 58 f2 bc
       0.018095782 -0.0026633504 -0.0024584914 -0.02958316
000130 b1 98 99 bd e7 9e 68 bd d8 2d 04 3e 31 a2 9a bd
       -0.07499827 -0.056792166 0.12908113 -0.07550467
000140 71 03 2c 3d 16 70 5e be 34 bb 35 be 21 11 f6 39
       0.04199547 -0.21722445 -0.17747194 0.00046933538
000150 60 60 9b 3d 2e 0b 95 3d a0 60 f4 3b 33 fc 90 3c
       0.075867414 0.07277523 0.0074578077 0.017698383
000160 13 7f 7e be 88 d3 2e be 6b 65 11 3d c5 29 0e be
       -0.24853162 -0.1707288 0.03549711 -0.13883121
000170 a8 26 b9 bc 1d 68 65 bd 42 3d 58 3d 05 37 0f bd
       -0.02260144 -0.056007493 0.052792795 -0.03496458
000180 9e ad aa bc e2 40 d6 bd b9 34 48 3d 5c 71 41 be
       -0.02083474 -0.10461594 0.048878405 -0.188909
000190 93 b4 90 bd d6 ee ac bd 20 59 0c 3e fd c4 1d 3d
       -0.07065692 -0.08443992 0.13705873 0.03851794
0001a0 28 ae 61 bb 21 f5 e8 3b 73 74 b4 bd fa 8c 59 bc
       -0.003443608 0.0071093 -0.088112734 -0.01327824
0001b0 41 49 89 3d 8f f3 48 3d 3f 01 65 3e c5 4f de bc
       0.06703425 0.0490604 0.22363757 -0.027137646
0001c0 4a 9f 75 bd 23 01 c2 3d e1 d0 04 3e 49 6f c4 3d
       -0.059966363 0.09472873 0.12970306 0.095915385
0001d0 7f 1b b4 3c 6d 13 01 3e 8d bf 4d 3b 80 8a 4d 3d
       0.021985767 0.12605067 0.003139469 0.050180912
0001e0 d9 10 f0 3a c3 4e 00 bc c0 ce 84 3c 42 47 63 bd
       0.0018315568 -0.007831278 0.016211867 -0.05548788
0001f0 45 e6 b0 3d 21 f0 1a 3e cc 75 05 bb e9 aa b7 bd
       0.086376704 0.15130664 -0.0020364402 -0.089681454
000200 74 7e 96 3d 31 5d a1 bc 19 a0 ac 3d b4 ac 10 bd
       0.07348338 -0.019697757 0.08428974 -0.035320953
000210 41 b1 2a bd 88 46 df bc e5 13 10 3d b1 29 04 3d
       -0.04167295 -0.027255312 0.035175223 0.032266323
000220 d4 b5 cb bd b2 1c b0 bb 3f 81 8c bc 59 94 fd bd
       -0.0994679 -0.0053745145 -0.017151473 -0.12381811
000230 f7 d9 9b 3c 90 3f 81 bd c1 3e 64 bd 0b 4a e5 bd
       0.019024832 -0.06310952 -0.05572391 -0.11195763
000240 0c 11 1c 3d 8e e3 64 bd c9 30 91 bd a5 63 ef 3c
       0.038102195 -0.055881076 -0.07089383 0.029222319
000250 3f c9 f1 3c 18 49 51 bd c7 6f 4f 3c f6 53 f1 3c
       0.029514907 -0.0510951 0.012660927 0.029458981
000260 2b 50 ad 3d 82 36 ea 3c 37 f5 25 bd be 49 26 bd
       0.084625565 0.028590444 -0.04051706 -0.04059767
000270 45 9a f1 3d 24 c8 9f bc c9 9c 03 be ce 26 19 3d
       0.11797003 -0.019504614 -0.12852778 0.037390523
000280 f5 4c a1 bd 06 97 3d bc 71 f1 8d 3b 7b 41 c5 3c
       -0.078760065 -0.011571651 0.0043317606 0.024079075
000290 05 76 f9 3c ca 60 97 3b 5a c5 2d 3c 6f 09 1a 3d
       0.030451784 0.0046196925 0.010606134 0.037606653
0002a0 7b 38 ee 3c 0d ce c1 3a 48 37 b1 3c ff bf 8a bc
       0.029079666 0.0014786139 0.021632805 -0.016937254
0002b0 4f 31 67 bd 5e b4 c9 3c d8 08 17 3d ec ed 9c bc
       -0.05644351 0.024622139 0.03687367 -0.019156419
0002c0 15 01 20 3d 6a 4f 07 bd 42 27 ac 3d b0 4c 81 bb
       0.039063532 -0.03303472 0.08405925 -0.0039459094
0002d0 07 1d ba 3c 48 03 f5 bd 4e a1 4b 3b 1f 60 dd bd
       0.02271892 -0.119635165 0.0031071487 -0.10809349
0002e0 8b 3c 00 3d 43 97 5c 3c 77 44 cd bc 8c ef 2d 3d
       0.03130774 0.013463798 -0.02505706 0.042464778
0002f0 81 96 20 bc c2 43 95 bd 04 08 2f bd 5e eb 85 3c
       -0.009801508 -0.072883144 -0.042732254 0.016347583
000300 67 e0 a9 3b 02 db 58 3d 94 39 94 bc 41 31 97 3d
       0.0051842215 0.052943237 -0.018093862 0.07382441
000310 05 65 eb bc b1 67 c8 bd f6 22 d9 3d c6 ba 02 be
       -0.028734693 -0.097854026 0.106023714 -0.12766561
000320 8f 0e c3 3d 47 bc c0 bb b2 0f 71 bc 78 ee 3a 3c
       0.09524261 -0.0058818194 -0.014713215 0.011409394
000330 9b 15 a7 bb 08 87 04 be 25 12 69 3d af 21 c0 3d
       -0.005099011 -0.12942135 0.05690207 0.09381425
000340 02 75 a2 bd 65 c5 4c 3e 49 eb 68 bd 73 ea e1 3d
       -0.07932474 0.19997175 -0.05686501 0.11031046
000350 51 85 80 bc 8f 24 83 bd 88 9f 8c bc b6 d8 a8 bb
       -0.01568857 -0.064034574 -0.017165914 -0.005152787
000360 ec e8 76 3d 1c a0 cd 3d 94 6f 89 3d 33 4e 27 3e
       0.060280725 0.10040304 0.06710735 0.16338424
000370 3e 52 13 3b 94 1d e3 3d 72 c7 ae 3c 09 ac c4 3d
       0.002247944 0.11089626 0.021335337 0.096031256
000380 3b 95 5c 3c 71 2e b9 3c f4 ca a2 3d 62 a3 5c 3c
       0.013463314 0.022605153 0.079488665 0.013466688
000390 6a 89 09 3c 09 af 1f bd 45 97 d4 3d 4e 56 62 3d
       0.0083945785 -0.038985286 0.10380415 0.055258088
0003a0 d7 c0 49 3d 4b 4e 2a 3c f4 26 27 bc 0b 00 6c bd
       0.049256172 0.010394643 -0.010202158 -0.05761723
0003b0 71 78 01 3d 02 c1 3f 3d 6b d5 99 bd 16 b0 b3 3d
       0.031609003 0.046814926 -0.07511409 0.0877382
0003c0 c9 b0 a4 3d cd 14 23 bd 80 d0 1a 3c a5 c7 c7 bd
       0.080415316 -0.03981476 0.009449124 -0.09754876
0003d0 f3 b5 ec bd f5 50 b3 bc 27 d1 c5 3b 71 cf d4 bd
       -0.115581416 -0.02188919 0.006036896 -0.10391129
0003e0 c6 6b 42 3c 15 3a 47 bd 61 c4 dc bc f6 e6 3e bd
       0.0118665155 -0.048639376 -0.02694911 -0.04660698
0003f0 36 72 64 bd 80 95 0c bd e6 3a 5a 3d 8e 16 40 3d
       -0.055772983 -0.03432226 0.053278826 0.04689651

_mean_net.4.bias f4 [8]
000000 94 0d 0a 3d b7 38 56 be bc b3 b2 3d fe 07 60 3d
       0.033704355 -0.20920072 0.08725688 0.054695122
000010 60 47 21 bc c3 b6 36 3e 9e ae 91 3c e0 7d 30 3e
       -0.009843677 0.17843156 0.01778346 0.17235518
