hw1/run_logs/q2_dagger_ant/policy_itr_2.pt (torch, 41083 bytes, 7 tensors)

_logstd f4 [8]
000000 d4 0b 72 c0 be 6f 64 c0 cc 28 51 c0 12 2d 5a c0
       -3.781972 -3.5693202 -3.268115 -3.4090009
000010 1a 7f 6d c0 e4 6b 84 c0 27 54 58 c0 60 c3 7f c0
       -3.7108827 -4.1381702 -3.3801363 -3.9962997

_mean_net.0.weight f4 [64, 111]
000000 5c 96 85 3f 2f 82 d8 39 5c 13 e2 be c4 55 79 bf
       1.0436511 0.00041295725 -0.44155395 -0.9739649
000010 51 bf e9 be 0f 00 9e bd 05 a7 ba be 15 64 6d be
       -0.45653775 -0.07714855 -0.3645555 -0.2318271
000020 50 a3 71 3d 4a 38 16 be b1 bb 72 3d c5 93 84 bd
       0.058993638 -0.1466991 0.059261028 -0.06473497
000030 82 1b ab bd 15 68 2f 3d 53 e5 95 3d 6b b4 97 3e
       -0.08354856 0.04282387 0.07319131 0.29629835
000040 5e 04 6e 3d 7d c4 9c bd 24 d6 36 bd ad 98 7d 3d
       0.058109634 -0.07654665 -0.044637814 0.06191318
000050 b3 3a e6 bd 27 43 a2 3c 37 57 9e bc 46 f6 15 3d
       -0.11241665 0.019807411 -0.019328697 0.036611818
000060 1f 67 08 3e 6d d2 00 3d 06 3c d5 3c 81 b1 59 bd
       0.13320588 0.031450678 0.026029598 -0.053147797
000070 9b 5a 5c bd 4d e1 3c bd 20 95 b0 bd e4 4e 7c bd
       -0.053797346 -0.0461133 -0.08622193 -0.061598673
000080 e1 fe b6 3c ed de 7f 3d 32 37 99 3b e5 35 32 bd
       0.022338333 0.062468458 0.0046757692 -0.04350843
000090 3a dc 2a 3d 79 3d 15 bd f7 3d ac bc 1d 21 55 bd
       0.04171393 -0.036435578 -0.02102564 -0.052033532
0000a0 19 27 f4 bc 95 1e b4 bd eb e2 25 3d 70 2b 17 3d
       -0.0298038 -0.087948956 0.04049961 0.03690666
0000b0 94 72 9a 3c 9c e1 3e 3d 78 c6 24 3d dc 9a 89 3b
       0.018853463 0.046601877 0.040228337 0.004199369
0000c0 99 b1 24 3c a5 7f ed 3b 13 73 4f 3d 59 57 1f 3e
       0.010052108 0.0072478824 0.050646853 0.15560664
0000d0 93 62 ac 3e 6c be d9 3e d5 84 89 be ac 7a cd be
       0.33668956 0.42528093 -0.26859155 -0.40132654
0000e0 19 8d 0b 3d b3 29 62 3d df b4 2c 3c b2 e9 b3 3d
       0.034070108 0.05521555 0.01054117 0.08784808
0000f0 0c 2f 45 3d 95 22 a6 bd 5f 75 e3 3c 30 c8 ba 3d
       0.04814057 -0.08112065 0.027765928 0.09120214
000100 df a9 ac 3d 1a 81 c3 ba 47 fa 00 3d 76 58 b6 bd
       0.08430838 -0.0014915795 0.031488683 -0.08903591
000110 3c e2 f7 bc 14 9a 82 be 21 d5 08 bd fd 48 fe 3d
       -0.030259244 -0.25508177 -0.03340638 0.12416265
000120 8d 63 75 be 57 17 94 3e 4e 54 21 3c 8a 04 89 3c
       -0.23963757 0.28924057 0.00984676 0.016725797
000130 69 aa 16 3c 45 b8 b5 bd 94 04 a7 bc c2 bf 75 bd
       0.009195902 -0.08873037 -0.020387925 -0.059997328
000140 67 42 a5 3d 4e e3 3e bc 1c 8e c1 bd 64 52 bc 3c
       0.08069306 -0.011650873 -0.09450933 0.022988506
000150 5e d5 28 3d db 09 2e bd 7a e1 11 bc 0f 13 fe 3d
       0.041219108 -0.042489868 -0.008903855 0.12405979
000160 44 2c 81 3e 90 f0 52 be 5d 58 b0 3c ae e5 28 be
       0.25229084 -0.2059958 0.02152651 -0.16493866
000170 c6 2e 20 bd 0f 63 fe 3b 17 9b 68 3d 0a 22 50 3d
       -0.039107107 0.0077632735 0.05678853 0.050813712
000180 99 ce 95 bd 40 52 72 bd 26 f5 84 bd c4 e7 f9 bc
       -0.07314796 -0.05916047 -0.06492071 -0.030506022
000190 63 11 0e bd fe 92 7a bc f6 0c bc bd b0 2d 24 3d
       -0.03468455 -0.015293835 -0.091821596 0.040082633
0001a0 01 8e 5c 3d 92 51 80 bd 04 2a b5 be ab d4 c8 be
       0.053846363 -0.06265558 -0.35383618 -0.39224753
0001b0 69 99 89 be ec 68 f4 3e 82 02 ea 3e cd d4 f9 3e
       -0.26874855 0.477363 0.45705038 0.48795167
0001c0 ad a5 c2 be 83 c2 51 bf cb 01 43 bf 79 0e fc bd
       -0.38017026 -0.81937426 -0.7617461 -0.12307448
0001d0 51 fd ce 3b c9 7b f7 3e 68 3f 1f bd 99 2d 2c 3e
       0.0063168188 0.48336628 -0.03887883 0.16814269
0001e0 cf 0b 4c 3e 49 ff 31 3e ea 56 00 bf 77 bb 1d 3e
       0.1992638 0.1738254 -0.5013262 0.15403543
0001f0 ce 04 41 3d 79 ee 01 be c1 c8 0d 3e 8b 3c 38 3e
       0.047123723 -0.12688626 0.13846113 0.17991845
000200 34 0d 40 be 1b ab 69 3c fd a8 a6 3c 6b d6 83 bd
       -0.18755037 0.014261986 0.020344252 -0.06437381
000210 4b 39 f8 3c 0f 52 db bd 08 fb 19 3d c8 30 3d be
       0.030300757 -0.10709011 0.037592918 -0.1847564
000220 ef e9 a7 bc 7b 1b 56 bd 56 47 bd 3d 65 aa ea bb
       -0.02049729 -0.0522723 0.09242122 -0.007161426
000230 65 03 b9 bd 4f 1b 6a bc 1c ee 7d 3d d1 0a 33 3d
       -0.090338506 -0.014288737 0.061994657 0.043711487
000240 2f f5 84 ba 09 09 89 3d ee 5a b1 bd f7 df 86 3d
       -0.0010143871 0.066911764 -0.086599216 0.06585687
000250 98 f5 c0 3d 84 66 6c bd e1 c7 a6 3c 1c c5 7a bc
       0.09421843 -0.057714954 0.020358982 -0.015305784
000260 9a 19 a4 bd 9f 21 5a ba 97 49 02 bd fb 08 a6 bd
       -0.080126956 -0.000832105 -0.031808462 -0.08107182
000270 e9 a4 8d bd 96 ba 07 3b cb 35 b4 3d ab 31 0b 3d
       -0.0691622 0.002071058 0.08799323 0.033982914
000280 4d 55 81 bd 12 14 86 3d 5c 9e 3a ba ab 90 54 bd
       -0.06315098 0.06546797 -0.00071189343 -0.05189578
000290 92 bd 96 3e c0 bb 9b 37 c9 f9 a2 bd 13 53 be 3c
       0.29441506 1.8564868e-05 -0.07957799 0.023232972
0002a0 bf b1 41 bd a8 46 99 bd 3f e8 5c bd 59 29 1c 3c
       -0.047288653 -0.0748418 -0.053932425 0.009531342
0002b0 45 4f 7b 3d 79 7c 90 bc b1 d0 ae bd f3 fc 54 ba
       0.061354894 -0.017637478 -0.085358985 -0.00081248506
0002c0 60 10 a9 bd ff b2 b6 3b 90 1f 90 3d 57 ec 25 3d
       -0.082550764 0.005575537 0.0703727 0.040508594
0002d0 99 5b 87 be c8 11 87 bd 49 e0 85 3d 40 8e 27 3e
       -0.2643707 -0.065951884 0.065369196 0.16362858
0002e0 36 f7 a3 bd 79 66 80 bd 78 7e 09 bd fc de 0e 3d
       -0.08006136 -0.06269545 -0.033567876 0.034880623
0002f0 94 af ad 3d 55 3e 2d 3d 13 dd 12 3d 19 f3 a4 bd
       0.084807545 0.042295773 0.035855364 -0.0805418
000300 5f 90 7b 3d 31 3c 0b 3d cc 07 fa bc ca 89 3a bd
       0.06141698 0.03399295 -0.030521296 -0.045541562
000310 10 0d dd 3c ef bb 52 bd be cc c1 3e a2 65 6e 3f
       0.026983768 -0.05144876 0.37851518 0.9312383
000320 12 d2 78 3e 06 d6 a3 be d7 3f 12 3e 0c 49 e6 be
       0.24298885 -0.31999224 0.14282165 -0.44977605
000330 ec 58 32 bc 76 25 72 3d 1f 82 11 3d 98 91 fa bc
       -0.010885458 0.059117757 0.035524484 -0.030587003
000340 a8 0e 41 bc 56 10 29 bd e5 ea 9c bd 3c 39 d4 bc
       -0.0117832795 -0.041275345 -0.0766199 -0.025906198
000350 52 a5 d6 3b 4c 28 45 bd 67 a1 91 bd 29 20 e3 3c
       0.0065504694 -0.048134133 -0.07110863 0.027725296
000360 85 8e 23 3f 29 bd a8 3e 8a 15 70 be 77 da 85 3f
       0.6388934 0.32956818 -0.23445717 1.0457295
000370 3b 6a 74 be a9 9d c5 be 25 b1 6e 3f d0 89 72 be
       -0.23868649 -0.38596848 0.9323905 -0.23685384
000380 70 2e a5 bd 31 58 82 bf 5f 73 0e bf bd ca 04 3e
       -0.08065498 -1.0183164 -0.5564479 0.12967964
000390 8a 04 eb bc c9 ef cd 3d 53 3a 6f 3e aa b7 de bd
       -0.028688688 0.10055501 0.23362093 -0.10874875
0003a0 12 a6 96 3e da 1f 40 be 2e 05 74 3e 0a ce 95 3c
       0.29423577 -0.1876215 0.23830101 0.018286724
0003b0 4c 5f 9c bd 92 53 40 be 9b 16 48 3c 7c b4 8a 3d
       -0.07635364 -0.1878188 0.012212421 0.06772706
0003c0 5d 92 44 be 79 02 42 3d 35 6d ad 3d d4 54 8e 3d
       -0.19196458 0.04736564 0.08468095 0.069497734
0003d0 bd f5 4a 3f 24 f8 55 bd 1a e8 c6 3e 33 6d fd 3c
       0.79281217 -0.0522386 0.38848954 0.03093586
0003e0 fa b4 18 3c cf 2b 74 bd 9d 81 84 bd c4 45 c4 bb
       0.009320492 -0.05961209 -0.06470034 -0.005989762
0003f0 50 d9 c0 3c 71 16 b6 bd 31 41 95 bd 3f d6 5a 3d
       0.023541123 -0.08890999 -0.07287825 0.053426977

_mean_net.0.bias f4 [64]
000000 56 a5 a9 3d a2 3d 94 be a7 10 a3 be 55 f0 15 3e
       0.082834885 -0.28953272 -0.31848642 0.1464246
000010 8c 05 0b be 16 19 56 3e 6d ec aa be a3 10 37 be
       -0.13576335 0.20908007 -0.33383504 -0.1787744
000020 af 41 4d be 95 e3 02 bd 41 12 52 3e 99 89 82 3e
       -0.20044588 -0.03195532 0.20514776 0.25495604
000030 b4 e1 7e 3e 0e 1b 84 be e3 54 4b 3e 32 43 ac be
       0.24890786 -0.2580189 0.198566 -0.33645016
000040 0d 76 a1 3e c8 7c d4 be 93 fe 16 be d1 10 8d 3e
       0.31535378 -0.4150145 -0.1474555 0.27551892
000050 67 7b ea bb 8f 7b 86 be 55 52 3f be a6 af e0 bd
       -0.007155824 -0.26266143 -0.18683751 -0.10971002
000060 a5 57 91 3e 05 8f c3 3c 63 b3 21 3e 62 a0 4e 3e
       0.2838718 0.023871908 0.15791087 0.20178369
000070 6f a1 1e be d8 7e 74 be 35 2e 55 3d 1f ae ab 3d
       -0.1549127 -0.23876512 0.05204602 0.0838282
000080 14 cc 8a be a7 63 19 3e a9 a3 9b 3e 22 19 a8 3e
       -0.27108824 0.1497942 0.303983 0.32831675
000090 d2 48 32 3e 1c 91 8b bd df ce be bd a1 fc e7 3d
       0.17410591 -0.06814787 -0.09316801 0.11327482
0000a0 49 76 af 3e 4b e1 8e bd b2 0d 5e 3e 2c 4d 91 3d
       0.34269932 -0.06976565 0.21684912 0.070947975
0000b0 b1 1d ef bd 8a 5f d1 3d 72 cc 18 bd 9b 30 57 3e
       -0.11675585 0.10223301 -0.03730435 0.21014635
0000c0 16 3d 1e 3e 96 a8 c3 be 4a c1 6b bd f1 0a d6 be
       0.1545299 -0.38214558 -0.05755738 -0.41805223
0000d0 13 3a eb bd 35 a6 b0 bc 93 1a 06 3e c0 4c 3a bd
       -0.11485686 -0.021563629 0.13096075 -0.04548335
0000e0 90 f5 97 3e f6 fd b5 3e 3c a1 c8 3c 85 d7 33 3d
       0.29679537 0.3554532 0.024490945 0.043906707
0000f0 e1 c6 48 be 7e a5 95 3e ab 6b 88 bd 4b 99 1c 3e
       -0.19607116 0.29227823 -0.06661161 0.15292852

_mean_net.2.weight f4 [32, 64]
000000 aa c2 97 3d 1e ae 8d 3c 3d 3b 8f bd a0 af 31 3c
       0.07410176 0.01729494 -0.06993721 0.010845095
000010 88 54 20 3e e2 ca cd 3d f9 40 69 3d 38 4e 91 3c
       0.15657246 0.100484625 0.05694673 0.017737493
000020 be 96 53 bc 02 f3 ec 3d 79 6a 76 bd e1 2c 88 3d
       -0.012914358 0.115697876 -0.060160134 0.06649185
000030 b7 2c ce 3c 3b e9 14 be 28 4c 8c bd 58 14 b5 3c
       0.025167806 -0.14542095 -0.06850463 0.022104427
000040 c5 04 b8 3d d1 fd 71 3d c6 b3 e1 3d f8 eb b6 be
       0.08985285 0.05907995 0.11020617 -0.35726905
000050 4f 09 83 3d d0 1c c6 3e 23 29 05 3e d1 d6 c4 bd
       0.0639826 0.38693857 0.13003974 -0.096112855
000060 19 25 20 3e 68 a9 2a 3e 88 3e 18 3e 46 b1 a6 bd
       0.15639152 0.16666186 0.14867604 -0.08139281
000070 3f 69 19 be 6f 9f 10 be 83 c0 94 3d 21 4e 2e be
       -0.14981554 -0.14123319 0.07263281 -0.17021991
000080 ca ba 84 3e 99 cc 06 bd 1d 50 a5 3d c0 69 ee 3d
       0.2592376 -0.032909963 0.08071921 0.11641264
000090 2a 9d e4 bd 4c df 41 3d b2 c0 51 bd 40 95 8d bd
       -0.11162789 0.047332093 -0.05120916 -0.06913233
0000a0 ac 2a ae bd b2 90 0c be 0d c5 61 3c ae 63 44 3e
       -0.08504233 -0.13727072 0.013779891 0.1917865
0000b0 92 eb ca 3d 19 90 00 be 11 f3 fe 3c d9 71 51 3e
       0.09908213 -0.12554969 0.031121762 0.20453586
0000c0 c6 b1 88 3d 74 f1 7a be da 0c 80 bd 07 fc 06 3e
       0.066745326 -0.2450617 -0.06252451 0.13182078
0000d0 d0 7d 3e 3e 1c 14 73 bd 34 55 22 3c 73 92 fe bd
       0.18602681 -0.05934535 0.009908009 -0.12430277
0000e0 08 72 cf 3c 85 3e 03 be 6a 71 9b bd 7a 2e 78 3d
       0.025322929 -0.12816818 -0.075899914 0.0605912
0000f0 f8 10 d0 bd 22 67 2f be b1 ec 08 be 6f c8 98 bc
       -0.101594865 -0.17129186 -0.1337154 -0.018650262
000100 12 9d f2 bd af 21 e6 3d 7a 6a 04 3e ef c8 1a bd
       -0.11846365 0.112368934 0.12931243 -0.03778928
000110 db 49 4a 3e fa 52 4b bd d7 10 7f 3e 2e b8 2e 3e
       0.19754736 -0.04963968 0.24908768 0.17062446
000120 96 e7 fa 3d 96 eb af 3c f7 15 cf bd ae 4e 84 be
       0.12251203 0.02147464 -0.10111611 -0.25841278
000130 b6 18 d9 3d 33 d1 07 3f bf 9f c5 3d 9f 42 fe 3d
       0.10600416 0.5305359 0.0964961 0.12415051
000140 6c 25 a0 3d 1d af 08 3e 6b 5b f9 3d 60 44 a8 3c
       0.07819638 0.1334805 0.1217564 0.020540416
000150 cf 19 20 3e 19 64 32 3e 8e 94 23 bc 99 85 97 3d
       0.15634845 0.17420997 -0.009984149 0.073985286
000160 db 20 1d be 15 99 61 3d 57 b4 72 3c 63 e2 39 be
       -0.15344565 0.05507763 0.014813504 -0.18152766
000170 fa 3b 26 bd 88 d8 58 3e d7 21 1b 3e ca 8a db 3d
       -0.04058454 0.2117635 0.15149628 0.10719831
000180 e1 4c 8b 3e bb d4 c2 3d 39 7f 0f be b3 cf 54 3e
       0.2720709 0.09513231 -0.14013375 0.20782356
000190 20 42 61 3e 31 ba 23 bd 9d 9c 32 3e 11 3c 2b be
       0.21997881 -0.039972488 0.17442556 -0.16722132
0001a0 32 86 7a bd 25 3b 0d be e6 e5 23 3e c0 d7 22 be
       -0.061163135 -0.13792093 0.16005668 -0.15902615
0001b0 a3 8e 26 3e e6 24 37 be 8e 7f 96 be 94 c6 88 be
       0.16265349 -0.1788517 -0.29394192 -0.26714003
0001c0 d5 71 61 be 55 ff a3 3c 79 b1 ec bc 4d 1c c4 3e
       -0.2201608 0.020019213 -0.02889322 0.38302842
0001d0 e0 33 b6 b9 53 14 f1 3d 93 3d 89 bd bf 07 4a be
       -0.00034752395 0.11771455 -0.067011975 -0.19729517
0001e0 5a b6 55 be b5 17 ee be 79 74 5f bd c1 83 7e 3e
       -0.20870343 -0.46502462 -0.054554436 0.24854948
0001f0 d5 86 b2 be 6a 62 51 be b0 0d a4 3e 5a 52 64 3d
       -0.34868494 -0.20447698 0.32041693 0.0557426
000200 90 61 87 be b6 d2 eb bc 4f 42 7a be 40 9c bf 3d
       -0.26441622 -0.028786998 -0.24439357 0.09355974
000210 69 0e 83 3d 73 d2 c6 bd 26 15 74 be 9f 1f db 3d
       0.06399233 -0.09708109 -0.23836192 0.106993906
000220 7e 1e 32 bd 25 59 cf 3d 1f a6 a1 3e 9e 86 66 bb
       -0.04348611 0.10124425 0.31572053 -0.0035175453
000230 0c 94 86 bd dc 34 46 3d f7 b7 83 bc 53 3e d5 be
       -0.065712065 0.048390254 -0.016078932 -0.41649112
000240 8f c7 76 bd 7f b3 29 be b8 6c ef bd f6 e6 5d 3e
       -0.060248908 -0.16572379 -0.11690658 0.21670136
000250 56 5e 8c bd 12 38 bc be 8a 7d c4 be 0c 62 85 bd
       -0.06853931 -0.36761528 -0.3837703 -0.065128416
000260 c6 a5 52 3e 1c bc 3c 3e 67 c7 c2 3c da a6 b2 3e
       0.2057105 0.18431133 0.023776723 0.34892923
000270 da 07 ee bb bc 61 08 be 54 1e be 3e b8 50 19 be
       -0.0072641196 -0.13318533 0.37132514 -0.14972198
000280 f3 66 91 be 0d 70 f1 3e 6e 55 96 3e 0e 30 70 3e
       -0.28398857 0.471558 0.29362053 0.23455831
000290 04 42 04 3e 2e cb 27 3e e7 d3 12 bd 7c 67 48 be
       0.12915808 0.163861 -0.035846617 -0.19570726
0002a0 7a c3 a8 3d cb d8 95 be c7 2d 65 3e 5e a0 c6 bc
       0.08240409 -0.29266962 0.22380744 -0.02424639
0002b0 26 81 97 bd bd 87 1c be 2c b5 8e 3d ab 3c 8c 3d
       -0.0739768 -0.15286155 0.069681495 0.06847509
0002c0 27 59 73 bc 95 c1 57 3d a2 76 a7 be dc f9 d7 be
       -0.014852799 0.05267485 -0.32707697 -0.42182815
0002d0 fb 19 fb 3d 15 52 3d 3c 2b ed 39 3e 5a 3b 13 be
       0.12260815 0.011555214 0.18156879 -0.1437811
0002e0 76 8a 07 bd c5 26 a4 3d fb 22 14 be 1e 45 4d 3e
       -0.03309103 0.08015207 -0.14466469 0.20045897
0002f0 9e ff 9d 3d 65 05 e0 3c 92 ad 17 3e 19 37 ca 3d
       0.07714771 0.027346322 0.14812306 0.0987379
000300 1b fd 5d bc 7a cf 69 3e 7b d8 c6 3d 89 71 c7 bd
       -0.013549115 0.22833052 0.09709259 -0.09738452
000310 eb c2 3e bb 27 ec 96 be a4 54 4f 3e 3d 11 d0 3e
       -0.002910788 -0.29477045 0.20247132 0.40638152
000320 3e ba ca 3d 6c 1c 43 bd e1 33 5a be 54 1b 9c 3d
       0.09898804 -0.047634527 -0.21308853 0.076224
000330 dc 26 1a 3e 87 d3 29 3e 87 6b a6 bd 45 31 7a bd
       0.15053886 0.16584598 -0.08125978 -0.061082143
000340 9d f7 de be 1b b5 ab 3e f5 3d 76 bd 13 bd ab bd
       -0.4354829 0.3353661 -0.06011768 -0.083856724
000350 0f 5a 02 be 9a 93 30 3e 26 3a 3c 3e fa e2 c3 3c
       -0.12729667 0.17243806 0.18381557 0.023911942
000360 13 4c 5f be 01 8b 16 bd 59 a1 d2 bd 1c 06 45 bc
       -0.21806364 -0.03675366 -0.10284681 -0.012025382
000370 b4 a1 97 bd 9f e6 b1 3b 1a d2 bc be 47 e5 62 3d
       -0.07403889 0.0054291035 -0.36879045 0.055394437
000380 3e d8 3b 3e d2 b3 bc 3d 5e e3 c0 be 60 c6 dc be
       0.18344209 0.092139855 -0.37673467 -0.43120098
000390 b4 1d 1b 3d 91 b9 12 3e a1 c0 1d be bc 91 26 3e
       0.037870124 0.143286 -0.15405513 0.16266531
0003a0 46 c9 c0 bd 31 a5 2a be fa 29 19 be 0a 53 20 be
       -0.0941339 -0.16664578 -0.14957419 -0.15656677
0003b0 00 76 af bd e8 a1 3d be d2 e9 b3 3d 79 02 ea bd
       -0.085674286 -0.18518794 0.08784832 -0.11426253
0003c0 64 90 91 3d d5 da 36 3e 19 98 4d 3d 0c c8 e3 3e
       0.071076185 0.17856915 0.05019388 0.4448856
0003d0 a9 90 9c bc ac 81 34 3e 93 e0 35 bd b2 36 75 bb
       -0.019111948 0.17627591 -0.044403624 -0.0037416634
0003e0 f8 46 ee bd 56 cc 35 be de e6 e3 bd c9 de 52 bd
       -0.1163463 -0.17753729 -0.11128019 -0.051481996
0003f0 5a 8b 09 3d 99 f3 17 be 5c 9c 8c 3d c1 73 bc bd
       0.03358016 -0.14839019 0.06865761 -0.09201766

_mean_net.2.bias f4 [32]
000000 3d ac 18 bd 15 32 1a 3e 52 4f e4 3d 5a 1d 7b be
       -0.037273634 0.15058167 0.11147942 -0.24522915
000010 b8 27 ae 3c 67 ec c9 bc 9e df cd 3d 5f cd 3e 3c
       0.021259174 -0.024648858 0.10052417 0.011645644
000020 a5 d9 4d 3d 57 a7 a1 3d d0 4d 39 bc cc e3 b1 bd
       0.05025639 0.07893246 -0.011310056 -0.08686027
000030 b2 ac 53 3a d7 ee b4 bb 05 af 94 3e e6 18 ab bd
       0.0008074745 -0.005521636 0.2903978 -0.083543584
000040 d6 4e dd bd d0 1e a5 bd 46 49 dd 3d 70 34 24 be
       -0.108060524 -0.08062518 0.108049914 -0.16035628
000050 47 33 02 be 71 e0 5a 3d 12 9d 91 bc e9 79 45 be
       -0.12714873 0.0534367 -0.017775092 -0.19284786
000060 c6 a9 80 be db 3d 69 be 6e 7a 2b 3d f2 6a 21 be
       -0.25129527 -0.22777502 0.041864805 -0.15763453
000070 af 0e da 3d 24 8b 11 ba 20 09 be 3d 5f 11 6c 3e
       0.10647332 -0.00055520446 0.09279084 0.23053502

_mean_net.4.weight f4 [8, 32]
000000 52 0c 46 3d 6f a2 c0 bd 07 55 50 bd 29 85 a4 bd
       0.048351593 -0.09405982 -0.05086234 -0.08033211
000010 23 cd 69 3d 9c 0b b2 3d 0d e9 48 3c 18 b0 14 3d
       0.0570804 0.086936206 0.012262595 0.03630075
000020 86 b2 0d 3d b2 df 5d 3c 90 e9 44 bc 2d fa 6d 3d
       0.03459408 0.013542103 -0.012018576 0.058099914
000030 a2 87 04 3e 5f a2 52 bd 72 8a 95 3d 8b ec 4e 3c
       0.12942365 -0.05142438 0.07301797 0.012629638
000040 ac 7e 0f 3c 47 d7 05 3c 6b c2 62 bd 52 75 28 3d
       0.008758228 0.008169002 -0.055361193 0.04112751
000050 8d 3e e7 bd 26 23 ca bd ee 2f 02 3b 2c 71 c2 bd
       -0.112912275 -0.09869985 0.0019864994 -0.09494242
000060 06 88 50 3e 52 df 74 3c e3 68 26 be 5b 65 02 bc
       0.20364389 0.014945822 -0.16250949 -0.007958735
000070 2a ab 59 3d 9e 83 c6 bc f3 2c 24 bd a3 92 90 bd
       0.05314175 -0.024232682 -0.04008193 -0.07059219
000080 39 c7 38 bd 45 50 84 bd 09 dc 77 bd 3a 76 91 bd
       -0.04511187 -0.06460623 -0.060512576 -0.07102628
000090 1e c7 b8 3d e9 5a fc 3d 0e 47 47 3d 29 d4 b3 bd
       0.090223536 0.12322027 0.048651747 -0.08780701
0000a0 4b 6f 54 3d a5 c3 25 ba 33 20 13 be 20 74 6c bd
       0.05186395 -0.0006323404 -0.14367752 -0.057727933
0000b0 ca c0 76 3c 97 b7 ff 3d 84 8b 28 bd e2 a1 84 3d
       0.015060613 0.12486189 -0.041148677 0.06476189
0000c0 0e d2 cd bd 9d 4e 70 3e eb b3 37 bd f9 8c c3 3d
       -0.100498304 0.23467489 -0.044849318 0.09548373
0000d0 c9 4e 3f 3d c5 69 c5 3d a8 1e 28 ba f9 66 0a bd
       0.046705995 0.096393146 -0.00064132595 -0.03378961
0000e0 74 25 7a bd 48 e5 23 bc 50 b0 d9 bd bc 97 67 bc
       -0.061070874 -0.010003395 -0.10629332 -0.014135297
0000f0 1e 06 04 3d fb 33 1b 3e 89 09 c7 bd 91 be 6f 3d
       0.032232396 0.15156548 -0.097186156 0.058531348
000100 09 bb 37 bd 03 db 1f 3e 59 59 ca 3d d6 bd 3e 3d
       -0.044856105 0.1561089 0.09880323 0.04656776
000110 0f 7b 00 3e b8 b5 d6 bd 93 76 02 bd 5b 86 08 be
       0.12546943 -0.10483879 -0.031851362 -0.13332503
000120 f3 f3 b2 3c de ec b9 3a 14 a0 04 bb f4 6e 9b bc
       0.02184484 0.0014184972 -0.0020237016 -0.018973805
000130 3e d2 ac bd 13 cb 82 bd 33 2a f9 3d 95 91 89 bd
       -0.08438538 -0.063863896 0.12166252 -0.06717221
000140 58 92 2b 3d 7f f8 53 be f3 86 1b be 4e 1c 5e bb
       0.04188761 -0.20700262 -0.15188198 -0.0033891383
000150 b4 ae 86 3d 0e 41 8d 3d 05 26 f1 ba e7 3f 7e 3c
       0.06576291 0.06897174 -0.0018398172 0.015518165
000160 11 c0 82 be 62 18 32 be 87 25 28 3d 0e 15 18 be
       -0.2553716 -0.17392114 0.041051414 -0.14851782
000170 e1 42 a9 bc 57 b4 5c bd 42 67 8c 3d df 11 2c bd
       -0.020661773 -0.053882923 0.06855632 -0.04200923
000180 c4 ba a3 bc 41 46 d4 bd 77 e9 75 3d d3 c5 43 be
       -0.019986518 -0.10364962 0.060037103 -0.19118433
000190 f2 b5 85 bd f7 04 a1 bd cd 68 01 3e 4a 32 2d 3d
       -0.06528844 -0.07862275 0.12637635 0.042284288
0001a0 9d c3 80 3c d4 01 44 3c 89 71 ad bd d4 d1 f0 bc
       0.015718276 0.0119633265 -0.08468921 -0.029396929
0001b0 d8 c5 8f 3d 4e 12 49 3d ab 53 5c 3e fe fe b2 bc
       0.070201576 0.049089722 0.21516292 -0.021850105
0001c0 d6 c3 80 bd 98 3b b7 3d 45 da 05 3e 3a a7 b6 3d
       -0.06287353 0.089469135 0.13071544 0.08918615
0001d0 1c c6 1a 3c 16 0a 03 3e a8 d5 c9 bb 31 79 5d 3d
       0.009446647 0.12796816 -0.006159503 0.054070655
0001e0 22 39 90 bb 1f a3 e9 bb e6 95 57 3c fc b2 5d bd
       -0.004401342 -0.0071300413 0.013158297 -0.05412577
0001f0 58 4d aa 3d 65 6c 1a 3e ed 5e 97 3a db cb ae bd
       0.083155334 0.15080412 0.0011548676 -0.08534976
000200 d3 eb 90 3d e4 02 db bc fa b9 c1 3d f9 d1 0d bd
       0.0707623 -0.026734777 0.094593 -0.034624074
000210 df 8f 47 bd db 4b 09 bd f4 67 1c 3d a5 3f f9 3c
       -0.04872119 -0.033519607 0.038185075 0.030425856
000220 c2 4b aa bd f8 e1 a7 b9 d5 8f fa bc 38 b6 f3 bd
       -0.08315231 -0.00032021082 -0.030586163 -0.1189999
000230 4a 38 99 3c c5 04 77 bd 76 5d 5d bd 46 f6 f6 bd
       0.018703599 -0.060307283 -0.05404421 -0.12058692
000240 2e 09 30 3d f0 ff 53 bd f9 26 89 bd 5a 6a 47 3d
       0.042977504 -0.051757753 -0.066968866 0.04868541
000250 e6 54 b5 3c ad 9c 43 bd 34 57 25 3c 90 79 c0 3c
       0.02213521 -0.04775684 0.010091592 0.023495466
000260 b1 9c 9f 3d 53 6b c8 3c 4b cd 16 bd a9 88 49 bd
       0.077935584 0.024465239 -0.036816876 -0.049202595
000270 b4 7b c6 3d 8d 6d 99 bc db 62 fe bd b9 af 43 3d
       0.09691563 -0.018728996 -0.12421199 0.047775004
000280 7e 30 96 bd 0f a5 8f bb 92 52 25 3c cc 16 86 3c
       -0.07333468 -0.00438369 0.010090487 0.016368292
000290 26 de db 3c 4c b0 17 ba a0 96 b1 3b 80 ee 37 3d
       0.026839327 -0.0005786463 0.005419567 0.044905186
0002a0 fc 93 f9 3c ec f5 1e bb 29 d0 f6 3c 46 75 01 bc
       0.030466072 -0.0024255468 0.030128555 -0.007901495
0002b0 bf d6 4a bd fd 8d c2 3c 81 ab 24 3d 41 4e 0f bc
       -0.049521204 0.023749346 0.04020262 -0.0087466845
0002c0 ff 21 28 3d bc ce 1c bd 1a 02 9c 3d 1e 64 42 bc
       0.041048046 -0.038283095 0.07617588 -0.01186469
0002d0 af 19 dd 3c ca 3e 02 be 10 92 f9 ba 71 cc e6 bd
       0.026989786 -0.12719265 -0.0019040722 -0.11269463
0002e0 d7 a3 fe 3c 56 18 f1 3b 62 75 d3 bc 80 10 21 3d
       0.031083984 0.0073576374 -0.025812808 0.039322376
0002f0 42 a5 5a 3a a6 a4 96 bd 8e eb 1d bd 61 89 b8 3c
       0.00083406654 -0.07355623 -0.03855472 0.022526445
000300 09 38 5a 3a eb 66 00 3d cd 87 d4 bc fb 3b b1 3d
       0.000832439 0.03134815 -0.025943661 0.086540185
000310 22 1d 15 bd 9a 2f e5 bd ce 3c b6 3d 8d 12 06 be
       -0.036404736 -0.1119072 0.08898316 -0.13093014
000320 0e 91 a8 3d 8f b7 9e bb 95 a9 99 bc c3 f2 06 3c
       0.08230792 -0.0048436592 -0.01875762 0.00823659
000330 c5 89 86 3b 88 6b 0d be 5d cf 5a 3d b7 99 c5 3d
       0.004105779 -0.13810551 0.053420413 0.096484594
000340 d0 27 b0 bd d8 30 40 3e 56 2d 93 bd 05 1f f6 3d
       -0.08601344 0.18768632 -0.071863815 0.12017635
000350 e2 67 d3 bc d8 59 94 bd e3 74 93 bc 8a 8f dd bb
       -0.025806371 -0.07243699 -0.018000072 -0.006761496
000360 d5 55 78 3d 76 c1 c6 3d a5 dc 8a 3d 6d cd 25 3e
       0.06062873 0.097048685 0.06780366 0.16191645
000370 a2 77 aa 3b 71 5a ed 3d 65 1c 07 3d c6 8c c9 3d
       0.0052022496 0.11589516 0.032986064 0.098413035
000380 f1 fb c4 3c ef 64 03 3d 0d 73 96 3d 3f cd 78 3c
       0.024045916 0.03207868 0.07346163 0.015185653
000390 17 75 53 3c c9 05 fe bc 5c c7 d6 3d 0e 66 86 3d
       0.012906334 -0.031008618 0.104872435 0.06562434
0003a0 97 d8 48 3d a2 af c6 3a db c4 22 bc 6f de 62 bd
       0.04903468 0.0015158544 -0.009934629 -0.05538791
0003b0 2c b7 ce 3c 38 fd 39 3d cf 10 9d bd 45 c6 bf 3d
       0.025233828 0.045407504 -0.076692216 0.09363989
0003c0 46 e7 ae 3d 4f 05 36 bd bd ef d0 3b ec 10 d1 bd
       0.08540206 -0.044438656 0.0063762353 -0.10208306
0003d0 f3 c5 ed bd d8 b5 78 bc c6 5a 87 3b a6 5b d5 bd
       -0.116100214 -0.015180074 0.004130694 -0.10417871
0003e0 aa de 99 3b 98 e4 36 bd 05 a2 c1 bc 8e 76 22 bd
       0.004695733 -0.044651598 -0.023636827 -0.039663844
0003f0 18 5f 7e bd f1 c4 13 bd 09 d6 36 3d 0a 33 4d 3d
       -0.062102407 -0.03607649 0.044637714 0.050097503

_mean_net.4.bias f4 [8]
000000 47 ef 9b 3c c9 69 5a be 2f 5e a8 3d 24 9d 72 3d
       0.019034995 -0.21329416 0.08221089 0.059231892
000010 59 a5 1d 3c 9e 60 2c 3e 06 f7 d5 3b 10 b3 25 3e
       0.0096219415 0.16833732 0.0065296916 0.16181588
