hw1/run_logs/q2_dagger_humanoid/policy_itr_4.pt (torch, 110267 bytes, 7 tensors)

_logstd f4 [17]
-1.1900901 -1.3759562 -0.99964267 -1.0787492 -1.1177639 -0.9521816 -0.95043784 -1.0923972
-1.0249121 -1.0425183 -0.95499253 -1.4218346 -1.3823583 -1.9790901 -1.5160625 -1.6310229
-1.9762512
00000000: df54 98bf 551f b0bf 95e8 7fbf 7414 8abf
00000010: e312 8fbf 2cc2 73bf e54f 73bf acd3 8bbf
00000020: 5230 83bf 3d71 85bf 647a 74bf adfe b5bf
00000030: 1ef1 b0bf d352 fdbf 560e c2bf 5cc5 d0bf
00000040: cdf5 fcbf

_mean_net.0.weight f4 [64, 376]
-0.042598106 0.049324684 -0.7281569 -2.4299364 -0.57691604 -0.5922014 1.505703 -0.04425549
-0.645069 -2.3608594 0.08207695 -1.5233351 0.043106697 -1.0666282 0.34152657 0.028875947
1.394107 0.5267284 0.3146512 0.31429103 0.4472384 -0.026176807 0.03926656 -0.22513539
-0.84117573 -0.18161996 -0.23091574 -0.33809432 -0.2295135 -0.040832322 0.003145668 0.08345955
0.053456936 0.026803523 -0.069411375 0.019093929 0.08247954 -0.030261254 -0.035639733 -0.02243182
-0.105208375 -0.122918546 0.12215791 0.10785874 -0.06669348 0.026508292 -0.027374959 0.015167292
-0.014891516 -0.0056539625 -0.049579807 -0.024588142 0.027984213 -0.012535754 0.051367335 -0.044428412
-0.21964946 0.7358017 -2.9584436 1.0495793 0.020206284 -0.45798647 0.34945175 -0.027713858
0.04962324 -0.20722838 0.15569453 2.17668 -2.9637203 -0.6021781 0.86836135 1.0379317
-0.46380892 -0.1510615 0.09546392 0.675364 1.326137 1.4442693 0.9308781 0.35239002
3.5301914 2.201224 -1.2408148 -0.591336 0.10882075 0.4971082 0.063354015 0.9112001
2.285751 1.6981279 -0.5100478 1.6853352 -0.5947131 -0.11063294 0.044001672 -0.125418
-0.23682493 0.14192434 0.20734043 1.0387802 0.32754046 0.19227529 0.057991244 0.087522656
0.045195267 -0.38458312 -0.2733769 0.37322894 0.72157335 0.81494325 0.88601077 -0.021279387
0.83008397 0.19181058 0.08497857 -0.42486188 0.2902235 0.29763713 -1.0141155 0.39471677
-1.3325875 1.850342 -0.8829025 -0.01215926 0.10601278 -0.45764515 -0.20750749 1.7709754
-0.6645009 -0.45065644 -1.4896252 -0.4460716 -0.89428 0.27145222 0.110671595 -0.43451828
-0.2203995 2.1921852 -0.44389865 -0.65571326 -1.1716267 -0.8491836 -0.35881132 0.3428494
0.094491296 -0.7245756 -0.51172507 -0.30806756 -1.6498668 1.8360823 -1.0076516 -0.6901408
0.43314806 -0.3864651 0.029853605 -0.39311445 -0.53941464 -0.79884434 -1.6449665 3.6615102
-1.28716 -1.0776767 0.42027336 -0.525193 0.05184335 0.26505762 -0.2073499 0.903756
-2.2473152 -0.8905581 -0.6649208 0.38538143 0.8395345 -0.013340812 0.1300042 1.0435992
-0.13433743 0.6680898 0.027517233 -0.7100479 -1.4796678 -0.5015655 1.5109626 0.15124114
0.04526724 0.04738896 -0.04458427 -0.040198755 -0.001751162 -0.027885271 0.01845273 -0.046142243
0.007371398 0.17433874 0.036951367 0.5043587 -0.29034448 -0.051376976 -0.11450545 0.07480948
-0.10309011 -0.44420815 -0.07589949 0.01839041 -0.035203844 0.064303875 -0.2011014 0.10602141
0.1549572 0.10206524 -0.028442845 0.065658115 -0.120305434 0.55971164 0.42140952 -0.05671131
0.14756483 -0.08644676 -0.238777 0.032499667 0.021517562 -0.052553896 0.06888144 -0.08555857
-0.19444768 -0.0500254 0.048982326 0.12357653 0.063455 0.1243746 0.076693274 0.2829569
0.019643296 -0.114060335 -0.03495583 -0.024049256 0.05797108 -0.23125133 -0.06792764 -0.14399491
-0.056096815 -0.041138418 0.1156972 -0.26664144 -0.12639967 -0.36859134 -0.17076585 0.1616212
-0.14951457 0.79938006 -0.08314816 -0.0096896365 0.0018284278 0.05418963 -0.1908077 0.017503688
00000000: 5a7b 2ebd ae08 4a3d 7e68 3abf 1484 1bc0
00000010: c5b0 13bf 839a 17bf e0ba c03f 3f45 35bd
00000020: 3e23 25bf 5218 17c0 f617 a83d a5fc c2bf
00000030: a690 303d 4687 88bf 92dc ae3e 408d ec3c
00000040: 1972 b23f acd7 063f f619 a13e c1ea a03e
00000050: 6efc e43e be70 d6bc f9d5 203d e489 66be
00000060: 4b57 57bf 95fa 39be 2d75 6cbe b31a adbe
00000070: 9605 6bbe cb3f 27bd 8d27 4e3b d7ec aa3d
00000080: a9f5 5a3d 1093 db3c 8d27 8ebd df6a 9c3c
00000090: 08eb a83d 73e6 f7bc f8fa 11bd f0c2 b7bc
000000a0: 7d77 d7bd b8bc fbbd ed2d fa3d 0be5 dc3d
000000b0: 9796 88bd eb27 d93c 7341 e0bc 3c80 783c
000000c0: 8cfb 73bc e044 b9bb 3214 4bbd 126d c9bc
000000d0: 263f e53c c362 4dbc 8e66 523d 91fa 35bd
000000e0: caeb 60be 805d 3c3f 2457 3dc0 9d58 863f
000000f0: a687 a53c 347d eabe 57eb b23e 2c08 e3bc
00000100: bd41 4b3d ad33 54be 636e 1f3e ba4e 0b40
00000110: 98ad 3dc0 5828 1abf ee4c 5e3f f2da 843f
00000120: 5d78 edbe deaf 1abe 9682 c33d a8e4 2c3f
00000130: dbbe a93f d1dd b83f 074e 6e3f 776c b43e
00000140: a8ee 6140 dbe0 0c40 05d3 9ebf cc61 17bf
00000150: 6add de3d f784 fe3e c0bf 813d 6944 693f
00000160: bf49 1240 415c d93f 7e92 02bf 10b9 d73f
00000170: 1e3f 18bf 8693 e2bd 193b 343d 946d 00be
00000180: 3c82 72be 9d54 113e 0d51 543e c0f6 843f
00000190: 62b3 a73e d0e3 443e 3a88 6d3d 143f b33d
000001a0: ac1e 393d 14e8 c4be 0ff8 8bbe dd17 bf3e
000001b0: 08b9 383f 1fa0 503f 9ad1 623f 1c52 aebc
000001c0: 6280 543f fe69 443e 3f09 ae3d 7f87 d9be
000001d0: 2d98 943e e563 983e 89ce 81bf 5118 ca3e
000001e0: 3a92 aabf 02d8 ec3f e605 62bf a237 47bc
000001f0: 3a1d d93d 7750 eabe d87c 54be 52af e23f
00000200: bb1c 2abf 71bc e6be 0aac bebf 7f63 e4be
00000210: 89ef 64bf c9fb 8a3e caa7 e23d 2e79 debe
00000220: 68b0 61be c34c 0c40 af46 e3be d3dc 27bf
00000230: ddf7 95bf 1964 59bf 1eb6 b7be f589 af3e
00000240: a784 c13d c97d 39bf 6a00 03bf 08bb 9dbe
00000250: d62e d3bf bf04 eb3f bafa 80bf 11ad 30bf
00000260: 95c5 dd3e c1de c5be 8c8f f43c 4c46 c9be
00000270: 1417 0abf 1081 4cbf 438e d2bf 2f56 6a40
00000280: a9c1 a4bf 4ff1 89bf 122e d73e 0c73 06bf
00000290: b159 543d a2b5 873e 8853 54be 8e5c 673f
000002a0: 03d4 0fc0 9efb 63bf 4038 2abf b750 c53e
000002b0: bceb 563f 6c93 5abc d21f 053e a994 853f
000002c0: c08f 09be ef07 2b3f d26b e13c b3c5 35bf
000002d0: c165 bdbf 9966 00bf 3967 c13f f5de 1a3e
000002e0: 246a 393d ed1a 423d ff9d 36bd 73a7 24bd
000002f0: 3f87 e5ba a76f e4bc 2e2a 973c a6ff 3cbd
00000300: c58b f13b db85 323e 515a 173d a71d 013f
00000310: 08a8 94be aa70 52bd d581 eabd b635 993d
00000320: e820 d3bd 406f e3be 3171 9bbd 7ca7 963c
00000330: e831 10bd c0b1 833d 87ed 4dbe c121 d93d
00000340: 1aad 1e3e 9507 d13d f800 e9bc c377 863d
00000350: b262 f6bd 4349 0f3f fdc2 d73e 1e4a 68bd
00000360: 3c1b 173e 000b b1bd f581 74be 5f1e 053d
00000370: 9945 b03c c142 57bd b611 8d3d 5539 afbd
00000380: 4b1d 47be 6fe7 4cbd b1a1 483d b115 fd3d
00000390: b2f4 813d 1cb8 fe3d 5d11 9d3d badf 903e
000003a0: faea a03c 7798 e9bd d82d 0fbd f202 c5bc
000003b0: 1573 6d3d 26cd 6cbe a61d 8bbd 6773 13be
000003c0: c6c5 65bd c280 28bd a7f2 ec3d 3a85 88be
000003d0: ea6e 01be 01b8 bcbe 3edd 2ebe 0780 253e
000003e0: 591a 19be 2ca4 4c3f 9549 aabd 48c1 1ebc
000003f0: dba7 ef3a f2f5 5d3d 1863 43be e563 8f3c

_mean_net.0.bias f4 [64]
0.07722159 -0.12457076 -0.006984253 -0.21782105 0.04199253 0.11700452 0.029996138 0.16261385
-0.07197088 0.33366016 -0.4313954 -0.17518488 0.014060664 0.6209706 0.102242336 -0.2521892
0.08757961 -0.020283088 -0.17958675 -0.29535022 -0.27649143 0.08122681 0.009719639 -0.50527376
-0.006823493 0.19953929 -0.18206203 -0.49463034 0.12947805 0.04092221 -0.015125901 0.015037869
-0.3364642 0.15749131 0.047878463 -0.049444217 0.0810445 0.09122592 -0.157958 -0.24762817
0.22835167 -0.016996384 -0.008830862 0.38037103 -0.038479894 -0.48158792 0.28056303 -0.048340816
-0.01777214 -0.033505715 -0.034922123 -0.22698283 0.12781054 0.47053322 0.09732441 0.36964113
-0.29286048 -0.019602602 0.025683321 0.044409957 0.0495135 0.02983722 -0.021874629 -0.21934421
00000000: 5a26 9e3d f41e ffbd 29dc e4bb 7b0c 5fbe
00000010: 5c00 2c3d 11a0 ef3d 76ba f53c 3f84 263e
00000020: 7865 93bd 81d5 aa3e dcdf dcbe aa63 33be
00000030: b35e 663c eef7 1e3f 6e64 d13d f11e 81be
00000040: f05c b33d b828 a6bc 97e5 37be 2538 97be
00000050: 4990 8dbe 3e5a a63d 1f3f 1f3c 9f59 01bf
00000060: 9c97 dfbb 0754 4c3e 786e 3abe 3040 fdbe
00000070: e595 043e 0c9e 273d a1d2 77bc 6561 763c
00000080: 0945 acbe 6745 213e 351c 443d 0586 4abd
00000090: a9fa a53d a8d4 ba3d bebf 21be 3d92 7dbe
000000a0: 05d5 693e 003c 8bbc 52af 10bc febf c23e
000000b0: 189d 1dbd b192 f6be f5a5 8f3e 0501 46bd
000000c0: e196 91bc 4a3d 09bd 800a 0fbd 306e 68be
000000d0: c4e0 023e bbe9 f03e 0552 c73d 9a41 bd3e
000000e0: cff1 95be a395 a0bc d465 d23c 37e7 353d
000000f0: abce 4a3d 306d f43c 6c32 b3bc c59b 60be

_mean_net.2.weight f4 [32, 64]
0.1133656 0.03612176 0.020132158 -0.21595456 -0.5470504 -0.07861256 0.13053115 -0.25694793
0.0322559 0.0042371354 -0.23224936 -0.06435661 -0.039599597 -0.5067613 -0.051854186 -0.43315762
-0.0961297 0.019019322 0.2013704 0.07302688 0.19350274 0.08097918 0.16671453 -0.50118476
-0.07163679 0.3051361 0.11162003 0.45087305 -0.021672593 0.0606684 0.13799189 -0.41495833
0.0861926 0.04549615 0.012035786 -0.06203502 -0.10871681 -0.1640595 -0.13777328 -0.16644609
-0.13817081 0.30496848 -0.49607062 -0.08837668 -0.15304585 -0.21215583 -0.14231816 0.028162096
-0.024343308 0.06336034 -0.11697815 -0.03190084 0.016886352 -0.17545904 0.04174535 0.15338002
-0.19480953 -0.28336206 0.008064333 -0.07033017 -0.119076535 0.16461834 0.02455878 0.22551748
-0.011721758 -0.10073396 0.038060352 -0.18350019 0.09991183 0.00064167095 -0.0025666386 0.031941824
-0.23568949 -0.1583953 -0.1176773 0.05541701 -0.093491346 0.012468791 0.0013000641 0.059958793
-0.0111725265 0.1284537 0.002083842 0.11762314 0.06681843 0.087852426 -0.07588432 0.0466112
0.003259313 0.15690832 0.044451643 0.4872336 0.07094615 -0.021769851 -0.16996378 -0.035637986
-0.16550253 -0.00075197226 -0.039105006 0.07614869 0.005499634 -0.0300052 0.1545924 -0.08778851
0.12784103 -0.09326377 0.25607058 -0.039164823 -0.08720096 0.1617748 -0.052434675 -0.04714248
-0.026567101 0.102691315 0.0927263 0.027666098 0.08089397 -0.026715048 -0.04478682 0.11507055
0.118882686 0.016371548 0.043894038 0.16930449 -0.045235768 0.043069564 -0.10277668 -0.044895608
-0.14208467 0.09862925 0.16152002 -0.030438542 -0.0007731097 -0.105005145 0.34297547 0.078432694
0.18872249 -0.18819243 -0.07425112 -0.13762715 0.039672114 -0.2023504 0.08110422 0.06870738
-0.09009439 -0.037222728 0.084231615 -0.020347575 0.033200078 -0.022362886 0.06754649 0.076013364
-0.042687196 -0.10412665 0.22602634 -0.4505179 0.005547985 -0.00020386884 -0.1258234 0.0008620939
0.0021295748 0.18572858 -0.0617112 -0.103227325 -0.033758905 -0.06009731 -0.069924094 0.007859442
0.00025211033 0.07158447 -0.19413024 -0.001434767 0.06293336 -0.13928843 -0.08394366 0.017530195
-0.16014716 -0.26529902 -0.1988377 -0.18509683 -0.078240596 -0.0023765853 -0.14691515 -0.23158044
0.07719096 0.043188576 0.017642686 0.057934407 -0.008306631 0.17279024 0.07247469 0.11280733
0.009506846 -0.03979691 0.109483354 -0.07636473 -0.35525703 -0.023716096 -0.24674757 0.018567694
0.046583574 0.061172936 0.4295213 0.06883808 -0.03815767 0.18315905 -0.021441866 -0.060660258
-0.07859167 0.08360041 0.005727064 -0.027185654 -0.17445992 -0.076063834 0.15953065 -0.11874396
-0.19790958 -0.027939452 0.020556789 -0.21359147 0.018096054 0.025141431 0.008788363 0.0412634
0.03296169 -0.037713226 0.05100108 0.085526265 -0.28047308 0.044576753 0.07170666 0.037816983
-0.15619162 -0.095839374 0.04662448 -0.02757108 -0.04289303 -0.30019605 0.11290134 0.022059392
-0.13396573 0.22187956 -0.34826067 0.11710961 -0.020992132 -0.0885868 0.04504341 0.023333859
-0.1048808 -0.051130474 0.001782435 -0.007814096 -0.14805374 -0.4385312 0.04915298 -0.054413453
00000000: 392c e83d 69f4 133d 32ec a43c 3123 5dbe
00000010: 7f0b 0cbf 9fff a0bd f5a9 053e ae8e 83be
00000020: c31e 043d abd7 8a3b c7d2 6dbe 66cd 83bd
00000030: 3033 22bd 1cbb 01bf 0e65 54bd d6c6 ddbe
00000040: a6df c4bd 69ce 9b3c 0b34 4e3e 1e8f 953d
00000050: 9525 463e 6ad8 a53d 37b7 2a3e a54d 00bf
00000060: 4fb6 92bd cd3a 9c3e 0b99 e43d d5d8 e63e
00000070: b98a b1bc 6e7f 783d bf4d 0d3e 6b75 d4be
00000080: bf85 b03d 2c5a 3a3d bf31 453c 6f18 7ebd
00000090: eba6 debd 37ff 27be 7014 0dbe d870 2abe
000000a0: a67c 0dbe d424 9c3e f8fc fdbe d5fe b4bd
000000b0: 0db8 1cbe 613f 59be dabb 11be 32b4 e63c
000000c0: 9e6b c7bc 11c3 813d 3e92 efbd 75aa 02bd
000000d0: 3f55 8a3c 89ab 33be 2cfd 2a3d a70f 1d3e
000000e0: 267c 47be d514 91be 4420 043c 4409 90bd
000000f0: 66de f3bd b691 283e 7f2f c93c 0eee 663e
00000100: 9e0c 40bc 9b4d cebd 2ce5 1b3d 79e7 3bbe
00000110: 939e cc3d cf35 283a 0d35 28bb 6ed5 023d
00000120: 9658 71be 6132 22be cc00 f1bd f2fc 623d
00000130: 6478 bfbd e649 4c3c ea66 aa3a 5a97 753d
00000140: f90c 37bc 5e89 033e 1191 083b 67e4 f03d
00000150: 1ad8 883d f9eb b33d 3d69 9bbd 63eb 3e3d
00000160: 339a 553b 93ac 203e ed12 363d af76 f93e
00000170: 374c 913d b056 b2bc fc0a 2ebe 23f9 11bd
00000180: 7f79 29be 0120 45ba 922c 20bd d8f3 9b3d
00000190: 4636 b43b 77cd f5bc 784d 1e3e 76ca b3bd
000001a0: c2e8 023e 1301 bfbd af1b 833e 4b6b 20bd
000001b0: 6b96 b2bd 4ba8 253e bec5 56bd 7918 41bd
000001c0: 40a3 d9bc d34f d23d 49e7 bd3d 03a4 e23c
000001d0: bdab a53d 84d9 dabc 6272 37bd 1caa eb3d
000001e0: c478 f33d a01d 863c 3cca 333d 285e 2d3e
000001f0: 2449 39bd b669 303d 947c d2bd 75e4 37bd
00000200: a57e 11be 22fe c93d 8165 253e 405a f9bc
00000210: 84aa 4aba f00c d7bd 7b9a af3e 52a1 a03d
00000220: 7840 413e 84b5 40be f910 98bd 22ee 0cbe
00000230: 3a7f 223d f134 4fbe f819 a63d 74b6 8c3d
00000240: 6883 b8bd dc76 18bd a081 ac3d f5af a6bc
00000250: cefc 073d 5f32 b7bc d055 8a3d e5ac 9b3d
00000260: c5d8 2ebd 5a40 d5bd 7373 673e 48aa e6be
00000270: dfcb b53b a0c5 55b9 d9d7 00be 24fe 613a
00000280: 5690 0b3b a22f 3e3e e2c4 7cbd d968 d3bd
00000290: c746 0abd 9928 76bd 5d34 8fbd e4c4 003c
000002a0: ad2d 8439 e19a 923d 14ca 46be cb0e bcba
000002b0: 35e3 803d a0a1 0ebe a7ea abbd 7c9b 8f3c
000002c0: 9efd 23be 46d5 87be 1c9c 4bbe 068a 3dbe
000002d0: 9b3c a0bd 7cc0 1bbb ed70 16be 6c23 6dbe
000002e0: 4b16 9e3d 81e6 303d 6587 903c a14c 6d3d
000002f0: 8918 08bc edef 303e 9c6d 943d 8807 e73d
00000300: 9ac2 1b3c 1602 23bd cf38 e03d 1d65 9cbd
00000310: 40e4 b5be 4248 c2bc 65ab 7cbe 471b 983c
00000320: 6bce 3e3d 7990 7a3d 37ea db3e fbfa 8c3d
00000330: 384b 1cbd 0c8e 3b3e daa6 afbc e476 78bd
00000340: abf4 a0bd b136 ab3d 18aa bb3b 73b4 debc
00000350: 9fa5 32be 5bc7 9bbd 015c 233e 0930 f3bd
00000360: cfa8 4abe 47e1 e4bc b666 a83c b9b7 5abe
00000370: 2d3e 943c 67f5 cd3c 11fd 0f3c d003 293d
00000380: d602 073d 2f79 1abd 82e6 503d 6528 af3d
00000390: 2b9a 8fbe 1d96 363d f1da 923d fbe5 1a3d
000003a0: b2f0 1fbe 6f47 c4bd 50f9 3e3d bfdc e1bc
000003b0: 9ab0 2fbd 4cb3 99be d138 e73d e6b5 b43c
000003c0: 502e 09be 6534 633e 394f b2be 2ad7 ef3d
000003d0: b1f7 abbc ff6c b5bd 707f 383d a626 bf3c
000003e0: bfcb d6bd 306e 51bd 98a0 e93a b206 00bc
000003f0: 669b 17be 2987 e0be a354 493d a4e0 5ebd

_mean_net.2.bias f4 [32]
0.3288721 -0.169566 -0.15694322 -0.14418562 0.5007081 0.4327533 -0.1865067 0.203665
0.17695703 0.30968082 -0.019344734 -0.06596685 0.7449714 -0.1733402 -0.077803224 -0.31524852
0.25618896 -0.05921238 -0.60865855 -0.22860686 0.05158261 -0.28500685 0.2948973 0.28164864
-0.047397655 -0.12964478 -0.50457925 0.4830082 0.22131336 0.03827824 -0.18736713 -0.21154395
00000000: ed61 a83e b6a2 2dbe b9b5 20be 65a5 13be
00000010: 682e 003f d791 dd3e 9dfb 3ebe 8f8d 503e
00000020: 3934 353e 7c8e 9e3e d978 9ebc a119 87bd
00000030: 72b6 3e3f 1880 31be 4c57 9fbd 4168 a1be
00000040: 332b 833e ae88 72bd 0cd1 1bbf eb17 6abe
00000050: 4948 533d 6bec 91be c7fc 963e 4034 903e
00000060: 0b24 42bd 9ac1 04be 1b2c 01bf da4c f73e
00000070: f89f 623e a5c9 1c3d 2bdd 3fbe fa9e 58be

_mean_net.4.weight f4 [17, 32]
-0.12557775 0.17021923 -0.14026006 -0.1928476 -0.54476595 -0.12186122 -0.4503666 -0.6369977
0.113130294 0.061321333 -0.1489255 0.26793662 -0.31053573 0.32609385 -0.35760486 -0.49543267
-0.6033942 0.5919427 0.044047836 0.09491877 -0.11737495 -0.15386768 0.76394266 -0.5085208
0.028991506 -0.03347225 0.08791195 0.09897116 -0.25398204 -0.5513117 -0.28111842 0.26438808
-0.041916173 0.41840965 -0.37109405 0.40828937 0.21567723 -0.1584377 -0.4427073 -0.48206037
0.048138443 0.33527914 -0.37329128 -0.22382939 0.1888074 -0.19465001 -0.14803037 0.19652995
-0.06969471 -0.5057816 -0.2735287 -0.25656366 -0.21170893 0.014412599 -0.23398007 0.20289047
0.18306923 -0.2466109 0.2789962 0.3259571 -0.37555468 -0.41598332 0.13181156 0.18187638
-0.022066131 -0.3910852 -0.43712196 -0.3124798 -0.18132067 -0.21490394 -0.09348946 0.746192
-0.08382151 0.25068098 -0.6937101 0.3049763 -0.50192523 0.8795821 0.2737677 0.21380119
-0.077273406 -0.3276087 0.069399215 0.1901964 0.11901733 0.14286132 0.20053464 0.36207548
-1.1223296 -0.42199114 -0.04175845 -0.10489279 -0.11343803 -0.045775805 0.21057722 0.44952974
0.11612402 -0.072253324 -0.14803857 -0.20667173 -0.3924621 0.22475079 0.18703501 -0.14851224
0.21092862 -0.13172662 -0.88064903 -0.4941461 0.6430911 -0.059380606 -0.27625084 0.1787204
0.2537217 -0.41192183 -0.13445656 -0.19823386 -0.037381552 -0.2414859 0.3995658 0.5554462
0.27134573 0.20386788 -0.43628788 0.6082994 0.17127962 0.334581 -0.2782388 -0.64274395
-0.026857167 -0.475101 -0.7359871 0.29595974 0.29874474 -0.67056596 -0.30051035 0.17247285
-0.39495012 -0.17693892 0.34592178 -0.059972264 0.14614439 -0.5961166 0.18952493 -0.17741284
0.15386157 0.24400814 0.26658395 0.22117853 0.035478167 -0.1605926 -0.1660777 -0.16218099
-0.09608005 -0.2326503 0.27437225 -0.3981295 -0.26715338 -0.39219537 0.18367428 0.7398421
-0.41110167 0.040635254 -0.37157342 -0.8365685 -0.120455645 -0.058257736 0.5416215 0.019405847
0.26426855 0.22191173 0.26655418 0.035752222 -0.0014630749 -0.07714653 0.283956 -0.8149696
-0.29050034 0.35918698 0.70189667 0.6847344 0.3083707 0.14826871 -0.44298503 0.26775414
-0.0550215 -0.12810665 -0.29048452 0.27069598 0.10683877 -0.6485333 -0.3307693 0.29341158
-0.24656612 0.5522591 -0.6629239 -0.047891885 0.22709762 0.076172195 0.054191813 0.24614358
-1.174228 -0.04125286 0.06900767 -0.3062544 0.45815745 0.09337827 -0.076096445 0.1900303
0.035537884 -0.04595744 0.29351786 0.5832481 0.100546025 -0.26618493 0.7187638 -0.1393198
-0.38465858 0.26798093 -0.83048147 -0.35498577 0.26257122 0.12080861 0.20617966 -0.24377793
-0.13723803 -0.35035923 0.56968355 0.030915886 -0.3839603 -0.16949125 0.38687608 0.41656807
0.2633609 -0.45266762 -0.35565573 -0.24844511 0.09268336 0.49367505 -0.32102627 -0.19384396
0.4044433 0.124491416 -0.30923784 0.027527014 0.0750877 -0.38052714 -0.12245261 -0.01234154
-0.25962722 0.66696817 0.15545009 -0.12077199 0.07751007 0.42298532 0.1127316 0.045396864
00000000: 7497 00be f34d 2e3e 55a0 0fbe d779 45be
00000010: c875 0bbf 6092 f9bd 7396 e6be 4812 23bf
00000020: dbb0 e73d 142c 7b3d ed7f 18be fd2e 893e
00000030: 8afe 9ebe c6f5 a63e fc17 b7be 5aa9 fdbe
00000040: 0b78 1abf 8f89 173f 816b 343d c664 c23d
00000050: 4762 f0bd 7d8f 1dbe bf91 433f 6b2e 02bf
00000060: 987f ed3c 331a 09bd 2e0b b43d 64b1 ca3d
00000070: ef09 82be c322 0dbf c1ee 8fbe e05d 873e
00000080: 4bb0 2bbd ca39 d63e 0a00 bebe 4e0b d13e
00000090: 7eda 5c3e 7e3d 22be 88aa e2be 9ed0 f6be
000000a0: d12c 453d b5a9 ab3e 0920 bfbe 8833 65be
000000b0: ba56 413e 5552 47be 4695 17be 263f 493e
000000c0: 1abc 8ebd e77a 01bf f40b 8cbe 505c 83be
000000d0: 3aca 58be d222 6c3c 7998 6fbe 85c2 4f3e
000000e0: 8076 3b3e 9187 7cbe 97d8 8e3e d9e3 a63e
000000f0: b448 c0be c4fb d4be 9cf9 063e cd3d 3a3e
00000100: 08c4 b4bc 523c c8be 73ce dfbe 5afd 9fbe
00000110: 20ac 39be c70f 5cbe 6777 bfbd 7006 3f3f
00000120: 9daa abbd 4259 803e fc96 31bf db25 9c3e
00000130: 2c7e 00bf 4b2c 613f 482b 8c3e b3ee 5a3e
00000140: 8541 9ebd 54bc a7be 2d21 8e3d d8c2 423e
00000150: 5cbf f33d 3d4a 123e f458 4d3e f561 b93e
00000160: 7fa8 8fbf 390f d8be e90a 2bbd 08d2 d6bd
00000170: 3352 e8bd 697f 3bbd 8ea1 573e c328 e63e
00000180: 6ed2 ed3d 8df9 93bd 6c97 17be c1a1 53be
00000190: cbf0 c8be 1225 663e 1b86 3f3e 9813 18be
000001a0: acfd 573e 58e3 06be 3772 61bf b800 fdbe
000001b0: 9ea1 243f 1439 73bd c070 8dbe 7b02 373e
000001c0: d0e7 813e 6be7 d2be fbae 09be d1fd 4abe
000001d0: 661d 19bd 1448 77be e393 cc3e b931 0e3f
000001e0: d4ed 8a3e bec2 503e 2061 dfbe 82b9 1b3f
000001f0: ed63 2f3e 334e ab3e 5175 8ebe de8a 24bf
00000200: 9003 dcbc 7040 f3be a769 3cbf 0988 973e
00000210: 12f5 983e 36aa 2bbf 7edc 99be b99c 303e
00000220: e736 cabe 7a2f 35be a91c b13e 7aa5 75bd
00000230: e0a6 153e 199b 18bf d312 423e b6ab 35be
00000240: e38d 1d3e 45dd 793e b17d 883e a07c 623e
00000250: 8e51 113d 6372 24be 4610 2abe c612 26be
00000260: 9ec5 c4bd e13b 6ebe 857a 8c3e a1d7 cbbe
00000270: 54c8 88be d5cd c8be 1c15 3c3e 4b66 3d3f
00000280: eb7b d2be 2771 263d df3e bebe 5a29 56bf
00000290: 73b1 f6bd aa9f 6ebd b5a7 0a3f 03f9 9e3c
000002a0: 354e 873e d43c 633e ca79 883e ec70 123d
000002b0: a6c4 bfba 00ff 9dbd ae62 913e d9a1 50bf
000002c0: 76bc 94be 5be7 b73e 80af 333f c14a 2f3f
000002d0: c4e2 9d3e c1d3 173e efce e2be 1217 893e
000002e0: 395e 61bd 642e 03be 63ba 94be aa98 8a3e
000002f0: 49ce da3d 4706 26bf 985a a9be 0b3a 963e
00000300: d47b 7cbe da60 0d3f 61b5 29bf 482a 44bd
00000310: 478c 683e 2b00 9c3d 3cf8 5d3d 100d 7c3e
00000320: 1a4d 96bf c2f8 28bd e553 8d3d 60cd 9cbe
00000330: 9d93 ea3e 1b3d bf3d 74d8 9bbd 4e97 423e
00000340: 2c90 113d de3d 3cbd f947 963e bf4f 153f
00000350: 13eb cd3d 6449 88be e800 383f daa9 0ebe
00000360: f8f1 c4be cc34 893e 6f9a 54bf b2c0 b5be
00000370: bc6f 863e 816a f73d c320 533e eca0 79be
00000380: 2088 0cbe 4962 b3be c8d6 113f 5043 fd3c
00000390: 7296 c4be 1d8f 2dbe 9f14 c63e 6948 d53e
000003a0: 3dd7 863e 0dc4 e7be 8218 b6be 6568 7ebe
000003b0: c6d0 bd3d fac2 fc3e 8e5d a4be 087f 46be
000003c0: 3113 cf3e 5bf5 fe3d 6c54 9ebe 5580 e13c
000003d0: 94c7 993d 74d4 c2be 6fc8 fabd 2c34 4abc
000003e0: dced 84be 6dbe 2a3f 4f2e 1f3e 4e57 f7bd
000003f0: 99bd 9e3d 8891 d83e d3df e63d 10f2 393d

_mean_net.4.bias f4 [17]
0.11600009 -0.042310696 0.31413925 -0.2946149 0.15242824 0.97476614 0.39341047 0.059309386
0.015140708 0.047366712 0.22331682 -0.036047336 -0.014623813 -0.24305388 0.28298014 0.60567176
-0.24486968
00000000: 7591 ed3d fb4d 2dbd dcd6 a03e c4d7 96be
00000010: 2616 1c3e 468a 793f 196d c93e 66ee 723d
00000020: bb10 783c 9903 423d 2aad 643e 5fa6 13bd
00000030: b898 6fbc 1ee3 78be c6e2 903e 4e0d 1b3f
00000040: 1ebf 7abe
