hw1/run_logs/q2_dagger_humanoid/policy_itr_14.pt (torch, 110342 bytes, 7 tensors)

_logstd f4 [17]
00000000: 33e2 9ebf 8a51 afbf 648c 8cbf aa7c 8bbf
00000010: 8be7 8ebf fba0 79bf ec46 7ebf d229 94bf
00000020: 8594 8bbf 1386 86bf 42eb 84bf 5ba3 c0bf
00000030: 8eaa aebf 7450 fdbf 4e47 c5bf 2ace d0bf
00000040: 346c febf
-1.241278 -1.3696759 -1.0980344 -1.089742 -1.1164411 -0.9751126 -0.9932697 -1.1575263
-1.09047 -1.0509666 -1.0384295 -1.5049852 -1.3645799 -1.9790177 -1.5412385 -1.6312916
-1.9876771

_mean_net.0.weight f4 [64, 376]
00000000: c955 31bf 4262 603d 8a56 7ebf 9d70 20c0
00000010: 7d02 bbbe 6a5b c1be e738 d6bd b4dc c43d
00000020: eb98 3e3e 183f d1bf 0818 013f cda2 82bf
00000030: 6370 ba3e cf56 8fbe 4c3e 82bf 91d7 b03e
00000040: 650c f13e 1a45 a13d 02f4 e33d 6fb6 703e
00000050: 1561 913e 9958 7c3c febf 173d 4983 103e
00000060: cffa 57bd d04f 3fbe 842e babd 3004 83bd
00000070: 77bd 10bd 2e50 25bd e3e3 20bc 3562 d03c
00000080: 852c 86bd 3d5c e73c d87b 0ebc 1d6f c3bb
00000090: d058 1a3d c32d c93b 9ca8 03bc 94a1 7cbd
000000a0: 0bd1 42bc 89ee 04bd eb15 cdbb eb81 1c3c
000000b0: 2934 cd3c eb27 d93c 7341 e0bc 3c80 783c
000000c0: 8cfb 73bc e044 b9bb 3214 4bbd 126d c9bc
000000d0: 263f e53c c362 4dbc 8e66 523d 9b76 babb
000000e0: f005 99bd 2cdd 87be c9cd 52c0 16b3 173f
000000f0: 2e91 023d 0011 803e ff8d 993d 53df f83c
00000100: 2de1 993d 556d 96be fa0b 1e3e 14ea 1040
00000110: 8131 aec0 cad0 53be 9efd 4ac0 fd46 683f
00000120: 84f1 2040 c316 20be e1c2 f73d 7595 e2be
00000130: 079d 1640 1418 de3f 6505 0341 f013 b33f
00000140: 2acb f93f 94f9 933f 9bb3 843f 90f0 14bd
00000150: c58e 093e 6628 963f 315f 393e 0a82 6ebf
00000160: ab93 f83d e275 9e3f 19fb 63bf 0450 873e
00000170: e905 29bf 81cd e3be c75d 8e3d ec25 123e
00000180: 3a87 b0be 78d1 12c0 73c1 28bf 8035 bf3f
00000190: 1be0 0abf eb8b 0cbf 3c9d 13be 9270 48be
000001a0: 96cf 903d fa6c e3be 7ad4 a5be c2ae 83bf
000001b0: 1571 ad3f 1b92 a33f 4ba4 e13d 58ff 11bf
000001c0: 51e6 813f 8ba3 df3c 8849 e23d c1a7 91bf
000001d0: b1b3 a4be bb62 49be f2e1 f83f e1be 2d3e
000001e0: e341 0bc0 8e57 b23f 6a4d 88bf c744 9a3e
000001f0: bfae 063e f28d 45bf e183 09bf 2398 a43f
00000200: 008d 3740 26a5 2c3f 2dc4 a7bf 3516 703e
00000210: a199 a4be e296 b63e eb73 0b3e 8e66 16bf
00000220: 4d5a d1be 68db b13f 1d79 3a40 c878 043e
00000230: 67bb 59bd a2e0 a0be eb88 c03f e9fe 893e
00000240: f0c4 f53d 8f8b 8fbf 5017 00be 25c6 bebf
00000250: 545f 2440 2dee 643f 4ef3 71bf 1781 1e3e
00000260: dca9 c73e 0b70 4abe 45c8 623d b75e 2ebf
00000270: 5b77 73be cb69 b9bf 7d9b a33f a797 233f
00000280: 88f0 03bf 9e2a 3cbf f737 a0bd 3fe1 133f
00000290: 246d 9e3d bf45 0f3e 49ef 46be 299b cd3f
000002a0: c0fd 06c0 af88 10bd 5885 89be 14d3 593e
000002b0: 4375 123f b2d0 e0bd ee3f 1f3e 840f 0d3f
000002c0: d195 9a3e d33f ef3e 7bf0 80bf 85ad cabe
000002d0: 795c 8ebf a595 02be 2a24 6e3f 1121 c4bd
000002e0: 5cf5 903d ed1a 423d ff9d 36bd 73a7 24bd
000002f0: 3f87 e5ba a76f e4bc 2e2a 973c 746a 2cbc
00000300: 6d48 eebd ae51 cd3a 88d2 f2bc e159 cf3b
00000310: e825 84be 199a dbbd 7049 88bc c377 28bd
00000320: 1efb f8ba 95a7 28be 577c c4be cefb 273d
00000330: 0f44 ab3c ae41 d33c c4ed 2cbe 2694 233e
00000340: 34a9 97be 08e8 493d 57c5 05bc 5670 0e3b
00000350: b493 47be fc57 183e 3a4f 7b3e 9395 c43b
00000360: 22ae 8a3d 2765 113c 6f52 47bd f0b5 af3d
00000370: 2f6d a7bc 4568 263c 72b4 33bc 7ef2 1f3c
00000380: 16fd 8dbb b364 563b 1a41 e63b 9ab0 bc3a
00000390: 3f8c 3a3c fe46 c03c ccef 8c3d ae36 643e
000003a0: 1787 a6be 4ecc 19bd 9efd 153b 164c 193c
000003b0: 3ec6 1bbc c58b 46bd 40f6 2a3c 9434 8abd
000003c0: d76f 9abc ed61 fdbb de80 453d acc0 abbd
000003d0: f1c2 44bd dba7 83bd bc3e 03be dd79 4f3d
000003e0: 5130 2dbe e005 293d 4dd3 25bb a816 91bc
000003f0: 73bd 1a3d 3894 52bc 0e58 f7bd c505 893e
-0.6927152 0.054781206 -0.993508 -2.5068734 -0.36525336 -0.37765056 -0.10460072 0.09612408
0.18613021 -1.634738 0.50427294 -1.0205933 0.3641387 -0.27995917 -1.0175261 0.34539464
0.4707977 0.07874508 0.11130525 0.23507093 0.2839438 0.015401983 0.037048332 0.14112581
-0.052729424 -0.1868279 -0.090909034 -0.06397283 -0.035336938 -0.04035967 -0.009819957 0.025437454
-0.0655146 0.028242225 -0.008696519 -0.0059641735 0.037682354 0.0061394884 -0.008035805 -0.06167753
-0.01189066 -0.032454047 -0.0062587163 0.009552459 0.025049286 0.026508292 -0.027374959 0.015167292
-0.014891516 -0.0056539625 -0.049579807 -0.024588142 0.027984213 -0.012535754 0.051367335 -0.0056904084
-0.074718356 -0.26535928 -3.2938101 0.5925764 0.031876735 0.2501297 0.07497787 0.030379927
0.07513652 -0.2938029 0.15434256 2.264287 -5.443543 -0.20685115 -3.1717296 0.9073332
2.514741 -0.15633683 0.12097717 -0.44254652 2.3533342 1.7351098 8.188817 1.399046
1.9515126 1.156054 1.0367311 -0.03636223 0.13433369 1.1731079 0.18102719 -0.93167174
0.121375404 1.2379725 -0.8905502 0.26428235 -0.66024643 -0.44492725 0.0695148 0.14272279
-0.3447817 -2.294035 -0.6592018 1.4938202 -0.5424821 -0.54901 -0.14415449 -0.19574192
0.07070844 -0.4441908 -0.3238867 -1.0287707 1.3550135 1.2778963 0.110176645 -0.5703025
1.0148412 0.027299663 0.11049181 -1.137932 -0.32168344 -0.19666569 1.9443953 0.16967346
-2.1758964 1.393297 -1.0648625 0.30130598 0.13152598 -0.77169716 -0.53716856 1.2858928
2.867981 0.67439497 -1.3106743 0.23445971 -0.3214846 0.3566199 0.13618438 -0.58750236
-0.40889207 1.3895082 2.9136422 0.129367 -0.053157236 -0.3142138 1.5041784 0.26952294
0.120004535 -1.1214465 -0.12508893 -1.4904219 2.5683184 0.8942593 -0.9451188 0.15478931
0.3899678 -0.19769304 0.055366773 -0.68113273 -0.23775999 -1.448541 1.2781826 0.6390328
-0.51538897 -0.7350253 -0.078231744 0.57765573 0.07735661 0.1399145 -0.19427218 1.6062976
-2.1092377 -0.0352866 -0.26859546 0.21271926 0.5721018 -0.109773055 0.15551731 0.551018
0.30192426 0.46728382 -1.0073389 -0.3958551 -1.112197 -0.12752397 0.9302393 -0.095766194
0.070780486 0.04738896 -0.04458427 -0.040198755 -0.001751162 -0.027885271 0.01845273 -0.010523427
-0.11634908 0.0015664601 -0.029641405 0.006327853 -0.2581017 -0.10722751 -0.01663658 -0.04112984
-0.0018995737 -0.16470177 -0.38376114 0.041011624 0.020906476 0.025788154 -0.16887575 0.15974483
-0.2962128 0.049293548 -0.008164725 0.0021734438 -0.19489938 0.14877313 0.24541941 0.005999276
0.067714944 0.008874214 -0.0486626 0.08579624 -0.020437805 0.010156696 -0.0109683145 0.0097624045
-0.0043331487 0.003271383 0.0070268037 0.0014395893 0.011385976 0.023471352 0.06881675 0.22286484
-0.3252494 -0.037548356 0.0022886763 0.009356519 -0.009507714 -0.04847314 0.010434687 -0.0674831
-0.018852158 -0.007732621 0.0482186 -0.083863586 -0.048037473 -0.064285 -0.128169 0.050653327
-0.16912962 0.04126537 -0.0025302947 -0.017710999 0.03777833 -0.012852721 -0.12077342 0.26762214

_mean_net.0.bias f4 [64]
00000000: a766 d23d 9e0a 55be 866b 6d3b 3f0d bdbe
00000010: c7f4 0e3d 2fb1 f93d 041c 5f3d 18dd b53e
00000020: 1315 c5bd 5626 7f3e 23fb aebe bc84 7abe
00000030: 34af 6ebd b6b1 c63f c065 183e 96cf 90be
00000040: 844c 903e 26ab 613d 7219 91be 9a5b b5be
00000050: ccca 64be 9b57 ab3d aa11 3d3d fbda 82bf
00000060: 52f4 27bd 9a3e 623e 1c83 e4be 8030 92bf
00000070: f2a4 923c aadb f33d 6f3d 26bd 3c6e bb3b
00000080: adcd 10bf 4259 f03d 5412 7b3d f94e c4bd
00000090: d9f3 383b 6d8a ae3d 15b5 8abd 549d 95be
000000a0: 3aa8 ac3e 5a5c b9bd d3b9 39bd 88a7 8c3e
000000b0: add3 acbd a4ef 81bf 2f25 113f 2d78 4cbd
000000c0: c69f 06bd 3b1d 3ebd b472 0dbb 30ab e3be
000000d0: e261 e73d cb6b 273f eb37 ee3d dc7c 1f3f
000000e0: fbd3 9dbe 8175 27bd 58c1 94bd 0470 29be
000000f0: df18 cb3c f10f bcbb 3b9a babd ef3d 2dbe
0.10273486 -0.20804831 0.003622742 -0.36924168 0.034901407 0.12191998 0.054470077 0.35520244
-0.0962316 0.24916968 -0.34175977 -0.24464697 -0.058272555 1.5522983 0.14882565 -0.28283376
0.28183377 0.05509486 -0.28339726 -0.3542145 -0.22342986 0.08366319 0.046159424 -1.0223078
-0.041004486 0.22094193 -0.4463128 -1.1421051 0.017900918 0.11907132 -0.04058593 0.005719928
-0.56563836 0.117357746 0.061296776 -0.09585375 0.0028221516 0.08522496 -0.0677282 -0.29221594
0.33722097 -0.09050818 -0.04534323 0.27471566 -0.084388115 -1.0151258 0.5669736 -0.049919296
-0.032867216 -0.046414595 -0.002158326 -0.44466543 0.112979665 0.65398854 0.11631759 0.62299895
-0.3082579 -0.040883545 -0.0726344 -0.16546637 0.024792133 -0.005739205 -0.091114484 -0.16918157

_mean_net.2.weight f4 [32, 64]
00000000: dfa2 2b3d c198 a53c b4cb fd3d 7598 5abd
00000010: dd55 87bd 3676 0d3d cdde 773e b92d f3bd
00000020: 434b 2a3e fcab 3cbd a48a d9bc dd96 31be
00000030: 6c5e da3b 4ed8 07bf f93d 8abd f22d 0dbe
00000040: 24e1 843c 40a9 903c 58e8 6e3d 472f 253c
00000050: d401 a73d 853c 3f3d 5e34 443e 94c0 4a3c
00000060: e0f5 b0bc 8e65 3e3e a61f 5a3e a43a f13d
00000070: 781f 98bc 093e d7ba c524 d33c 4d13 0abe
00000080: 3454 c83b 54f8 433e 3f5e ba3b bec9 b0bd
00000090: 8e70 94bd 8aa0 3bbd 3e23 33be 1b10 c4bd
000000a0: 1207 84bd 1d69 7b3e db92 2ebe 8e22 3cbd
000000b0: 6e10 e43d 6b3f 8fbe 43a4 07be 2f17 a6bb
000000c0: 4b7a f6bd 6050 8abd 9afe 32be 0577 f13d
000000d0: 5173 95bd ca3e 813d 71c4 523d ff2c 44bd
000000e0: 01d7 8f3c 12d3 50be 51c1 673d ceec 1dbe
000000f0: 7cbf 85bd 433d b33e a6c0 fc3c 4eac 5f3d
00000100: 5eb6 8d3d e8ea 66bc 8ed4 7fbd 11f7 e6bd
00000110: de63 013e 97dc 53bd 3ea3 49bd 6357 e4bc
00000120: 8dd4 f7bd 9b2d 66bd 63ba 28be a453 b33d
00000130: 3823 54be b0a3 e6be 7564 193d d707 55bd
00000140: 0cab e43c fce3 f1bd 1bc6 a0bd f075 ba3d
00000150: d4aa 8a3e 33e6 043d a327 aebd 6319 ce3c
00000160: 5aa8 05be d1cb c33e 0b9c babb 252a 2d3f
00000170: 4499 643d 7476 743d 4eff c9bd bcec 083e
00000180: e388 37be 249b b83d 6e42 38be 581c 563e
00000190: da10 a33c 43e7 57bb e34f 553e af08 db3c
000001a0: 18c5 983d f563 f63b 9e8e 843d b643 2dbd
000001b0: c1c5 423d b887 8fbd 896e 343d d993 c6bd
000001c0: 4730 7cbd 409a f93d 4a8e f63d 7af2 72bd
000001d0: b71d 3d3c 8d37 58bc cfd4 95bd 8f0c 4abc
000001e0: 0594 2c3d fbc6 a53e f130 89bd f808 003c
000001f0: 7b5a b3bd d3ba aabd 1d5c d83c 2cc6 e9bd
00000200: 4397 003d 7b7e 473d 4bb2 663e 4f7c 8d3d
00000210: 853f fcbc 2915 e3bc 2eda 1e3e bf9f 093d
00000220: 840a 2a3e 7aa7 783d f312 a2b9 9e72 8b3d
00000230: 6c2e a33d 4139 893d c681 053d c2c3 5eba
00000240: 77e0 093c 9c67 febc 01b9 4c3d cfc3 053d
00000250: 5bfb 1b3e 29e3 d4bb 3ea4 09bd 7263 8cbb
00000260: 65e3 803d ae50 e8bc 9c50 093d 5bd7 01bf
00000270: bc86 d2bc 49ae 0bbe 737c f7bc 5581 a9bd
00000280: 4c93 3ebb fbf4 2dbd d7ee 343d f6e5 933a
00000290: d936 833d bea3 37be ba68 62bd 66dc 903d
000002a0: bec6 af3b d67b 10bc f996 d1bc a91c 83bd
000002b0: 2290 ce3d c224 423e f708 55bc 30e6 87bc
000002c0: b48d 0fbe 9195 acbe d42b 05be 0448 d1bd
000002d0: 75ae cf3c 8df6 50bd fe27 cdbd aa4b 46bd
000002e0: 5307 2a3c b60e 063e cfc3 44bd 0882 093c
000002f0: 51fe 56bd 8fe4 de3d d47b 0d3c 6d34 e6bc
00000300: 8cba 78be 476e 86bd c576 0cbd c2c9 12bd
00000310: d9e5 b5be 4fb2 79bc 27a7 99be 0839 dbbd
00000320: 9bf7 be3c 3ef2 6a3d e33e 863e 0213 043e
00000330: fc09 153c ddcc ebbd 8d54 07bd c7f0 643d
00000340: b2f9 5cbd 9356 b13d f5a9 da3c f1d4 1dbc
00000350: c80f 06be f59d 073e e2cc 833e 7d67 bebd
00000360: c799 45be 32d1 0cbe c615 08bc 1ce1 a4be
00000370: 5376 e0bc 8931 76bd fce3 c93b 5f8e 32bd
00000380: 290e cd3d f649 5bbd a00a 363d 4891 fcbc
00000390: 54f4 b8be 043c 9e3d 4b82 283d 4f22 a5bc
000003a0: 1591 34be bef3 81bd 20d1 d2bd 9713 edbc
000003b0: 8090 a3bd 5692 d6be d5ee 9b3c e9b3 083d
000003c0: cf24 91bd 5987 293e 7795 81bd 0abe af3d
000003d0: 81bd b73c dbfb 4a3d 26db 05bc c5cd 60bb
000003e0: 68ca b03c c8da e0bd 999d 063d ef72 8dbc
000003f0: 7ff3 d4bd 5718 0bbe 6a0a e93c 31d1 783d
0.041903373 0.02021444 0.12392369 -0.05336805 -0.06608174 0.034536563 0.24206086 -0.11873955
0.16630273 -0.046062455 -0.026555367 -0.17342706 0.006664088 -0.5306443 -0.067501016 -0.13787058
0.016220637 0.01765883 0.05832705 0.010082073 0.081546456 0.046688575 0.19160601 0.012375016
-0.021601617 0.18593428 0.21301135 0.11778763 -0.018569693 -0.0016421686 0.025774369 -0.13483925
0.0061135534 0.19137698 0.0056875045 -0.08632229 -0.072480306 -0.0458074 -0.17493913 -0.095733844
-0.06446661 0.24551816 -0.17048208 -0.04593139 0.11135946 -0.27978072 -0.13246255 -0.0050686817
-0.12035044 -0.067536116 -0.17479935 0.11790279 -0.072973855 0.06310804 0.051456872 -0.047894474
0.017558577 -0.20393017 0.056580845 -0.15422365 -0.06530663 0.35007676 0.03085358 0.054607682
0.069195494 -0.014094092 -0.062458567 -0.11277593 0.12635753 -0.051724043 -0.049227946 -0.0278737
-0.12101088 -0.056195837 -0.16477351 0.087561876 -0.2071656 -0.4504676 0.03744932 -0.05200943
0.027913593 -0.11811063 -0.078502856 0.09104526 0.27083457 0.032446098 -0.08503654 0.02515859
-0.13052502 0.38241437 -0.0056948713 0.6764243 0.055810228 0.05968328 -0.09863149 0.13371557
-0.17923312 0.09013966 -0.17994091 0.2090925 0.019905496 -0.003294424 0.20831256 0.02673754
0.07459468 0.00751924 0.064725146 -0.042300902 0.047551874 -0.07008308 0.044050727 -0.096961685
-0.06156948 0.12187624 0.12038858 -0.059313275 0.011542729 -0.013196838 -0.07315981 -0.012332096
0.04213335 0.32378373 -0.06698788 0.007814638 -0.08757492 -0.08336415 0.02641111 -0.114147514
0.031394254 0.048704606 0.22528951 0.069084756 -0.030792007 -0.02772005 0.15512916 0.03359961
0.16605574 0.060706593 -0.00030913166 0.06808971 0.07967839 0.067003734 0.032594465 -0.0008497798
0.008415333 -0.031055264 0.04998112 0.03265744 0.15232603 -0.006496806 -0.0336039 -0.0042843157
0.06293372 -0.028358784 0.03352414 -0.5071923 -0.025699012 -0.13640703 -0.03021071 -0.08276621
-0.0029079495 -0.04246996 0.044173088 0.0011283744 0.06406946 -0.17933556 -0.055275656 0.07073288
0.005364268 -0.008818587 -0.025584685 -0.06401951 0.10086085 0.18959334 -0.013002626 -0.016589254
-0.14018899 -0.3370786 -0.13005 -0.10218814 0.025351742 -0.05101638 -0.100173935 -0.048412003
0.010377723 0.1309155 -0.0480383 0.008392818 -0.05248863 0.10883438 0.00863548 -0.02810117
-0.24289912 -0.065640025 -0.034292955 -0.035836942 -0.35526922 -0.015240266 -0.3001034 -0.10704237
0.023311427 0.057359926 0.26219854 0.12897876 0.009096619 -0.11513684 -0.03303962 0.055893686
-0.053949066 0.08659091 0.02669237 -0.009633289 -0.13091958 0.1324385 0.2574225 -0.092970826
-0.19296943 -0.13751677 -0.008305972 -0.32202995 -0.027400171 -0.060105834 0.006161211 -0.043592807
0.100124665 -0.05353733 0.044443727 -0.030830994 -0.36123908 0.07726291 0.041139882 -0.020157961
-0.1763347 -0.06345318 -0.10293794 -0.028940005 -0.079865456 -0.4190852 0.019034782 0.0333747
-0.07087099 0.16555537 -0.06327336 0.08581169 0.02242923 0.049556594 -0.008169925 -0.0034302336
0.02158089 -0.10979229 0.03286514 -0.017266719 -0.10398006 -0.13583504 0.028447349 0.060746375

_mean_net.2.bias f4 [32]
00000000: 6033 f43e 7918 05bf 07a2 3fbe 3af6 80bd
00000010: bbfb af3e 44de fb3e 318b 14be 527c 983e
00000020: bda5 263e 3195 783c ab12 413e 0417 dcbd
00000030: bef8 583f 6feb 88be e0a0 73be d148 b5be
00000040: 5c52 8d3e 77e4 d13c c423 abbe 4f41 fd3b
00000050: b6ce 52bd d6e3 ecbd deff da3e 59d6 603e
00000060: 8efe 683c e3e2 a5be 245a fbbe f99d 5e3e
00000070: 61f9 0a3f 119d c8bd 65f3 75be c183 51be
0.47695446 -0.5199047 -0.18714152 -0.06296964 0.34371743 0.49193013 -0.14506222 0.2978235
0.16274162 0.015172289 0.18854778 -0.107465774 0.8475455 -0.26742122 -0.23791838 -0.35407117
0.27601898 0.025621636 -0.33425725 0.0077287327 -0.051466666 -0.11566894 0.42773336 0.21956767
0.014220847 -0.32399663 -0.4909221 0.2173995 0.5428677 -0.09795583 -0.24018629 -0.20460416

_mean_net.4.weight f4 [17, 32]
00000000: 202c 26be cb57 233e 1ae8 2cbe 8fdd 24be
00000010: d5d5 bebe b626 8dbe 0aef 09be 3d09 47bf
00000020: 4ff2 503e c7c1 2c3c cc30 12bf 1729 983d
00000030: 3d34 80be ad18 c33e 9fcb c4bd d48a f3be
00000040: 6318 febd 4e9c d43e a2a8 d7bc fe9d 713e
00000050: ba9a 46bd 816c 15bf afe4 663f c637 41bf
00000060: 84a7 a6bd 506d 8abe f01b 913e 765c 08be
00000070: ad4d 44be 9993 b0be bce2 07bf 72f5 533c
00000080: 4a81 9cbe 1084 783e 59c1 9ebe 9a2b 143f
00000090: 29c3 323e 72f2 07bd 5362 8ebe f57d 02be
000000a0: cbe6 0bbe 8c16 4d3e b2d3 13bf 69bd f5be
000000b0: 74c2 43bb 8416 bdbe b646 01be fcf6 8e3d
000000c0: 97ba 6ebe 58fd 0ebf b8a4 d4be a5da 0ebf
000000d0: 7ab8 82be 4388 dbbd 6c14 b53c a170 57bd
000000e0: 5bd7 733e b7b5 7dbe 3352 983d 7fd9 d93e
000000f0: 7009 cebe 9b07 333d 5572 2a3e 51e3 313e
00000100: 751b a63e 47ee 8bbe 8d36 30bf c292 53bc
00000110: 326e 1d3e 60ad b3bd 977f 9abd 330b 1b3f
00000120: a2d0 53bc 7ca8 22be c0c0 15bf 74c0 1e3d
00000130: bffb f1be 5355 753f 9ed4 85bd 23af 80bd
00000140: 77d5 3ebd df18 80bf 040f ab3e 08b7 f53d
00000150: caf6 943d 1001 e3bd 1440 c73e 58ff be3e
00000160: e731 88bf ab45 bebe 3523 88be a3ee f2be
00000170: 597f abbe e7e7 f03d 31b6 5bbe 162f 203f
00000180: 9998 9b3e 9734 733d 859e b23c 2ceb 08bf
00000190: 0c0a d5be 9498 993e d9bf b23e 6ffe b9bd
000001a0: ccec fa3e 09d4 a0bd 265d e2be c737 a1be
000001b0: dae8 d93e 91ed 25bc e25a 02be 091d c33e
000001c0: 804b 1b3e e9f8 11bf dc3c 89bd 5fc9 a0be
000001d0: 3651 243e c8e9 67bf 36b6 cf3e 6667 753f
000001e0: 9c94 ec3e a894 223e fe01 f1be ff06 89bd
000001f0: ffa7 413e f98a 2f3f 1514 a1be 64b8 f1be
00000200: 3b18 d9be 54b3 edbe ff47 50bf b965 d33e
00000210: 7e57 51be 8124 64bf a980 c9be 5503 c73e
00000220: c356 31bf be24 0bbe 2276 a83e 0cdf 2b3e
00000230: 695d 273f ae6b 00bf 5f82 883e 9d06 9fbe
00000240: 8c43 6c3e 275c 27be 4072 993e 82f7 883d
00000250: b2b2 68bd bc4f 82be 80ab d4bd ca47 cbbd
00000260: 2b14 aebd 0964 adbe c49f 573f 14de 81be
00000270: 0f68 a4be 3c5a a9be 2535 f53e b2df 2c3f
00000280: 5867 51bf ce9c 90be 41c7 1bbf 2132 34bf
00000290: 9aab 17bf a168 82bd b8fd 953e 384e ffbd
000002a0: 4ea0 c03e ea33 bf3d 788e 3a3e ea18 0f3f
000002b0: 0d7a 0a3f 3511 943d 5951 413e bdbf 5bbf
000002c0: 2835 3cbe 6b3e dc3e df7d ac3e 4542 a23e
000002d0: f711 9b3e a742 f93d 28ec 1fbf 9e7e ba3e
000002e0: 894b cdbd 3dea 02bf 2b8c 31be 0ada 233e
000002f0: 748e 4cbe 8577 7abf 8a55 6fbe 6a09 1f3f
00000300: 41ef aebe 32f3 8b3e 5610 adbe acc4 80be
00000310: 60da a33c 4b44 87be 9203 473e ac1e 9d3c
00000320: 9830 a3bf f151 a03e 6fb9 5a3f 115a b63d
00000330: dab4 f63e a740 383e 62ba 613e 840d 4d3e
00000340: 9150 4b3e 5c01 3dbf cffc cc3e 2cd2 0b3f
00000350: 2c3f 6f3d 2b62 58bf 1546 a43e cc9f d7be
00000360: 43b8 363e 75b4 b73e 52ab a1bf e18e babe
00000370: 6179 2a3e f726 bc3d 2ec1 9f3e 7d77 3e3b
00000380: a888 543e e24c 06bf a532 3d3f fdd9 b2be
00000390: 3590 b4be 5741 b1be f855 383f 84d1 003f
000003a0: 365e 213f 5225 cbbe a470 7cbe bfc0 a13c
000003b0: 6d73 16be 5b09 893f e5e4 01bf 7200 83be
000003c0: d023 853d bf71 4a3e 6bf5 163d 0a2a b73d
000003d0: 0cad ce3c 1682 02bf 5a4f 68be 531c 1f3e
000003e0: d536 67bd a101 663f e335 ca3e 149c 1e3e
000003f0: 53b2 d93e b996 0a3e 3eaf de3d 13b0 7e3d
-0.1622777 0.15951459 -0.16885415 -0.16100143 -0.37272516 -0.27568597 -0.13470092 -0.7774847
0.20404933 0.010544247 -0.5710571 0.07429712 -0.25039855 0.38104764 -0.0960915 -0.47566855
-0.12406995 0.415255 -0.026325528 0.23595425 -0.048487402 -0.5836869 0.90192693 -0.7547573
-0.0813742 -0.27036524 0.28341627 -0.13316521 -0.19170256 -0.34487608 -0.53080344 0.012936937
-0.3056739 0.24269128 -0.31006888 0.5787903 0.1745726 -0.0331902 -0.2780939 -0.12743361
-0.1366226 0.20028132 -0.57744896 -0.4799607 -0.0029870542 -0.3693124 -0.1262463 0.06980702
-0.23313366 -0.5585532 -0.4153192 -0.55802375 -0.2553137 -0.10719349 0.022104464 -0.052597646
0.2381262 -0.2477635 0.07437553 0.4254875 -0.40241575 0.043708425 0.16645177 0.1737187
0.32442823 -0.2733023 -0.6883324 -0.012913408 0.15374067 -0.08773303 -0.07543867 0.60563964
-0.01292816 -0.15884584 -0.5849724 0.038757756 -0.4726238 0.9583332 -0.06534694 -0.06283405
-0.046590295 -1.000759 0.33409894 0.11997801 0.07273634 -0.11084187 0.38916075 0.37304187
-1.0640229 -0.37162527 -0.2658936 -0.4744769 -0.33495596 0.11762982 -0.2145622 0.6257185
0.3038986 0.059376325 0.021804104 -0.53483844 -0.41609228 0.2999922 0.34911993 -0.090817325
0.49008787 -0.078529425 -0.44211692 -0.31487867 0.42560464 -0.010127441 -0.12729982 0.3810809
0.1516552 -0.5702043 -0.06701061 -0.31403634 0.16046605 -0.90591097 0.40568703 0.958609
0.4620713 0.1587702 -0.47071832 -0.066907875 0.18911742 0.6857143 -0.31460634 -0.4721099
-0.424013 -0.4642588 -0.8135986 0.41288546 -0.20443532 -0.891182 -0.39355972 0.3886973
-0.6927301 -0.13588235 0.32902628 0.16784304 0.6537691 -0.50164306 0.26661965 -0.31059733
0.23072642 -0.16343747 0.29969978 0.06687833 -0.056811042 -0.25451458 -0.103842735 -0.09925802
-0.084999405 -0.33865383 0.8422816 -0.25364745 -0.3211064 -0.33076656 0.4789211 0.6752883
-0.81798315 -0.28244632 -0.6085091 -0.7038899 -0.5924622 -0.06367613 0.29295135 -0.12466091
0.37622303 0.09336074 0.1821841 0.5589739 0.54092485 0.072298445 0.18878688 -0.85839444
-0.18379653 0.4301637 0.33689782 0.31691185 0.30287144 0.12170916 -0.6246972 0.36424726
-0.10024173 -0.5113867 -0.17338626 0.16001144 -0.19976217 -0.9783862 -0.23372474 0.6212374
-0.3416691 0.2733398 -0.33801526 -0.2515005 0.02000159 -0.2641929 0.19434956 0.019179665
-1.2749205 0.31312516 0.854392 0.089038976 0.48184854 0.17993413 0.22043756 0.20024687
0.19854952 -0.738302 0.40036628 0.5461757 0.058409855 -0.8452479 0.32084718 -0.42114103
0.17843728 0.35879865 -1.2630408 -0.36437133 0.16647865 0.091871195 0.31202072 0.002906292
0.20755255 -0.52461064 0.739054 -0.34931937 -0.3526627 -0.34620163 0.7200618 0.50319695
0.6303438 -0.3967691 -0.24652344 0.019745229 -0.14692469 1.070598 -0.5073989 -0.25586277
0.06500971 0.19769953 0.036855143 0.08943565 0.025229 -0.50979745 -0.2268652 0.15538149
-0.056448776 0.89846236 0.39494237 0.15489227 0.42518863 0.13534059 0.108732685 0.062179636

_mean_net.4.bias f4 [17]
00000000: bda7 523e f7ea 753d fcbb d83e 1600 85bd
00000010: 66a5 d83d 6834 273f b669 743f a12b 3ebd
00000020: d5de 13be 47a1 1d3e fd2b b53e 9520 a53e
00000030: 406e 1ebd 974c 8cbe 1a94 a93e b461 193f
00000040: 51dc b8be
0.205718 0.060038533 0.4233092 -0.06494157 0.10578422 0.6531434 0.954738 -0.046428327
-0.14440472 0.15393554 0.35385123 0.3225142 -0.03867936 -0.27402183 0.33120805 0.5991471
-0.36105588
