hw1/run_logs/q2_dagger_humanoid/policy_itr_2.pt (torch, 110267 bytes, 7 tensors)

_logstd f4 [17]
0	0xbf89d46c	-1.0767951
1	0xbfb07507	-1.3785714
2	0xbf77e6bd	-0.96836454
3	0xbf8b44c7	-1.0880364
4	0xbf8d1a5a	-1.1023667
5	0xbf666a45	-0.90005904
6	0xbf5b76d3	-0.85728186
7	0xbf8e6e00	-1.1127319
8	0xbf839ec3	-1.0282825
9	0xbf852121	-1.0400735
10	0xbf6f3d0f	-0.93452543
11	0xbfb53103	-1.4155582
12	0xbfaade03	-1.3349003
13	0xbffeaec2	-1.9897082
14	0xbfc06980	-1.5032196
15	0xbfd126da	-1.6339982
16	0xbff6b6e5	-1.9274565

_mean_net.0.weight f4 [64, 376]
0	0xbd5f605b	-0.05453525
1	0x3c238c73	0.009982216
2	0xbf78de1b	-0.97213906
3	0xc0106b57	-2.2565515
4	0xbf2f1f7f	-0.68407434
5	0x3eaf5e5a	0.34251672
6	0x3fc2803b	1.5195383
7	0xbef47990	-0.47748995
8	0x3e26a378	0.16273296
9	0xc010a686	-2.2601638
10	0xbec65ea2	-0.38744074
11	0xbf8076f6	-1.0036304
12	0xbf6a222b	-0.91458386
13	0xc0003582	-2.0032659
14	0x3f1eabc8	0.6198087
15	0xbd219a80	-0.039453983
16	0x3fa7ac97	1.3099545
17	0x3ec09ecd	0.37621155
18	0xbe54eeaf	-0.20794176
19	0x3f24e0d1	0.6440554
20	0x3d83356b	0.06406673
21	0x3d7fdd55	0.062466938
22	0x3dc0b227	0.0940898
23	0x3de8153a	0.11332174
24	0xbf5cfac3	-0.8632013
25	0xbe842d52	-0.25815827
26	0xbe100831	-0.14065625
27	0xbe80bd36	-0.25144356
28	0xbe8baef0	-0.27281904
29	0xbd9e488b	-0.0772868
30	0x3e0e643c	0.13905424
31	0x3ea51560	0.3224287
32	0x3e0c6e0e	0.13713858
33	0x3d77987e	0.060448162
34	0x3ce7134f	0.02820745
35	0xbc0d1fc4	-0.008613531
36	0x3e39af2b	0.18133228
37	0xbe43035b	-0.19044249
38	0x3cf7e20d	0.030259157
39	0x3e2602b5	0.1621197
40	0xbe296b9f	-0.1654496
41	0xbb19934b	-0.002343374
42	0x3dd8bcf7	0.10582917
43	0x3df6d7c4	0.12052873
44	0xbdfc5fa6	-0.12322931
45	0x3cd927eb	0.026508292
46	0xbce04173	-0.027374959
47	0x3c78803c	0.015167292
48	0xbc73fb8c	-0.014891516
49	0xbbb944e0	-0.0056539625
50	0xbd4b1432	-0.049579807
51	0xbcc96d12	-0.024588142
52	0x3ce53f26	0.027984213
53	0xbc4d62c3	-0.012535754
54	0x3d52668e	0.051367335
55	0xbe0193e4	-0.12654072
56	0xbe86c7c8	-0.26324296
57	0x3efbc477	0.49173328
58	0xc03fe778	-2.9985027
59	0x3f8face9	1.1224643
60	0xbe061857	-0.13095222
61	0xbefd3537	-0.49454662
62	0x3f3579ee	0.70889175
63	0xbd8e9c4d	-0.06963406
64	0x3c13a8b5	0.009012391
65	0xbe0ef0a4	-0.13958985
66	0x3d7cdad4	0.06173213
67	0x3fa59de6	1.2938812
68	0xbfb79e8a	-1.4345257
69	0xbf270977	-0.6524882
70	0x3f564bf9	0.83709675
71	0x3f559bfa	0.83441126
72	0xbef292fc	-0.47377765
73	0xbddddbc4	-0.108329326
74	0x3d60adbb	0.054853182
75	0x3f2a46d1	0.6651431
76	0x3f6cf9ca	0.9256865
77	0x3f9e8c2b	1.2386526
78	0x3f95b9e6	1.1697357
79	0xbe12413b	-0.14282696
80	0x401084fd	2.258117
81	0x3ff524c6	1.9151847
82	0xbfb737dd	-1.4313923
83	0xbeac0430	-0.33596945
84	0x3d8bb1a1	0.068209894
85	0x3e900912	0.2813192
86	0xbc341ff4	-0.010993946
87	0x3f90c3fe	1.1309812
88	0x4040e4e1	3.0139697
89	0x40268722	2.6019979
90	0xbeddfb58	-0.43355823
91	0x401646e4	2.3480768
92	0xbf0ce054	-0.550298
93	0x3c61ceb4	0.013782192
94	0x3b5e3941	0.0033908638
95	0xbdc83a46	-0.0977674
96	0xbe307df7	-0.17235552
97	0x3e0e0694	0.13869697
98	0x3ec2c12b	0.38038
99	0x3f704f18	0.9387069
100	0x3e9de6e8	0.3084023
101	0x3f15b9ff	0.5848693
102	0x3c76bb2e	0.015059276
103	0x3d91422d	0.070927
104	0x3b963965	0.0045844787
105	0xbe8f16b0	-0.27946997
106	0xbe459ed3	-0.19298868
107	0x3dfb6bed	0.122764446
108	0x3eaf1c47	0.3420126
109	0x3f09a8e3	0.53773326
110	0x3f43a8b7	0.76429313
111	0x3e3a82b1	0.18213917
112	0x3f1c581b	0.6107194
113	0x3dc0ec40	0.09420061
114	0x3d35bb00	0.04436779
115	0xbe5ac97a	-0.2136592
116	0x3e92a7a4	0.28643525
117	0xbc9dbf5e	-0.01925629
118	0xbeb6d349	-0.35708073
119	0x3e9ba3d8	0.3039844
120	0xbf678fd1	-0.9045382
121	0x3f48eb77	0.7848429
122	0xbf368fbd	-0.7131308
123	0xbdc932c3	-0.09824135
124	0x3d85f17f	0.06540202
125	0xbed19c0d	-0.4093937
126	0xbe488df6	-0.19585404
127	0x3f11c072	0.56934273
128	0xbf0b9dff	-0.5453796
129	0xbec64d73	-0.38730964
130	0xbfc3e76b	-1.5304998
131	0xbf03d12d	-0.5149105
132	0xbf956ca4	-1.167378
133	0x3e4c604f	0.19958614
134	0x3d8f7c0f	0.07006084
135	0xbee2fd4c	-0.44333875
136	0xbe5fdc56	-0.21861395
137	0x3f872017	1.0556668
138	0xbf6f2b77	-0.934257
139	0xbf1c8ae6	-0.6114944
140	0xbfda01d1	-1.7031804
141	0xbf584629	-0.84482056
142	0xbfa7e24a	-1.3115933
143	0x3e98eb53	0.29867038
144	0x3d5cb1d9	0.053880546
145	0xbf1beea9	-0.6091104
146	0xbeedb47a	-0.46426755
147	0xbecf3588	-0.4047053
148	0xbfd7bc4d	-1.685434
149	0x3fd196c5	1.6374136
150	0xbf5ffd2d	-0.8749569
151	0xbf4c9135	-0.7990907
152	0x3ed89d19	0.42307356
153	0xbea02e8b	-0.3128551
154	0xbc303ef1	-0.010757194
155	0xbe3e8b1d	-0.18607755
156	0xbecc669b	-0.39922032
157	0xbeeb2e8f	-0.4593396
158	0xc050705e	-3.2568583
159	0x406a4daa	3.6609902
160	0xbf83c2d3	-1.0293831
161	0xbfd5a8fc	-1.6692195
162	0x3ed0eacd	0.4080414
163	0xbe6992da	-0.22809926
164	0x3c3808e6	0.01123259
165	0x3ec1e55d	0.37870303
166	0xbdde0396	-0.10840528
167	0x3f573c49	0.8407636
168	0xbf24bf63	-0.6435453
169	0xbf8dc23d	-1.1074902
170	0xbf639af2	-0.889083
171	0x3f5f0614	0.8711865
172	0x3f78f6e3	0.9725172
173	0x3d02c442	0.031925447
174	0x3db713d4	0.08939329
175	0x3fc004dc	1.5001483
176	0x3e7ed743	0.24886803
177	0x3f3786bb	0.7168996
178	0x3fb8fd6c	1.4452338
179	0xbf4bd00a	-0.7961432
180	0xc00203f0	-2.0314903
181	0xbe2337f5	-0.15939315
182	0x3fde1916	1.7351406
183	0x3f072f21	0.5280629
184	0x3b989508	0.004656438
185	0x3d421aed	0.04738896
186	0xbd369dff	-0.04458427
187	0xbd24a773	-0.040198755
188	0xbae5873f	-0.001751162
189	0xbce46fa7	-0.027885271
190	0x3c972a2e	0.01845273
191	0xbd015b42	-0.03158117
192	0x3dc2a676	0.09504406
193	0x3d17b3ea	0.037036814
194	0xb75b5a08	-1.3074379e-05
195	0x3f996545	1.198403
196	0xbf8404c9	-1.031396
197	0xbe15b876	-0.14621148
198	0xbdcd9002	-0.10037233
199	0x3c283988	0.010267623
200	0x3d331927	0.04372516
201	0xbdae5da7	-0.085139565
202	0xbee7a2a6	-0.45241278
203	0x3ded1118	0.11575526
204	0xbd9f9454	-0.07791963
205	0x3cdbef4d	0.026847506
206	0xbbdf5ece	-0.0068167215
207	0x3ee51e86	0.4474985
208	0xbeb72695	-0.35771623
209	0x3e55519e	0.20831916
210	0x3de5bf4d	0.11218128
211	0x3df53131	0.11972273
212	0x3dbcfc88	0.09227854
213	0x3f0178f6	0.50575197
214	0x3e75a756	0.23989615
215	0xbe114360	-0.14185858
216	0x3e4abef5	0.19799407
217	0xbe430b37	-0.19047247
218	0xbd839b6b	-0.06426128
219	0xbd9da60d	-0.07697687
220	0x3e7931e3	0.24335437
221	0xbe0d018d	-0.13770123
222	0x3df45940	0.119310856
223	0xbe422263	-0.1895843
224	0xbca34835	-0.019931892
225	0xbe235476	-0.15950188
226	0x3e8aa8d0	0.2708192
227	0xbd2c0a0f	-0.04200178
228	0xbd43524e	-0.047685914
229	0x3c60b308	0.013714559
230	0x3de13da3	0.109980844
231	0x3df8c6d6	0.121473
232	0x3dc1712e	0.094454154
233	0xbdfce69f	-0.12348675
234	0xbcfcc409	-0.030855196
235	0x3db219ec	0.086963505
236	0x3e1a86fd	0.15090556
237	0xbed3211f	-0.41236207
238	0x3e280393	0.16407613
239	0xbe1d1a7d	-0.15342136
240	0xbd54f9db	-0.051996093
241	0x3d8f1a4b	0.06987437
242	0x3e55a390	0.20863175
243	0xbee53fbc	-0.44775188
244	0x3dd846eb	0.105604015
245	0xbecbaedb	-0.39781842
246	0xbea21cc9	-0.31662586
247	0x3c77e7c9	0.0151309455
248	0x3d70bf95	0.058776457
249	0x3f1ff9fb	0.62490815
250	0x3e758444	0.23976237
251	0xbe659511	-0.22420146
252	0x3bbe3ea2	0.0058058063
253	0x3e24c00f	0.1608889
254	0xbdb0563a	-0.086101964
255	0xbc324b7d	-0.010882256

_mean_net.0.bias f4 [64]
0	0x3d15f553	0.036610913
1	0xbe2d20da	-0.16907063
2	0xba1e61f0	-0.00060418155
3	0xbe24cec3	-0.16094498
4	0x3d6bccb2	0.05756826
5	0x3d670718	0.05640325
6	0x3c1d43a5	0.009598647
7	0x3e0ac8f9	0.13553227
8	0xbdb938eb	-0.09044059
9	0x3e8793ef	0.26480052
10	0xbe93d55b	-0.28873715
11	0xbe4ce559	-0.20009364
12	0x3d9fb62c	0.077984184
13	0x3ec8a9ea	0.39192134
14	0x3de1a250	0.11017287
15	0xbe605b3d	-0.21909805
16	0x3e252ae7	0.16129647
17	0xbded89bb	-0.115985356
18	0xbe047444	-0.12934977
19	0xbe8b06b6	-0.27153558
20	0xbe85750d	-0.26065865
21	0x3ca879ba	0.020565856
22	0x3daac27d	0.08337877
23	0xbea88fe1	-0.3292227
24	0xbb5419e0	-0.0032364056
25	0x3e00fb05	0.12595756
26	0xbdfb9fff	-0.12286376
27	0xbeb1493b	-0.34626183
28	0x3e02e238	0.12781608
29	0xbd439cf7	-0.047757115
30	0x3c00608b	0.007835518
31	0x3d358e0c	0.04432492
32	0xbe73939a	-0.23786774
33	0x3d8bd298	0.06827277
34	0x3d16d598	0.036824793
35	0xbd63375f	-0.055472728
36	0x3d945d77	0.072443895
37	0x3d331bad	0.043727566
38	0xbe314e6a	-0.17315069
39	0xbe4b6ab8	-0.19864929
40	0x3e3c36a3	0.18380217
41	0xbc664a08	-0.014055736
42	0x3af57a32	0.0018728434
43	0x3e82f9da	0.25581247
44	0x3d16e26b	0.036837023
45	0xbea57647	-0.323168
46	0x3e729cfc	0.23692697
47	0xbd89492c	-0.067034096
48	0x3d23817b	0.039918404
49	0xbcf7e035	-0.030258277
50	0xbd55b58c	-0.05217509
51	0xbe345134	-0.17609102
52	0xbcd6aa38	-0.026204214
53	0x3e883b88	0.2660792
54	0x3d1ba7fe	0.038002007
55	0x3e57166b	0.21004646
56	0xbe8610ca	-0.26184684
57	0xbaf416e1	-0.0018622541
58	0xbcee4f7e	-0.02909064
59	0x3c123081	0.008922697
60	0x3d1e9722	0.03871835
61	0x3d34ae86	0.04411175
62	0xbc9ffaca	-0.019528765
63	0xbe1591fe	-0.14606473

_mean_net.2.weight f4 [32, 64]
0	0x3d9d8eed	0.076932766
1	0x3e6dd0b6	0.23224148
2	0x3eab92e8	0.33510518
3	0xbebec43c	-0.3725909
4	0xbec36886	-0.38165683
5	0x3c3f771f	0.0116861155
6	0x3def67db	0.11689731
7	0xbe4efed5	-0.20214398
8	0x3e39768d	0.1811163
9	0x3ca58ada	0.020207811
10	0xbe725de0	-0.23668623
11	0xbb3da64d	-0.0028938234
12	0xbda1c4e0	-0.07898879
13	0xbebdb6ad	-0.37053433
14	0xbe285966	-0.16440353
15	0xbec288cd	-0.37994996
16	0xbeaf7ff9	-0.34277323
17	0x3e198de1	0.14995529
18	0x3e1a04a4	0.15040833
19	0x3e66127e	0.22467992
20	0x3db903b1	0.09033907
21	0x3d3a41be	0.045472853
22	0x3d84582d	0.06462131
23	0xbebb1c32	-0.3654495
24	0xbe595ca0	-0.2122674
25	0x3e458cf1	0.19292046
26	0x3e99a7c4	0.30010808
27	0x3eb416d9	0.3517368
28	0x3e168b74	0.14701635
29	0xba9acd81	-0.0011810513
30	0x3d3832fc	0.044970497
31	0xbf0f1d62	-0.5590421
32	0x3e2510dd	0.16119714
33	0xbc9cbab6	-0.019132
34	0xbe493c95	-0.19652016
35	0x3dd942a7	0.10608416
36	0x3d329609	0.043600116
37	0xbde85e11	-0.11346067
38	0xbe1c16cb	-0.1524307
39	0xbe820d9f	-0.25401017
40	0xbeec48f7	-0.46149418
41	0x3ebd9be1	0.3703299
42	0xbe9c994e	-0.30585712
43	0xbe6e224e	-0.23255274
44	0xbeaeadcd	-0.34116974
45	0xbe89feb5	-0.2695214
46	0xbe718140	-0.23584461
47	0x3db7b644	0.08970311
48	0xbf019b13	-0.5062725
49	0xbda4bdaa	-0.08043988
50	0xbe76f736	-0.24117741
51	0x3e8e8fd0	0.27844095
52	0x3e428322	0.18995336
53	0xbebb0561	-0.3652754
54	0x3e253272	0.16132525
55	0x3e168c09	0.14701857
56	0xbd9dafca	-0.07699545
57	0xbe7ac7c9	-0.24490274
58	0x3d5d4801	0.054023746
59	0xbe9324ef	-0.28739116
60	0xbe5afabc	-0.2138471
61	0x3e8f70a6	0.2801563
62	0x3db198c0	0.08671713
63	0xbd3fb894	-0.046806887
64	0x3de12537	0.10993426
65	0xbde95f72	-0.11395158
66	0x3b8ca4f5	0.0042921253
67	0xbd44af4b	-0.048018735
68	0x3e3941be	0.18091485
69	0xbd2e7067	-0.042587664
70	0xbc93034e	-0.017945912
71	0x3d954478	0.0728845
72	0xbec366a1	-0.38164237
73	0xbde29fbb	-0.110656224
74	0xbdb8d528	-0.09025031
75	0x3dd48b9a	0.103781894
76	0xbd1c787e	-0.038200848
77	0x3c0c1a9b	0.008551265
78	0x3c921486	0.017832052
79	0x3d9b672d	0.075880386
80	0xbd03e7f5	-0.032203633
81	0x3dcef3df	0.101051085
82	0xbc53d5e7	-0.012929416
83	0x3d3091d6	0.04310783
84	0x3e1d9fff	0.15393065
85	0x3ddf58b1	0.109055884
86	0x3ba5f74d	0.005064881
87	0x3dfa89ad	0.12233291
88	0x3caf4da9	0.021399336
89	0x3e22df40	0.15905476
90	0x3c9f68c9	0.019459145
91	0x3f1281e8	0.5722947
92	0x3d32df77	0.043670144
93	0xbd4d8f66	-0.050185584
94	0xbd88e0d3	-0.06683507
95	0x3be83b67	0.0070871594
96	0xbd5bbac9	-0.05364493
97	0x3cf01e62	0.029311363
98	0x3c2c5057	0.010517201
99	0x3dd271ed	0.10275636
100	0xbd0d4852	-0.0344928
101	0xbd3e8272	-0.04651112
102	0x3e14e2bc	0.14539617
103	0xbe22f05c	-0.15912002
104	0x3cd0ee28	0.025504187
105	0xbdcaa52e	-0.09894787
106	0x3e76aec0	0.240901
107	0xbe365a95	-0.17807992
108	0xbe044717	-0.12917744
109	0x3e270491	0.16310336
110	0xbdfe656a	-0.12421687
111	0xbdcc9be7	-0.099906735
112	0x3d820db3	0.06350269
113	0x3d66abb2	0.056316085
114	0x3d1df31d	0.03856193
115	0xbd304c58	-0.043041557
116	0xbcdb558c	-0.02677419
117	0x3cb30e60	0.02185744
118	0xbcd4fea5	-0.02600033
119	0x3e178617	0.14797245
120	0x3dce27d6	0.10066192
121	0x3db5d8c6	0.08879237
122	0xbce80962	-0.028324787
123	0x3dfc3704	0.12315181
124	0x3cdff472	0.02733824
125	0xbd379d7f	-0.044827934
126	0xbd926de1	-0.07149864
127	0xbe5dc546	-0.21657285
128	0xbe0565a1	-0.1302705
129	0x3dc9041c	0.09815237
130	0x3e5f69fc	0.21817774
131	0xbe101f31	-0.14074399
132	0xbd8da904	-0.06917003
133	0xbdbf6e62	-0.09347226
134	0x3edf4f35	0.43615118
135	0x3dc6253d	0.096750714
136	0x3d049349	0.032367025
137	0xbe31d9b7	-0.17368208
138	0xbe595b20	-0.21226168
139	0xbe36324b	-0.17792623
140	0xbd35b0d3	-0.044358086
141	0xbe294e66	-0.16533813
142	0x3de7911d	0.11306975
143	0x3d42bf91	0.047545973
144	0xbe0afc59	-0.13572825
145	0x3db17780	0.08665371
146	0x3cc0b6f9	0.023524748
147	0xbdacdf80	-0.08441067
148	0x3deab267	0.11459809
149	0x3d3d53fd	0.046222676
150	0xbd270f35	-0.040785987
151	0x3de7fa89	0.11327083
152	0x3d3788c0	0.04480815
153	0xbd9a4182	-0.07532026
154	0x3ee52519	0.44754866
155	0xbef6a11a	-0.48169786
156	0x3d97f2ac	0.07419333
157	0x3c3d6fd6	0.011562308
158	0xbd99fec9	-0.075192995
159	0xbdc8e199	-0.09808654
160	0x3e00840b	0.1255037
161	0x3e583152	0.21112564
162	0xbdfc7d4b	-0.12328585
163	0xbcfa8ade	-0.030583795
164	0xba13a0a7	-0.0005631544
165	0xbe03c5b8	-0.12868392
166	0x3d9f9796	0.077925846
167	0xbe12feca	-0.14355007
168	0x3e2256de	0.1585345
169	0x3de3b766	0.11118965
170	0xbe44c61d	-0.19216199
171	0x3b7f40f4	0.0038948627
172	0x3d8a1637	0.067425184
173	0xbe29ac03	-0.16569524
174	0xbe550089	-0.20800985
175	0x3cf04698	0.029330537
176	0xbd2c7027	-0.042099144
177	0xbf050a9c	-0.51969314
178	0xbd878f91	-0.0661918
179	0xbe4479d5	-0.191871
180	0xbdd1e18c	-0.10248098
181	0xbbe99241	-0.0071280305
182	0xbe4b8c8b	-0.19877832
183	0xbe6e25bf	-0.23256586
184	0x3d92995f	0.071581595
185	0xbd1080d1	-0.0352791
186	0xbc11817a	-0.008880967
187	0x3d873177	0.066012315
188	0xbd9dd8e4	-0.07707384
189	0x3e385a64	0.18003231
190	0x3e4e0896	0.20120463
191	0x3db6dbfc	0.089286774
192	0x3ca6ba4e	0.020352509
193	0xbd754ca5	-0.059887547
194	0x3e0fa01e	0.14025924
195	0xbe6293a8	-0.22126639
196	0xbee32ec7	-0.44371626
197	0xbe4b5959	-0.19858302
198	0xbe7bd699	-0.24593581
199	0x3d40bb02	0.047053345
200	0xbd007f84	-0.03137161
201	0x3d950e0f	0.07278072
202	0x3eb037e6	0.34417647
203	0x3d612ea3	0.054976117
204	0x3d320206	0.04345896
205	0x3e21648b	0.1576101
206	0xbd84a227	-0.064762406
207	0xbe8e0379	-0.27737024
208	0xbe29040e	-0.16505453
209	0x3db7b4db	0.08970042
210	0x3c71924a	0.014744351
211	0x3d2d92f5	0.042376477
212	0xbdb5e349	-0.08881242
213	0x3c2330e5	0.009960388
214	0x3dc00106	0.09375195
215	0xbde46824	-0.11152676
216	0xbe133158	-0.14374292
217	0xbb825972	-0.003977948
218	0x3dfc4f76	0.123198435
219	0xbe599d22	-0.21251348
220	0xbd3b9036	-0.045791827
221	0x3bcf7fb4	0.006332362
222	0xbd4680fd	-0.048462857
223	0xbe470be8	-0.19438136
224	0x3d74af3b	0.059737425
225	0xbc72cb73	-0.014819014
226	0x3bf71282	0.007540048
227	0x3dd2bd6b	0.10290035
228	0xbdab65cc	-0.083690256
229	0xbcac1e04	-0.021010406
230	0x3e3705ab	0.17873256
231	0x3dfdc46a	0.12390979
232	0xbe85fd34	-0.2616974
233	0xbd9fedc8	-0.07809025
234	0x3d6e2db7	0.058149066
235	0x3e30de41	0.17272283
236	0xbc918a3e	-0.017766114
237	0xbe54cf8e	-0.20782301
238	0x3e015ca4	0.12632996
239	0x3ce150d9	0.027504371
240	0xbe8de85b	-0.27716336
241	0x3e80351a	0.25040513
242	0xbe5d312b	-0.21600787
243	0x3e434a97	0.19071423
244	0x3d98df24	0.07464436
245	0xbe2714d7	-0.16316544
246	0x3db92324	0.09039906
247	0x3e623a74	0.2209261
248	0xbcecd656	-0.028910797
249	0xbdaaec11	-0.08345807
250	0xbcf5e848	-0.030017987
251	0x3dcb9a1b	0.09941503
252	0xbdbd5b96	-0.09245984
253	0xbe969acb	-0.29414973
254	0x3d77c848	0.060493737
255	0x3b1ea5de	0.0024207751

_mean_net.2.bias f4 [32]
0	0x3e87e76a	0.26543742
1	0xbc56b368	-0.013104297
2	0xbe068a08	-0.13138592
3	0xbe41f4de	-0.18941066
4	0x3ea98a26	0.3311321
5	0x3e880978	0.26569724
6	0xbe2ff765	-0.17184217
7	0x3e26cf6c	0.16290063
8	0x3e7dedea	0.24797788
9	0x3ec6b815	0.38812318
10	0xbe659193	-0.22418813
11	0xbdce8f07	-0.10085874
12	0x3ef80186	0.48438662
13	0xbe4c5ca7	-0.19957219
14	0xbd8cb46c	-0.0687035
15	0xbe8068ce	-0.2507996
16	0x3e8ab80f	0.2709355
17	0xbd5d8af3	-0.05408759
18	0xbed64d43	-0.4185582
19	0xbe4672f1	-0.19379784
20	0x3e08553c	0.13313764
21	0xbe3f96a7	-0.18709813
22	0x3e6ac2ce	0.22925875
23	0x3e7cb78e	0.24679396
24	0xbc6ca3ea	-0.014443377
25	0xbc6fafc5	-0.014629309
26	0xbee4ecca	-0.44711906
27	0x3f0e62c8	0.5561948
28	0x3e4000f3	0.18750362
29	0xbd23cafb	-0.0399885
30	0xbdd8352f	-0.10557019
31	0xbe60d702	-0.21957019

_mean_net.4.weight f4 [17, 32]
0	0xbde1fa49	-0.11034066
1	0x3d8f73c3	0.07004502
2	0x3d5a6b6b	0.053325098
3	0xbee07c33	-0.43844756
4	0xbf19e096	-0.60108316
5	0x3d237fe1	0.039916877
6	0xbeb6e227	-0.35719416
7	0xbf01b9dd	-0.5067423
8	0x3d141f76	0.036162816
9	0x3e78c3e9	0.24293484
10	0xbd5b2002	-0.053497322
11	0x3eba5a68	0.363971
12	0xbee583e4	-0.44827187
13	0x3e2b930e	0.16755316
14	0xbead3b52	-0.3383432
15	0xbeb276fd	-0.34856406
16	0xbeacce46	-0.33751124
17	0x3f24350d	0.6414345
18	0x3e2077d2	0.15670708
19	0x3e031948	0.12802613
20	0xbdb8b66a	-0.09019168
21	0x3d8a52ea	0.06754096
22	0x3f44407f	0.76660913
23	0xbf222d45	-0.63350326
24	0xbca4346c	-0.020044528
25	0x3db4a015	0.08819596
26	0x3e0636ef	0.13106893
27	0x3e11b95e	0.14230868
28	0xbcad7ac2	-0.0211767
29	0xbf153ae5	-0.5829299
30	0xbdcd3910	-0.100206494
31	0x3ead7c44	0.3388387
32	0x3db5ada2	0.088710085
33	0x3ec97172	0.39344364
34	0xbe9287c2	-0.286192
35	0x3ed4cdc2	0.4156323
36	0x3e6fb43e	0.234086
37	0xbdad820f	-0.08472072
38	0xbef9db3c	-0.48800075
39	0xbef51b0f	-0.47872207
40	0x3dd85887	0.1056376
41	0x3e9903bd	0.29885665
42	0xbe445d3b	-0.1917619
43	0xbe16cff5	-0.14727767
44	0x3e85cf0a	0.2613452
45	0xbe74cbef	-0.2390592
46	0xbd5bd2fe	-0.053668015
47	0x3e439ace	0.19102022
48	0xbd9b42db	-0.07581111
49	0xbef7a65a	-0.48369104
50	0xbe37818e	-0.17920515
51	0xbe8ccb86	-0.27499026
52	0xbdffefa0	-0.12496877
53	0x3dd4a20a	0.10382469
54	0xbe0f6684	-0.1400395
55	0x3e53133b	0.20612805
56	0x3e3b6c55	0.18303044
57	0xbd4eeedc	-0.050520763
58	0x3e6bc5b5	0.23024638
59	0x3e79c06d	0.24389811
60	0xbeec598d	-0.46162072
61	0xbed16d96	-0.4090392
62	0xba8bace1	-0.001065638
63	0x3e9e67f7	0.30938694
64	0xbe05b2e4	-0.13056523
65	0x3d7d1cf4	0.06179519
66	0xbec090de	-0.37610525
67	0xbea64298	-0.32472682
68	0xbe29971e	-0.16561553
69	0xbe08d1ca	-0.13361278
70	0xbe66a965	-0.22525556
71	0x3f19a515	0.6001752
72	0x3e129171	0.14313294
73	0x3eb5e2bc	0.35524547
74	0xbe7d89af	-0.24759553
75	0x3eadddc4	0.33958256
76	0xbf1b6bca	-0.6071135
77	0x3f28e386	0.65972173
78	0x3ea42817	0.32061836
79	0x3f089f6b	0.5336825
80	0x3bd486c7	0.0064857933
81	0xbe489aa0	-0.19590235
82	0x3d13dd12	0.0360995
83	0x3e885eb6	0.2663476
84	0x3d3b2f4a	0.045699395
85	0xbb64d452	-0.0034916592
86	0x3e0f8504	0.14015585
87	0x3e5ac2f7	0.21363436
88	0xbf4ed64c	-0.8079574
89	0xbeff2cab	-0.49838766
90	0xbe0a726d	-0.13520212
91	0x3d022e7c	0.031782612
92	0xbe9f8702	-0.3115769
93	0x3e19978d	0.14999218
94	0x3e120218	0.14258611
95	0x3f0d3c2a	0.5516993
96	0x3e032fbd	0.1281118
97	0x3d5527a9	0.052039776
98	0x3d728290	0.059206545
99	0xbe97d9d5	-0.2965838
100	0xbe0dc1a9	-0.13843407
101	0x3e9bc100	0.30420685
102	0x3dc49cee	0.096002445
103	0xbddf87da	-0.109145835
104	0x3e5ae93b	0.21378033
105	0x3dbcd1af	0.092196815
106	0xbf1bc6d6	-0.60850275
107	0xbed1cc53	-0.409762
108	0x3ee737db	0.45159802
109	0x3db5f7ec	0.08885178
110	0xbe96ae47	-0.29429838
111	0x3e33ce77	0.17559229
112	0x3ea44586	0.32084292
113	0xbefc5c2b	-0.4928907
114	0x3c7578b3	0.01498239
115	0xbe938b86	-0.28817385
116	0xbdb9c86d	-0.09071431
117	0x3cce2597	0.025164409
118	0x3e478368	0.19483721
119	0x3eb1b5d9	0.3470905
120	0xbe1bd313	-0.15217237
121	0x3db6ec28	0.08931762
122	0xbea09360	-0.31362438
123	0x3f3c9ba1	0.7367497
124	0x3df9a771	0.1219014
125	0x3e62d741	0.22152425
126	0xbe63d26d	-0.2224824
127	0xbed20bb9	-0.4102457
128	0x3db9d7fa	0.090743974
129	0xbe8d7ac4	-0.27632725
130	0xbf023aeb	-0.5087115
131	0x3ea32da0	0.31870747
132	0x3e9697a7	0.29412577
133	0xbf0c4365	-0.54790336
134	0xbe95e86f	-0.29278895
135	0xbdef8bb6	-0.116965696
136	0xbead6159	-0.33863333
137	0xbd47fd1b	-0.048825365
138	0x3eb3ab22	0.350915
139	0xbe747cbc	-0.23875707
140	0x3e89a5ea	0.26884395
141	0xbf0c4657	-0.5479483
142	0x3ed08f93	0.40734538
143	0xbea16c98	-0.31528163
144	0xbd375f2a	-0.04476849
145	0x3e26aafa	0.1627616
146	0x3e8a1c51	0.2697473
147	0x3ea7558e	0.3268246
148	0xbc1d3fb1	-0.009597705
149	0xbe0c876a	-0.13723531
150	0xba810fe1	-0.0009846651
151	0xbe380ea8	-0.17974341
152	0x3e060bcb	0.13090436
153	0x3d7acbeb	0.061229628
154	0xbd0bb934	-0.03411217
155	0xbf092066	-0.5356506
156	0xbe3443c5	-0.17603977
157	0xbe7da24f	-0.24768947
158	0x3e3102f4	0.17286283
159	0x3f2a8457	0.66608185
160	0xbee83709	-0.45354488
161	0x3d8809a2	0.06642462
162	0xbd432a76	-0.047647916
163	0xbf5118b1	-0.816783
164	0xbe36ecc4	-0.17863756
165	0xbc99fdc1	-0.018797757
166	0x3f036a71	0.5133429
167	0xbcd3c246	-0.025849473
168	0x3daa377b	0.08311363
169	0x3e73434f	0.23756145
170	0x3e3c3710	0.1838038
171	0x3e1eb234	0.15497667
172	0x3996aeef	0.00028740565
173	0xbda4345d	-0.080178
174	0xbe2180f4	-0.15771848
175	0xbf2d3404	-0.67657495
176	0xbe8f7dd0	-0.28025675
177	0x3e548770	0.2075479
178	0x3f598500	0.84968567
179	0x3f344512	0.7041789
180	0x3e9a2f0f	0.30114028
181	0x3e26d9e2	0.16294053
182	0xbd1d6e36	-0.038435183
183	0x3d99b2d8	0.07504815
184	0xbc88426c	-0.016633235
185	0xbd407737	-0.046988692
186	0xbe96852f	-0.29398486
187	0x3e438659	0.19094218
188	0x3d222677	0.039587464
189	0xbed70dfa	-0.4200285
190	0xbe317fc3	-0.17333893
191	0x3de6d6df	0.11271452
192	0xbe9a423b	-0.30128655
193	0x3f1a6ff0	0.60327053
194	0xbeae8241	-0.3408375
195	0x3e9cfc55	0.30661264
196	0x3e350a40	0.17679691
197	0x3de64a86	0.11244683
198	0xbda10b4a	-0.07863481
199	0x3e0e4b00	0.13895798
200	0xbf5267cb	-0.82189626
201	0xbbcdc5f2	-0.0062797004
202	0xbb3e00a8	-0.002899209
203	0xbf0593c3	-0.5217859
204	0x3eac67e3	0.3367301
205	0x3ea5009c	0.32227027
206	0xbc85b61f	-0.016322194
207	0x3d4b4223	0.04962362
208	0x3d61d664	0.0551361
209	0x3e814166	0.25245208
210	0x3e8b2092	0.27173287
211	0x3ecf01f2	0.40431172
212	0x3c323c55	0.010878642
213	0x3d62ebc4	0.055400625
214	0x3f4dded7	0.8041815
215	0xbc512acf	-0.012766554
216	0xbe925737	-0.28582165
217	0x3d0c12f6	0.03419777
218	0xbeeadcb1	-0.458715
219	0xbe299b71	-0.16563202
220	0x3df8d96a	0.121508434
221	0x3e56ae81	0.20965005
222	0x3dd62154	0.104555756
223	0xbd89f86c	-0.06736836
224	0xbda62514	-0.08112541
225	0xbdd9c196	-0.10632627
226	0x3ecdfb09	0.40230587
227	0xbe450e91	-0.19243838
228	0xbe55342a	-0.2082068
229	0xbe13ad31	-0.14421536
230	0x3efaeeef	0.49010417
231	0x3e92cbe4	0.2867118
232	0x3e97b7f1	0.29632524
233	0xbe122f27	-0.142758
234	0xbea56070	-0.32300138
235	0xbc381c77	-0.011237255
236	0x3e4a6bc4	0.19767672
237	0x3e7fd04c	0.24981803
238	0xbeae5284	-0.3404733
239	0xbd1629db	-0.03666101
240	0x3ebcdcb6	0.3688714
241	0x3e8cdf04	0.27513897
242	0xbef63788	-0.48089242
243	0x3e5d7ce8	0.21629679
244	0xbda9a733	-0.08283844
245	0xbed0fb56	-0.40816754
246	0xbece88f2	-0.40338856
247	0x3dd839e9	0.105579205
248	0xbecb55c8	-0.39713883
249	0x3eb3d37b	0.35122284
250	0xbd3ade7a	-0.045622326
251	0xbcb1f944	-0.021725304
252	0x3e235c06	0.15953073
253	0x3ea25c3a	0.31710988
254	0x3cd02370	0.025407523
255	0xbd3484ce	-0.044071965

_mean_net.4.bias f4 [17]
0	0x3d6ae16a	0.057343878
1	0x3c635943	0.013876262
2	0x3e8ea841	0.27862743
3	0xbe0e569d	-0.13900228
4	0x3e30537a	0.17219344
5	0x3f59b289	0.8503805
6	0x3e77f37d	0.24213977
7	0xbdeb2361	-0.11481357
8	0x3dd39390	0.1033088
9	0x3b4dccef	0.0031402668
10	0x3e96ec83	0.2947732
11	0xbda6078e	-0.0810691
12	0xbe34bad1	-0.1764939
13	0xbe5b5e03	-0.21422581
14	0x3eac947c	0.33707035
15	0x3f0a0ee3	0.53928965
16	0xbe71d80e	-0.23617575
