hw1/run_logs/q2_dagger_humanoid/policy_itr_16.pt (torch, 110342 bytes, 7 tensors)

_logstd f4 [17]
0	0xbfa36acb	-1.2766966
1	0xbfb479cb	-1.4099668
2	0xbf914c79	-1.1351463
3	0xbf916136	-1.1357791
4	0xbf92728f	-1.144121
5	0xbf83ad56	-1.0287273
6	0xbf8437dd	-1.0329548
7	0xbf955b69	-1.1668521
8	0xbf8e555e	-1.1119802
9	0xbf89d6a2	-1.0768626
10	0xbf8b1f90	-1.0869007
11	0xbfc71b3b	-1.5555185
12	0xbfb30439	-1.3985664
13	0xc0020c46	-2.031999
14	0xbfc89db1	-1.5673124
15	0xbfd5560b	-1.6666883
16	0xc0006b01	-2.006531

_mean_net.0.weight f4 [64, 376]
0	0xbf5b7bd0	-0.857358
1	0x3d617dd9	0.05505166
2	0xbf632954	-0.88734937
3	0xc02b89a9	-2.680277
4	0xbebef5a0	-0.37296772
5	0xbeb689fc	-0.3565215
6	0xbe5bd25e	-0.21466967
7	0x3d844932	0.064592734
8	0x3e1e8be7	0.15483056
9	0xbfc64808	-1.5490732
10	0x3f00b192	0.5027095
11	0xbf7f8ae6	-0.9982132
12	0x3ea4686f	0.32110927
13	0xbeb13a24	-0.3461467
14	0xbf754235	-0.9580415
15	0x3ebfb131	0.37439874
16	0x3ee818d8	0.45331454
17	0x3d2d7a83	0.042353164
18	0x3d9564fa	0.072946504
19	0x3e41af18	0.18914449
20	0x3e95cdfc	0.29258716
21	0x3d0137da	0.031547405
22	0x3d2fe265	0.042940516
23	0x3e0f0963	0.13968424
24	0x3c8aff12	0.01696733
25	0xbe34f4c1	-0.17671491
26	0xbd8d422e	-0.068973884
27	0xbd2f25f2	-0.042760797
28	0xbd3cb6a2	-0.04607261
29	0xbcb10076	-0.021606665
30	0xbb81e52f	-0.0039640884
31	0x3d0720da	0.032990314
32	0xbd7b793a	-0.061394908
33	0x3cd2efeb	0.025749167
34	0xbc01e211	-0.007927434
35	0xbbe5f392	-0.0070175612
36	0x3d3034c5	0.043019075
37	0x3ad52f0a	0.0016264629
38	0xbc09f55f	-0.008420317
39	0xbd924509	-0.07142074
40	0xbc9fedf4	-0.019522645
41	0xbd005418	-0.031330198
42	0xbc252152	-0.010078745
43	0x3c21bc76	0.009871593
44	0x3cc78224	0.024354048
45	0x3cd927eb	0.026508292
46	0xbce04173	-0.027374959
47	0x3c78803c	0.015167292
48	0xbc73fb8c	-0.014891516
49	0xbbb944e0	-0.0056539625
50	0xbd4b1432	-0.049579807
51	0xbcc96d12	-0.024588142
52	0x3ce53f26	0.027984213
53	0xbc4d62c3	-0.012535754
54	0x3d52668e	0.051367335
55	0x3c17e2e6	0.009270405
56	0xbd6b3009	-0.057418857
57	0xbefdda3f	-0.4958057
58	0xc05b7cbf	-3.429489
59	0x3f09e8f8	0.5387111
60	0x3b1f8a2a	0.0024343827
61	0x3ea1c664	0.31596673
62	0x3d4c08bc	0.049813017
63	0x3d31b727	0.04338756
64	0x3da987bd	0.08277843
65	0xbe9cd2a3	-0.30629453
66	0x3e08bc53	0.1335309
67	0x4010d226	2.2628264
68	0xc0c7fd91	-6.249703
69	0xbe347b90	-0.1762526
70	0xc056d469	-3.3567145
71	0x3f6831e0	0.90701103
72	0x40249e17	2.572149
73	0xbe287076	-0.1644915
74	0x3e03b4b1	0.12861897
75	0xbf2222e6	-0.633345
76	0x40261d1c	2.5955267
77	0x3fe5b578	1.7946005
78	0x41190608	9.563972
79	0x3f96d5f0	1.1784039
80	0x3ff69f6f	1.9267405
81	0x3f86e7d5	1.05395
82	0x3f6aff77	0.9179606
83	0xbd3ccb0e	-0.046092086
84	0x3e116206	0.14197549
85	0x3f9c45d0	1.2208805
86	0x3e735543	0.23762994
87	0xbf7159e6	-0.942778
88	0x3ddbc20d	0.107303716
89	0x3fb0aaff	1.3802184
90	0xbf5aa3e0	-0.85406303
91	0x3e9904e2	0.29886538
92	0xbf1f697a	-0.6227032
93	0xbef16e2b	-0.47154364
94	0x3d9e045a	0.07715674
95	0x3e16f8de	0.14743373
96	0xbebc2c5a	-0.36752588
97	0xc01babb1	-2.4323542
98	0xbf4da928	-0.80336237
99	0x3fd0d529	1.6315051
100	0xbf158bc0	-0.58416367
101	0xbf17a270	-0.59232235
102	0xbe0b82e5	-0.13624151
103	0xbe67460c	-0.22585315
104	0x3da07621	0.07835031
105	0xbefbdf54	-0.49193823
106	0xbeb529b6	-0.35383385
107	0xbf87f001	-1.0620118
108	0x3fa3ddab	1.2802023
109	0x3fad147b	1.3521875
110	0x3d02cdcb	0.03193454
111	0xbf2a4781	-0.66515356
112	0x3f7ce9a3	0.98794
113	0x3b45a042	0.0030155336
114	0x3df1f01e	0.11813377
115	0xbf959f21	-1.1689187
116	0xbed2ff7b	-0.4121054
117	0xbe870e1a	-0.26377946
118	0x400185d1	2.0237925
119	0x3e17a59c	0.14809269
120	0xc007b90e	-2.1206698
121	0x3fa4450a	1.2833569
122	0xbf80503e	-1.0024488
123	0x3ea15bf5	0.3151547
124	0x3e0e81ff	0.13916777
125	0xbf564f6b	-0.8371493
126	0xbf1bf7ab	-0.60924786
127	0x3f9add22	1.2098734
128	0x403e4172	2.9727445
129	0x3f42bd53	0.76070136
130	0xbf9f38ac	-1.243917
131	0x3e546313	0.20740919
132	0xbe7ca292	-0.2467139
133	0x3eb6cf0a	0.35704833
134	0x3e13472c	0.14382619
135	0xbf2bc130	-0.67091656
136	0xbeeb4a1f	-0.45954987
137	0x3fa72656	1.3058574
138	0x403b6c57	2.9284875
139	0x3e2630f5	0.16229613
140	0xbd70c842	-0.05878473
141	0xbe9ff4d0	-0.31241465
142	0x3fb84e26	1.4398849
143	0x3e82f144	0.25574696
144	0x3e02b5bf	0.12764643
145	0xbf99b0aa	-1.2007039
146	0xbdb974e6	-0.090555
147	0xbfce110f	-1.6098956
148	0x4035ae30	2.8387566
149	0x3f51e5f1	0.8199149
150	0xbf781be0	-0.96917534
151	0x3e628e1a	0.2212452
152	0x3ed4c7ca	0.41558677
153	0xbe3d09ad	-0.18460722
154	0x3d810aa1	0.063008554
155	0xbf4ca1a4	-0.79934144
156	0xbea577ac	-0.32317865
157	0xbfaed46b	-1.3658575
158	0x3fa03be7	1.2518281
159	0x3e6364cd	0.22206421
160	0xbf0e34f1	-0.5554953
161	0xbf2a8b39	-0.66618687
162	0xbdcf395e	-0.10118364
163	0x3f323217	0.6960768
164	0x3dae13af	0.08499848
165	0x3e283865	0.16427763
166	0xbe4df089	-0.20111288
167	0x3fd09e06	1.6298225
168	0xbffc43ca	-1.9708188
169	0xbcc6452a	-0.024202902
170	0xbe553901	-0.20822527
171	0x3e9342bf	0.2876186
172	0x3f06d151	0.5266314
173	0xbdd44bfa	-0.10366054
174	0x3e27132e	0.1631591
175	0x3f18be4d	0.59665376
176	0x3e8d4ab3	0.27596053
177	0x3ed78a68	0.42097783
178	0xbf88922e	-1.066961
179	0xbebbeaf3	-0.3670269
180	0xbf7413da	-0.9534279
181	0xbd4027a1	-0.046912793
182	0x3f56bb61	0.8387967
183	0xbdbb9fb4	-0.0916132
184	0x3da09be7	0.07842236
185	0x3d421aed	0.04738896
186	0xbd369dff	-0.04458427
187	0xbd24a773	-0.040198755
188	0xbae5873f	-0.001751162
189	0xbce46fa7	-0.027885271
190	0x3c972a2e	0.01845273
191	0x3aab3501	0.0013062061
192	0xbe0354e2	-0.12825349
193	0xbd0a78ff	-0.033806797
194	0xbd0a4110	-0.033753455
195	0x3d5de320	0.05417168
196	0xbe9d1852	-0.30682617
197	0xbda78de9	-0.08181364
198	0xbc8227af	-0.015888063
199	0xbd500c7b	-0.050793152
200	0x3c24461c	0.010026481
201	0xbe40648f	-0.1878836
202	0xbee69545	-0.4503576
203	0x3d456eb5	0.04820128
204	0x3c3884eb	0.011262159
205	0x3d03816e	0.032105856
206	0xbe27c8bc	-0.16385168
207	0x3e0c93b8	0.13728225
208	0xbeaf4bd9	-0.34237555
209	0x3d8a5b2d	0.06755672
210	0xbc487b97	-0.012236497
211	0xba70cf8d	-0.0009186201
212	0xbe130eb1	-0.14361073
213	0x3e0afee1	0.13573791
214	0x3e7c5dd4	0.24645168
215	0x3a617587	0.0008600582
216	0x3d8e1906	0.069383666
217	0x3baec5f5	0.005333657
218	0xbd3c76f8	-0.046011895
219	0x3d947000	0.07247925
220	0xbcb707f6	-0.022342663
221	0x3ba469a0	0.0050174743
222	0xbc185d2b	-0.009299557
223	0x3bcbe09a	0.006221843
224	0xbadc835e	-0.0016823818
225	0xbc2496aa	-0.010045687
226	0x3ba7d5bc	0.0051219147
227	0x3c16f4c3	0.009213629
228	0x3c438111	0.011932627
229	0x3cfb0225	0.030640671
230	0x3d8f08c7	0.06984096
231	0x3e86393c	0.2621554
232	0xbeb2fc41	-0.3495808
233	0xbd14de9a	-0.036345102
234	0x3b2c36a0	0.0026277676
235	0x3bda0bfc	0.0066542607
236	0xbc4d93cd	-0.0125474455
237	0xbd5d895c	-0.054086074
238	0x3c2803ba	0.010254795
239	0xbd87bda7	-0.0662797
240	0xbc97a8a7	-0.018513037
241	0xbc2af6fb	-0.010434861
242	0x3d390d77	0.045178857
243	0xbdb73f73	-0.08947649
244	0xbd457f74	-0.048217252
245	0xbd497358	-0.049182266
246	0xbdeded69	-0.11617548
247	0x3d74632d	0.059664894
248	0xbe27e524	-0.16396004
249	0x3cf8bd59	0.030363725
250	0xbca4abe5	-0.020101497
251	0xbc87449b	-0.016512206
252	0x3d13f47a	0.036121823
253	0xbca63ee9	-0.02029367
254	0xbdece3ed	-0.11566911
255	0x3e812ae7	0.25228044

_mean_net.0.bias f4 [64]
0	0x3de20d31	0.11037672
1	0xbe3ac8a4	-0.18240601
2	0x3ac10361	0.0014725738
3	0xbecd92fa	-0.40151197
4	0x3d21f386	0.039538883
5	0x3dcf0c61	0.10109783
6	0x3d4f371a	0.05058966
7	0x3ecd81a0	0.4013796
8	0xbdcd7d0c	-0.100336164
9	0x3e4164d1	0.18886115
10	0xbeb37ef3	-0.35057792
11	0xbe7956a7	-0.24349461
12	0xbd465086	-0.048416637
13	0x3fdb3049	1.712411
14	0x3e0bc65f	0.13649891
15	0xbe9e7c61	-0.3095427
16	0x3eadfa60	0.33980083
17	0x3d9937b0	0.07481325
18	0xbe889b91	-0.26681188
19	0xbebe36ba	-0.37151128
20	0xbe603b7e	-0.21897694
21	0x3da81e61	0.08208919
22	0x3d590e13	0.052991938
23	0xbf81302f	-1.009283
24	0xbd342d91	-0.043988768
25	0x3e64dcbe	0.22349831
26	0xbf13299c	-0.57485366
27	0xbf923080	-1.1421051
28	0x3c359ecd	0.011085224
29	0x3dedd6bb	0.11613222
30	0xbd3901dc	-0.04516779
31	0x3c2265d1	0.00991197
32	0xbf043d95	-0.51656467
33	0x3e30ef5f	0.17278813
34	0x3d837f35	0.06420747
35	0xbdd64a3b	-0.10463377
36	0x3b481b09	0.0030533692
37	0x3d9cd0f7	0.076570444
38	0xbd07b61a	-0.03313265
39	0xbe93bcfe	-0.28855127
40	0x3ecc0bac	0.39852655
41	0xbdbf308f	-0.09335434
42	0xbd70a3a5	-0.058749814
43	0x3e8b6250	0.27223444
44	0xbdac5ec0	-0.0841651
45	0xbf81f224	-1.015202
46	0x3f1d2e8c	0.6139915
47	0xbd14e9e3	-0.036355864
48	0xbccf8412	-0.02533153
49	0xbd301e15	-0.04299744
50	0xbab37eaa	-0.0013694365
51	0xbefbb09a	-0.49158174
52	0x3dea1856	0.11430423
53	0x3f237b69	0.63860184
54	0x3def9d92	0.11699976
55	0x3f379cdb	0.7172372
56	0xbe762de9	-0.24040951
57	0xbd3fa920	-0.04679215
58	0xbd9500a1	-0.072755106
59	0xbe319f64	-0.17345959
60	0x3c6e173a	0.014531905
61	0xbc1d0c74	-0.009585489
62	0xbd99f4d5	-0.07517401
63	0xbe1c0948	-0.15237916

_mean_net.2.weight f4 [32, 64]
0	0x3db33eee	0.08752237
1	0x3a1ac221	0.0005903561
2	0x3e035fd4	0.12829524
3	0xbd42d003	-0.047561657
4	0xbd936fd9	-0.071990676
5	0x3d3e2824	0.046425
6	0x3e8d2287	0.27565405
7	0xbdc6463f	-0.09681367
8	0x3e1d1790	0.1534102
9	0xbd5e62b1	-0.05429334
10	0xbcb6a5e5	-0.022295902
11	0xbe466676	-0.19375023
12	0xbb22ae70	-0.002482321
13	0xbf06a885	-0.5260089
14	0xbd95b262	-0.073094144
15	0xbddb4adb	-0.10707637
16	0xbc5b84fd	-0.013398406
17	0xbb201715	-0.002442782
18	0x3d7aae3a	0.06120131
19	0x3ad65a0a	0.0016353738
20	0x3dc22a86	0.09480767
21	0x3c842327	0.016130043
22	0x3e492ab2	0.19645193
23	0x3c98c619	0.018649148
24	0xbc55d357	-0.013050876
25	0x3e3979a9	0.18112816
26	0x3e4d6cc7	0.20061027
27	0x3dfce174	0.12347689
28	0xbc3fec8b	-0.011714111
29	0xbbe0b9a3	-0.006858067
30	0x3d7ed6fb	0.06221674
31	0xbdf2348f	-0.11826431
32	0xbcb53063	-0.0221178
33	0x3e13edf3	0.14446239
34	0x3b1ac399	0.002361512
35	0xbdb980fc	-0.09057805
36	0xbd9c39ce	-0.07628213
37	0xbd96aee6	-0.07357578
38	0xbe3f70a4	-0.18695313
39	0xbdbeada2	-0.093104616
40	0xbd539a0d	-0.051660586
41	0x3e3bd9cb	0.183448
42	0xbe0c5b86	-0.13706788
43	0xbcabb19f	-0.02095872
44	0x3de22ebb	0.110440694
45	0xbe97e411	-0.29666188
46	0xbddd2bb8	-0.10799354
47	0xbcd806e9	-0.026370483
48	0xbdde8ca4	-0.10866669
49	0xbd77dccb	-0.0605133
50	0xbe38acd6	-0.18034682
51	0x3de40ab7	0.11134856
52	0xbd8eb134	-0.069673926
53	0x3d8098bb	0.06279131
54	0x3d335626	0.04378333
55	0xbd2629ea	-0.040567316
56	0x3c16c7e8	0.009202935
57	0xbe461dc0	-0.19347286
58	0x3d867e8f	0.06567108
59	0xbe060e86	-0.13091478
60	0xbd75047c	-0.05981873
61	0x3e9f9ebe	0.31175798
62	0x3c91b329	0.017785626
63	0x3d4b567d	0.04964303
64	0x3d1c814e	0.038209252
65	0xbc94962c	-0.018138014
66	0xbdc7e251	-0.09759963
67	0xbdc50753	-0.096205376
68	0x3de4c60d	0.11170588
69	0xbd03c753	-0.032172512
70	0xbd7027fb	-0.05863188
71	0x3c450e5b	0.012027348
72	0xbdd310a3	-0.103059076
73	0xbd5013fa	-0.0508003
74	0xbe241a86	-0.16025743
75	0x3da83f10	0.08215153
76	0xbe30d81b	-0.17269938
77	0xbefe492b	-0.49665198
78	0x3d0aba7f	0.033869263
79	0xbd97f851	-0.074204095
80	0x3d330454	0.0437053
81	0xbe109fc0	-0.1412344
82	0xbd9f50ac	-0.07779059
83	0x3d860327	0.0654357
84	0x3e923062	0.28552538
85	0x3d887132	0.06662215
86	0xbd8e5f94	-0.06951824
87	0x3dd871ba	0.105685666
88	0xbe2896cf	-0.16463779
89	0x3ec86b3f	0.39144322
90	0xbd4f239e	-0.050571077
91	0x3f2b57be	0.6693076
92	0x3d8033e2	0.06259896
93	0x3d70c034	0.05877705
94	0xbdd09c1a	-0.10186024
95	0x3e183f23	0.14867835
96	0xbe2699d9	-0.16269626
97	0x3d9ab05a	0.07553168
98	0xbe3bb806	-0.18331918
99	0x3e584ae3	0.21122317
100	0x3d9d0185	0.076663055
101	0x3cca2caf	0.02467951
102	0x3e47e087	0.19519244
103	0x3d1f671f	0.038916703
104	0x3d9a5f04	0.07537654
105	0x3c83afb4	0.016074993
106	0x3d0f7cf8	0.03503129
107	0xbd08172a	-0.033225216
108	0x3d90e38c	0.07074651
109	0xbe06a2d9	-0.13148059
110	0x3cb6efe0	0.022331178
111	0xbde9561a	-0.11393376
112	0xbd73337f	-0.059375282
113	0x3d2f7788	0.042838603
114	0x3e1d5459	0.15364207
115	0xbd9f64ff	-0.07782935
116	0xbcad7011	-0.021171601
117	0x3caafd47	0.020872725
118	0xbda71815	-0.0815889
119	0x3c009869	0.007848837
120	0x3dba5264	0.09097746
121	0x3eada9c9	0.33918598
122	0xbd7afd6b	-0.061276834
123	0xbb57f327	-0.0032951327
124	0xbdede721	-0.1161635
125	0xbdad75d8	-0.084697425
126	0x3d106142	0.035249002
127	0xbdfbd81d	-0.1229708
128	0xbce10bef	-0.02747151
129	0x3d83f374	0.064429194
130	0x3e81f895	0.25384966
131	0x3dcc9419	0.09989185
132	0xbd201eee	-0.039091997
133	0xbd1d0996	-0.03833922
134	0x3e1d09c6	0.1533576
135	0x3cb13ed2	0.0216364
136	0x3e0c1900	0.13681412
137	0x3d832693	0.06403842
138	0x3ce0a195	0.027420798
139	0x3d97b0a6	0.0740674
140	0x3d96d284	0.073643714
141	0x3d9f0457	0.077645
142	0x3cd2e210	0.02574256
143	0xb996559e	-0.0002867402
144	0x3d123caa	0.035702385
145	0xbd23f1b9	-0.040025447
146	0x3d1e9112	0.03871257
147	0x3d128002	0.03576661
148	0x3e2e085a	0.16995373
149	0x3d07e6f6	0.033179246
150	0xbcb6b6ec	-0.02230402
151	0x3c926463	0.017870134
152	0x3db89abb	0.090138875
153	0xbd14c8d5	-0.03632434
154	0x3d5bb09d	0.05363523
155	0xbf0efd5e	-0.5585536
156	0xbc4bb6f1	-0.012433753
157	0xbe0b84c8	-0.13624871
158	0xbd947507	-0.07248884
159	0xbdb61af5	-0.088918604
160	0xbc704dd2	-0.014666991
161	0xbd51bc02	-0.05120469
162	0x3db6e07d	0.089295365
163	0x3bd9757a	0.0066363188
164	0x3d7f925a	0.06239543
165	0xbe22d2f6	-0.15900788
166	0xbd5143c0	-0.051090002
167	0x3d92cbd9	0.07167787
168	0xbbe193ae	-0.00688406
169	0xbadffca9	-0.0017088848
170	0xbb1ac65f	-0.0023616774
171	0xbda9464a	-0.0826536
172	0x3dadbf62	0.08483769
173	0x3e76bff0	0.24096656
174	0x3cc4eba9	0.024038153
175	0xbc0834a9	-0.008313336
176	0xbe06b190	-0.13153672
177	0xbe9f93d6	-0.31167477
178	0xbddd569a	-0.108075336
179	0xbdf3fee0	-0.11913848
180	0x3d5ebcbf	0.05437922
181	0xbd943330	-0.07236326
182	0xbe012302	-0.1261101
183	0xbce9f8be	-0.028560992
184	0xb9aaf0b0	-0.00032604253
185	0x3e1e2b39	0.15446176
186	0xbd235ebb	-0.039885264
187	0x3c3a86b3	0.011384654
188	0xbd81b118	-0.06332606
189	0x3dbc2361	0.091864355
190	0x3ba85bbd	0.005137889
191	0xbc025862	-0.007955642
192	0xbe7c0e4d	-0.2461483
193	0xbd906fbd	-0.070525624
194	0xbc9db0dc	-0.019249372
195	0xbd09a582	-0.033605106
196	0xbebb971d	-0.36638728
197	0xbb8bb4fa	-0.0042635174
198	0xbe9546ec	-0.29155672
199	0xbe11f4cd	-0.1425354
200	0x3cf58ccd	0.029974366
201	0x3d9d31a3	0.07675483
202	0x3e8355ef	0.256515
203	0x3e1c2595	0.15248711
204	0x3a22488c	0.000619062
205	0xbe308913	-0.1723979
206	0xbd17ac31	-0.03702945
207	0x3da9253e	0.082590565
208	0xbd306a3c	-0.043070063
209	0x3d9fa78d	0.0779563
210	0x3d214f0c	0.039382026
211	0xbcb06310	-0.021531612
212	0xbdfc54e7	-0.12320881
213	0x3dd3406f	0.10315024
214	0x3e724fd4	0.23663265
215	0xbd801194	-0.06253353
216	0xbe5a491c	-0.21316952
217	0xbe150e19	-0.14556159
218	0xbcbf9611	-0.023386987
219	0xbea706cd	-0.32622376
220	0xbd15b1f7	-0.036546674
221	0xbd18e6b7	-0.0373294
222	0xbc0d4261	-0.008621783
223	0xbcf11999	-0.029431151
224	0x3d975286	0.07388787
225	0xbd1fcabf	-0.039011713
226	0x3cd29152	0.02570406
227	0xbb3319f3	-0.00273287
228	0xbec86fa3	-0.39147672
229	0x3da71a7f	0.081593506
230	0x3d1bfa22	0.038080342
231	0xbcf8bf2a	-0.030364592
232	0xbe2b34ff	-0.16719435
233	0xbda47fb9	-0.08032174
234	0xbdf0327d	-0.1172838
235	0xbd1dbead	-0.03851192
236	0xbdb4c5bf	-0.088267796
237	0xbedf3f2b	-0.4360288
238	0xbc155b6d	-0.009116036
239	0x3d6c1952	0.057641335
240	0xbd7fadb2	-0.062421508
241	0x3e160ce6	0.14653358
242	0xbd2ea09f	-0.04263365
243	0x3d8d8c24	0.06911495
244	0x3cd4df6d	0.025985444
245	0x3d43eef6	0.047835313
246	0x3b1a051c	0.002350158
247	0x3c350241	0.011047901
248	0x3d10a9a5	0.035318036
249	0xbdffc8b4	-0.12489453
250	0x3c69e5ed	0.01427601
251	0xbcd5e93b	-0.02611219
252	0xbd6c7a48	-0.057733804
253	0xbddc61dc	-0.10760853
254	0x3cdd2a2a	0.026997644
255	0x3db9969a	0.09061928

_mean_net.2.bias f4 [32]
0	0x3ef12f8b	0.47106585
1	0xbf0c8dd7	-0.5490393
2	0xbe139219	-0.144112
3	0xbd8a7f9e	-0.06762622
4	0x3e8de39c	0.27712715
5	0x3f024b70	0.5089636
6	0xbe0a282b	-0.13491885
7	0x3e9d8e7e	0.30772775
8	0x3e178bf7	0.14799486
9	0xba9230d9	-0.0011153474
10	0x3e4e4e35	0.20147021
11	0xbdf536ac	-0.119733185
12	0x3f657998	0.8963866
13	0xbe73ef09	-0.23821653
14	0xbe90a1cb	-0.28248438
15	0xbeab9aae	-0.3351645
16	0x3e85ce8b	0.26134142
17	0x3ca8e607	0.020617498
18	0xbe97f9e5	-0.29682842
19	0x3d323928	0.04351154
20	0xbcd40cd2	-0.02588502
21	0xbe0ab22d	-0.13544531
22	0x3ed7d5d4	0.42155325
23	0x3e6894a1	0.22712947
24	0x3c2ccad2	0.010546403
25	0xbea3d53e	-0.31998628
26	0xbf04a8e7	-0.51820225
27	0x3e3b2e57	0.18279396
28	0x3f1534e3	0.58283824
29	0xbe121d93	-0.14269094
30	0xbe59f06a	-0.21283117
31	0xbe7fce5a	-0.2498106

_mean_net.4.weight f4 [17, 32]
0	0xbe329922	-0.17441228
1	0x3e5a4e78	0.21318996
2	0xbe4640ad	-0.1936061
3	0xbe235c55	-0.1595319
4	0xbeca83d1	-0.39553693
5	0xbe74fac9	-0.23923792
6	0xbdc02364	-0.0938175
7	0xbf406cf6	-0.7516626
8	0x3dbd7dcd	0.0925251
9	0x3d37e5e7	0.044896986
10	0xbf2f306c	-0.6843326
11	0xbcec7f8c	-0.028869413
12	0xbe880676	-0.2656743
13	0x3e9c553e	0.30533785
14	0xbdd35527	-0.10318976
15	0xbee6d11b	-0.4508141
16	0xbd45f70c	-0.048331305
17	0x3e6550d5	0.22394116
18	0xbd02e678	-0.031958073
19	0x3e895b01	0.26827243
20	0xbd3301c7	-0.043702867
21	0xbf272ea9	-0.6530557
22	0x3f596d61	0.84932524
23	0xbf53fe16	-0.8280958
24	0xbdb864d2	-0.09003605
25	0xbe8ec359	-0.27883413
26	0x3e82bd85	0.25535217
27	0xbe3af2af	-0.18256639
28	0xbe10b410	-0.14131188
29	0xbea38f82	-0.31945425
30	0xbf24ef29	-0.6442743
31	0x3c1ef536	0.0097020175
32	0xbea041b8	-0.3130014
33	0x3e7c0818	0.24612463
34	0xbe86af51	-0.2630563
35	0x3f0bd33d	0.546192
36	0x3e1d1357	0.15339409
37	0x3a8fb742	0.0010964649
38	0xbe8943b1	-0.26809457
39	0xbde9eff8	-0.114227235
40	0xbdf8f204	-0.12155536
41	0x3e3e32a9	0.18574013
42	0xbefe150b	-0.4962543
43	0xbef22aa3	-0.47298154
44	0x3cc0b50d	0.023523832
45	0xbebd2495	-0.36941972
46	0xbe27246d	-0.16322489
47	0x3dde1403	0.10843661
48	0xbe65b6eb	-0.22433059
49	0xbf1bb324	-0.6082022
50	0xbec7ffac	-0.3906225
51	0xbf17f34a	-0.59355605
52	0xbe8e6bd8	-0.27816653
53	0xbdb7e6bd	-0.08979557
54	0x3b37f9d6	0.0028072498
55	0xbddaba3d	-0.106800534
56	0x3e6ca152	0.23108414
57	0xbe8f6248	-0.2800467
58	0xbcfd7d27	-0.030943466
59	0x3eed8487	0.46390173
60	0xbebb2721	-0.3655329
61	0x3d8bd74e	0.068281755
62	0x3e2d2f7a	0.16912642
63	0x3e16fd7b	0.14745133
64	0x3eb2f86e	0.34955162
65	0xbe7ac706	-0.24489984
66	0xbf2ba7ba	-0.67052805
67	0xbca81438	-0.020517454
68	0x3e406a0b	0.18790452
69	0xbd0ac3dd	-0.033878196
70	0xbd27e8f7	-0.040993657
71	0x3f23c19e	0.6396731
72	0xbd829c29	-0.063774414
73	0xbe4e6674	-0.2015627
74	0xbf240dfe	-0.6408385
75	0x3bb2454b	0.0054403893
76	0xbf018ca5	-0.5060523
77	0x3f5bbd9e	0.8583621
78	0xbe2d8ec3	-0.1694899
79	0xbdd54523	-0.104135774
80	0xbdcfdb27	-0.10149222
81	0xbf9472cb	-1.1597532
82	0x3eb66dba	0.3563059
83	0x3e15abab	0.14616267
84	0x3dcd1171	0.10013092
85	0xbe29af7e	-0.16570851
86	0x3e2454cb	0.16047971
87	0x3ed2177b	0.4103354
88	0xbf828a3e	-1.0198438
89	0xbe3ec095	-0.18628152
90	0xbee287a3	-0.44244108
91	0xbefb5d18	-0.49094462
92	0xbeb91d67	-0.36155245
93	0x3e02585f	0.12729023
94	0xbe2426ee	-0.16030475
95	0x3f243df6	0.64157045
96	0x3e961085	0.29309478
97	0x3daee2d0	0.08539355
98	0x3d7e45d1	0.0620783
99	0xbf098c75	-0.53729945
100	0xbed05521	-0.40689948
101	0x3e900a7d	0.28133002
102	0x3ed78f67	0.42101595
103	0xbd22107f	-0.039566513
104	0x3f0e46c1	0.5557671
105	0xbdcfe632	-0.10151328
106	0xbea615c1	-0.32438472
107	0xbe4831dd	-0.19550271
108	0x3eed1305	0.46303573
109	0xbcc2a83f	-0.023761867
110	0xbd8efa48	-0.06981331
111	0x3ec51e02	0.38499457
112	0x3d46adf3	0.048505735
113	0xbf267a08	-0.65029955
114	0xbd95ce9a	-0.07314797
115	0xbec42da8	-0.38316083
116	0x3e3aedfb	0.18254845
117	0xbf818afc	-1.012054
118	0x3e996cfc	0.2996596
119	0x3f81f543	1.0152973
120	0x3f080be7	0.5314316
121	0x3d848a15	0.064716496
122	0xbef355d6	-0.47526425
123	0xbe00c466	-0.1257492
124	0x3e6e0f1a	0.23247948
125	0x3f176c2d	0.5914944
126	0xbe654928	-0.22391188
127	0xbeecdcc4	-0.4626218
128	0xbee4d99d	-0.44697276
129	0xbef010f2	-0.46887928
130	0xbf4cfc7e	-0.8007277
131	0x3ece8b70	0.40340757
132	0xbe71810d	-0.23584385
133	0xbf75b583	-0.9598009
134	0xbec839d5	-0.39106622
135	0x3ef9f195	0.48817125
136	0xbf290eca	-0.6603819
137	0xbdf576e6	-0.11985569
138	0x3e68df71	0.22741486
139	0x3e1f0600	0.15529633
140	0x3f30c5ea	0.6905199
141	0xbefe0344	-0.49611866
142	0x3e457cfe	0.19285962
143	0xbebc4c63	-0.36777028
144	0x3e888f28	0.2667172
145	0xbe126302	-0.14295581
146	0x3ead75bb	0.33878884
147	0x3d800d1e	0.06252502
148	0xbd8c42c6	-0.068486735
149	0xbe584b16	-0.21122393
150	0xbdf28a98	-0.11842841
151	0xbe3d6e03	-0.18498997
152	0xbe118c9d	-0.14213796
153	0xbeb09651	-0.34489682
154	0x3f49517d	0.78639966
155	0xbe79c652	-0.2439206
156	0xbea2f133	-0.31824645
157	0xbe91ab3a	-0.28450948
158	0x3f06ab59	0.52605206
159	0x3f425a38	0.7591891
160	0xbf54cce6	-0.8312515
161	0xbea438e6	-0.3207466
162	0xbf120d9c	-0.57052016
163	0xbf352db0	-0.7077284
164	0xbf2bdb08	-0.6713109
165	0x3ce7f0e3	0.028313106
166	0x3e822222	0.25416666
167	0xbe2b7df9	-0.16747274
168	0x3e98893d	0.29792204
169	0x3d97fb9c	0.074210376
170	0x3e1969f4	0.14981824
171	0x3f32f02b	0.6989772
172	0x3f0c85fc	0.54891944
173	0x3e0ca8b8	0.13736236
174	0x3e23864f	0.15969203
175	0xbf4f1fc7	-0.80907863
176	0xbe23ecb6	-0.16008267
177	0x3ed44060	0.41455364
178	0x3e840c53	0.25790653
179	0x3e9f7286	0.31142062
180	0x3e91cf63	0.28478536
181	0x3e17505a	0.14776745
182	0xbf176a15	-0.59146243
183	0x3e6267ba	0.22109881
184	0xbdbcf24d	-0.09225903
185	0xbf2355f4	-0.6380303
186	0xbddb3b8a	-0.107047155
187	0x3dd01317	0.10159891
188	0xbe7ca417	-0.2467197
189	0xbf722385	-0.9458545
190	0xbe9d2633	-0.30693206
191	0x3f1a9175	0.603782
192	0xbe9be1b5	-0.30445638
193	0x3e6cbcb5	0.23118861
194	0xbe1d8066	-0.15381011
195	0xbe84c659	-0.25932577
196	0x3d8c250d	0.068430044
197	0xbea539ad	-0.32270566
198	0x3e32f5e5	0.17476614
199	0xbce37c57	-0.02776925
200	0xbfaa2ab2	-1.329428
201	0x3ea8ac4f	0.3294396
202	0x3f5ef857	0.87097687
203	0x3e84e8d3	0.2595888
204	0x3f093393	0.5359432
205	0x3e5f26e6	0.21792182
206	0x3e41ffbb	0.1894521
207	0x3e5e64a5	0.2171808
208	0x3e088afe	0.13334271
209	0xbf1b4fbc	-0.6066854
210	0x3ed05a1d	0.4069375
211	0x3f19b5ac	0.60042834
212	0x3d9b6cb9	0.075890966
213	0xbf898bc7	-1.0745782
214	0x3e053868	0.13009799
215	0xbe9c0c53	-0.30478153
216	0x3e44e726	0.19228801
217	0x3edd68c8	0.43244004
218	0xbfa424b4	-1.2823701
219	0xbea187c3	-0.3154889
220	0x3da4fb3b	0.08055731
221	0x3e15e2bd	0.14637275
222	0x3ec5cf37	0.38634655
223	0x3d3f36bd	0.046683062
224	0x3e4da21a	0.20081368
225	0xbf0a9345	-0.54130965
226	0x3f3d954a	0.7405592
227	0xbea4521e	-0.320939
228	0xbeb4a384	-0.35281003
229	0xbea52213	-0.3225256
230	0x3f2e1f7c	0.6801679
231	0x3edb316f	0.42811152
232	0x3f285ab5	0.6576341
233	0xbebb27ff	-0.36553952
234	0xbe8738e8	-0.26410604
235	0x3d95c97c	0.07313821
236	0xbe12fef1	-0.14355065
237	0x3f8c0ca9	1.0941364
238	0xbf058907	-0.5216221
239	0xbe80577e	-0.2506675
240	0xbb2a92e3	-0.0026027493
241	0x3e562764	0.20913464
242	0xbc77e551	-0.015130357
243	0x3de78ef8	0.11306566
244	0x3d5def08	0.054183036
245	0xbf017fc7	-0.505856
246	0xbe53c22e	-0.20679542
247	0x3e277093	0.16351537
248	0xbd2d937f	-0.04237699
249	0x3f59ae1b	0.8503129
250	0x3ee4149e	0.4454698
251	0x3e2c7e4c	0.16845053
252	0x3ed310db	0.41223797
253	0x3d67f652	0.056631394
254	0x3e1437fd	0.14474483
255	0x3e0ce0bc	0.13757604

_mean_net.4.bias f4 [17]
0	0x3e3445a6	0.17604694
1	0x3dacc40b	0.0843583
2	0x3ed80fc8	0.4219954
3	0xbd4aa583	-0.04947425
4	0x3df298b5	0.11845533
5	0x3f3617d7	0.71130127
6	0x3f7fb1d4	0.9988072
7	0xbd51f862	-0.051262267
8	0xbe0dc449	-0.13844408
9	0x3e278f90	0.16363358
10	0x3ecc3cda	0.39890176
11	0x3ea62e71	0.32457307
12	0xbd998827	-0.07496672
13	0xbe9bfbc2	-0.30465513
14	0x3e9ce25a	0.30641443
15	0x3f13cd89	0.57735497
16	0xbec50d13	-0.38486537
