hw1/run_logs/q2_dagger_humanoid/policy_itr_6.pt (torch, 110267 bytes, 7 tensors)

_logstd f4 [17]
0	0xbf978f67	-1.1840638
1	0xbfa61a2d	-1.2976738
2	0xbf83ec84	-1.0306554
3	0xbf854892	-1.0412772
4	0xbf8ac496	-1.0841243
5	0xbf67b98d	-0.90517503
6	0xbf696b23	-0.911791
7	0xbf869f64	-1.0517392
8	0xbf7e7f35	-0.9941285
9	0xbf78fcb6	-0.97260606
10	0xbf73cd7f	-0.9523544
11	0xbfb312bd	-1.3990093
12	0xbfa9bf61	-1.3261529
13	0xbff68fc1	-1.926262
14	0xbfbad1fa	-1.459533
15	0xbfcbe193	-1.5928215
16	0xbff4f3f7	-1.9136952

_mean_net.0.weight f4 [64, 376]
0	0xbde4bd80	-0.11168957
1	0x3d4f67a9	0.050635967
2	0xbf4d0ef6	-0.80100954
3	0xc0103110	-2.2529945
4	0xbecb48be	-0.39703935
5	0xbf51bf6a	-0.819327
6	0x3f658a63	0.89664286
7	0x3e09062a	0.13381258
8	0xbf5f5c74	-0.8725045
9	0xc00c47fa	-2.191893
10	0x3f1f9e83	0.62351245
11	0xbf9a5e90	-1.2060108
12	0x3f3eee5d	0.74582464
13	0xbf0de2a9	-0.5542398
14	0xbe5f51a7	-0.21808492
15	0x3c889fac	0.0166777
16	0x3f6f61ce	0.93508613
17	0x3ed125d3	0.4084917
18	0x3ee66c72	0.45004612
19	0x3e9f11ae	0.31068176
20	0x3f051d4d	0.51997834
21	0x3afccd15	0.0019287193
22	0x3d87a5bf	0.066234104
23	0xbdda4498	-0.106576145
24	0xbf2b19e2	-0.6683637
25	0xbe80278a	-0.25030166
26	0xbddb1e4a	-0.106991366
27	0xbe424aee	-0.18973896
28	0xbd1e140e	-0.038593344
29	0x3cd7b487	0.0263312
30	0x3d10c275	0.0353417
31	0x3d777bcd	0.0604208
32	0xbd16f9d5	-0.036859352
33	0x3e0382d6	0.12842879
34	0xbd9b1e96	-0.07574193
35	0x3c9e8e1f	0.019354878
36	0x3d274d33	0.040845107
37	0x3d085d7d	0.033292282
38	0xbcb48045	-0.02203382
39	0xbe0095c8	-0.12557137
40	0xbd97f339	-0.07419438
41	0xbdb0b2d3	-0.08627858
42	0x3d727673	0.059194993
43	0x3d900147	0.07031494
44	0xbbf909a2	-0.0076000253
45	0x3cd927eb	0.026508292
46	0xbce04173	-0.027374959
47	0x3c78803c	0.015167292
48	0xbc73fb8c	-0.014891516
49	0xbbb944e0	-0.0056539625
50	0xbd4b1432	-0.049579807
51	0xbcc96d12	-0.024588142
52	0x3ce53f26	0.027984213
53	0xbc4d62c3	-0.012535754
54	0x3d52668e	0.051367335
55	0xbd0cf429	-0.034412537
56	0xbe29b13d	-0.16571517
57	0x3f3d483a	0.73938334
58	0xc057554f	-3.3645818
59	0x3f78f607	0.9725041
60	0xbba3882a	-0.0049905973
61	0xbe8c92c7	-0.27455732
62	0x3f0c1e8e	0.5473412
63	0xbc413f7d	-0.011794922
64	0x3d64a607	0.0558224
65	0xbe3278de	-0.1742892
66	0x3e870279	0.26369074
67	0x400baad3	2.1823013
68	0xc0b52e74	-5.6619205
69	0xbf064754	-0.5245259
70	0xbf50eeb0	-0.8161421
71	0x3f83cbb9	1.0296546
72	0x3fa058fe	1.2527158
73	0xbdd54a7d	-0.10414598
74	0x3dd034b7	0.101663046
75	0x3f1b7e05	0.60739166
76	0x3fb05cb9	1.3778297
77	0x3fbcc4f9	1.4747611
78	0x3f003eee	0.50096023
79	0x3f30283e	0.68811405
80	0x4095cd87	4.681339
81	0x400475c6	2.0696883
82	0x3e5a3317	0.21308552
83	0x3bda1d51	0.006656327
84	0x3deb8f7c	0.11501977
85	0x3f3bef5d	0.73412114
86	0x3dbb6609	0.09150321
87	0x3ecc087e	0.3985023
88	0x3fcf48cc	1.6194091
89	0x3f57ed02	0.8434602
90	0xbf39fc5b	-0.7265069
91	0x3f696c04	0.91180444
92	0xbf2fe2d3	-0.6870548
93	0xbe5d2a53	-0.21598177
94	0x3d4d9f5b	0.0502008
95	0xbc0a4eec	-0.008441668
96	0xbe3d9895	-0.18515237
97	0xbf035cd5	-0.51313525
98	0x3d7d8356	0.06189283
99	0x3f88ad25	1.067784
100	0xbd3ee2b5	-0.046602923
101	0xbd80135c	-0.062536925
102	0xbda0bc21	-0.07848383
103	0xbbf7e121	-0.0075646793
104	0x3d5282f2	0.05139441
105	0xbeacb3d5	-0.3373095
106	0xbe4ac366	-0.19801101
107	0xbdd5d0fc	-0.10440251
108	0x3f87f865	1.0622679
109	0x3f7b2779	0.98107105
110	0x3f189a8e	0.5961083
111	0xbd634856	-0.055488907
112	0x3f669d2e	0.9008359
113	0x3e108d96	0.14116511
114	0x3dbabb5f	0.091177694
115	0xbf2e8163	-0.6816618
116	0x3e358eb4	0.17730218
117	0x3e9ea22d	0.30983105
118	0xbef6ca70	-0.48201323
119	0x3f4384bc	0.7637441
120	0xbfe0f4e9	-1.7574741
121	0x400589cd	2.0865357
122	0xbf866268	-1.0498781
123	0x3df20628	0.118175805
124	0x3de5cf57	0.112211876
125	0xbf0c1ace	-0.547284
126	0xbe87a22f	-0.26490924
127	0x3fec6020	1.8466835
128	0x3f043bde	0.5165385
129	0xbe225afd	-0.15855022
130	0xbfb377cb	-1.4020933
131	0xbe373f8b	-0.17895333
132	0xbf3a213d	-0.7270697
133	0x3ea3cbc1	0.3199139
134	0x3def59e2	0.11687066
135	0xbeeb1661	-0.4591551
136	0xbe85ae05	-0.2610933
137	0x400ca733	2.197705
138	0x3fa45f68	1.2841616
139	0xbefc1def	-0.49241588
140	0xbee8282b	-0.45343146
141	0xbf35eef1	-0.7106772
142	0x3f23f0e9	0.64039475
143	0x3eb84112	0.35987145
144	0x3dce36c7	0.10069042
145	0xbf483358	-0.78203344
146	0xbf15e46e	-0.5855168
147	0xbf0ca757	-0.5494284
148	0xbf170f12	-0.5900737
149	0x3fea27e6	1.8293426
150	0xbf82334a	-1.0171902
151	0xbf167689	-0.5877462
152	0x3eba19ba	0.36347753
153	0xbed01f00	-0.4064865
154	0x3d13ac06	0.036052726
155	0xbeae6ce8	-0.34067464
156	0xbf5b9739	-0.8577762
157	0xbfb4d830	-1.4128475
158	0x3f27385c	0.6532037
159	0x40762cac	3.8464766
160	0xbfa2ae31	-1.2709409
161	0xbf904280	-1.1270294
162	0x3e1e346d	0.15449686
163	0xbf1c3958	-0.61025
164	0x3d6dbe1b	0.058042627
165	0x3e6512bd	0.2237043
166	0xbe4648ec	-0.19363755
167	0x3f778a33	0.9669525
168	0xc035f92b	-2.843333
169	0xbf450477	-0.7695994
170	0xbf16aec5	-0.5886043
171	0x3e7ca46a	0.24672094
172	0x3f445a8c	0.76700664
173	0xbcf10716	-0.029422324
174	0x3e0b78de	0.13620326
175	0x3f62d043	0.8859903
176	0xbd5c5794	-0.05379446
177	0x3f04679c	0.51720595
178	0xbe6af547	-0.22945128
179	0xbf64185b	-0.89099663
180	0xbfbc5e57	-1.471629
181	0xbf080e41	-0.5314675
182	0x3fa555df	1.2916831
183	0x3e130260	0.14356375
184	0x3d52ce74	0.05146642
185	0x3d421aed	0.04738896
186	0xbd369dff	-0.04458427
187	0xbd24a773	-0.040198755
188	0xbae5873f	-0.001751162
189	0xbce46fa7	-0.027885271
190	0x3c972a2e	0.01845273
191	0xbc82619e	-0.015915688
192	0xbd6f98a4	-0.05849518
193	0x3e04d3ac	0.12971371
194	0x3d8e69c6	0.069537684
195	0x3eb1d1bf	0.34730336
196	0xbdaf3909	-0.085558005
197	0x3cda01b1	0.026612135
198	0xbcac1bd8	-0.02100937
199	0x3d9bd797	0.0760948
200	0xbdf7c8e6	-0.12098865
201	0xbec9771a	-0.3934868
202	0xbe138a9b	-0.14408343
203	0x3ca10640	0.0196563
204	0xb9a09e61	-0.0003063558
205	0xbda95439	-0.08268017
206	0xbe74fa72	-0.23923662
207	0x3ded9cb7	0.116021566
208	0xbdeeeb55	-0.1166598
209	0x3d5d3eff	0.054015156
210	0xbd97e74a	-0.07417162
211	0xbcad9408	-0.02118875
212	0xbe689d5c	-0.22716278
213	0x3e070544	0.13185602
214	0x3eaa60e1	0.33277038
215	0xbd0e3d4d	-0.03472643
216	0x3d9d4e12	0.07680906
217	0xbca053b4	-0.019571163
218	0xbe090789	-0.1338178
219	0x3d6254f1	0.055256788
220	0x3d71471b	0.058905702
221	0xbcfa6bd9	-0.030569004
222	0xbaf5a566	-0.0018741309
223	0xbc990d09	-0.018682973
224	0xbdb745c3	-0.08948853
225	0xbcdf61a9	-0.027268248
226	0x3db0e2f0	0.08637035
227	0x3e0f56c6	0.13997945
228	0xbc8c3104	-0.017113216
229	0x3dab5f71	0.083678134
230	0x3d3cbc82	0.046078213
231	0x3f16cc07	0.5890507
232	0xbdb7aca2	-0.08968474
233	0xbdcea514	-0.1009008
234	0xbcf2e9bc	-0.029652469
235	0xbc7b5614	-0.015340347
236	0x3d57db6d	0.052699495
237	0xbe3afc34	-0.1826027
238	0xb965e42c	-0.00021924142
239	0xbe05f9ae	-0.13083526
240	0xbd500cc3	-0.05079342
241	0xbd04d4c2	-0.032429464
242	0x3de226f2	0.110425845
243	0xbe5f3984	-0.21799284
244	0xbd706655	-0.05869134
245	0xbe4f4dad	-0.20244475
246	0xbdc26d7b	-0.09493538
247	0x3df781ac	0.1208528
248	0xbe46f019	-0.19427527
249	0x3f05fe78	0.52341413
250	0xbcc4741e	-0.02398115
251	0x3c318355	0.010834535
252	0xbad38739	-0.0016138322
253	0x3d65b0ff	0.056077
254	0xbe263bcf	-0.16233753
255	0x3d877645	0.06614355

_mean_net.0.bias f4 [64]
0	0x3daad881	0.08342076
1	0xbdb4a36d	-0.088202335
2	0xbc6253c0	-0.013813913
3	0xbe9e30c1	-0.3089657
4	0x3cf12d2d	0.029440487
5	0x3e21d117	0.15802418
6	0x3d3a13e9	0.045429144
7	0x3e321ad3	0.17393045
8	0xbd95aabb	-0.07307955
9	0x3eb6c168	0.35694432
10	0xbec61767	-0.3868973
11	0xbe800030	-0.25000143
12	0xbd250c43	-0.040294897
13	0x3f4e7197	0.80642074
14	0x3d9bd042	0.076080814
15	0xbe7f0b98	-0.24906766
16	0x3db3849f	0.0876553
17	0xbcb81f18	-0.022475764
18	0xbe618115	-0.22021897
19	0xbe8ec466	-0.27884215
20	0xbe81ad71	-0.25327638
21	0x3de91836	0.11381571
22	0x3c81c3e6	0.015840482
23	0xbf26da83	-0.6517717
24	0xbd0f70c7	-0.035019662
25	0x3e5e2285	0.21692856
26	0xbe5110fa	-0.20416632
27	0xbf481ebd	-0.781719
28	0x3da6d713	0.08146491
29	0x3c8e1de1	0.017348232
30	0xbcd558bb	-0.026043287
31	0x3ad93087	0.0016570248
32	0xbee10a33	-0.43953094
33	0x3e278dab	0.16362636
34	0x3d912872	0.070877925
35	0xbcdea8f9	-0.027180182
36	0x3d745c41	0.059658293
37	0x3dc510a4	0.096223146
38	0xbe0b5407	-0.13606273
39	0xbe9c1d2a	-0.30491
40	0x3e8d041d	0.275422
41	0xbd0cae7e	-0.034346096
42	0xbc76d839	-0.0150662
43	0x3eaa7ce9	0.33298424
44	0xbd71bead	-0.059019733
45	0xbf1fffc5	-0.6249965
46	0x3ec6fb16	0.38863438
47	0xbdb56e74	-0.08858958
48	0xbd75b035	-0.059982497
49	0xbd20c24c	-0.039247796
50	0xbd3442ff	-0.044009205
51	0xbeaca4b4	-0.3371941
52	0x3e2e0a69	0.16996159
53	0x3f0e1535	0.5550111
54	0x3e16e9ad	0.14737578
55	0x3ee594c7	0.4484007
56	0xbe75bccd	-0.23997803
57	0xbcd8d76d	-0.02646991
58	0x3ba67196	0.0050794585
59	0x3d0184fb	0.03162096
60	0x3d4bad87	0.049726035
61	0x3c959794	0.018260755
62	0xbd81fda6	-0.06347208
63	0xbe7db5df	-0.2477641

_mean_net.2.weight f4 [32, 64]
0	0xbccd60c1	-0.02507055
1	0x3d1e8aa7	0.038706448
2	0xbc9c626e	-0.019089904
3	0xbdeaee34	-0.11471215
4	0xbeb45133	-0.352182
5	0xbdafedff	-0.08590316
6	0x3e43c6b8	0.19118774
7	0xbe76c7c9	-0.2409965
8	0x3bf47862	0.00746064
9	0xbcafcea9	-0.021460848
10	0xbe1457f0	-0.1448667
11	0xbe0f322d	-0.13983984
12	0x3d17055d	0.03687035
13	0xbefa0425	-0.48831287
14	0x3c4afddf	0.012389629
15	0xbe8b9cd2	-0.27268082
16	0xbdbe36ca	-0.09287794
17	0x3c132976	0.008982053
18	0x3e04b299	0.12958755
19	0xbd0474ee	-0.032338075
20	0x3d9e273d	0.07722328
21	0xbca2d6ff	-0.019877909
22	0x3e32eaf8	0.17472446
23	0xbeaa5ce5	-0.33273998
24	0xbcfb192d	-0.030651653
25	0x3e8bbc57	0.2729213
26	0x3db47fcf	0.0881344
27	0x3eab4541	0.33451274
28	0xbdb7db3a	-0.08977361
29	0xbd195215	-0.037431795
30	0x3dd72ab4	0.10506192
31	0xbe4671d8	-0.19379365
32	0x3da0416f	0.078249805
33	0x3db852a6	0.09000139
34	0xbd224e1c	-0.039625272
35	0xbc8d0fe5	-0.017219493
36	0xbdaa3c54	-0.08312288
37	0xbe186c70	-0.14885116
38	0xbe055c56	-0.13023505
39	0xbda10e22	-0.07864024
40	0xbda9f0d5	-0.08297888
41	0x3e7a712a	0.24457231
42	0xbee8746c	-0.45401323
43	0xbd5ad585	-0.053426284
44	0x3ade93b1	0.0016981271
45	0xbe811219	-0.2520912
46	0xbe5b7ab6	-0.2143353
47	0x3d028238	0.031862468
48	0xbe2a5056	-0.16632208
49	0xbe2cb299	-0.16865005
50	0x3d8df6dc	0.0693185
51	0xbd9e610a	-0.077333525
52	0xbdcb8aa4	-0.09938553
53	0xbd914f49	-0.070952006
54	0x3cf6963f	0.03010094
55	0x3daf2ba0	0.08553243
56	0xbd681c88	-0.056667835
57	0xbe937028	-0.28796506
58	0x3d44a9c6	0.04801347
59	0xbe21c288	-0.15796864
60	0xbe1911d7	-0.14948212
61	0x3ee1f9b3	0.44135818
62	0x3b719fab	0.0036868851
63	0x3d96f782	0.07371427
64	0x3d934e35	0.07192651
65	0xbd2f3012	-0.042770453
66	0xbd7ffdd2	-0.06249792
67	0xbe1a3f26	-0.15063152
68	0x3e01ac63	0.12663417
69	0xbd1ab814	-0.037773207
70	0xbbfbc3e8	-0.007683266
71	0x3d84a485	0.06476692
72	0xbe369e80	-0.178339
73	0xbe07d974	-0.13266546
74	0xbe3ec004	-0.18627936
75	0x3dd3cde6	0.103420064
76	0xbe0899b5	-0.13339885
77	0xbd0d0911	-0.034432475
78	0x3b66c9dd	0.0035215535
79	0x3def1904	0.11674693
80	0x3d0a84ea	0.033818163
81	0x3d458c83	0.048229706
82	0xbcaefc3f	-0.021360515
83	0x3d7818a6	0.06057038
84	0x3e0a22e9	0.1348988
85	0x3dcdfc77	0.100579195
86	0xbe0e2514	-0.13881332
87	0xbcfaa516	-0.030596297
88	0xbdd25117	-0.10269373
89	0x3e76b7ab	0.24093501
90	0x3da4f2a6	0.08054094
91	0x3f05b1f4	0.5222466
92	0x3da14fbc	0.07876536
93	0xbd95120d	-0.072788335
94	0xbe6bf0b9	-0.23041047
95	0xbc8dfce6	-0.017332505
96	0xbe13053c	-0.14357466
97	0x3c15b3ae	0.009137077
98	0xbdc4dda9	-0.09612591
99	0x3dfa32d5	0.12216727
100	0x3d156fae	0.03648346
101	0xbd3abe04	-0.04559137
102	0x3e22f989	0.15915503
103	0xbd34a801	-0.044105534
104	0x3d9086b0	0.070569396
105	0x3d0a8eda	0.03382764
106	0x3ea9c874	0.33160746
107	0xbcf377ed	-0.029720271
108	0xbcd7eb34	-0.02635727
109	0x3e25d0b2	0.16192892
110	0x3e03ebe1	0.1288295
111	0xbdfdf475	-0.12400142
112	0xbe24db64	-0.16099316
113	0x3e06c9b0	0.13162875
114	0x3a3556e0	0.00069175474
115	0x3e230b95	0.15922387
116	0x3cab65c2	0.020922545
117	0xbdf8d4de	-0.12149976
118	0xbdc05a86	-0.09392266
119	0x3ce929a6	0.028462242
120	0x3ce4797c	0.02788996
121	0x3e21c34a	0.15797153
122	0x3d0357ad	0.032066036
123	0x3dee22f3	0.1162776
124	0x3b86ff7f	0.004119813
125	0xbd10d190	-0.035356104
126	0xbdd23965	-0.102648534
127	0xbd115889	-0.035484824
128	0xbdb7b311	-0.08969701
129	0x3db5b2ad	0.0887197
130	0x3e5985ef	0.21242498
131	0x3d0fc00f	0.03509527
132	0xb97a0827	-0.00023844895
133	0xbd81668a	-0.06318386
134	0x3e8a0336	0.26955575
135	0x3d55a3a8	0.052158028
136	0x3e622e35	0.22087939
137	0xbc7c23d2	-0.0153894
138	0xbd639469	-0.055561457
139	0xbd6650b4	-0.05622931
140	0x3d0762ce	0.033053212
141	0xbdb26056	-0.08709781
142	0x3d33695f	0.04380166
143	0x3d2e6a85	0.042582054
144	0xbd5c5fe3	-0.053802382
145	0xbcdfcf84	-0.02732063
146	0x3d49a16f	0.04922622
147	0xbb8e470c	-0.0043419655
148	0x3c87bcd7	0.016569538
149	0xbd5d4674	-0.054022267
150	0x3d251183	0.040299904
151	0x3da5db03	0.08098414
152	0x3d31b3b4	0.04338427
153	0xbd760c57	-0.060070362
154	0x3e162083	0.1466084
155	0xbeccf429	-0.4003003
156	0xbb68cec4	-0.0035523633
157	0xbd61bfd4	-0.055114582
158	0xbdbb637f	-0.09149837
159	0xbd35e4fe	-0.044407837
160	0xbc681490	-0.014165059
161	0x3dc048e0	0.093889
162	0xbd1ae7d0	-0.03781873
163	0xbdaa24c7	-0.08307796
164	0xbd0f4f88	-0.034987956
165	0xbe1ef00e	-0.15521261
166	0xbd095ab2	-0.03353376
167	0x3d4f3622	0.050588734
168	0xbcdbc207	-0.026825918
169	0x3d39912e	0.04530447
170	0xbe356b73	-0.1771677
171	0xbd7d147a	-0.061787106
172	0x3df5bb56	0.11998622
173	0xbdb9799a	-0.09056397
174	0xbd52596d	-0.051354814
175	0x3c295c11	0.010336892
176	0xbdd01e0e	-0.101619825
177	0xbe4460ba	-0.19177523
178	0xbe218966	-0.1577507
179	0xbe3297df	-0.17440747
180	0xbd70b466	-0.05876579
181	0xbcc2f8d0	-0.023800284
182	0xbe113b5e	-0.14182803
183	0xbe2cef8a	-0.16888252
184	0x3d477ca3	0.048702847
185	0x3cdaf5db	0.026728561
186	0xbc74fe64	-0.01495323
187	0xbba00027	-0.0048828307
188	0xbd2657e4	-0.040611163
189	0x3dde968e	0.1086856
190	0x3d1e13d0	0.038593113
191	0x3d0d3296	0.03447207
192	0xbd7745ea	-0.06036941
193	0xbcc789cf	-0.024357704
194	0x3be0f4e4	0.0068651307
195	0xbda7148d	-0.081582166
196	0xbe8cb57a	-0.27482206
197	0xbdb5b341	-0.088720806
198	0xbe8c0aa0	-0.27351856
199	0xbd03b17e	-0.03215169
200	0x3da95c01	0.082695015
201	0x3da4c5bc	0.08045527
202	0x3eac888a	0.3369792
203	0x3dcddbe0	0.100517035
204	0x3cf53c63	0.029936021
205	0x3e00ff93	0.12597494
206	0xbd6a6f12	-0.05723483
207	0xbcc29799	-0.023753928
208	0xbdb5ae45	-0.0887113
209	0x3cff70b2	0.031181667
210	0xbcc33566	-0.023829173
211	0xba89a978	-0.0010502776
212	0xbe0eec76	-0.1395739
213	0x3caa4979	0.020786988
214	0x3e39f475	0.18159659
215	0xbdcb5573	-0.099284075
216	0xbe3b2f8e	-0.1827986
217	0xbdf38dab	-0.118922554
218	0xbca61e11	-0.020278009
219	0xbe7b9ac3	-0.24570756
220	0x3cb9b805	0.022670755
221	0x3ca63cbb	0.02029263
222	0x3d880838	0.066421926
223	0x3d3be5be	0.045873396
224	0x3e21d33f	0.1580324
225	0xbc0439c9	-0.008070418
226	0x3d8f1f2f	0.0698837
227	0x3d45acfb	0.04826067
228	0xbe91c7ff	-0.28472897
229	0x3caade16	0.020857852
230	0x3d068ecc	0.032851025
231	0x3cc1759c	0.02361565
232	0xbdfa5b30	-0.12224424
233	0xbd9c2f9e	-0.0762627
234	0xbde6764a	-0.112530306
235	0xbdaf973f	-0.0857377
236	0xbb97ff1d	-0.004638566
237	0xbead50f9	-0.3385084
238	0x3dbcd2d3	0.09219899
239	0x3c33c232	0.010971593
240	0xbe25628f	-0.16150878
241	0x3e7ff9ea	0.24997678
242	0xbe3f83a1	-0.18702556
243	0x3dfcc2b5	0.12341825
244	0x3a5a4c41	0.0008327403
245	0xbd0583c6	-0.032596372
246	0x3d1a52b0	0.037676513
247	0x3c02daff	0.007986783
248	0xbd425958	-0.047448486
249	0xbd14a86d	-0.036293436
250	0xbc09afd3	-0.008403736
251	0xbbd2fbde	-0.0064387163
252	0xbe1cf61d	-0.1532826
253	0xbe97ad0d	-0.29624215
254	0x3d600579	0.05469272
255	0xbc144ab7	-0.0090510165

_mean_net.2.bias f4 [32]
0	0x3eda3313	0.42617092
1	0xbe994d35	-0.29941717
2	0xbe3b8c08	-0.18315136
3	0xbdce183f	-0.10063218
4	0x3f145b4e	0.5795182
5	0x3f03e9ff	0.51528925
6	0xbddc7edf	-0.10766386
7	0x3e68a25b	0.22718184
8	0x3e39f440	0.1815958
9	0x3e6a32a5	0.22870882
10	0xbbe848ef	-0.0070887725
11	0xbd90eae2	-0.0707605
12	0x3f486c56	0.7829031
13	0xbe326346	-0.17420682
14	0xbe11558e	-0.14192793
15	0xbea96da8	-0.33091474
16	0x3e5c5fb3	0.21520881
17	0xbd978f4b	-0.07400378
18	0xbf24a6c9	-0.64316994
19	0xbe568461	-0.20948936
20	0xbdca3906	-0.098741576
21	0xbe755f4b	-0.23962133
22	0x3eb585ea	0.3545373
23	0x3e7ac547	0.24489318
24	0xbd624cb0	-0.055248916
25	0xbdad0208	-0.08447653
26	0xbef716bf	-0.4825954
27	0x3ed08bde	0.4073171
28	0x3ea04d43	0.31308946
29	0x3d4f6680	0.05063486
30	0xbe47ee8f	-0.19524597
31	0xbe370bb0	-0.17875552

_mean_net.4.weight f4 [17, 32]
0	0xbe133869	-0.14376988
1	0x3e51564f	0.2044308
2	0xbdfe33ea	-0.124122456
3	0xbe92cf1f	-0.28673646
4	0xbee1f35b	-0.44130978
5	0xbe527dbd	-0.20555778
6	0xbec0ec39	-0.37680224
7	0xbf2d6116	-0.67726266
8	0x3ea4d363	0.32192525
9	0x3c9ac89a	0.018894482
10	0xbe10eae0	-0.14152098
11	0x3e0bf67a	0.13668242
12	0xbeca71c0	-0.3953991
13	0x3ee4f853	0.44720706
14	0xbea12503	-0.3147355
15	0xbefb6a6d	-0.49104634
16	0xbf09d09d	-0.53833944
17	0x3f2c984e	0.674199
18	0xbc8955c3	-0.016764527
19	0x3e191332	0.14948729
20	0xbdac9b1d	-0.08428023
21	0xbec30b7d	-0.38094702
22	0x3f4894e3	0.78352183
23	0xbef4b81d	-0.47796717
24	0x3d022356	0.03177198
25	0xbcc46f13	-0.023978746
26	0x3ddf680b	0.109085165
27	0x3dd15482	0.10221197
28	0xbe92d7eb	-0.28680357
29	0xbef38daf	-0.47569034
30	0xbe94650b	-0.2898334
31	0x3e247495	0.16060098
32	0xbe41e18a	-0.18933693
33	0x3e9f4b19	0.31111982
34	0xbeccb0e5	-0.3997871
35	0x3f096f7a	0.53685725
36	0x3e1b98d6	0.15195021
37	0xbe57e2cf	-0.21082614
38	0xbecc1533	-0.39859924
39	0xbf02964a	-0.5101057
40	0xbba3ca32	-0.004998469
41	0x3e8c5cab	0.2741445
42	0xbf0b3188	-0.54372454
43	0xbeb44fc9	-0.3521712
44	0x3de4a194	0.11163631
45	0xbe3668e5	-0.17813452
46	0xbddde96b	-0.108355366
47	0x3e77118b	0.24127786
48	0xbe131b2f	-0.14365838
49	0xbf1644b6	-0.58698595
50	0xbea6b38b	-0.32558855
51	0xbea5f7b9	-0.3241556
52	0xbe7732a2	-0.24140409
53	0x3da1478e	0.07874976
54	0xbe195421	-0.14973499
55	0x3dae7c39	0.08519787
56	0x3e774082	0.24145702
57	0xbe3eac6f	-0.18620466
58	0x3e8494ba	0.2589472
59	0x3ecdb561	0.40177444
60	0xbeb5cfe6	-0.35510176
61	0xbe880048	-0.26562715
62	0x3e6d9a90	0.23203492
63	0x3e433ad3	0.19065408
64	0x3bdc04aa	0.006714423
65	0xbeee68a8	-0.4656422
66	0xbed3ad48	-0.4134314
67	0xbe6f5fd1	-0.23376395
68	0xbdc966ad	-0.09834037
69	0xbe702f15	-0.2345546
70	0xbcb85c0e	-0.022504833
71	0x3f51e94d	0.81996614
72	0x3e0d169c	0.13778156
73	0x3d045158	0.032304138
74	0xbf586a52	-0.8453723
75	0x3e0a2af9	0.13492955
76	0xbed480fc	-0.41504657
77	0x3f822330	1.0166988
78	0x3e8d9429	0.276521
79	0x3deca469	0.11554796
80	0xbdb78f81	-0.08962918
81	0xbeacdfc4	-0.3376447
82	0x3e619d61	0.22032692
83	0x3e7b1f3f	0.24523638
84	0x3e27e95a	0.1639761
85	0xbcb5fdd6	-0.022215765
86	0x3ebcb2b2	0.36855084
87	0x3e8dd9c1	0.27705196
88	0xbf949a03	-1.1609501
89	0xbeeafade	-0.4589452
90	0x3d375638	0.04475996
91	0xbe85e5c2	-0.26151854
92	0xbe19c19f	-0.15015267
93	0x3e43e2e8	0.19129527
94	0x3e309d9f	0.17247628
95	0x3eaba8f6	0.33527344
96	0x3dff8dd4	0.124782234
97	0xbd125f2d	-0.035735298
98	0xbdc129c1	-0.09431792
99	0xbe8843e9	-0.2661431
100	0xbee786bd	-0.45219985
101	0x3e944c26	0.28964347
102	0x3e6545bf	0.22389887
103	0xbe2c36e0	-0.16817808
104	0x3e8ce767	0.27520296
105	0xbdacf0fe	-0.08444403
106	0xbf779b97	-0.96721786
107	0xbf13da98	-0.5775542
108	0x3f0b8b5f	0.5450954
109	0x3c922d5f	0.0178439
110	0xbe866be6	-0.26254195
111	0x3e7562e6	0.23963508
112	0x3e922d90	0.28550386
113	0xbf193a21	-0.5985432
114	0xbe1ad5f8	-0.15120685
115	0xbe618309	-0.22022642
116	0x3c0d812c	0.008636754
117	0xbeb837bb	-0.3598002
118	0x3f1e73d2	0.6189548
119	0x3f18d45c	0.59699035
120	0x3eafe72d	0.3435606
121	0x3ec939ff	0.3930206
122	0xbebc8b6a	-0.36825114
123	0x3eab85a7	0.33500406
124	0x3e03466e	0.12819836
125	0x3f0b06ac	0.54307055
126	0xbe6eb925	-0.23312815
127	0xbf1c88b6	-0.61146104
128	0xbd80bd54	-0.062861115
129	0xbedf0ef6	-0.43566102
130	0xbf690fad	-0.91039544
131	0x3edd494d	0.43219987
132	0xbd06d0ad	-0.032913852
133	0xbf39cc73	-0.7257759
134	0xbea52443	-0.32254228
135	0x3ea84344	0.3286382
136	0xbedfd076	-0.4371373
137	0xbe036b69	-0.12833942
138	0x3ed7433a	0.42043477
139	0x3d25355e	0.040334098
140	0x3e8f8f2d	0.28038922
141	0xbf0de0c7	-0.5542111
142	0x3e48ced1	0.19610144
143	0xbeaab4ad	-0.3334097
144	0x3d22ebae	0.039775543
145	0x3e9424eb	0.28934416
146	0x3e61faa5	0.2206827
147	0x3e15c5c1	0.14626218
148	0x3dde4df5	0.10854713
149	0xbe0d051f	-0.13771485
150	0xbe4fed8e	-0.20305464
151	0xbdd4e8f6	-0.10395996
152	0xbe199e20	-0.15001726
153	0xbee77a5c	-0.4521054
154	0x3ee449ce	0.44587559
155	0xbea7dd4f	-0.32786033
156	0xbe9dfdb5	-0.30857626
157	0xbefa5e9e	-0.48900312
158	0x3eafe3f3	0.343536
159	0x3f005d74	0.501426
160	0xbefb2b58	-0.49056506
161	0xbe342266	-0.17591247
162	0xbf232d0f	-0.6374063
163	0xbf69e00e	-0.91357505
164	0xbe956747	-0.29180357
165	0xbcacefeb	-0.021110496
166	0x3f01c4cb	0.5069091
167	0x3d5dc436	0.0541422
168	0x3eb02d4b	0.34409556
169	0x3e0b6cf6	0.13615784
170	0x3e36c7c7	0.17849647
171	0x3dba83b4	0.09107152
172	0x3e503383	0.2033215
173	0xbdd4016a	-0.10351832
174	0x3e9fdc51	0.31222776
175	0xbf613338	-0.8796878
176	0xbe890037	-0.26757976
177	0x3eb21d48	0.34787965
178	0x3efb6e24	0.49107468
179	0x3f0a89e6	0.54116666
180	0x3e9fc9cc	0.31208646
181	0x3e1a5f63	0.1507545
182	0xbf02198f	-0.5082025
183	0x3e55bd3d	0.2087297
184	0xbdb6d9ba	-0.08928247
185	0xbe7bc462	-0.24586633
186	0xbea924a0	-0.33035755
187	0x3e9ed64a	0.31022865
188	0xbc644a8d	-0.01393379
189	0xbf41c818	-0.75695944
190	0xbebbd09c	-0.36682594
191	0x3e96a59a	0.2942322
192	0xbe68e618	-0.22744024
193	0x3ead9809	0.33905056
194	0xbf46f26e	-0.7771367
195	0xbdc2b684	-0.09507468
196	0x3e3a7a5e	0.18210742
197	0x3cae7f28	0.021300867
198	0x3ddf8349	0.109137125
199	0x3e54cf25	0.20782144
200	0xbfa48a5c	-1.2854724
201	0x3d0b8f99	0.034072492
202	0x3eb52042	0.35376173
203	0xbde84857	-0.11341923
204	0x3ee3f47d	0.44522467
205	0x3e0dfe57	0.13866554
206	0x3ce38b72	0.027776454
207	0x3e659c0e	0.22422811
208	0xbd3e3f5f	-0.046447154
209	0xbe382cd4	-0.1798585
210	0x3ec7c1db	0.39015087
211	0x3efbf624	0.49211228
212	0x3dc0bff7	0.094116144
213	0xbf029bbd	-0.5101889
214	0x3f3ad86b	0.7298648
215	0xbe0f2f6d	-0.13982935
216	0xbe50693c	-0.20352644
217	0x3e6387b4	0.22219735
218	0xbf8034fa	-1.0016167
219	0xbebbd9d0	-0.36689615
220	0x3ea89f55	0.3293406
221	0x3dfebb5c	0.1243808
222	0x3e1f4d70	0.15556884
223	0xbe43dd30	-0.19127345
224	0xbda4f0ca	-0.08053739
225	0xbebf24c4	-0.37332737
226	0x3f44bd48	0.7685132
227	0xbdc36d0b	-0.09542283
228	0xbea2d57d	-0.31803504
229	0xbe8b1ace	-0.27168888
230	0x3f058ff2	0.5217277
231	0x3f0caf66	0.54955137
232	0x3eb5d550	0.35514307
233	0xbefa7231	-0.48915246
234	0xbe80e015	-0.2517096
235	0xbea87548	-0.32901978
236	0xbc68f8fe	-0.014219521
237	0x3f185ba2	0.5951482
238	0xbeb7055a	-0.3574627
239	0xbe935f89	-0.28783825
240	0x3ec2ddd3	0.38059863
241	0x3d843785	0.06455902
242	0xbe15e62c	-0.14638585
243	0x3e45ea82	0.19327739
244	0x3d43d923	0.0478145
245	0xbeaf9540	-0.34293556
246	0xbe87f2a3	-0.26552305
247	0x3dd51a26	0.10405378
248	0xbe40303c	-0.187684
249	0x3f4bf6e5	0.79673606
250	0x3ef4e660	0.47832012
251	0xbe7776d8	-0.24166429
252	0x3e7e9d46	0.24864683
253	0x3ee0b65d	0.43889132
254	0x3d1a9d67	0.037747767
255	0x3d9a571e	0.075361475

_mean_net.4.bias f4 [17]
0	0x3e1e06a6	0.15432224
1	0xbd82feab	-0.0639623
2	0x3eb492f5	0.3526837
3	0xbe7d9ec0	-0.2476759
4	0x3d2fb2f0	0.042895257
5	0x3f50e52a	0.81599677
6	0x3f176688	0.59140825
7	0x3e299462	0.1656051
8	0x3c8aa22d	0.016923035
9	0x3e136141	0.14392568
10	0x3e5d31c4	0.21601015
11	0x3de72f72	0.11288346
12	0x3ba164fd	0.004925369
13	0xbe3d52bb	-0.1848859
14	0x3ea4381e	0.32074064
15	0x3f1c01db	0.6094033
16	0xbe6975d7	-0.22798859
