hw1/run_logs/q2_dagger_humanoid/policy_itr_5.pt (torch, 110267 bytes, 7 tensors)

_logstd f4 [17]
0	0xbf92d6a7	-1.1471757
1	0xbfa9acf7	-1.325591
2	0xbf816abb	-1.0110697
3	0xbf805939	-1.0027229
4	0xbf87a7b0	-1.0598049
5	0xbf707aac	-0.9393718
6	0xbf694d1b	-0.9113328
7	0xbf8c6aaa	-1.0970051
8	0xbf7ef0f4	-0.99586415
9	0xbf80c7b2	-1.0060942
10	0xbf68dc9a	-0.9096161
11	0xbfaf0fde	-1.3676717
12	0xbfa7a291	-1.3096486
13	0xbff29473	-1.8951553
14	0xbfbe8a5e	-1.4885976
15	0xbfcb9f7b	-1.5908045
16	0xbff6c40b	-1.9278578

_mean_net.0.weight f4 [64, 376]
0	0xbd828b56	-0.063742325
1	0x3d73b04d	0.059494305
2	0xbf33ace8	-0.7018571
3	0xc00f787b	-2.2417285
4	0xbee934bf	-0.45548055
5	0xbf40a3db	-0.75250024
6	0x3f8c98aa	1.0984089
7	0x3e515ddd	0.20445962
8	0xbf5c1b8d	-0.8597954
9	0xc010bf2d	-2.2616684
10	0x3ec023a7	0.375272
11	0xbfadbb65	-1.3572813
12	0x3edf11dc	0.43568313
13	0xbf380fef	-0.7189931
14	0xbd0f1651	-0.034933392
15	0xbd2a8922	-0.041634686
16	0x3f90e8b9	1.1321021
17	0x3eef23e3	0.46707067
18	0x3ed4f278	0.4159124
19	0x3e67964d	0.22615929
20	0x3f07188f	0.5277185
21	0xbc8be588	-0.017077222
22	0x3d5d3036	0.054001056
23	0xbe43287a	-0.1905841
24	0xbf48ada7	-0.7838997
25	0xbe8f0505	-0.27933517
26	0xbe0f6ffa	-0.1400756
27	0xbe831675	-0.2560307
28	0xbdda2de5	-0.10653285
29	0x3b66e978	0.0035234373
30	0x3ce6f1de	0.028191503
31	0x3d2b4a13	0.04181869
32	0xbd0471fe	-0.032335274
33	0x3dd6f2b5	0.104955114
34	0xbdad5e0b	-0.08465203
35	0xbb831e0c	-0.0040013846
36	0x3d7ff843	0.06249262
37	0x3b9b21ae	0.0047342395
38	0xbd0b13ae	-0.033954315
39	0xbe057f65	-0.13036878
40	0xbdab8d2c	-0.08376536
41	0xbdd062d3	-0.10175099
42	0x3db91c24	0.090385705
43	0x3dd3c5d7	0.10340469
44	0xbceb9042	-0.02875531
45	0x3cd927eb	0.026508292
46	0xbce04173	-0.027374959
47	0x3c78803c	0.015167292
48	0xbc73fb8c	-0.014891516
49	0xbbb944e0	-0.0056539625
50	0xbd4b1432	-0.049579807
51	0xbcc96d12	-0.024588142
52	0x3ce53f26	0.027984213
53	0xbc4d62c3	-0.012535754
54	0x3d52668e	0.051367335
55	0xbd0d1bdd	-0.0344504
56	0xbe453b92	-0.19261006
57	0x3f484836	0.78235185
58	0xc0413f7b	-3.0194995
59	0x3f82a300	1.0205994
60	0xbd8a4120	-0.06750703
61	0xbebc13db	-0.367339
62	0x3f0c0e78	0.5470958
63	0xbc86ab60	-0.01643914
64	0x3d7b7ef0	0.061400354
65	0xbe4f3a3f	-0.20237063
66	0x3e45b345	0.19306667
67	0x400b174c	2.173297
68	0xc090ab30	-4.520897
69	0xbf018f82	-0.506096
70	0xbe132b31	-0.14371945
71	0x3f7d9a36	0.9906343
72	0x3f16f08f	0.58960813
73	0xbe0c97e1	-0.13729812
74	0x3ddba140	0.10724115
75	0x3f2a121e	0.66433895
76	0x3fb13614	1.3844628
77	0x3fbbb4b3	1.466452
78	0x3f1219b6	0.5707048
79	0x3ec71806	0.38885516
80	0x407fab26	3.994821
81	0x40053638	2.0814342
82	0xbed3948f	-0.4132428
83	0xbece06cc	-0.4023956
84	0x3df6fc0b	0.12059792
85	0x3f17cf77	0.5930094
86	0x3d93075c	0.07179138
87	0x3f45afe4	0.7722151
88	0x3ff04754	1.8771768
89	0x3f6930a7	0.9108986
90	0xbf1ec911	-0.62025553
91	0x3f97875b	1.1838182
92	0xbf28ec58	-0.6598563
93	0xbe1a0cf9	-0.15044011
94	0x3d647847	0.055778768
95	0xbda9437b	-0.08264824
96	0xbe5e90aa	-0.21734872
97	0xbccd91a3	-0.025093859
98	0x3dd720ec	0.10504326
99	0x3f8427d1	1.0324651
100	0x3dfb560d	0.12272272
101	0x3d5e5934	0.05428429
102	0xbd8e50b6	-0.06948988
103	0x3d6cbd9d	0.057798017
104	0x3d695bdc	0.05697237
105	0xbeb8b34b	-0.3607429
106	0xbe777114	-0.2416423
107	0x3e45064d	0.19240685
108	0x3f5cceeb	0.8625323
109	0x3f6b55ea	0.9192797
110	0x3f36d086	0.7141193
111	0xbc557221	-0.013027699
112	0x3f4ba4ea	0.79548514
113	0x3e38fba8	0.18064749
114	0x3dc627e9	0.09675581
115	0xbf0cad9b	-0.549524
116	0x3e88d1e6	0.2672264
117	0x3ec255f2	0.37956196
118	0xbf508ffd	-0.8146971
119	0x3ef49b29	0.47774628
120	0xbfc87815	-1.5661646
121	0x40009d78	2.0096111
122	0xbf773ef1	-0.96580416
123	0x3d52c804	0.05146028
124	0x3df13be3	0.117790006
125	0xbf0106f9	-0.50401264
126	0xbe685289	-0.22687735
127	0x3ff7ba12	1.9353659
128	0xbe676edc	-0.22600883
129	0xbe9a2e22	-0.30113322
130	0xbfbba993	-1.4661125
131	0xbe82ac31	-0.25521997
132	0xbf4e6b8e	-0.80632865
133	0x3e9b136f	0.30288264
134	0x3dfac66e	0.12244879
135	0xbee3248c	-0.4436382
136	0xbe737ad4	-0.23777324
137	0x40116666	2.271875
138	0x3eba979b	0.3644379
139	0xbf0d7f7e	-0.5527266
140	0xbf4e19ca	-0.805081
141	0xbf3db6e2	-0.7410718
142	0x3e37928a	0.17926994
143	0x3eb8cb4d	0.36092606
144	0x3dd9a351	0.10626853
145	0xbf46f37b	-0.7771527
146	0xbf15044a	-0.5820967
147	0xbec6fabd	-0.38863173
148	0xbfa27657	-1.2692364
149	0x3ff8765f	1.9411124
150	0xbf8320e4	-1.0244412
151	0xbf27daf4	-0.6556847
152	0x3ec65a15	0.38740602
153	0xbed8fb34	-0.42379153
154	0x3d2a84f8	0.041630715
155	0xbefd4ec6	-0.49474162
156	0xbf44978b	-0.76793736
157	0xbf9abd81	-1.2089082
158	0xbeff97d3	-0.4992052
159	0x408207de	4.0634604
160	0xbfb25553	-1.3932289
161	0xbf8a8280	-1.0821075
162	0x3e9a3b93	0.30123577
163	0xbf365148	-0.71217775
164	0x3d824b7e	0.06362055
165	0x3e7e0150	0.24805188
166	0xbe5ae79e	-0.21377417
167	0x3f696aa0	0.9117832
168	0xc02ff4cc	-2.7493162
169	0xbf4c6bca	-0.79851973
170	0xbf232104	-0.6372225
171	0x3e98618e	0.29761928
172	0x3f513c68	0.817328
173	0xbc8b0ca6	-0.016973805
174	0x3e112f18	0.14178121
175	0x3f74319c	0.953882
176	0xbe08b86f	-0.13351606
177	0x3f0e520a	0.5559393
178	0xbe9829ed	-0.29719487
179	0xbf30b709	-0.6902929
180	0xbfb80bd3	-1.4378608
181	0xbf07e9a3	-0.53090876
182	0x3fb24266	1.3926513
183	0x3e196794	0.14980918
184	0x3d69a760	0.057044387
185	0x3d421aed	0.04738896
186	0xbd369dff	-0.04458427
187	0xbd24a773	-0.040198755
188	0xbae5873f	-0.001751162
189	0xbce46fa7	-0.027885271
190	0x3c972a2e	0.01845273
191	0x3a5a1039	0.00083184574
192	0xbd26fea7	-0.0407702
193	0x3e47ae41	0.19500066
194	0x3d6f2657	0.058386173
195	0x3eafdfc5	0.3435041
196	0xbe524974	-0.20535833
197	0xbd12a482	-0.035801418
198	0xbd36a143	-0.044587385
199	0x3d897283	0.067112945
200	0xbde8d9d4	-0.113696724
201	0xbedb36f4	-0.42815363
202	0xbddd1f0a	-0.10796936
203	0x3d1f021e	0.03882038
204	0xbce26e7e	-0.027640577
205	0xbd3b4a6d	-0.045725275
206	0xbe62713a	-0.22113505
207	0x3e0f5f3a	0.1400117
208	0xbcb3f0f4	-0.021965481
209	0x3d889c61	0.06670452
210	0xbd9e1344	-0.077185184
211	0xbcfc751d	-0.030817563
212	0xbe2b2758	-0.16714227
213	0x3e45f6f6	0.1933249
214	0x3edbe853	0.42950687
215	0xbd4929a2	-0.04911197
216	0x3dbf36d4	0.093366295
217	0xbc2da0ae	-0.010597391
218	0xbe2d8cf8	-0.16948307
219	0x3cb7eefa	0.02245282
220	0x3d68812a	0.056763805
221	0xbd382241	-0.044954542
222	0x3c7091d7	0.014683208
223	0xbc1f1359	-0.009709203
224	0xbe00284e	-0.12515375
225	0xbd760e4f	-0.06007224
226	0x3dac7fff	0.08422851
227	0x3de94d92	0.113917485
228	0x3cf65742	0.030070905
229	0x3df65a43	0.12028935
230	0x3d788516	0.060673796
231	0x3f13239c	0.5747621
232	0x3b0bb460	0.0021317229
233	0xbdaa0df6	-0.08303444
234	0xbd2e88df	-0.042611
235	0xbcf7aab0	-0.030232757
236	0x3d902958	0.07039136
237	0xbe31eec5	-0.1737624
238	0xbc33a6ec	-0.01096509
239	0xbde75c51	-0.11296905
240	0xbd829065	-0.06375197
241	0xbd41d49f	-0.047321912
242	0x3e033145	0.12811764
243	0xbe562c15	-0.20915253
244	0xbd8e3512	-0.06943716
245	0xbe8922ff	-0.26784512
246	0xbdd1ab87	-0.10237794
247	0x3e06eee7	0.13177072
248	0xbe4bddb8	-0.19908798
249	0x3f29ef4e	0.66380775
250	0xbd80a270	-0.062809825
251	0xba907b8a	-0.0011023146
252	0xbc90d665	-0.017680356
253	0x3d816937	0.06318896
254	0xbe463e71	-0.19359757
255	0x3d1d04a5	0.038334507

_mean_net.0.bias f4 [64]
0	0x3db64508	0.088998854
1	0xbdbb6510	-0.091501355
2	0xbc1a892d	-0.009432119
3	0xbe895c8f	-0.2682843
4	0x3d0e3f4d	0.034728337
5	0x3e234c23	0.15947013
6	0x3d2079c1	0.039178614
7	0x3e0eeb92	0.1395705
8	0xbd95b4ee	-0.073099
9	0x3eb0bfd7	0.34521362
10	0xbedc1059	-0.42981222
11	0xbe62debe	-0.22155282
12	0xbccc1d46	-0.024916302
13	0x3f304be2	0.6886579
14	0x3deeabaf	0.1165384
15	0xbe735831	-0.23764111
16	0x3ddfb47b	0.10923096
17	0xbcde0cec	-0.027105771
18	0xbe5d62ce	-0.21619722
19	0xbe84345f	-0.25821206
20	0xbe8954c5	-0.26822487
21	0x3de12d45	0.109949626
22	0x3c2bb750	0.010480717
23	0xbf15ec07	-0.58563274
24	0xbca663e8	-0.02031131
25	0x3e56c60e	0.2097399
26	0xbe693eba	-0.22777835
27	0xbf238a17	-0.63882583
28	0x3de211e8	0.110385716
29	0x3ce9d1c0	0.0285424
30	0xbcd873a3	-0.026422327
31	0x3ab02d9f	0.001344133
32	0xbed193a5	-0.40932956
33	0x3e25a092	0.16174534
34	0x3d8f0d8a	0.06985004
35	0xbd0446c3	-0.032294046
36	0x3d8c8a1c	0.0686228
37	0x3dae1cb2	0.08501567
38	0xbe2734fe	-0.16328809
39	0xbe8dfed0	-0.2773347
40	0x3e7eada3	0.24870925
41	0xbd069cfd	-0.03286456
42	0xbc3e56f7	-0.011617414
43	0x3e960f78	0.29308677
44	0xbd476ab2	-0.048685737
45	0xbf024892	-0.50891984
46	0x3ea67229	0.32508972
47	0xbd8b7f3a	-0.06811376
48	0xbd309246	-0.043108247
49	0xbd185632	-0.037191577
50	0xbd2ea068	-0.042633444
51	0xbea016bf	-0.31267354
52	0x3e240f83	0.16021542
53	0x3f018fd0	0.50610065
54	0x3e02a9af	0.12760042
55	0x3ee29bc1	0.44259456
56	0xbe8ce0e5	-0.2751533
57	0xbcd2cbf5	-0.02573202
58	0x3c67d570	0.014150009
59	0x3b4095c6	0.0029386147
60	0x3d49894e	0.04920321
61	0x3cb2d0af	0.021828024
62	0xbd9397d8	-0.07206696
63	0xbe6a40d6	-0.22876295

_mean_net.2.weight f4 [32, 64]
0	0xbc785e84	-0.015159253
1	0x3d54440f	0.05182272
2	0x3d1c0d5c	0.038098678
3	0xbe0ab1c5	-0.13544376
4	0xbeee1490	-0.46500063
5	0xbdcfd878	-0.1014871
6	0x3e636b46	0.2220889
7	0xbe811b92	-0.25216347
8	0x3c9b27b7	0.018939836
9	0x3d0d8d89	0.034558807
10	0xbe146f27	-0.14495526
11	0xbdfea76a	-0.124342754
12	0xbc06dedb	-0.008231844
13	0xbeefb3e6	-0.4681694
14	0xbc4e8025	-0.012603794
15	0xbec1f8a8	-0.37885022
16	0xbdb47eb5	-0.0881323
17	0x3c9e0e1c	0.019293837
18	0x3e59a06e	0.21252605
19	0xbc3d9201	-0.011570455
20	0x3e0920a5	0.13391359
21	0x3c8b6c9b	0.01701956
22	0x3e201269	0.15632023
23	0xbef578a4	-0.47943604
24	0xbca29315	-0.019845525
25	0x3e9a94b6	0.30191582
26	0x3d9f30d6	0.077729866
27	0x3ed106cc	0.40825498
28	0xbdb84d39	-0.08999104
29	0x3c27ed82	0.010249497
30	0x3dba95f0	0.091106296
31	0xbe674397	-0.22584377
32	0x3dd8b612	0.10581602
33	0x3dae2f69	0.085051365
34	0x3c4b6e50	0.012416437
35	0xbcb93f15	-0.022613088
36	0xbddbd6e0	-0.107343435
37	0xbdbfd04b	-0.093659006
38	0xbdfbfbb2	-0.123038664
39	0xbdcc569a	-0.099774554
40	0xbdb748ab	-0.08949407
41	0x3e853d8d	0.26023522
42	0xbef39820	-0.47577
43	0xbd2d0d57	-0.04224905
44	0xbdd36bfc	-0.10323331
45	0xbe766eb7	-0.24065672
46	0xbe328bee	-0.17436191
47	0x3d590383	0.052981865
48	0xbdd1a552	-0.102366105
49	0xbe1e0766	-0.1543251
50	0x3dbc1d49	0.09185273
51	0xbd0094c7	-0.031391885
52	0xbd8293ad	-0.06375823
53	0xbe0cc7db	-0.13748114
54	0x3d6d7085	0.057968635
55	0x3dfbe285	0.122990645
56	0xbe130742	-0.14358237
57	0xbe8ead18	-0.27866435
58	0x3b3357f2	0.0027365652
59	0xbdb963a6	-0.090522096
60	0xbe316013	-0.17321806
61	0x3ea834cc	0.3285278
62	0x3d0d2e75	0.034468133
63	0x3def85fd	0.11695478
64	0x3c3444cd	0.0110027315
65	0xbd9bde2f	-0.076107375
66	0x3c0843f3	0.008316982
67	0xbe275da0	-0.16344309
68	0x3e1b7437	0.15181051
69	0xbd87a363	-0.066229604
70	0x3d1fbb03	0.038996708
71	0x3d5f5d1c	0.054532155
72	0xbe3f1011	-0.18658473
73	0xbe50404a	-0.20337024
74	0xbe010518	-0.125996
75	0x3d95e517	0.07319086
76	0xbdfe3f77	-0.12414449
77	0x3d467ef7	0.048460927
78	0xbb1fcdcc	-0.002438414
79	0x3debdd36	0.11516802
80	0x3d17f488	0.037098438
81	0x3d7cfb0b	0.06176285
82	0xbd322035	-0.043487746
83	0x3d498bea	0.049205698
84	0x3dae0f1d	0.084989764
85	0x3da7a939	0.081865735
86	0xbdbb8c20	-0.09157586
87	0x3cbc9846	0.023021828
88	0xbd1249b0	-0.035714805
89	0x3e31711d	0.17328306
90	0x3d769ccc	0.060208127
91	0x3efb8d7a	0.49131376
92	0x3dc65282	0.09683706
93	0xbdb48711	-0.088148244
94	0xbe4629ea	-0.19351926
95	0xbd5c935d	-0.053851474
96	0xbe1be940	-0.15225697
97	0x3b0d4469	0.0021555668
98	0xbdab7386	-0.08371644
99	0x3df3d3cd	0.11905632
100	0x3ceaa358	0.028642341
101	0xbd79ca98	-0.060984224
102	0x3e030c2a	0.12797609
103	0xbd9008b1	-0.07032908
104	0x3de65ef3	0.11248579
105	0xbc464d6d	-0.012103421
106	0x3ea81406	0.32827777
107	0xbc9a0ba7	-0.018804384
108	0xbd8c4ad2	-0.06850208
109	0x3e0a0da7	0.1348177
110	0x3cfe64bb	0.031053891
111	0xbdb224be	-0.08698414
112	0xbdb475fc	-0.08811566
113	0x3df07b69	0.117422886
114	0x3ca327af	0.019916384
115	0x3ddb5282	0.107090965
116	0x3d97924f	0.07400953
117	0xbde7bdc4	-0.11315492
118	0xbd9663c0	-0.073432446
119	0x3d95cd58	0.07314557
120	0x3d94e5db	0.07270404
121	0x3dcfe344	0.10150769
122	0x3d2c6047	0.042084005
123	0x3e206c73	0.1566637
124	0xbcbe124f	-0.02320209
125	0x3cada55c	0.021197014
126	0xbdc98dfa	-0.09841533
127	0x3c0bece6	0.008540368
128	0xbdcfa58d	-0.10138998
129	0x3db51ab3	0.08842983
130	0x3e630efc	0.22173685
131	0x3c5a8e3a	0.0133395735
132	0xbbed41c2	-0.007240505
133	0xbd99fb6d	-0.07518659
134	0x3e93a310	0.28835344
135	0x3d902d6f	0.07039916
136	0x3e103bd8	0.14085329
137	0xbdd7fff0	-0.10546863
138	0xbd42c580	-0.047551632
139	0xbd91f66d	-0.0712708
140	0x3c296048	0.010337897
141	0xbde69a4a	-0.11259897
142	0x3d301885	0.042992134
143	0x3d7398df	0.05947196
144	0xbd8fc98b	-0.07020863
145	0xbcb2a220	-0.021805823
146	0x3ce86e7e	0.028373
147	0x3bc7d918	0.0060988776
148	0x3b76d6af	0.0037664582
149	0xbccb8dcf	-0.024847893
150	0x3d6ea16c	0.058259413
151	0x3dbafcc6	0.09130244
152	0xbc29eaf8	-0.010370962
153	0xbda74a25	-0.08168439
154	0x3e4373c9	0.19087137
155	0xbed4097e	-0.41413492
156	0x3b2ab0ef	0.0026045402
157	0xbcbeaab6	-0.02327476
158	0xbdaa2d8c	-0.083094686
159	0x3c884620	0.016635
160	0xbc6d4baa	-0.014483372
161	0x3dfd4770	0.12367141
162	0xbd0cbb3d	-0.03435825
163	0xbe15bf3c	-0.14623731
164	0xbd3c2130	-0.045930088
165	0xbde5ef43	-0.11227276
166	0xbd44d3d5	-0.04805358
167	0x3d2598d4	0.04042895
168	0xbc05255b	-0.008126582
169	0x3d8fba9a	0.07018013
170	0xbe37d7d2	-0.17953423
171	0xbcfd44ec	-0.030916654
172	0x3e07eee7	0.13274728
173	0xbdef4a18	-0.11684054
174	0xbd888692	-0.06666292
175	0x3ccffdc3	0.025389558
176	0xbdd2f70e	-0.10301028
177	0xbe640f05	-0.22271354
178	0xbe38ca85	-0.18046005
179	0xbe4b68b9	-0.19864167
180	0xbd8e43c7	-0.06946521
181	0xbceb0ee7	-0.02869363
182	0xbe2e7628	-0.1703726
183	0xbe40b815	-0.18820222
184	0x3d4c441c	0.04986964
185	0x3d84013a	0.064455464
186	0xbbfe4126	-0.007759231
187	0x3c8e3321	0.017358365
188	0xbcd288de	-0.025700029
189	0x3e180d04	0.14848715
190	0x3ccd04b6	0.02502666
191	0x3d98aeb7	0.07455199
192	0xbbeaf368	-0.0071701296
193	0xbcf5762c	-0.029963575
194	0x3d3b9ded	0.045804907
195	0xbdc4ea86	-0.09615044
196	0xbea5afbc	-0.32360637
197	0xbdb91fb2	-0.090392485
198	0xbe87af6f	-0.26501033
199	0xbd13f19a	-0.03611908
200	0x3db80760	0.08985782
201	0x3db169c0	0.08662748
202	0x3ebd48ec	0.36969697
203	0x3db1949c	0.08670923
204	0x3c1d85dc	0.009614434
205	0x3e34c9ec	0.17655152
206	0xbd34c470	-0.04413265
207	0xbd6058a6	-0.05477204
208	0xbd936c24	-0.071983606
209	0x3d54babe	0.051935904
210	0xbad45a3e	-0.0016201211
211	0x3b3fa0e0	0.0029240176
212	0xbe15de01	-0.14635469
213	0xbbddafee	-0.006765357
214	0x3e13cd6d	0.14433832
215	0xbdbdcb13	-0.09267249
216	0xbe4f3a55	-0.20237096
217	0xbdb9ed23	-0.09078433
218	0xbcb6e989	-0.022328155
219	0xbe701a8d	-0.23447628
220	0x3c354bcf	0.011065437
221	0x3ca9378d	0.020656371
222	0x3d143eb8	0.036192626
223	0x3ceb0f3f	0.028693793
224	0x3db4f396	0.08835523
225	0xbce66161	-0.028122606
226	0x3d9bb5e8	0.07603055
227	0x3dcf514c	0.10122928
228	0xbe921998	-0.2853515
229	0x3d4bc23c	0.049745783
230	0x3d8147db	0.063125335
231	0x3d3221b5	0.043489177
232	0xbe27ddbc	-0.16393179
233	0xbdfdfa54	-0.12401262
234	0xbd3bb021	-0.045822266
235	0xbdcdd2a6	-0.100499436
236	0xbc3e7c09	-0.011626252
237	0xbea3b888	-0.31976724
238	0x3ddd769e	0.1081364
239	0x3cbf9c00	0.023389816
240	0xbe38b626	-0.18038234
241	0x3e62f9e3	0.22165637
242	0xbe82901a	-0.25500566
243	0x3e1148de	0.14187953
244	0xbb8836bb	-0.004156915
245	0xbd827d51	-0.063715585
246	0x3cd06957	0.025440855
247	0xbc40cf1f	-0.0117681315
248	0xbd92a072	-0.07159509
249	0xbd1ce8a5	-0.038307805
250	0x3b01e93f	0.0019822863
251	0xbc852ace	-0.016255762
252	0xbe0db825	-0.13839777
253	0xbeb68610	-0.35649157
254	0x3d6ad25d	0.057329524
255	0xbca8a089	-0.020584362

_mean_net.2.bias f4 [32]
0	0x3ec0d275	0.37660566
1	0xbe6ac61e	-0.22927138
2	0xbe3cbd4f	-0.1843159
3	0xbdeaecbe	-0.11470936
4	0x3f0e3000	0.5554199
5	0x3f039760	0.51402855
6	0xbe14b732	-0.14523008
7	0x3e62e6d8	0.22158372
8	0x3e339d30	0.17540431
9	0x3e827a57	0.25483963
10	0xbc399138	-0.011326127
11	0xbd440ab9	-0.04786179
12	0x3f448c69	0.7677675
13	0xbe335885	-0.17514236
14	0xbdad21c1	-0.08453704
15	0xbea2ac5e	-0.3177213
16	0x3e67415f	0.22583531
17	0xbd903820	-0.07041955
18	0xbf230e6a	-0.6369387
19	0xbe7203be	-0.2363424
20	0xbd815236	-0.063145086
21	0xbe82ba64	-0.2553283
22	0x3ea89ca6	0.32932013
23	0x3e814c6b	0.25253615
24	0xbd23d80f	-0.04000097
25	0xbdc7f3f2	-0.09763326
26	0xbf040499	-0.51569515
27	0x3ee810ff	0.45325467
28	0x3e8b1bc9	0.27169636
29	0x3d860129	0.0654319
30	0xbe552bbf	-0.20817469
31	0xbe3b9951	-0.18320204

_mean_net.4.weight f4 [17, 32]
0	0xbe10ca8a	-0.14139763
1	0x3e264ee9	0.1624104
2	0xbe005987	-0.12534152
3	0xbe901248	-0.28138947
4	0xbefea300	-0.49733734
5	0xbe192aaf	-0.14957689
6	0xbed9d1d7	-0.42542908
7	0xbf26294f	-0.6490678
8	0x3e3df758	0.18551385
9	0x3d102017	0.035186853
10	0xbe5a7d16	-0.21336779
11	0x3e286bb7	0.1644734
12	0xbec29166	-0.38001555
13	0x3ed36498	0.41287684
14	0xbea6aaa0	-0.32552052
15	0xbefe58b0	-0.49677038
16	0xbf0f54e1	-0.5598889
17	0x3f17dc8f	0.5932092
18	0xbd139dd1	-0.036039177
19	0x3debb463	0.115090154
20	0xbdecd9ba	-0.115649655
21	0xbe8d2c1d	-0.27572718
22	0x3f48f6f4	0.7850182
23	0xbef5a930	-0.47980642
24	0x3b9571b7	0.004560675
25	0xbd15ad58	-0.036542267
26	0x3dfaa547	0.122385554
27	0x3e08f9e4	0.13376576
28	0xbe95b7a1	-0.2924166
29	0xbf0203fe	-0.5078734
30	0xbe85d9d3	-0.2614275
31	0x3e3cc719	0.18435325
32	0xbded6e7c	-0.11593339
33	0x3eb434bc	0.35196483
34	0xbec67d60	-0.3876753
35	0x3ede9ed0	0.4348054
36	0x3e3ffe12	0.18749264
37	0xbe6804a3	-0.22658019
38	0xbee40248	-0.4453299
39	0xbf046f0f	-0.5173196
40	0x3c53938d	0.012913597
41	0x3e9a99a9	0.30195358
42	0xbef6dcb5	-0.4821526
43	0xbe8f7708	-0.280205
44	0x3e197ec9	0.14989771
45	0xbe60e7cc	-0.21963423
46	0xbe097592	-0.13423756
47	0x3e45a18b	0.19299905
48	0xbdc95972	-0.098315135
49	0xbf0fcb5b	-0.5616967
50	0xbe8fba68	-0.28071904
51	0xbe82da09	-0.25556973
52	0xbe67e897	-0.2264732
53	0x3dbf41a0	0.09338689
54	0xbe2982e7	-0.16553842
55	0x3e0095a5	0.12557085
56	0x3e74cd68	0.23906481
57	0xbe6e2ab4	-0.23258477
58	0x3e84d199	0.2594116
59	0x3ec060e5	0.37573925
60	0xbeb73991	-0.35786107
61	0xbea8d5ba	-0.3297556
62	0x3e3c815b	0.1840872
63	0x3e74682e	0.23867866
64	0xbcb46314	-0.0220199
65	0xbf01b4ae	-0.5066632
66	0xbebde38f	-0.37087676
67	0xbe8adf98	-0.27123713
68	0xbdfea302	-0.12433435
69	0xbe7309bd	-0.23734184
70	0xbc66b8de	-0.014082162
71	0x3f4e3fb8	0.8056598
72	0x3d1189f3	0.03553195
73	0x3df6d224	0.120518
74	0xbf48e270	-0.78470516
75	0x3e514870	0.20437789
76	0xbeeaf396	-0.45888966
77	0x3f73e79d	0.9527529
78	0x3e862917	0.26203224
79	0x3e13a92a	0.1442
80	0xbb652c38	-0.0034968983
81	0xbe9443e3	-0.28958043
82	0x3e2c6d8a	0.16838661
83	0x3e593c3b	0.21214382
84	0x3e147076	0.14496025
85	0x3dd7142b	0.105018936
86	0x3e8eaeb8	0.27867675
87	0x3eb38e20	0.3506937
88	0xbf93bb26	-1.1541488
89	0xbed2e7cf	-0.4119248
90	0x3c366561	0.011132569
91	0xbe199c8b	-0.15001123
92	0xbdf0d920	-0.11760163
93	0x3da55708	0.080732405
94	0x3e52c519	0.20583
95	0x3ec16b27	0.37777063
96	0x3e17578d	0.14779492
97	0xbd85ed12	-0.06539358
98	0xbdcc613d	-0.09979484
99	0xbe88da69	-0.26729134
100	0xbedf07b3	-0.43560562
101	0x3e98a7a4	0.298154
102	0x3e34bcf1	0.176502
103	0xbe5c06e6	-0.21487007
104	0x3e5c1c40	0.21495152
105	0xbdf1d52e	-0.11808239
106	0xbf716aaa	-0.9430338
107	0xbee4d941	-0.44697002
108	0x3f174c88	0.5910115
109	0xbe0cadf8	-0.13738239
110	0xbe8ef1bb	-0.279188
111	0x3e529954	0.20566303
112	0x3eb39b48	0.35079408
113	0xbee918a0	-0.455266
114	0xbe4f68bc	-0.20254797
115	0xbe62abde	-0.22135875
116	0xbcaf4684	-0.02139593
117	0xbe967a4a	-0.29390174
118	0x3f083a1a	0.53213656
119	0x3f25884d	0.64661103
120	0x3e86ba3e	0.26313967
121	0x3ea712dc	0.32631576
122	0xbedee851	-0.43536618
123	0x3eef7e5f	0.467761
124	0x3e20abd1	0.15690543
125	0x3ef0bfab	0.4702123
126	0xbe6116f1	-0.21981408
127	0xbf209223	-0.62722987
128	0xbd852bda	-0.06502505
129	0xbedd54f4	-0.43228877
130	0xbf5c4e37	-0.86056846
131	0x3eb26cc9	0.3484862
132	0x3df4b699	0.1194889
133	0xbf32fcf9	-0.69917256
134	0xbe90ef88	-0.28307748
135	0x3e9bce12	0.30430657
136	0xbec248f5	-0.37946287
137	0xbe09c658	-0.13454568
138	0x3ec753ad	0.38931027
139	0xbdb02753	-0.086012505
140	0x3e52ad06	0.20573816
141	0xbf119a8c	-0.56876445
142	0x3e6b50d8	0.22980058
143	0xbe93878e	-0.28814358
144	0x3d351f9a	0.04421959
145	0x3ea045a0	0.3130312
146	0x3e8ad533	0.27115783
147	0x3e0c3400	0.13691711
148	0x3d6e599a	0.05819092
149	0xbd8efd7b	-0.06981941
150	0xbe0197c5	-0.12655552
151	0xbe4afb8d	-0.19822522
152	0xbdb5066e	-0.08839117
153	0xbeca7582	-0.39542776
154	0x3ecbf604	0.39836133
155	0xbead8324	-0.33889115
156	0xbe94b9fa	-0.2904814
157	0xbed4bf65	-0.41552272
158	0x3e89c226	0.26905936
159	0x3f1bae02	0.6081239
160	0xbee5dab9	-0.44893435
161	0xbcc95813	-0.02457813
162	0xbf0b0825	-0.543093
163	0xbf6282b4	-0.8848069
164	0xbe3a2d2d	-0.18181296
165	0xba1476c7	-0.0005663451
166	0x3f06d253	0.5266468
167	0x3cf9d06f	0.030494897
168	0x3e8df721	0.27727607
169	0x3e32fb4d	0.17478676
170	0x3e39faa8	0.18162024
171	0xbb1b0e97	-0.002365982
172	0x3d8b7023	0.06808498
173	0xbd77ec73	-0.06052823
174	0x3e8e760d	0.2782444
175	0xbf543244	-0.828892
176	0xbea2337d	-0.31679907
177	0x3eb3ccc5	0.35117164
178	0x3f10d655	0.56577045
179	0x3f1fafc8	0.62377596
180	0x3ea11c94	0.31467116
181	0x3e1c88f8	0.15286624
182	0xbf0139a6	-0.5047859
183	0x3e979464	0.296054
184	0xbd924942	-0.07142879
185	0xbe4dab93	-0.20084982
186	0xbea5aacc	-0.3235687
187	0x3e9770c5	0.29578224
188	0x3d7a6e67	0.061140444
189	0xbf37d024	-0.7180197
190	0xbead8449	-0.33889988
191	0x3e69f5c6	0.22847661
192	0xbe63656b	-0.22206657
193	0x3ee227c6	0.4417097
194	0xbf354636	-0.7081026
195	0xbd57adfe	-0.052656166
196	0x3e2c19c2	0.16806701
197	0x3dc43a6a	0.09581454
198	0x3d51f2cb	0.051256936
199	0x3e745de7	0.23863946
200	0xbf9fa8e5	-1.2473418
201	0x3c59ef2f	0.013301655
202	0x3e9188f8	0.2842481
203	0xbe3007cd	-0.17190476
204	0x3eedc273	0.46437415
205	0x3e52fae1	0.20603515
206	0xbd7238cb	-0.059136193
207	0x3e6a1dbb	0.22862904
208	0xbad426e1	-0.0016185903
209	0xbdbaf0c0	-0.09127951
210	0x3eb78912	0.35846764
211	0x3ef38198	0.4755981
212	0x3df85dd9	0.12127275
213	0xbee60110	-0.44922686
214	0x3f3268e3	0.69691294
215	0xbe0d25c8	-0.13783944
216	0xbeaf632f	-0.3425536
217	0x3e5d94ec	0.2163884
218	0xbf60d3b0	-0.8782301
219	0xbecf2fa8	-0.40466046
220	0x3e9f2df6	0.31089753
221	0x3e1bf458	0.15229928
222	0x3e25f413	0.16206388
223	0xbe557d34	-0.20848542
224	0xbdd95a8c	-0.106129736
225	0xbec9aa77	-0.39387867
226	0x3f339236	0.70144975
227	0xbcb10192	-0.021607194
228	0xbea6cc2a	-0.3257764
229	0xbe6935bb	-0.22774403
230	0x3eefb799	0.4681976
231	0x3efc65d0	0.49296427
232	0x3eb7fa60	0.35933208
233	0xbefbfe69	-0.49217537
234	0xbe8e5c1f	-0.27804658
235	0xbea0248d	-0.31277886
236	0x3cee5fd7	0.029098434
237	0x3f01c5b6	0.5069231
238	0xbeb8bc12	-0.36080986
239	0xbe7d40bf	-0.2473173
240	0x3ed47b25	0.41500202
241	0x3d9bf4b9	0.076150365
242	0xbe6b35c4	-0.22969729
243	0x3dca63af	0.098822944
244	0x3d3cc43c	0.04608558
245	0xbecdd0f0	-0.4019847
246	0xbe1c8013	-0.15283231
247	0x3dc2ed99	0.095179744
248	0xbe748583	-0.23879056
249	0x3f4e2513	0.8052532
250	0x3ead729a	0.33876497
251	0xbe318e63	-0.17339472
252	0x3e0767ef	0.13223241
253	0x3ed8099c	0.4219483
254	0x3e1111ff	0.14167021
255	0x3d041372	0.032245107

_mean_net.4.bias f4 [17]
0	0x3e17e1da	0.1483225
1	0xbd7fad61	-0.062421206
2	0x3eac769d	0.33684245
3	0xbe93d9ef	-0.28877208
4	0x3dd72e90	0.10506928
5	0x3f64f879	0.8944164
6	0x3ef5ca6d	0.48006
7	0x3dcbfb29	0.099600144
8	0x3d2a0502	0.041508682
9	0x3de103da	0.10987063
10	0x3e664e6e	0.22490856
11	0x3d2825d4	0.0410517
12	0xbb8917c1	-0.00418374
13	0xbe6a5787	-0.22884952
14	0x3e933303	0.28749856
15	0x3f1aa6ac	0.6041057
16	0xbe6d92ee	-0.2320058
