hw1/run_logs/q2_dagger_humanoid/policy_itr_11.pt (torch, 110342 bytes, 7 tensors)

_logstd f4 [17]
00000000: e99b 9cbf 4210 adbf fe9c 89bf b006 88bf
00000010: 55cb 8ebf a4f7 77bf bc59 78bf 63f5 8dbf
00000020: f4a0 84bf 9d8d 82bf bdf7 82bf 38c6 bebf
00000030: b569 acbf 94a8 fcbf cff8 c1bf 8792 cdbf
00000040: 837f fabf
-1.223508 -1.3520586 -1.0751035 -1.0627041 -1.1155802 -0.96862245 -0.97011924 -1.1090511
-1.0361619 -1.0199467 -1.0231854 -1.4904242 -1.3469759 -1.9738946 -1.5154055 -1.6060342
-1.9570163

_mean_net.0.weight f4 [64, 376]
00000000: d994 e9be 7640 923d 805b 8ebf bf2a 0dc0
00000010: 954f b5be 2a6d dfbe 9f90 f53c 109d d73d
00000020: 2bce 1a3e a628 e1bf befd 2b3f cc53 94bf
00000030: 5df3 083f a6df b7be 546f 7cbf 3180 7a3e
00000040: 72d5 133f ff7f 413e 1209 653e 18a8 8f3e
00000050: 319c 9c3e e9d2 b23b 6464 1b3d 05af 903e
00000060: c886 19be 3f67 27be 849d e1bd 74b4 09be
00000070: 3db9 46bd 2b60 b2bc f943 1abc 26f1 9a3c
00000080: 6d6f 86bd 6ce7 4c3d 6335 31bd 68bb 90bc
00000090: 5405 fc3c cbc1 963c 1b11 42bc 1c7b 85bd
000000a0: 2d1f 8fbc 8b5c 5fbd 28fa 913c 0e96 cd3c
000000b0: 5c05 913c eb27 d93c 7341 e0bc 3c80 783c
000000c0: 8cfb 73bc e044 b9bb 3214 4bbd 126d c9bc
000000d0: 263f e53c c362 4dbc 8e66 523d 2f8a 92bc
000000e0: e1f5 c9bd e1ea 263e c714 76c0 4fe5 373f
000000f0: c6b7 793d 119c ca3d a7c9 4a3e 116b 673c
00000100: 2273 833d 069b 68be 7e77 523e fc66 0c40
00000110: 97a0 acc0 b957 81be 169a 2fc0 1495 5d3f
00000120: 0b29 2040 c94b f0bd d454 e13d eadd b3bd
00000130: f231 f83f 76df d33f 85ba b440 60ce d83f
00000140: 2f6b 3940 2392 a93f d4c0 9a3f 94a6 8c3e
00000150: 9daf fc3d 771e 8f3f 8dd7 1d3e 7367 5fbf
00000160: 2e96 6b3e 2604 803f a752 6dbf 1d90 733e
00000170: 69a5 2dbf 6f1c dbbe 88df 6f3d 234c 0c3e
00000180: 7017 9abe 3a45 03c0 2750 dabe 3eec ac3f
00000190: 9087 ddbe 8200 cfbe 4acf 14be 35d3 1fbe
000001a0: 1dc3 743d 3d24 c2be 8da8 97be fb6b 6bbf
000001b0: 108a b13f e9f1 9c3f 0ca0 8e3e 0a3a abbe
000001c0: e6a0 763f 3e35 a63d 83db cb3d b3a7 84bf
000001d0: b1be 13be f790 40bd b53d c33f 9807 ae3e
000001e0: 548f 0bc0 ae5c ce3f 4252 91bf 834b 843e
000001f0: 77ef f63d 3434 2dbf 8c40 dabe 1efa b53f
00000200: 63ad 1840 e61e fb3e 2967 b3bf 0d64 383e
00000210: 8dbf f2be e2fb b03e ff3c 003e 52d3 ffbe
00000220: 43ce b1be 966a ce3f f523 2d40 e2f7 253c
00000230: 3805 babd 3544 d6be a11e bd3f 8355 983e
00000240: eb56 df3d e0f0 7cbf c836 6ebe d49e 9ebf
00000250: e3bd fb3f 8e6a 883f 711d 66bf d19b 0e3d
00000260: b2df a63e b6be 75be 39ec 353d f509 0cbf
00000270: 640b 13be cd1c c3bf 7957 a83f c82e f93f
00000280: 04f9 c7be 5ca8 49bf e032 01bd 9f71 9d3e
00000290: 1dff 873d b552 ec3d be5e 32be 29af c33f
000002a0: 7741 23c0 40d8 04be f673 d4be f7b6 dc3d
000002b0: 96a8 2e3f 4461 d6bd 0509 143e b707 f33e
000002c0: e78d b03e 7c92 093f f2e0 2abf a894 03bf
000002d0: 7d87 b8bf fbe8 92be f8cb 883f 1713 78bd
000002e0: ad0e 753d ed1a 423d ff9d 36bd 73a7 24bd
000002f0: 3f87 e5ba a76f e4bc 2e2a 973c 8e34 ef3c
00000300: 13a5 c9bd a851 9f3d a00c 40bc 7b4d 25bd
00000310: 0705 16be 2fe2 71bd 1ae0 f63b ed76 55ba
00000320: ff57 abbc da7c 57be 4f44 adbe f706 243d
00000330: e0e7 873c 7a6f 083c 79ac 32be 38ff 233e
00000340: 4275 a8be 94a2 fd3c 78d6 1ebc 6cb5 9f3a
00000350: 7892 85be a62f 593d cf52 983e 8447 973c
00000360: e617 723d 1e64 1b3a 1113 8cbd 632e f13d
00000370: 1bd3 69bc 4a56 b93c 2662 a0bc 781c c23a
00000380: 1627 c5bc 1857 103d b027 583c d8a2 913c
00000390: 86cb ae3b 5990 d83c cb53 a63d 473f 7e3e
000003a0: 3476 6cbe c4fa 45bd 6c1f 14bc 5e58 87ba
000003b0: da60 8a3c 19ea 8abd 1945 803c b14b a0bd
000003c0: 313f f7bc 1674 94bc 81d1 983d e964 d3bd
000003d0: d55d 2fbd 9405 d2bd 8c00 e4bd b3b7 f43c
000003e0: 843c 43be 1bdb c73d 408b 31bc f0ed 833b
000003f0: 88c2 a23c 3f90 583c 7e39 0abe 973d 833e
-0.45621374 0.07141201 -1.1121674 -2.205734 -0.3541228 -0.43637973 0.029976187 0.10528004
0.1511771 -1.759053 0.67184055 -1.1588073 0.5349634 -0.35912818 -0.98607373 0.24462964
0.57747567 0.18896483 0.22366741 0.28057933 0.30587915 0.0054572714 0.037937537 0.2825853
-0.14992821 -0.16347979 -0.11016372 -0.13447744 -0.0485165 -0.021774372 -0.00941562 0.018913817
-0.065642215 0.05002539 -0.043263804 -0.017667487 0.03076426 0.018402955 -0.011844899 -0.06517622
-0.01747092 -0.054531615 0.01781948 0.025095966 0.01770275 0.026508292 -0.027374959 0.015167292
-0.014891516 -0.0056539625 -0.049579807 -0.024588142 0.027984213 -0.012535754 0.051367335 -0.017888157
-0.09861351 0.16300537 -3.8450181 0.7183427 0.060966276 0.098930486 0.19803487 0.014124648
0.06418444 -0.22715387 0.20553395 2.1937857 -5.3946033 -0.2526224 -2.7437797 0.865556
2.502505 -0.11733205 0.11002508 -0.08782561 1.9390242 1.655257 5.6477685 1.6937981
2.897167 1.3247722 1.2090096 0.2747084 0.12338183 1.1181172 0.15414257 -0.87267226
0.23006508 1.0001266 -0.9270424 0.23785444 -0.6783052 -0.4279513 0.058562785 0.13700919
-0.30096006 -2.0511003 -0.42639276 1.3509595 -0.43267488 -0.40430075 -0.145322 -0.15607913
0.059756387 -0.37918273 -0.29620782 -0.9196164 1.3870258 1.2261325 0.2785648 -0.33442718
0.9633926 0.08115624 0.09953978 -1.0363678 -0.14428212 -0.04701325 1.5253206 0.3399017
-2.180623 1.6122034 -1.1353228 0.2583886 0.12057393 -0.6765778 -0.4262737 1.4216955
2.3855827 0.4904701 -1.4015857 0.18006916 -0.47411767 0.3456717 0.12523268 -0.49965912
-0.34727678 1.6126277 2.7053196 0.010129901 -0.09083027 -0.41848913 1.4774972 0.2975274
0.1090525 -0.98805046 -0.23263085 -1.239222 1.9667324 1.0657518 -0.89888674 0.034816567
0.3259254 -0.23998532 0.044414733 -0.54702693 -0.14359814 -1.5243164 1.3151695 1.9467402
-0.3905717 -0.7877252 -0.03154266 0.3075075 0.06640456 0.115392126 -0.17418954 1.528783
-2.5508707 -0.12973118 -0.4149472 0.10777085 0.6822599 -0.10467771 0.14456566 0.47466823
0.34483263 0.5373914 -0.6674949 -0.51398706 -1.4416348 -0.28693375 1.0687246 -0.06056508
0.05982845 0.04738896 -0.04458427 -0.040198755 -0.001751162 -0.027885271 0.01845273 0.029199865
-0.098459385 0.077792466 -0.01172176 -0.040357094 -0.14650355 -0.059053596 0.007534039 -0.00081430265
-0.020915983 -0.21043721 -0.33841178 0.040045705 0.016590059 0.008327359 -0.17448606 0.16015327
-0.3290196 0.030961312 -0.009694688 0.0012184805 -0.2608831 0.053023957 0.29750678 0.018466718
0.059104823 0.00059276994 -0.06839574 0.11776426 -0.014271523 0.022624154 -0.01957805 0.001480951
-0.02406649 0.03523931 0.013193056 0.017777845 0.0053343205 0.026436018 0.08121451 0.24828826
-0.23091966 -0.04833485 -0.009040695 -0.0010326018 0.016891886 -0.06782932 0.015657948 -0.07826937
-0.0301815 -0.01812176 0.07461835 -0.103219815 -0.042814095 -0.1025497 -0.11132917 0.02987275
-0.19066054 0.09758588 -0.010836422 0.004026167 0.01986815 0.013217985 -0.13498494 0.25632927

_mean_net.0.bias f4 [64]
00000000: 9cf8 bb3d 48da 48be 3671 5cbb 3084 b7be
00000010: 7ab2 063d fb02 123e 4693 693d 1ee9 993e
00000020: 9c47 b1bd 9128 5f3e 746a cfbe 7bcf a3be
00000030: e736 80bd c314 aa3f 2bed 093e 4219 7fbe
00000040: fb00 653e e133 a03c 1a3b 7bbe 6acb 83be
00000050: 7249 6dbe 7a3e bd3d 8e1e 163d fb69 71bf
00000060: ccd4 4ebd 095e 603e b536 bbbe 7fe4 76bf
00000070: 227d 253d 25d7 bc3d 5647 05bd 2019 633a
00000080: 5892 18bf 9b6a 253e 87be 663d 39b4 6bbd
00000090: f2f6 f73b 4534 cf3d 4fee c0bd c318 94be
000000a0: d27e 9f3e a0bc 9cbd a981 d9bc 5e3a 8f3e
000000b0: 10fd afbd 41ed 81bf ed7e 053f c23f abbd
000000c0: 39bd 33bd 84f3 47bd c168 9fbc e709 c3be
000000d0: 424d fe3d 59b7 203f fa1d fa3d e94c 033f
000000e0: e22d a3be cf14 f9bc 20c7 9cbd 582c acbd
000000f0: 8d87 283d 42e9 49bb 986f d0bd 9671 43be
0.09178278 -0.19614518 -0.0033636815 -0.3584304 0.032885052 0.1425895 0.057025217 0.30060667
-0.086562365 0.21792819 -0.40510905 -0.31994233 -0.06260472 1.3287586 0.13469379 -0.24911979
0.22363655 0.019555988 -0.24534264 -0.2574113 -0.23172548 0.09240432 0.036650233 -0.9430234
-0.050495908 0.21910872 -0.36565176 -0.9644241 0.04040254 0.09220723 -0.032538734 0.0008663107
-0.595983 0.16153948 0.056334045 -0.05754492 0.00756728 0.101173915 -0.09420454 -0.28925142
0.31151444 -0.07653165 -0.026551085 0.27974218 -0.0859319 -1.0150529 0.521468 -0.0836177
-0.04388163 -0.04881622 -0.01945913 -0.38093492 0.124170795 0.62779766 0.12212749 0.5128923
-0.31870943 -0.03040543 -0.076551676 -0.084068954 0.041144896 -0.0030809199 -0.10177535 -0.19086298

_mean_net.2.weight f4 [32, 64]
00000000: e43c ce3c 7a2c 693c fbf2 8b3d ba8b c7bd
00000010: 01da 03be 20fc 003d 8299 2f3e b0b9 50be
00000020: 9648 1a3e 8ffe 50bd 2aca 13bd bd6a 1ebe
00000030: 08b5 8c3c 0bd3 06bf 57ff 1dbd 9d90 0abe
00000040: 7942 233d 3e5d 5c3c 8429 2d3d 59a7 a83c
00000050: bc84 8b3d 5734 a93d 5d5d 293e e674 a4bc
00000060: b9de 70bd fdfd 673e 83b4 5e3e 2c97 ff3d
00000070: c57f 4cbd 7a8c 973c 9478 67bb 50ee 6ebe
00000080: ee2e f43c 7d83 4e3e 3081 78bc 266f 75bd
00000090: c701 7fbd a49b b6bd ea5d 2bbe 7472 b1bd
000000a0: 5ebd dabd 1dfd 9b3e 18d3 84be c2f9 a3bd
000000b0: c99e e03d 96ba 91be 651f 0abe a284 4c3c
000000c0: 40c0 f7bd a601 d4bd 1f4a 8cbd 4943 863d
000000d0: 6bca a7bd bc6c 953d 3b8f f33c 9d6c 5d3c
000000e0: 94ae 09bb 4158 71be 341b 283d d950 29be
000000f0: c147 7ebd 2b55 bd3e bf66 5c3d 297c a43d
00000100: 3dc1 6c3d c92a 50bd 7f12 8cbd 408f fcbd
00000110: 48bd f53d 0cd9 1abd a02c 55bd f805 25bd
00000120: 2b9b ecbd 4bd7 01bd 6cea 53be a6aa 8a3d
00000130: 358d 68be a98e b6be 6e89 a8bb 0c8b 15bb
00000140: 588e 4d3d db0e 50bd aab6 8abd 0ef1 923d
00000150: 5e55 963e fd26 fa3c 62ef 16bd 0219 d3bd
00000160: cd32 babd 2691 c03e ac9d 1e3c f104 2e3f
00000170: 90ae 943d 39da 4ebc c39d 55be 3b97 c13d
00000180: 42cb 38be fd00 9d3d 2850 29be 11c2 313e
00000190: 6b07 e53c d573 b3ba e9e5 753e 6038 283c
000001a0: c796 653d f3ab 483d 32be e83d 6846 24bd
000001b0: c070 583c 4bea 373d 18db b03d 898d 04be
000001c0: 42c5 a6bd 89e2 433e 99a5 8a3d e7c8 08bc
000001d0: c906 843c 953f f1bc 32ce c1bd a293 4bbd
000001e0: bbb8 883c e3e3 6d3e 132c f7bc f76b b83c
000001f0: 1833 44bd 63d5 cabd 35c6 60bd e358 57bd
00000200: 5c07 00bd 255c 773d 4710 593e 520a 423d
00000210: 26f2 37bd ef6c c2bc 1940 513e b409 563d
00000220: fe7b 563e 67a1 7b3d 23aa 1dbd 2331 263d
00000230: 4acc 883d 8b6f bbbc 764e 373d 1c6b 69bb
00000240: d285 0cbb 57dc 16bc 9ed5 663d f8d0 e63b
00000250: 7d43 0f3e 3996 5dbc 5f56 12bd 2071 7dbc
00000260: 1558 643c 3680 50ba 4e5a 873d 0fa8 f4be
00000270: 3228 4abd 34a4 d8bd afed 0ebd 9648 1dbd
00000280: 09c4 af3a 03c4 0d3c 0236 4fbc 2483 18bd
00000290: 7735 a63c 1c1f 24be 3465 36bd e2ba 8d3d
000002a0: aef2 d23c b2e9 423c fd76 24bd 2353 0cbd
000002b0: bd8a de3d 3c9f b83d 5353 2cbd cc7f e0bc
000002c0: 4527 fbbd 6c86 9ebe 3a6f 23be 69b2 cebd
000002d0: e1ff 533c d902 1bbd d224 a2bd 1c61 d3bd
000002e0: 38c1 843a ea14 9c3d 9fb4 12bd f6cf 7d3c
000002f0: 0af9 55bd 5653 9d3d afb1 9f3c 838a d0bc
00000300: fbce 73be bf34 50bd 4304 2cbd 85f8 f6bc
00000310: 190d a4be 8a98 78bc 965c 84be d91c 20bd
00000320: 478a 453d dd0a 553d 8716 7c3e bef0 083e
00000330: 9065 2d3c f690 9bbd 018c 5abd ea56 bb3c
00000340: 8d35 97bd 9d92 9e3d d9a4 9a3b e1ac c13b
00000350: fe31 38be 9200 e03d b503 733e f8ba 34bd
00000360: 69c9 3dbe 8290 cabd 8811 ccbb fc52 a4be
00000370: bdef 4dbc d82d 7abc 773c 013d 0899 18bd
00000380: ede0 fc3d f7fc 38bd 3761 4c3d 03d0 1cbd
00000390: e42a a5be 4ad3 803d 4dec b23c a7f0 22ba
000003a0: c229 38be d61e acbd 6d41 ddbd d76d febc
000003b0: 769d 8bbd f028 ccbe e6b8 853d 92de d73c
000003c0: 40dc 9abd e5d3 473e 2e76 aabd 4467 d53d
000003d0: 42b1 013d 1ea4 203d 7ae1 2fbc 401f c8bb
000003e0: 13b6 5aba 7e7e 5ebd c545 d93c aa58 f2bb
000003f0: 5e9a 11be a6bf 43be b251 f03c 2e01 2c3d
0.02517552 0.014231795 0.06833454 -0.097434476 -0.1287613 0.031490445 0.17148402 -0.20383334
0.15066752 -0.051024016 -0.03608147 -0.15470405 0.017176166 -0.52665776 -0.03857359 -0.13531728
0.039858315 0.013449965 0.04227592 0.02058761 0.068124264 0.08261936 0.16539522 -0.020075273
-0.058806155 0.22655483 0.21748547 0.124800056 -0.049926538 0.018499602 -0.0035319673 -0.23333097
0.029807534 0.20167346 -0.015167519 -0.059920453 -0.062257554 -0.08916405 -0.16735044 -0.08664408
-0.1068065 0.30466548 -0.25942302 -0.08006622 0.10967786 -0.28462666 -0.13488539 0.012482794
-0.12097216 -0.10351877 -0.06850075 0.065558024 -0.08192905 0.0729613 0.029731384 0.013514665
-0.0021008598 -0.23568822 0.041041568 -0.16534747 -0.06208015 0.3697904 0.053808924 0.08031494
0.057801474 -0.050822053 -0.06839465 -0.1233201 0.11998993 -0.03780465 -0.05204451 -0.040288895
-0.115530334 -0.03169946 -0.20694894 0.0677083 -0.22710116 -0.35655716 -0.005143336 -0.0022818474
0.050184578 -0.050795417 -0.06773122 0.07174884 0.29362005 0.03053617 -0.036849387 -0.10307504
-0.09091721 0.3761074 0.009681147 0.6797629 0.07259858 -0.0126252705 -0.20860963 0.09452673
-0.18046287 0.07666204 -0.16534483 0.17359187 0.027957639 -0.0013691137 0.24013485 0.010267347
0.056051996 0.04899211 0.11364402 -0.040106207 0.013210475 0.044901174 0.08635539 -0.12944616
-0.08143093 0.19129385 0.067698665 -0.00834868 0.016116517 -0.029449264 -0.09463157 -0.04970134
0.016689649 0.23231463 -0.030172383 0.02251242 -0.04790029 -0.099039815 -0.054876525 -0.052575003
-0.03125702 0.06039061 0.21197616 0.047373123 -0.044908665 -0.023733584 0.20434608 0.052255347
0.20945737 0.061433222 -0.038492333 0.040574204 0.0667959 -0.022880336 0.04475256 -0.003561682
-0.0021442068 -0.009207807 0.056356065 0.007043954 0.13990588 -0.013524585 -0.0357269 -0.015468866
0.013937016 -0.0007953675 0.06609021 -0.4778447 -0.04935474 -0.10578194 -0.03489464 -0.0383993
0.0013409863 0.00865269 -0.012647154 -0.03723444 0.020289166 -0.16027492 -0.04453011 0.06920411
0.025750484 0.011896538 -0.04015254 -0.034258973 0.10866306 0.090147465 -0.04207165 -0.027404688
-0.122633494 -0.3096193 -0.15960398 -0.10092623 0.012939424 -0.037844513 -0.07917179 -0.103212565
0.0010128384 0.076211765 -0.035816785 0.015491476 -0.052239455 0.07681911 0.019493906 -0.025456673
-0.23809426 -0.050831553 -0.04199625 -0.0301478 -0.32041243 -0.015173087 -0.25851887 -0.03909001
0.048227575 0.052012313 0.24617968 0.13373086 0.010583296 -0.075960085 -0.053356174 0.022868592
-0.07383261 0.07742808 0.0047193584 0.0059105013 -0.1798782 0.10937609 0.23731883 -0.04412362
-0.18533863 -0.09890844 -0.006227676 -0.32094562 -0.012569365 -0.015269719 0.031551804 -0.037255317
0.12347589 -0.04516312 0.0498974 -0.038284313 -0.32259285 0.062903 0.021841193 -0.00062156696
-0.1798468 -0.08404319 -0.108034946 -0.031058235 -0.06817143 -0.39874983 0.06529407 0.026351247
-0.075615406 0.19514425 -0.08323322 0.10420087 0.031663187 0.039219014 -0.01073491 -0.006107241
-0.0008343171 -0.05431985 0.026522527 -0.0073958235 -0.14219043 -0.19116077 0.02933583 0.041993313

_mean_net.2.bias f4 [32]
00000000: 214a f53e b760 eabe c6fe 5abe 07f1 59bd
00000010: 059d d73e c4c7 fa3e 55d3 1ebe 9e54 8b3e
00000020: 22aa 4e3e b762 c93d 7901 173e 50be a4bd
00000030: 7923 4b3f b4ab 91be 2b0e 6cbe 169a b3be
00000040: 4d0c 853e 5864 683c bf45 e4be e3cf bdbd
00000050: ca47 fdbc d534 ebbd 38c3 ca3e 36c5 813e
00000060: 6274 8b3c f557 88be 0fcb dcbe 1764 963e
00000070: ff01 df3e 646c 8cbd e676 94be 22aa 28be
0.47908118 -0.45776913 -0.21386251 -0.053208377 0.42111984 0.48980534 -0.15510304 0.27212995
0.20182088 0.098332815 0.14746656 -0.08044112 0.79351 -0.28451312 -0.2305228 -0.35078496
0.25985947 0.01418408 -0.44584462 -0.09268167 -0.03091802 -0.11484686 0.39602065 0.25345773
0.01702327 -0.26629606 -0.4312367 0.29373237 0.4355621 -0.06856611 -0.28996962 -0.1647115

_mean_net.4.weight f4 [17, 32]
00000000: 2424 54be 1c31 0d3e f6b9 ccbd f805 42be
00000010: 7f3d b6be 2512 abbe 434c 40be 4ed2 36bf
00000020: e46c 893e 1c34 84bd 544d ebbe 26c9 3b3e
00000030: b8d7 8cbe 8575 d43e 4ca2 11be ba8f 0dbf
00000040: edfe b5be 1b5b 233f cfa5 c8bc 7fa6 533e
00000050: 012c 86bd 0178 febe 2e90 613f a9d0 23bf
00000060: fa00 f3bb d140 70be 2954 933e 1848 9dbd
00000070: 1ec7 5ebe 6ae0 b6be 708a bbbe a8d1 1c3d
00000080: b8cf 8dbe c33f 923e f113 c8be 5b61 223f
00000090: 3a7d 493e 66b2 ddbd 1458 a9be 4899 7bbe
000000a0: ac5e 31bd 85bf 623e db3c 1bbf 6066 fcbe
000000b0: 5518 5f3b e978 86be 9da7 2bbe dbfd 003e
000000c0: 10e4 4fbe 7ddc 0dbf b300 d4be 1367 d8be
000000d0: eaa2 4fbe 1da6 11be b42b b73c 7a6e c03c
000000e0: 7fa1 783e 2313 5dbe d555 563e 1cb1 b83e
000000f0: 1f8f e2be a63d 5fbd 9661 293e dc48 623e
00000100: ec62 443e 99b5 abbe 528e 36bf be25 f9bc
00000110: 5a17 543d 747c 2abe 40b2 c3bd 321e 243f
00000120: 776d 473d 02f6 1abe c84d 15bf a930 d43d
00000130: bce5 c3be a09a 833f 1549 fc3d 6660 593d
00000140: 93ee fcbd a508 39bf a458 903e 8eb8 fe3d
00000150: 17c7 cd3d c993 16bd 4092 193f eddf b83e
00000160: 1fd8 8fbf cea6 06bf f418 9abd 883a dfbe
00000170: ec8c a4be 7f1b 3f3e 6637 d9bd f673 103f
00000180: add0 863e 5ef4 273d b7a5 38bd 6958 0bbf
00000190: 4feb cebe f6fe a53e 3736 b23e 14bb 45be
000001a0: 1c07 de3e f0b0 7fbd 0215 1cbf 91ab ebbe
000001b0: ec3f b43e ef85 463d daa2 70be 8541 b53e
000001c0: d497 5c3e e939 08bf 8dc0 87bd 1d11 88be
000001d0: b94a cc3d 9f7c 2ebf b50c 093f 3e07 583f
000001e0: 06da c13e f757 633e cd56 04bf 9b44 763d
000001f0: 5b0c 213e 6122 303f 2280 babe 050b 06bf
00000200: 0412 9fbe 97e6 f7be c3c7 56bf 6d82 e63e
00000210: 4888 18be 7ee5 52bf 4512 d3be 1f36 9a3e
00000220: c488 2fbf 7ed2 4abe 281b de3e b847 153e
00000230: 4ea4 1d3f a02e 03bf 2f43 9b3e 3a73 6dbe
00000240: 3b34 753e ef62 f6bd c5f7 903e b573 8d3d
00000250: d7b3 20bd 9dc2 80be 0eee 1dbe 4fa9 9cbd
00000260: 0473 0ebe 0d9e a7be f5e2 4a3f 4d52 5fbe
00000270: 2c0c b6be a8eb c0be 1b28 e73e cd46 0f3f
00000280: ad36 4fbf b3a7 49be 088a 2abf 307d 46bf
00000290: 7b87 dfbe 9d33 94bc ab72 c83e 0345 8fbd
000002a0: c8af d93e 977c 943d e93f 0b3e 5694 ad3e
000002b0: 7d48 f33e 54b2 f4bd f60e 8f3e 49d9 69bf
000002c0: 49b4 f8bd 3813 b83e defb d53e dcba ad3e
000002d0: f634 9f3e f183 473c fa2b 38bf 77a1 d63e
000002e0: 7a90 24be 2adc d0be 2a7f 25be deeb fd3d
000002f0: c8d8 60bd 0377 77bf 8452 01be 2516 223f
00000300: 1bb2 b1be 9296 973e ee67 25bf b152 8ebe
00000310: b851 263d 281c 3ebe 3f61 773e 968a 103e
00000320: 888c a3bf 7039 713e 002b 553f 802d d7bd
00000330: d672 db3e c272 e53c 8019 323e 7acd 193e
00000340: 1eb0 193e 126e 38bf 5c70 ce3e 46af 103f
00000350: cf5d 363d 787c 1dbf 05eb f13e 99d9 dbbe
00000360: 5644 da3d 2afc 383e dfd1 90bf c790 05bf
00000370: 50a8 ab3e a245 e03d 35d4 4a3e e678 1abe
00000380: 7353 513d 325b d9be d4b0 4e3f 875a 8bbe
00000390: 2449 a6be cc7a afbe aeba 383f 4899 153f
000003a0: 4319 f03e e168 afbe a070 72be af7c acbd
000003b0: 41c7 55be 5f0d 803f f2d8 ddbe 1591 9fbe
000003c0: 53a4 0b3e d0f4 ce3d 4052 7dbc 9410 213d
000003d0: daa0 393c 8996 bcbe 3341 5ebe f247 523e
000003e0: bfb5 04bd 85f7 623f 26bd c33e b372 133d
000003f0: c9e3 d13e c83d 9c3e cdbd a73d 1890 b23c
-0.20716912 0.13788265 -0.09996407 -0.1894759 -0.35593793 -0.3341228 -0.18779092 -0.7141465
0.2684089 -0.064552516 -0.45957434 0.18338451 -0.2750833 0.4149591 -0.14222068 -0.55297434
-0.35546055 0.6381089 -0.024493126 0.20668982 -0.06551362 -0.4970093 0.88110626 -0.63990265
-0.007415888 -0.23462225 0.28775147 -0.076797664 -0.21755645 -0.3571809 -0.36629057 0.03828588
-0.2769754 0.2856427 -0.39077714 0.634298 0.19676676 -0.108250424 -0.3307501 -0.24570191
-0.043303177 0.22143371 -0.60639733 -0.49296856 0.0034041603 -0.26264122 -0.16763158 0.12596838
-0.20301843 -0.55414563 -0.41406783 -0.4226614 -0.2027699 -0.14223523 0.022359706 0.02349018
0.24280356 -0.21589331 0.2093118 0.36072624 -0.44249818 -0.054502152 0.16541132 0.22098106
0.1917836 -0.33536986 -0.71310914 -0.030413505 0.051780082 -0.16649038 -0.09555483 0.64108574
0.04868838 -0.15132907 -0.5832181 0.10360844 -0.3826121 1.0281563 0.12318627 0.05307045
-0.12350192 -0.72278816 0.28192627 0.12437545 0.10047739 -0.036762033 0.59988785 0.36108342
-1.123783 -0.52598274 -0.07524291 -0.43599343 -0.32138765 0.18662833 -0.106062695 0.5642694
0.26331082 0.04100453 -0.045079913 -0.5443178 -0.404139 0.32421082 0.34806988 -0.19309646
0.433648 -0.0624246 -0.60969555 -0.46029332 0.3520502 0.048467573 -0.23499623 0.3540155
0.21542293 -0.53213364 -0.06628523 -0.26575556 0.0997519 -0.68158907 0.53535014 0.8438605
0.3786165 0.22201525 -0.5169495 0.06012402 0.1572737 0.6880246 -0.36425883 -0.52360564
-0.31068432 -0.48418114 -0.8389856 0.45021382 -0.14895737 -0.8238143 -0.41224876 0.30119416
-0.6856806 -0.19806859 0.43380094 0.1457814 0.61578834 -0.5124302 0.30324695 -0.23188487
0.23945706 -0.12030589 0.28314033 0.06906835 -0.03923401 -0.25148478 -0.15422842 -0.076494806
-0.13911062 -0.3273777 0.7925256 -0.21808739 -0.3555616 -0.3767979 0.45147786 0.5596741
-0.80942804 -0.19692878 -0.6661687 -0.7753477 -0.4365805 -0.018091017 0.39149985 -0.06995585
0.42516923 0.07250326 0.13598599 0.33902234 0.47516242 -0.11948076 0.27941102 -0.91347176
-0.12143762 0.35952163 0.41793722 0.33931625 0.31095093 0.012177453 -0.719421 0.41920063
-0.16070738 -0.40792972 -0.1616179 0.12398504 -0.05489424 -0.9666597 -0.12629133 0.6331504
-0.34706196 0.29607064 -0.6461171 -0.27797464 0.040605277 -0.18565428 0.2415819 0.14115366
-1.2777262 0.23557067 0.8326874 -0.10506725 0.4286105 0.028008822 0.1739254 0.1501979
0.1500859 -0.72042954 0.40320098 0.56517446 0.044523057 -0.6151805 0.47249618 -0.4293945
0.10657565 0.18064943 -1.1314048 -0.5217404 0.3352685 0.109507814 0.19807513 -0.15085182
0.051104974 -0.4245239 0.8073857 -0.27217504 -0.32477677 -0.34273374 0.7215985 0.58437014
0.46894273 -0.34259704 -0.23675776 -0.08422219 -0.2087679 1.000408 -0.4332958 -0.31165376
0.13636903 0.10105288 -0.015461504 0.03932245 0.011329854 -0.368336 -0.21704559 0.20535257
-0.03239989 0.88658935 0.38230246 0.035998058 0.409941 0.30515885 0.081904985 0.021797225

_mean_net.4.bias f4 [17]
00000000: a852 783e 36e7 4b3c 76fb ca3e 2f5f 17bd
00000010: e6b5 023e 941a 2c3f 4aba 5a3f 96d5 fc3a
00000020: d7cf 13be 2f1c 023e 7b55 953e 92b5 8d3e
00000030: 184b 8c3b f35e 68be 247b aa3e b7ec 1f3f
00000040: 8a71 a5be
0.24250281 0.012445262 0.39644974 -0.03695601 0.12764701 0.67228055 0.85440505 0.0019289728
-0.14434753 0.12706064 0.2916678 0.2767759 0.004281413 -0.2269247 0.33297074 0.62470573
-0.32313186
