hw1/run_logs/q2_dagger_humanoid/policy_itr_1.pt (torch, 110267 bytes, 7 tensors)

_logstd f4 [17]
0	0xbf806d64	-1.0033383
1	0xbfb0ec6f	-1.3822154
2	0xbf57068a	-0.8399435
3	0xbf869afc	-1.0516047
4	0xbf88a604	-1.0675664
5	0xbf679a59	-0.9046989
6	0xbf54f3d2	-0.8318454
7	0xbf8b2824	-1.0871625
8	0xbf797faf	-0.97460455
9	0xbf74f666	-0.95688474
10	0xbf6d8191	-0.9277583
11	0xbfac393b	-1.3454965
12	0xbfa94381	-1.3223726
13	0xbff7ef76	-1.9369953
14	0xbfb91375	-1.4459063
15	0xbfcde0af	-1.6084193
16	0xbfedd45f	-1.8580436

_mean_net.0.weight f4 [64, 376]
0	0xbbdca92c	-0.006734034
1	0xbd4a9c51	-0.04946548
2	0xbe1e7f5d	-0.15478273
3	0xbfd0cffa	-1.631347
4	0x3e926046	0.28589076
5	0x3cbf2880	0.023334742
6	0x3f2b6712	0.6695415
7	0xbe5f554a	-0.21809879
8	0x3ee24fcb	0.44201502
9	0xbfa88e66	-1.3168457
10	0xbd4dd73f	-0.050254103
11	0xbe1860b7	-0.14880644
12	0xbf54f9da	-0.83193743
13	0xc00b226a	-2.1739755
14	0x3cb1526f	0.021645753
15	0xbe3a6438	-0.18202293
16	0x3f07c399	0.53032833
17	0x3e9a0fc5	0.30090156
18	0x3d295567	0.04134121
19	0x3ee8256d	0.45341054
20	0xbe0ecf60	-0.13946295
21	0x3e021322	0.12702611
22	0x3c9c4479	0.019075619
23	0x3fabc9f8	1.3421011
24	0xbed2f2b3	-0.4120079
25	0xbf0a9627	-0.54135364
26	0xbe3ed095	-0.18634255
27	0x3b262e59	0.0025357215
28	0xbc41b700	-0.011823416
29	0xbd4bd3cb	-0.04976253
30	0x3e4ebd5c	0.20189422
31	0x3f01f057	0.50757354
32	0x3eb8de51	0.36107114
33	0x3db30580	0.087412834
34	0xbd31f006	-0.043441795
35	0xbd641a10	-0.055688918
36	0x3e1eb688	0.15499318
37	0xbeaf578a	-0.34246475
38	0xbe8cde2e	-0.2751326
39	0x3e89f9ca	0.26948386
40	0xbe1629ca	-0.14664379
41	0x3db0a48c	0.08625135
42	0x3f1399d7	0.57656616
43	0x3e307ea4	0.1723581
44	0xbebec68e	-0.3726086
45	0x3cd927eb	0.026508292
46	0xbce04173	-0.027374959
47	0x3c78803c	0.015167292
48	0xbc73fb8c	-0.014891516
49	0xbbb944e0	-0.0056539625
50	0xbd4b1432	-0.049579807
51	0xbcc96d12	-0.024588142
52	0x3ce53f26	0.027984213
53	0xbc4d62c3	-0.012535754
54	0x3d52668e	0.051367335
55	0xbd52b52c	-0.05144231
56	0xbe547a53	-0.20749788
57	0xbf1e162d	-0.6175259
58	0xbfab9a39	-1.340644
59	0x3f795b0e	0.97404563
60	0x3ee6e5ad	0.45097104
61	0xbf2e3e41	-0.6806374
62	0xbe0af35a	-0.13569394
63	0xbce9eb30	-0.028554529
64	0xbd18f736	-0.037345134
65	0xbe08521b	-0.13312571
66	0xbd5f14bc	-0.054463133
67	0x3f2b803c	0.66992545
68	0xbf7d1111	-0.98854166
69	0xbea38a5d	-0.319415
70	0x3ed73e33	0.42039642
71	0x3eaabadc	0.33345687
72	0xbe0bc7e6	-0.13650474
73	0xbdeb53cc	-0.11490592
74	0x3c0b32a1	0.008495958
75	0x3ec8ca79	0.39216974
76	0x3f19d359	0.60088116
77	0x3f4b0b65	0.7931426
78	0x3f0526ae	0.52012146
79	0xbd1a42ed	-0.03766148
80	0x3fa9fe16	1.3280666
81	0x3fa9ec76	1.3275287
82	0xbec2c9ae	-0.38044494
83	0xbebf5742	-0.3737126
84	0x3cb303d4	0.021852411
85	0x3cd44537	0.02591191
86	0xbd08aae4	-0.0333661
87	0x3e4eab7f	0.20182608
88	0x3fda7399	1.7066528
89	0x3fb608c9	1.4221431
90	0xbde6b887	-0.112656645
91	0x3fd437e1	1.6579553
92	0xbd673472	-0.0564465
93	0xbc462cdc	-0.012095656
94	0xbd2ffdbe	-0.042966597
95	0xbdb392e7	-0.08768254
96	0xbdf6d656	-0.120526
97	0xbe828c97	-0.25497887
98	0x3e84bf1a	0.2592705
99	0x3ee18fa6	0.44054908
100	0x3e4e0ba7	0.20121633
101	0x3eb3a4ca	0.35086662
102	0x3db87896	0.09007375
103	0x3d88a5cc	0.06672248
104	0xbd2b1a0b	-0.041772883
105	0xbe3a5aaf	-0.18198656
106	0xbdf51381	-0.11966611
107	0xbe463742	-0.19357017
108	0x3e73dd54	0.23814899
109	0x3eb3b6fe	0.3510055
110	0x3ea5222f	0.32252643
111	0x3e6f85c2	0.23390868
112	0x3e8cf922	0.27533823
113	0x3d8f465a	0.0699584
114	0xbb0260b7	-0.0019894072
115	0xbc7c0289	-0.015381464
116	0x3e4a78f1	0.19772698
117	0x3db6961d	0.089153506
118	0xbe976a49	-0.29573277
119	0x3e8d12e0	0.27553463
120	0xbe8fdf55	-0.28100076
121	0x3e2a8dd4	0.16655666
122	0xbe7db0bf	-0.24774455
123	0xbda0f086	-0.07858376
124	0x3c9c035e	0.019044574
125	0xbe964b0b	-0.29354128
126	0xbe5c981e	-0.21542403
127	0x39f4f7eb	0.0004672402
128	0xbf08b221	-0.53396803
129	0x3d77f63f	0.060537573
130	0xbf5d7ee6	-0.86521757
131	0xbc42641e	-0.01186469
132	0xbf0f665e	-0.56015575
133	0x3e259aa9	0.1617228
134	0x3cc22d87	0.02370335
135	0xbeaf21cc	-0.34205472
136	0xbe77dc20	-0.24205065
137	0x3e31fefe	0.17382428
138	0xbf3fc590	-0.7491083
139	0xbe3dd555	-0.18538411
140	0xbf921037	-1.1411198
141	0xbe90f981	-0.28315356
142	0xbf520f49	-0.82054573
143	0x3e83867a	0.25688535
144	0x3bf68674	0.0075233523
145	0xbec75ba6	-0.3893711
146	0xbebc9f7f	-0.36840436
147	0xbe3d03d1	-0.18458487
148	0xbe5eed06	-0.21770105
149	0xbd32f1eb	-0.043687742
150	0xbed3550a	-0.41275817
151	0x3e35323f	0.17694949
152	0x3e05ddda	0.13072911
153	0xbe6b3f1f	-0.22973298
154	0xbd69f0d3	-0.057114433
155	0xbebec253	-0.37257633
156	0xbef32a63	-0.47493276
157	0xbe83169c	-0.25603187
158	0xbf81ea93	-1.0149711
159	0x3ef73cbc	0.48288524
160	0xbf9d22a8	-1.2276201
161	0xbd997d0e	-0.074945554
162	0x3ecc630d	0.3991932
163	0xbe9e876e	-0.309627
164	0xbd0fdeab	-0.035124462
165	0x3e2fd196	0.17169794
166	0xbd52ecfd	-0.05149554
167	0xbc95a9cf	-0.018269448
168	0x40165a05	2.3492444
169	0x3f80c524	1.0060163
170	0xbeee100b	-0.46496615
171	0xbf7a5227	-0.97781605
172	0x3ee2c5ed	0.4429163
173	0x3d58edf2	0.052961297
174	0x3d30467d	0.043035973
175	0x3f56fae4	0.8397658
176	0x3e7d973e	0.24764726
177	0x3e2960e0	0.16540861
178	0x400bf469	2.1867926
179	0x3e963cc3	0.29343233
180	0xbfae59d0	-1.3621159
181	0xbf1fab7d	-0.62371045
182	0x3f93e6b4	1.155478
183	0x3ec9b5be	0.3939647
184	0xbd2ace42	-0.04170061
185	0x3d421aed	0.04738896
186	0xbd369dff	-0.04458427
187	0xbd24a773	-0.040198755
188	0xbae5873f	-0.001751162
189	0xbce46fa7	-0.027885271
190	0x3c972a2e	0.01845273
191	0xbe09e826	-0.13467464
192	0xbd47f6d7	-0.04881939
193	0xbdee30ab	-0.116303764
194	0x3ca336e9	0.019923644
195	0x400a37f5	2.1596653
196	0xbf12eb5e	-0.5739039
197	0xbe3e18fe	-0.18564221
198	0x3d01b8d0	0.03167039
199	0xbcc307b7	-0.02380739
200	0x3cb27086	0.021782171
201	0x3f77e36a	0.9683138
202	0xbd94a366	-0.07257728
203	0x3e30be9c	0.17260212
204	0xbec0a165	-0.37623134
205	0xbd399466	-0.04530754
206	0x3c614ce2	0.01375124
207	0x3fccaed8	1.5990858
208	0xbe361db6	-0.17784771
209	0x3d9b4e4b	0.075832926
210	0x3e0b371c	0.13595241
211	0x3e807e0b	0.25096163
212	0xbb419de3	-0.002954357
213	0x3fe21496	1.7662532
214	0x3e92834e	0.28615803
215	0x3d7dbf1f	0.061949845
216	0x3e7e8547	0.24855529
217	0xbe5bb17b	-0.21454422
218	0xbc7c2cfe	-0.015391586
219	0x3e35dc1b	0.17759745
220	0x3dc2790e	0.094957456
221	0x3d87633b	0.066107236
222	0x3e2df2ef	0.16987203
223	0xbe5ac8a4	-0.21365601
224	0x3ced0ef0	0.028937787
225	0x3dc2b566	0.09507255
226	0x3dfab86c	0.12242207
227	0xbf1ed13a	-0.62038004
228	0xbe9b9de6	-0.30393904
229	0xbd3bf4c6	-0.04588773
230	0xbbef4839	-0.007302311
231	0x3f6b9359	0.9202171
232	0x3f04a9c4	0.5182154
233	0xbe2f9d23	-0.17149787
234	0x3e29f06b	0.16595618
235	0x3e12900a	0.14312759
236	0x3e8fff86	0.28124636
237	0xbe9688ef	-0.29401347
238	0x3e525cfb	0.20543282
239	0xbe4e444f	-0.20143245
240	0x3e144a77	0.14481531
241	0x3e01103d	0.1260385
242	0x3ead8dca	0.3389724
243	0xbea8a7a2	-0.32940394
244	0x3e167ce6	0.14696082
245	0xbf4d413c	-0.80177665
246	0xbdfef656	-0.124493286
247	0x3daa82dc	0.08325741
248	0xbd979b13	-0.07402625
249	0x3e7bc429	0.24586548
250	0x3e563e54	0.20922214
251	0xbe9632f1	-0.2933574
252	0xbcea03ba	-0.02856623
253	0xbda8ae7f	-0.082364075
254	0xbbbd8e71	-0.0057848026
255	0x3f2da20b	0.6782538

_mean_net.0.bias f4 [64]
0	0xbc1fadcf	-0.009746029
1	0xbe281920	-0.16415834
2	0xbc5b02df	-0.013367384
3	0xbe043fec	-0.1291501
4	0x3cf5576b	0.02994891
5	0x3dc4f2f6	0.096166536
6	0xbc50f605	-0.012753968
7	0x3d9b6df3	0.075893305
8	0xbdc6abca	-0.09700735
9	0x3e2df178	0.16986644
10	0xbe8b9b24	-0.272668
11	0xbe9c6964	-0.30549157
12	0x3e19963b	0.14998715
13	0x3ea84906	0.32868212
14	0x3bd1fd0f	0.0064083408
15	0xbddda171	-0.10821808
16	0x3e189f2c	0.14904469
17	0xbdd84598	-0.10560149
18	0xbd1c6c08	-0.038188964
19	0xbe8adeb5	-0.27123037
20	0xbe29b5c8	-0.1657325
21	0x3b0c76ee	0.0021433192
22	0x3e1667c0	0.14688015
23	0xbe9110f0	-0.28333235
24	0x3be78502	0.0070654163
25	0x3dd80d9f	0.10549473
26	0xbce9b6bc	-0.028529517
27	0xbe8191a0	-0.25306416
28	0x3dcefd76	0.101069376
29	0xbda40820	-0.08009362
30	0x3d2d3bb0	0.04229325
31	0x3d9a4bf9	0.07534022
32	0xbe6ab3b3	-0.22920112
33	0x3d6779eb	0.056512754
34	0xbc466f8f	-0.012111559
35	0xbd574cc5	-0.052563448
36	0x3d05dad8	0.03267941
37	0x3d4fa946	0.05069854
38	0xbe0f8a3e	-0.14017579
39	0xbe543f14	-0.20727187
40	0x3e32431f	0.17408417
41	0x3bd4ee10	0.006498106
42	0x3d5dbee7	0.054137137
43	0x3e1a6081	0.15075876
44	0xbc34de2f	-0.011039301
45	0xbe826436	-0.2546708
46	0x3e47a7e1	0.19497634
47	0xbd2fda02	-0.042932518
48	0x3d87e487	0.06635385
49	0xbcaa31aa	-0.020775635
50	0xbd88e897	-0.06684988
51	0xbe424ca2	-0.18974546
52	0xbdb4ecab	-0.08834203
53	0x3e62f65f	0.22164296
54	0x3c7e4354	0.015518982
55	0x3e02b46b	0.12764136
56	0xbe676aae	-0.22599289
57	0x3d09fb94	0.03368719
58	0x3ca58d33	0.02020893
59	0x3ba55c3a	0.0050463947
60	0x3d857600	0.06516647
61	0x3d383d0e	0.0449801
62	0xbd2ec41d	-0.042667497
63	0xbdd11318	-0.1020872

_mean_net.2.weight f4 [32, 64]
0	0xbce63023	-0.028099125
1	0x3ea4419e	0.32081312
2	0x3e572ac6	0.2101241
3	0xbed34db4	-0.4127022
4	0xbd873076	-0.0660104
5	0x3daa02fe	0.08301352
6	0x3e48aec3	0.19597916
7	0xbe419dcd	-0.18907852
8	0x3e382755	0.17983754
9	0x3db70475	0.08936397
10	0xbc9f4f7a	-0.019447077
11	0xbe7d3e06	-0.24730691
12	0xbecaa9cd	-0.39582673
13	0xbe3fb05f	-0.18719624
14	0xbd8e7a13	-0.069568776
15	0xbee83dc9	-0.45359638
16	0xbe7328e1	-0.23746063
17	0x3dcf2ace	0.10115586
18	0x3e06d9d5	0.13169034
19	0x3e88f633	0.26750335
20	0x3e4bb93c	0.1989488
21	0x3d181129	0.03712574
22	0x3c8a5e48	0.01689066
23	0xbea41bea	-0.32052547
24	0xbe7715d7	-0.24129425
25	0x3e1d81a2	0.15381482
26	0x3e760cfc	0.2402839
27	0x3ecbc1bf	0.39796254
28	0x3ea0cabf	0.31404683
29	0x3a0d75c0	0.0005396269
30	0xbdcd2d2c	-0.100183815
31	0xbed5bd80	-0.4174614
32	0x3e1dbdd0	0.15404439
33	0xbe5ba75b	-0.2145056
34	0xbe8d0ba3	-0.2754794
35	0x3d794e51	0.060865704
36	0xbdea7a15	-0.114490665
37	0xbe139ccf	-0.14415286
38	0xbd9a1392	-0.07523264
39	0xbe6b987f	-0.23007391
40	0xbecd38ea	-0.40082484
41	0x3ec735c0	0.38908195
42	0xbebe28df	-0.37140557
43	0xbeb6c9f3	-0.3570095
44	0xbe643a3e	-0.22287843
45	0xbe95c2d3	-0.29250202
46	0xbdc8ff8c	-0.09814367
47	0x3e719d8f	0.2359526
48	0xbed8975d	-0.4230298
49	0xbd7045ea	-0.058660425
50	0xbe683b43	-0.22678857
51	0x3e1370e9	0.1439854
52	0x3da912a3	0.08255508
53	0xbeb1849c	-0.34671485
54	0x3ddbdff0	0.10736072
55	0xbcffe5d3	-0.031237518
56	0x3b106b6b	0.0022036682
57	0xbea794d2	-0.32730728
58	0x3d9661a4	0.07342842
59	0xbe904e38	-0.28184676
60	0xbdf8054d	-0.12110386
61	0x3e2dc6e9	0.1697041
62	0x3e7e162a	0.24813142
63	0xbddff717	-0.109358005
64	0x3da85027	0.08218413
65	0xbdb6c8d4	-0.08925024
66	0xbe36a6d5	-0.17837079
67	0xbd3398f6	-0.043847047
68	0x3cb1f90c	0.0217252
69	0xbc6fc6ab	-0.0146347685
70	0x3d1dd0b9	0.03852913
71	0xbcb1ee83	-0.021720177
72	0xbecd2e83	-0.40074548
73	0xbd883498	-0.066506565
74	0xbda3aa71	-0.079914935
75	0x3e471382	0.19441035
76	0xbcdbd3a2	-0.026834313
77	0x3de91d71	0.11382569
78	0xbbf3efee	-0.0074443733
79	0x3dc96415	0.09833542
80	0xbc367d0d	-0.011138213
81	0xbd9a9d5a	-0.07549544
82	0xbda17d37	-0.07885211
83	0x3e32897d	0.1743526
84	0x3e175fbc	0.14782614
85	0x3e040918	0.12894094
86	0x3c096560	0.008385986
87	0x3de83f33	0.11340179
88	0x3d515247	0.051103856
89	0x3e24b32e	0.16083977
90	0x3af7a20d	0.0018892899
91	0x3f158e04	0.58419824
92	0x3d78ca82	0.06074
93	0xbd8f6b2b	-0.070028625
94	0xbe07ffa7	-0.13281117
95	0x3e1e1992	0.15439442
96	0xbd504713	-0.05084903
97	0x3df61d8f	0.120173566
98	0xbcc76a6f	-0.024342744
99	0x3def55f2	0.11686315
100	0xbdcbb13e	-0.09945916
101	0xbd0f964b	-0.03505544
102	0x3d092162	0.033479102
103	0xbdb5b994	-0.08873287
104	0xbc8259f1	-0.015912028
105	0xbe17593a	-0.14780131
106	0x3d5d5975	0.05404039
107	0xbe2fccb6	-0.17167935
108	0xbda6923b	-0.0813336
109	0x3e541c18	0.20713842
110	0x3b265b42	0.0025383984
111	0xbe24a718	-0.16079366
112	0xbd76e60f	-0.060277995
113	0x3db5e10f	0.08880817
114	0x3d31643b	0.043308478
115	0x3bf34e42	0.0074251005
116	0x3c80d905	0.015728483
117	0xbddeb21f	-0.10873818
118	0x3dc738a8	0.09727603
119	0x3e97496e	0.2954821
120	0x3e316fcb	0.17327802
121	0x3c08eedc	0.00835773
122	0xbcbe3376	-0.023217898
123	0x3e7b7b77	0.24558817
124	0x3c7de361	0.015496106
125	0x3c812467	0.015764428
126	0xbe3c7be2	-0.18406633
127	0xbdc5eba4	-0.096640855
128	0xbe027048	-0.12738144
129	0xbce2c8ad	-0.02768358
130	0x3e38ce7f	0.18047522
131	0x3d9ae55b	0.07563277
132	0xbc68aca1	-0.014201314
133	0xbe81f744	-0.2538396
134	0x3efbd229	0.49183777
135	0x3e696f09	0.22796263
136	0xbac4208f	-0.0014963316
137	0xbe63d1fd	-0.22248073
138	0xbea7b530	-0.32755423
139	0xbe315acf	-0.17319797
140	0xbd25cb9e	-0.040477388
141	0xbdd445e9	-0.10364897
142	0x3e31a60e	0.17348501
143	0x3ddc816c	0.10766873
144	0xbdf2ceb1	-0.118558295
145	0x3d348651	0.044073407
146	0x3c5c149b	0.013432647
147	0xbeb6eae5	-0.35726085
148	0x3db194da	0.08670969
149	0x3cb9a79d	0.022662932
150	0xbd8a5932	-0.06755294
151	0x3e322083	0.17395215
152	0x3d122783	0.035682213
153	0xbdc69023	-0.09695461
154	0x3ec3a3b1	0.38210824
155	0xbf0f9df1	-0.56100374
156	0xbd9bc6be	-0.076062664
157	0x3da521bf	0.08063077
158	0xbdb5925d	-0.08865807
159	0xbd69bbfb	-0.057064038
160	0x3cdb69c9	0.02678384
161	0x3e7a66b1	0.24453236
162	0xbd21effa	-0.0395355
163	0xbda4476a	-0.08021434
164	0xbd3e7799	-0.046500776
165	0xbe837624	-0.25676072
166	0x3dde596b	0.10856899
167	0xbdf22d71	-0.118250735
168	0x3e4fbd09	0.20286955
169	0x3e78b310	0.24287057
170	0xbde21f20	-0.11041093
171	0xbbfe175f	-0.007754251
172	0x3e380aef	0.17972921
173	0xbe75367c	-0.23946565
174	0xbec1fa3a	-0.3788622
175	0x3e08c1d3	0.13355188
176	0x3bf0ee64	0.007352637
177	0xbea857d5	-0.3287951
178	0xbdddfc8f	-0.10839187
179	0xbe138c58	-0.14409006
180	0xbe1b8c78	-0.15190303
181	0x3c01e4b9	0.007928067
182	0xbe492006	-0.19641122
183	0xbe698fdb	-0.22808783
184	0x3e0089fc	0.12552637
185	0xbdf5f9fe	-0.12010573
186	0xbd2104ba	-0.03931115
187	0x3dbcb4c2	0.09214164
188	0xbcf597d8	-0.029979631
189	0x3e6cbeb4	0.23119622
190	0x3e1264be	0.14296243
191	0x3dae0f17	0.08498972
192	0x3db2f56a	0.08738215
193	0xbd75326d	-0.059862543
194	0x3dc866e4	0.0978525
195	0xbe60d084	-0.21954542
196	0xbea48eae	-0.32140106
197	0xbea8dc88	-0.32980752
198	0xbe9d51df	-0.30726525
199	0x3cdba464	0.026811786
200	0xbc8ff590	-0.017573148
201	0x3ddadafa	0.10686298
202	0x3ea89bad	0.3293127
203	0xbd8be265	-0.06830291
204	0x3d144a58	0.036203712
205	0x3e2991d2	0.16559532
206	0xbd81ce52	-0.063381806
207	0xbd9c5080	-0.07632542
208	0xbe6a11f1	-0.22858407
209	0x3e2390d0	0.1597321
210	0x3d5d1f00	0.053984642
211	0x3dc308d0	0.09523165
212	0xbdc60326	-0.09668569
213	0xbd0500f7	-0.032471623
214	0x3e6a3169	0.22870411
215	0xbd8985d6	-0.0671498
216	0xbe2c4283	-0.16822247
217	0xbd4e8fa0	-0.05042994
218	0x3c90b65d	0.017665083
219	0xbe0fd07b	-0.14044373
220	0x3d999f8c	0.07501134
221	0xbe0acbda	-0.13554326
222	0xbd4a686e	-0.049416
223	0xbe2bac42	-0.1676493
224	0x3d8656a4	0.06559494
225	0x3b5cf88d	0.0033717484
226	0x3d80e5a1	0.06293798
227	0xbc54633c	-0.012963112
228	0xbe066fb8	-0.13128555
229	0xbe193b81	-0.14964105
230	0x3dfe9bec	0.124320835
231	0x3d9255a4	0.07145241
232	0xbe188de7	-0.14897881
233	0xbb5df6a8	-0.0033868942
234	0x3d2745f0	0.040838182
235	0x3d8c1ff0	0.06842029
236	0xbd9db218	-0.07699984
237	0xbe25cfc7	-0.16192542
238	0x3e0ed084	0.1394673
239	0x3cb92354	0.022599854
240	0xbea9d80f	-0.33172652
241	0x3e214dda	0.15752354
242	0xbdb9c40e	-0.090705976
243	0x3e92a006	0.28637713
244	0x3e31980f	0.17343162
245	0xbe94aeaa	-0.29039508
246	0x3d4ef2d9	0.050524566
247	0x3e86b1e6	0.263076
248	0xbe1b48ce	-0.15164492
249	0x3e2c8b4f	0.16850017
250	0x3d399c59	0.04531512
251	0x3e36034b	0.17774694
252	0xbdb58467	-0.08863144
253	0xbec5e55a	-0.38651544
254	0x3e0a19b1	0.13486363
255	0xbd50406b	-0.050842684

_mean_net.2.bias f4 [32]
0	0x3eafd3ad	0.34341183
1	0x3d11d795	0.035605986
2	0xbd176be8	-0.03696814
3	0xbe5a5c1a	-0.21324196
4	0x3e75a972	0.2399042
5	0x3e5d81dd	0.2163157
6	0xbde6399b	-0.11241456
7	0x3e1a9401	0.15095522
8	0x3ea9bc5f	0.33151528
9	0x3e9e9a26	0.3097698
10	0xbe97fbdd	-0.29684344
11	0xbd6dd121	-0.05806077
12	0x3ebc7140	0.36805153
13	0xbe9dba97	-0.3080642
14	0xbd1cc5bb	-0.038274508
15	0xbe0476c4	-0.1293593
16	0x3e933f4c	0.2875923
17	0x3d005338	0.031329364
18	0xbea85737	-0.3287904
19	0xbe242ae7	-0.16031991
20	0x3e85868c	0.26079214
21	0xbe03e32f	-0.12879632
22	0x3e5a52d7	0.21320663
23	0x3e0b410b	0.1359903
24	0xbd55d59c	-0.052205667
25	0x3d605d45	0.05477645
26	0xbedc366d	-0.43010274
27	0x3f05d9fb	0.52285737
28	0x3e237b53	0.15965013
29	0x3cebed88	0.028799787
30	0xbde5e188	-0.11224657
31	0xbe495a90	-0.19663453

_mean_net.4.weight f4 [17, 32]
0	0xbe043e53	-0.129144
1	0xbde54187	-0.11194139
2	0x3ddee178	0.108828485
3	0xbecdda36	-0.40205544
4	0xbeec1b17	-0.46114418
5	0x3b32e09a	0.0027294517
6	0xbec1a71e	-0.37822813
7	0xbf2343fa	-0.637756
8	0xbbed4dc9	-0.0072419387
9	0x3e78a33a	0.24281016
10	0xbc8ad4a8	-0.016947106
11	0x3e8a0322	0.26955515
12	0xbef4e5f9	-0.47831705
13	0x3b22050b	0.0024722244
14	0xbe9105af	-0.2832465
15	0xbebddd99	-0.37083128
16	0xbeb23dcb	-0.3481277
17	0x3f474cfa	0.7785183
18	0x3e339636	0.1753777
19	0x3e35d93a	0.17758647
20	0xbe0f3d14	-0.13988143
21	0x3e7724ef	0.24135183
22	0x3f38cc3f	0.72186655
23	0xbf1ae625	-0.6050742
24	0xbd0e6dc7	-0.03477266
25	0xbe11b2cd	-0.14228363
26	0x3e5e53ea	0.21711698
27	0x3e53b1f8	0.20673358
28	0x3dd11234	0.1020855
29	0xbf02cfd9	-0.510984
30	0xbda786d5	-0.08180014
31	0x3ecde237	0.4021165
32	0x3caba5ad	0.020953024
33	0x3eb965a5	0.3621036
34	0xbe8fae32	-0.28062588
35	0x3edcfac2	0.43160063
36	0x3e489aa4	0.1959024
37	0xbc41c744	-0.011827294
38	0xbedc5472	-0.43033177
39	0xbea8a882	-0.3294106
40	0x3e9449cd	0.28962556
41	0x3e80443a	0.25052053
42	0xbe93a41c	-0.28836143
43	0xbe4654ea	-0.1936833
44	0x3ece82b5	0.40334097
45	0xbe667b2e	-0.22507927
46	0xbc7d9814	-0.015478153
47	0x3e5f7fff	0.2182617
48	0xbde6e845	-0.11274771
49	0xbeb2e755	-0.34942117
50	0xbe6e65c1	-0.23281004
51	0xbea05ef5	-0.31322446
52	0xbdb1c2ab	-0.08679708
53	0xbc9d7b9d	-0.019223982
54	0xbe599630	-0.21248698
55	0x3e01e455	0.12684758
56	0x3e2aa7da	0.16665593
57	0x3df32ed9	0.1187417
58	0x3e158020	0.14599657
59	0x3e7614b7	0.2403134
60	0xbef1bef9	-0.47216013
61	0xbea9dc11	-0.3317571
62	0xbd9982e4	-0.074956685
63	0x3e6387b0	0.2221973
64	0xbde47e8c	-0.111569494
65	0x3e581b7a	0.21104231
66	0xbe9da4f6	-0.30789918
67	0xbd891861	-0.06694103
68	0xbdb381be	-0.08764981
69	0xbe29aaa7	-0.16569005
70	0xbe69ef37	-0.2284516
71	0x3f088170	0.53322506
72	0x3d5aebea	0.05344764
73	0x3ed92046	0.42407435
74	0xbecfc909	-0.40583065
75	0x3e372328	0.17884505
76	0xbed14e70	-0.40880156
77	0x3ebef56b	0.37296614
78	0x3e0e6cb3	0.13908653
79	0x3ed6823a	0.4189623
80	0x3db05531	0.08609999
81	0xbd34e817	-0.04416665
82	0xbad7af5b	-0.0016455458
83	0x3edb5192	0.4283567
84	0x3e0aa6a5	0.13540132
85	0x3d8ec2a2	0.06970717
86	0x3d55b8ba	0.052178122
87	0x3de9b7d0	0.114120126
88	0xbf3f94ab	-0.74836224
89	0xbee5436b	-0.44777998
90	0xbe938e7b	-0.2881964
91	0x3dec1a67	0.11528473
92	0xbe9be0d1	-0.3044496
93	0x3d605fd2	0.05477888
94	0x3e1a14ae	0.15046951
95	0x3f18d182	0.59694684
96	0x3dba8cbc	0.09108874
97	0x3e03d403	0.12873845
98	0x3e84d581	0.2594414
99	0xbe56de8c	-0.20983332
100	0xbe6adbc3	-0.22935395
101	0x3ebd954a	0.3702796
102	0x3d4f3616	0.05058869
103	0xbe02aea4	-0.12761933
104	0x3e767b8d	0.24070568
105	0x3de30e5e	0.11086725
106	0xbf003846	-0.50085866
107	0xbeaadee2	-0.3337317
108	0x3ed977c2	0.4247418
109	0x3e358825	0.17727716
110	0xbeac73fd	-0.33682242
111	0x3d8bef60	0.068327665
112	0x3eaf3dbb	0.34226784
113	0xbef39eef	-0.47582194
114	0xbd9ae13d	-0.07562492
115	0xbea6234e	-0.3244881
116	0xbddb8ac2	-0.10719825
117	0x3d3f950f	0.046773013
118	0x3e5992c5	0.21247394
119	0x3ebabca8	0.36472058
120	0xbd5ce691	-0.053930823
121	0x3e241772	0.16024569
122	0xbe7c64db	-0.24647848
123	0x3f20f165	0.6286834
124	0xbd6ca86d	-0.05777781
125	0x3d90a1fa	0.070621446
126	0xbe539bc9	-0.20664896
127	0xbe95e430	-0.29275656
128	0xbd4c20af	-0.049835857
129	0xbe99c7bd	-0.300352
130	0xbef199ec	-0.47187746
131	0x3eac048a	0.33597213
132	0x3e7bae9a	0.24578324
133	0xbee1ddfa	-0.44114667
134	0xbe97cc7d	-0.296482
135	0xbd677fc4	-0.05651833
136	0xbeaa6483	-0.3327981
137	0xbe5c5de1	-0.21520187
138	0x3e42c89b	0.19021837
139	0xbe3ff890	-0.18747163
140	0x3dd73f97	0.10510176
141	0xbef7513d	-0.48304167
142	0x3f0a5417	0.5403456
143	0xbe634541	-0.22194387
144	0x3c4e8db0	0.012607023
145	0x3dbd89b6	0.09254782
146	0x3ecf7eba	0.40526372
147	0x3e8d63cb	0.27615198
148	0x3c004812	0.007829683
149	0xbe6ec61e	-0.23317763
150	0xbd92fc47	-0.07177024
151	0xbe83be53	-0.25731143
152	0xbc47c9dc	-0.012194123
153	0x3d842567	0.064524464
154	0x3ad23f9d	0.0016040687
155	0xbe9ba6f7	-0.30400822
156	0xbdb67bc6	-0.08910327
157	0x3cee62ce	0.029099848
158	0xbc7a07ad	-0.015260619
159	0x3f2679c3	0.65029544
160	0xbf0c532d	-0.54814416
161	0x3dea3fdd	0.11437962
162	0xbcba8312	-0.022767577
163	0xbf410a96	-0.7540678
164	0xbebaad38	-0.3646028
165	0x3e5d3113	0.21600752
166	0x3ead499e	0.33845228
167	0xbdc50319	-0.096197315
168	0xbdd985f8	-0.10621256
169	0x3e77cbb9	0.24198808
170	0x3ec1f21d	0.3788003
171	0xbb89e7df	-0.0042085494
172	0xbdc1355a	-0.09434004
173	0xbea45444	-0.3209554
174	0xbe4c9ff1	-0.19982888
175	0xbedd757f	-0.43253705
176	0xbc250d5f	-0.010073989
177	0x3e56b249	0.20966448
178	0x3f3c007b	0.73438233
179	0x3f1d5e13	0.6147167
180	0x3ebe51c3	0.37171754
181	0x3ece1682	0.40251547
182	0xbacf48f2	-0.0015814586
183	0xbcedf1f8	-0.029046044
184	0x3de40f63	0.11135747
185	0xbe7cdbec	-0.24693269
186	0xbde35287	-0.11099725
187	0x3e5b4e2b	0.21416537
188	0x3d53029d	0.051516164
189	0xbe68efc2	-0.2274771
190	0xbe210fda	-0.15728703
191	0x3e1efc1b	0.15525858
192	0xbf0b7e67	-0.5448975
193	0x3f0a7b2a	0.54094183
194	0xbe4c0469	-0.19923557
195	0x3e746580	0.23866844
196	0x3e0fde56	0.14049658
197	0x3cb31b82	0.021863703
198	0xbe1e148c	-0.15437526
199	0x3e430e4b	0.19048421
200	0xbf4051bd	-0.7512472
201	0xbd8ef9a2	-0.069812074
202	0xbd93c8f8	-0.07216066
203	0xbecaa3fa	-0.3957823
204	0x3e5c0445	0.21486004
205	0x3ed284dd	0.41116992
206	0x3e009069	0.12555088
207	0x3e44c65f	0.19216298
208	0x3c349475	0.011021723
209	0x3e0237eb	0.12716644
210	0x3e8322d6	0.25612515
211	0x3e9d959b	0.30778202
212	0xbdeb714b	-0.11496218
213	0xbdb03ca8	-0.08605319
214	0x3f4a38e9	0.7899309
215	0x3d63fa2e	0.05565851
216	0xbe82efdb	-0.2557362
217	0x3d15341e	0.036426656
218	0xbe9bc689	-0.30424908
219	0xbd78f62d	-0.060781647
220	0x3e7993de	0.24372813
221	0x3e8edc06	0.2790224
222	0x3db772e4	0.089574605
223	0xbcde5af7	-0.027142985
224	0x3e1dbade	0.15403315
225	0xbdee6fdd	-0.1164243
226	0x3ec5d961	0.3864241
227	0xbea14475	-0.3149754
228	0xbe9ce3b6	-0.3064248
229	0x3d63187a	0.055443265
230	0x3ee7c30f	0.45266005
231	0x3e1658b6	0.14682278
232	0x3e0de87e	0.1385822
233	0xbe579e1a	-0.21056405
234	0xbe8530d4	-0.26013815
235	0x3e426b9e	0.18986365
236	0x3e107604	0.1410752
237	0x3e544213	0.2072833
238	0xbe8f5c78	-0.28000236
239	0xbcaa4358	-0.020784065
240	0x3eb2a60f	0.34892318
241	0x3e8b20a9	0.27173355
242	0xbf0525c0	-0.52010727
243	0x3e48a500	0.19594193
244	0x3d0b6c8a	0.034039058
245	0xbe821512	-0.254067
246	0xbef3b2e4	-0.4759742
247	0xbcf51203	-0.029915815
248	0xbea28291	-0.3174024
249	0x3eaea67d	0.34111395
250	0x3c5deb57	0.013544879
251	0xbc565b36	-0.01308327
252	0x3e1719e3	0.14755969
253	0x3e93e5b8	0.288862
254	0x3d955d30	0.07293165
255	0x3d47922d	0.04872339

_mean_net.4.bias f4 [17]
0	0x3d93a4a7	0.07209139
1	0xbe3695c3	-0.17830567
2	0x3e6d757b	0.23189346
3	0xbdf79776	-0.12089436
4	0x3e38cdfe	0.1804733
5	0x3f5321ea	0.82473624
6	0x3e70c77e	0.235136
7	0xbd5274d9	-0.051380966
8	0x3e0e7c06	0.13914499
9	0xbc5f54ad	-0.013631028
10	0x3e733dc3	0.23754029
11	0xbd852677	-0.06501477
12	0xbe6feed1	-0.23430945
13	0xbe89c8be	-0.26910967
14	0x3ebacd5c	0.36484802
15	0x3ed2a59a	0.4114197
16	0xbe60d2f2	-0.21955469
