hw1/run_logs/q2_dagger_humanoid/policy_itr_8.pt (torch, 110267 bytes, 7 tensors)

_logstd f4 [17]
0	0xbf954746	-1.1662376
1	0xbfa6a58c	-1.3019271
2	0xbf8321aa	-1.0244648
3	0xbf8500e7	-1.03909
4	0xbf88ef0f	-1.0697955
5	0xbf692fb0	-0.9108839
6	0xbf6b09f8	-0.91812086
7	0xbf8709d9	-1.054988
8	0xbf837712	-1.0270712
9	0xbf77d8d2	-0.96815217
10	0xbf7180cf	-0.9433717
11	0xbfb69f50	-1.4267368
12	0xbfa84ab3	-1.3147796
13	0xbff2862e	-1.8947198
14	0xbfbbf5d8	-1.46844
15	0xbfcaa02a	-1.5830128
16	0xbff43f25	-1.908177

_mean_net.0.weight f4 [64, 376]
0	0xbe61361f	-0.21993302
1	0x3d98155b	0.07425948
2	0xbf9aa10a	-1.2080395
3	0xc0037abf	-2.0543668
4	0xbee887dd	-0.45416155
5	0xbf1eb9a2	-0.62002003
6	0x3e6637e7	0.22482263
7	0x3ddd720b	0.108127676
8	0xbe5011a4	-0.2031923
9	0xbff08d38	-1.8793097
10	0x3f3bc866	0.7335266
11	0xbfa0cb11	-1.2561971
12	0x3f47b63e	0.78012455
13	0xbec45d33	-0.38352355
14	0xbf38b7be	-0.7215537
15	0x3dbb4e94	0.09145847
16	0x3f2f3333	0.684375
17	0x3ec507ac	0.38482416
18	0x3ec64736	0.38726205
19	0x3e91a5f2	0.2844692
20	0x3eb94a7a	0.36189634
21	0x3d2165db	0.039403778
22	0x3d681904	0.05666448
23	0x3e1d2cbb	0.15349095
24	0xbeb95753	-0.36199436
25	0xbe3b9fd7	-0.18322693
26	0xbdfc9c3a	-0.12334485
27	0xbe4e08ee	-0.20120594
28	0xbd4c25c4	-0.049840704
29	0x3ce46878	0.027881846
30	0x3cbf1e23	0.0233298
31	0x3c79349e	0.015210299
32	0xbd2495c2	-0.040181883
33	0x3dd1f763	0.102522634
34	0xbd69c794	-0.0570751
35	0xbcbc1a1d	-0.02296167
36	0x3d1bcae9	0.038035307
37	0x3c871144	0.016487725
38	0x3b490771	0.0030674601
39	0xbda0f43a	-0.078590825
40	0xbd24fb52	-0.04027874
41	0xbd904b82	-0.07045652
42	0x3cf1ebe5	0.029531429
43	0x3d4dbbdd	0.05022799
44	0x3c44bb5d	0.0120075615
45	0x3cd927eb	0.026508292
46	0xbce04173	-0.027374959
47	0x3c78803c	0.015167292
48	0xbc73fb8c	-0.014891516
49	0xbbb944e0	-0.0056539625
50	0xbd4b1432	-0.049579807
51	0xbcc96d12	-0.024588142
52	0x3ce53f26	0.027984213
53	0xbc4d62c3	-0.012535754
54	0x3d52668e	0.051367335
55	0xbd0833ba	-0.033252455
56	0xbe147cde	-0.14500758
57	0x3f1e67ad	0.61876947
58	0xc07f5703	-3.9896858
59	0x3f5299cc	0.82265925
60	0x3e3161c0	0.17322445
61	0xbd82e96b	-0.06392177
62	0x3e8ffd63	0.28123006
63	0xbbaf9e9f	-0.0053594853
64	0x3d7c2229	0.061556015
65	0xbe47b7be	-0.19503686
66	0x3e73a987	0.23795138
67	0x400ab5d3	2.1673477
68	0xc0c00c81	-6.0015264
69	0xbec1b579	-0.37833765
70	0xbfc80c6b	-1.562879
71	0x3f70bd7a	0.9403912
72	0x3ff58d53	1.9183754
73	0xbdd42331	-0.10358275
74	0x3ddbf2d6	0.10739677
75	0x3eab481e	0.3345346
76	0x3fc23b17	1.5174283
77	0x3fc097ec	1.5046363
78	0x402edbcb	2.732165
79	0x3fb95711	1.4479696
80	0x40b7398e	5.7257757
81	0x3fda2cb4	1.7044892
82	0x3f9ac109	1.209016
83	0x3e3f70d8	0.1869539
84	0x3df74da4	0.12075356
85	0x3f78dbdb	0.9721047
86	0x3e11121f	0.14167069
87	0xbed794b8	-0.4210565
88	0x3f558619	0.8340774
89	0x3f2e36d4	0.6805241
90	0xbf53a946	-0.82680166
91	0x3ebf5236	0.3736741
92	0xbf29faa8	-0.66398096
93	0xbeb8039f	-0.35940263
94	0x3d651b71	0.055934373
95	0x3d99dbf9	0.075126596
96	0xbe71d400	-0.23616028
97	0xbfaf54b9	-1.369773
98	0xbe2b1556	-0.16707358
99	0x3f9675e0	1.1754723
100	0xbe77a8f0	-0.24185538
101	0xbe76698e	-0.24063703
102	0xbdb12897	-0.0865032
103	0xbdaa3244	-0.08310369
104	0x3d69ff0c	0.057127997
105	0xbeb6e2b4	-0.35719836
106	0xbe7ddb46	-0.24790677
107	0xbf0a5d99	-0.5404907
108	0x3fa3528e	1.2759569
109	0x3f943d75	1.1581255
110	0x3ee3240b	0.44363436
111	0xbe0e6150	-0.1390431
112	0x3f74bfc5	0.9560512
113	0x3e0e4734	0.1389435
114	0x3dc67985	0.09691147
115	0xbf5c728b	-0.8611228
116	0x3d8bb788	0.06822115
117	0x3e28a62d	0.16469641
118	0x3f22c7dc	0.6358621
119	0x3f28f6a8	0.6600137
120	0xc0022a64	-2.0338373
121	0x3ff0e7bf	1.8820723
122	0xbf947681	-1.1598665
123	0x3e389519	0.18025626
124	0x3df18d71	0.11794556
125	0xbf1e0acd	-0.6173523
126	0xbea2a710	-0.31768084
127	0x3fe4cf41	1.7875749
128	0x3fc424da	1.5323746
129	0x3e013551	0.12617995
130	0xbfbacafc	-1.4593196
131	0xbd3cc2a6	-0.04608407
132	0xbf2c936a	-0.67412436
133	0x3eaf095f	0.34186837
134	0x3dfb17f4	0.12260428
135	0xbef7c33d	-0.48391142
136	0xbe97eb34	-0.29671633
137	0x400658c0	2.0991669
138	0x4008d888	2.138216
139	0xbe836861	-0.25665572
140	0xbe7b1023	-0.24517874
141	0xbf1b47e9	-0.606566
142	0x3f9327f4	1.1496568
143	0x3eb407fd	0.35162345
144	0x3dd9f4ed	0.10642419
145	0xbf5749d6	-0.8409704
146	0xbeded477	-0.43521473
147	0xbf5f5481	-0.8723832
148	0x3f53bf9f	0.82714266
149	0x3fb82d40	1.4388809
150	0xbf720212	-0.9453441
151	0xbe83855d	-0.25687686
152	0x3e9ab7e9	0.30218437
153	0xbea63dd5	-0.3246905
154	0x3d2b2825	0.04178633
155	0xbe9fb0fb	-0.31189713
156	0xbe8aeaf2	-0.27132374
157	0xbfc2f6d4	-1.5231576
158	0x3fe14966	1.7600524
159	0x40581d3a	3.3767838
160	0xbf5f2199	-0.8716064
161	0xbf6fbf8e	-0.93651664
162	0x3cfb065b	0.030642679
163	0xbdf60641	-0.120129116
164	0x3d829d21	0.06377626
165	0x3e124149	0.14282717
166	0xbe5f657d	-0.21816058
167	0x3fa6644f	1.2999362
168	0xc033ddd2	-2.8104138
169	0xbf0667b3	-0.5250198
170	0xbf08499e	-0.5323733
171	0x3e86b795	0.26311937
172	0x3f46fe56	0.77731836
173	0xbdb74b86	-0.08949952
174	0x3e1157e2	0.14193681
175	0x3f1dd07e	0.6164626
176	0x3e08f8b2	0.1337612
177	0x3f098d4d	0.5373123
178	0xbe70bfd2	-0.23510674
179	0xbf612fe6	-0.8796371
180	0xbfc5ee40	-1.5463333
181	0xbec80c1f	-0.39071748
182	0x3f9d8823	1.2307171
183	0x3c9bb606	0.019007694
184	0x3d6a4a9a	0.05720005
185	0x3d421aed	0.04738896
186	0xbd369dff	-0.04458427
187	0xbd24a773	-0.040198755
188	0xbae5873f	-0.001751162
189	0xbce46fa7	-0.027885271
190	0x3c972a2e	0.01845273
191	0x3bfec161	0.0077745174
192	0xbd9108e8	-0.07081777
193	0x3e12a54b	0.14320867
194	0x3d476490	0.04867989
195	0x3d87879d	0.06617663
196	0xbd3f02ba	-0.04663346
197	0xbcc19907	-0.02363254
198	0x3a80276e	0.0009777376
199	0x3d8eb163	0.069674276
200	0xbda0ff94	-0.07861248
201	0xbe9cb572	-0.30607182
202	0xbe90b678	-0.28264213
203	0xbba3d6f3	-0.004999989
204	0x3bcafb15	0.006194482
205	0xbd20c07c	-0.039246067
206	0xbe5da7a4	-0.21645981
207	0x3db2a90c	0.087236494
208	0xbe9db75e	-0.3080396
209	0x3d27f205	0.041002292
210	0xbd1784db	-0.036991935
211	0xbc18fc98	-0.009337567
212	0xbe91fe9e	-0.2851457
213	0x3dab948c	0.083779424
214	0x3ea685db	0.32524
215	0x3c07a6a9	0.008279481
216	0x3d69a9cf	0.057046708
217	0xbc6ed639	-0.014577442
218	0xbda1e8b4	-0.07905713
219	0x3e06c3fd	0.13160701
220	0x3af80a57	0.001892398
221	0x3c4bc439	0.01243692
222	0xbcb13e80	-0.021636248
223	0xbc6048e2	-0.013689252
224	0xbd0e3ec2	-0.03472782
225	0x3d490a25	0.04908194
226	0x3cf07e0f	0.029356984
227	0x3d67fc17	0.056636896
228	0xbc879660	-0.016551197
229	0x3d04228f	0.03225952
230	0x3d9b000a	0.07568367
231	0x3eedd60f	0.46452376
232	0xbcee32a6	-0.029076885
233	0xbd51cae3	-0.05121888
234	0xbb9ca119	-0.0047799465
235	0x3ae3806a	0.0017356996
236	0x3c90d1a2	0.017678086
237	0xbdc3578e	-0.09538184
238	0x3c209dcb	0.009803246
239	0xbda633ca	-0.08115347
240	0xbcd457ee	-0.025920834
241	0xbc7b8cfe	-0.015353439
242	0x3d9a6da7	0.07540446
243	0xbe05e925	-0.13077219
244	0xbd4758f6	-0.048668824
245	0xbe1e3f36	-0.154538
246	0xbdedda80	-0.11613941
247	0x3d6d9daf	0.058011707
248	0xbe42ac83	-0.1901112
249	0x3e6725a4	0.22572953
250	0xbb2fadee	-0.002680655
251	0x3ce9a037	0.02851878
252	0x3cdf64b4	0.027269699
253	0x3d198803	0.037483227
254	0xbe090cca	-0.13383785
255	0x3e3c5cab	0.18394725

_mean_net.0.bias f4 [64]
0	0x3db69699	0.08915443
1	0xbdcaf45c	-0.09909889
2	0xbb191f07	-0.002336444
3	0xbeb72018	-0.35766673
4	0x3cdd8244	0.027039655
5	0x3e1a74e1	0.15083648
6	0x3d578b7f	0.05262327
7	0x3e735863	0.23764186
8	0xbda2384c	-0.07920894
9	0x3e92100f	0.28527877
10	0xbef05fb4	-0.46948016
11	0xbe8322dd	-0.25612536
12	0xbd5294d2	-0.051411457
13	0x3f8897a9	1.0671283
14	0x3db88a46	0.090107486
15	0xbe7fd594	-0.24983817
16	0x3dc2b09e	0.09506343
17	0xbcee9ce9	-0.029127555
18	0xbe8d2a9a	-0.27571565
19	0xbe8bda4b	-0.27314982
20	0xbe627660	-0.22115469
21	0x3ddae58d	0.106883146
22	0x3cdeb5d7	0.027186317
23	0xbf473f73	-0.7783119
24	0xbd61117a	-0.054948308
25	0x3e6e559e	0.23274848
26	0xbe7227a2	-0.23647931
27	0xbf64a0c0	-0.89307785
28	0x3d731d63	0.059354197
29	0x3ceb0924	0.028690882
30	0xbca97b33	-0.020688629
31	0xbb21926f	-0.0024653932
32	0xbf0c664d	-0.548436
33	0x3e322bd9	0.17399539
34	0x3d56c540	0.052434206
35	0xbd021d2b	-0.031766098
36	0x3d040abf	0.03223681
37	0x3db8c409	0.09021766
38	0xbdec0e7b	-0.115261994
39	0xbe96d72f	-0.29461047
40	0x3e8627b7	0.26202175
41	0xbd33661c	-0.04379855
42	0xbc36498f	-0.011125936
43	0x3e97057f	0.2949638
44	0xbd954e76	-0.07290356
45	0xbf5dca99	-0.86637264
46	0x3eef94b9	0.46793154
47	0xbd9d02be	-0.07666539
48	0xbd6e3d9f	-0.058164235
49	0xbd35eb4c	-0.04441385
50	0xbd2f976c	-0.042869017
51	0xbecae85b	-0.39630398
52	0x3e12d6c6	0.14339742
53	0x3f18c935	0.5968202
54	0x3e092996	0.1339477
55	0x3f0f9ef0	0.56101894
56	0xbe63a9ff	-0.22232817
57	0xbcdd4ab8	-0.027013168
58	0xbd0f2349	-0.03494576
59	0xbce0f71c	-0.027461581
60	0x3d4df92b	0.050286453
61	0x3ba10a55	0.0049145618
62	0xbda113b4	-0.07865086
63	0xbe6e9ef1	-0.23302819

_mean_net.2.weight f4 [32, 64]
0	0xbd1830be	-0.03715586
1	0x3d2a0c6e	0.04151576
2	0xbc7b6ab5	-0.015345265
3	0xbd8afab8	-0.06786102
4	0xbe84e567	-0.2595627
5	0xbd78ad14	-0.060711935
6	0x3df8252c	0.12116465
7	0xbe58b486	-0.21162614
8	0x3d67b68d	0.05657058
9	0xbdf70854	-0.12062135
10	0xbd13911a	-0.03602705
11	0xbe1f6941	-0.15567495
12	0x3d15c10a	0.03656105
13	0xbf088ced	-0.53340036
14	0xbcec6ebf	-0.028861402
15	0xbdafdc95	-0.085869946
16	0xbc36dd96	-0.011161229
17	0x3cec0a9e	0.028813656
18	0x3dad7c24	0.084709436
19	0xbc92d96c	-0.01792594
20	0x3d44cc9d	0.048046697
21	0x3d6e330b	0.058154147
22	0x3e39170e	0.18075201
23	0xbe0891aa	-0.13336816
24	0xbd46bb37	-0.048518386
25	0x3e73e27c	0.23816866
26	0x3e151afc	0.14561075
27	0x3e4465a1	0.19179393
28	0xbda4a326	-0.080389306
29	0xbd02d16f	-0.031938013
30	0x3c6a943b	0.014317567
31	0xbe794857	-0.24344002
32	0x3cff78b5	0.031185487
33	0x3e1102fc	0.14161295
34	0xbca061fc	-0.019577973
35	0xbd5e8e55	-0.054334957
36	0xbd5dc8da	-0.054146625
37	0xbe0c4f2d	-0.13702078
38	0xbe057b40	-0.13035297
39	0xbdb16e26	-0.08663587
40	0xbda8afba	-0.08236642
41	0x3e9065f8	0.28202796
42	0xbec2b416	-0.3802802
43	0xbd1ccc95	-0.038281042
44	0x3d143c7b	0.03619049
45	0xbe9bdde4	-0.30442727
46	0xbded7715	-0.11594979
47	0x3d0665df	0.032811996
48	0xbe177a4f	-0.14792751
49	0xbe712302	-0.2354851
50	0x3d15ea15	0.03660019
51	0xbcdeb47a	-0.027185667
52	0xbd10a951	-0.035317723
53	0x3ce94fd9	0.028480457
54	0x3d2398d9	0.03994069
55	0x3d94ef27	0.07272177
56	0x3beba5c3	0.007191391
57	0xbe4a9427	-0.19783078
58	0x3d6b5b03	0.057459842
59	0xbe3b97d0	-0.1831963
60	0xbdf6a597	-0.120433025
61	0x3ee9f871	0.45697358
62	0x3c73093c	0.014833745
63	0x3d55d886	0.052208446
64	0x3d9215df	0.07133078
65	0xbcf25a4e	-0.029584076
66	0xbe395065	-0.18097074
67	0xbe156a8f	-0.1459143
68	0x3e3e3c1b	0.18577616
69	0xbcb04fdf	-0.02152246
70	0x3ccf2d4b	0.025290152
71	0xbc0deb16	-0.008662006
72	0xbe0f7fff	-0.1401367
73	0xbd566bd8	-0.05234894
74	0xbe7dfc8c	-0.2480337
75	0x3d9e410a	0.07727249
76	0xbe39df57	-0.18151604
77	0xbe3e0d69	-0.18559803
78	0x3d12b4fb	0.035817128
79	0x3d890dc9	0.066920824
80	0x3c8748a0	0.016514122
81	0x3ced7183	0.02898479
82	0xbdad195b	-0.08452102
83	0x3dd68a47	0.10475593
84	0x3e828ae3	0.25496587
85	0x3cd4f605	0.025996218
86	0xbdbd00b0	-0.09228647
87	0xbdde77f1	-0.10862721
88	0xbe3d1018	-0.1846317
89	0x3eab0a5d	0.33406344
90	0x3d413eb0	0.047178924
91	0x3f14f574	0.5818703
92	0x3d25a146	0.040437005
93	0xbdc1f972	-0.09471406
94	0xbe5aba0a	-0.21360031
95	0x3a5d0025	0.00084305025
96	0xbde9fcd6	-0.11425178
97	0x3cf6f1fb	0.030144682
98	0xbe29dab0	-0.16587329
99	0x3df97c4c	0.12181911
100	0x3b2ed26a	0.002667571
101	0xb93cc91d	-0.00018003998
102	0x3e7cb58e	0.24678633
103	0xbcfacfc8	-0.030616656
104	0x3d266bd9	0.040630195
105	0x3d6841cc	0.056703374
106	0x3e11b0d8	0.14227617
107	0xbda08a43	-0.07838871
108	0x3cd7eb4f	0.026357321
109	0x3df809b8	0.12111229
110	0x3e00ccc0	0.12578106
111	0xbe0dcddc	-0.1384806
112	0xbe306f18	-0.17229879
113	0x3e47ce71	0.19512345
114	0xbceff315	-0.029290715
115	0x3dd314fa	0.10306735
116	0x3ba4a354	0.005024353
117	0xbe12e237	-0.14344107
118	0xbd89842e	-0.067146644
119	0xbbe9fdee	-0.0071408665
120	0x3b9370e7	0.004499543
121	0x3e91e9bc	0.28498638
122	0xbbb9c5f0	-0.005669348
123	0x3d910c00	0.07082367
124	0xbd8351fd	-0.064121224
125	0xbd9de07f	-0.07708835
126	0xbdbccae3	-0.09218385
127	0xbd74f7c3	-0.059806596
128	0xbd1a33fe	-0.03764724
129	0x3db52407	0.08844762
130	0x3e4166aa	0.1888682
131	0x3cc9e43f	0.024644969
132	0xbc9d9468	-0.019235805
133	0x3b5ca16e	0.0033665556
134	0x3e7db8e5	0.24777563
135	0x3d9e5d1e	0.077326044
136	0x3e6579af	0.224097
137	0x3d63b927	0.055596497
138	0xbd136cfa	-0.0359926
139	0xbc52c1ed	-0.012863618
140	0x3d3fc557	0.046819057
141	0xbd674031	-0.056457702
142	0x3cd44cfe	0.025915619
143	0xbbc2e2d4	-0.00594745
144	0xbce74921	-0.028233113
145	0xbc8b1db2	-0.016981933
146	0x3d6034ef	0.05473798
147	0xbab46558	-0.0013763113
148	0x3dc96db2	0.09835376
149	0xbcc4ba21	-0.024014534
150	0xbd425b67	-0.04745045
151	0x3d52ab77	0.051433053
152	0x3c55108b	0.013004432
153	0xbd8bfde0	-0.06835532
154	0x3df267a7	0.11836176
155	0xbed6be09	-0.4194186
156	0xbd273dd5	-0.040830452
157	0xbd274844	-0.040840402
158	0xbd9ae147	-0.075624995
159	0xbd21ac14	-0.039470747
160	0x3c8a8d18	0.016912982
161	0x3d3f909a	0.046768762
162	0xbd5401a5	-0.05175938
163	0xbc52c3bf	-0.012864052
164	0xbca1252f	-0.01967105
165	0xbe31f230	-0.17377543
166	0xbd831ca8	-0.0640195
167	0x3d403dd8	0.04693398
168	0x3b08fa44	0.0020901123
169	0x3c9a51ba	0.018837798
170	0xbd98c37c	-0.07459161
171	0xbd4121d1	-0.04715139
172	0x3df62168	0.120180905
173	0xbcbcc898	-0.02304487
174	0xbdc45c6c	-0.095879406
175	0xbcbc601d	-0.02299505
176	0xbdd70fb6	-0.105010435
177	0xbe8f8290	-0.280293
178	0xbe49488e	-0.19656584
179	0xbde245ee	-0.11048494
180	0xbca7f2fa	-0.020501602
181	0xbc8313f6	-0.016000729
182	0xbda2c98d	-0.07948599
183	0xbdf833ec	-0.12119278
184	0x3cd21761	0.025645914
185	0x3d2c89b7	0.042123523
186	0xbcf81df6	-0.030287724
187	0xbc6c6be4	-0.01443002
188	0xbd50ee21	-0.051008347
189	0x3dbe1616	0.09281556
190	0x3d2de592	0.042455263
191	0xbc570ff6	-0.013126364
192	0xbe10df53	-0.14147691
193	0xbcda6f59	-0.026664423
194	0xbb53c8ec	-0.0032315804
195	0xbd627e77	-0.055296388
196	0xbe95f075	-0.29285017
197	0xbd80346d	-0.062599994
198	0xbe59a711	-0.21255137
199	0xbd1cbece	-0.038267903
200	0x3da87cf1	0.08226956
201	0x3d93356f	0.07187926
202	0x3e9eb542	0.30997664
203	0x3de5cb1a	0.11220379
204	0x3d387a24	0.045038357
205	0x3b34cea3	0.0027588985
206	0xbd80549d	-0.06266139
207	0xbb3447e6	-0.0027508675
208	0xbdade802	-0.084915176
209	0x3d0e2baa	0.03470961
210	0xb989c5ee	-0.00026278145
211	0x3bd243b4	0.0064167622
212	0xbe190d32	-0.1494644
213	0x3d9e84c7	0.07740169
214	0x3e451b15	0.19248612
215	0xbd2c9411	-0.042133395
216	0xbe480475	-0.1953295
217	0xbd7fe856	-0.062477432
218	0xbcab1af2	-0.020886872
219	0xbe9443ff	-0.28958127
220	0x3cab8f44	0.020942338
221	0x3cd7860f	0.026309041
222	0x3d99d00a	0.075103834
223	0x3cf6ae3f	0.030112384
224	0x3e067732	0.13131407
225	0xbcc235a6	-0.023707222
226	0x3d7aad19	0.061200235
227	0x3c39b8e1	0.0113355825
228	0xbe8f6c1e	-0.28012174
229	0x3d65606f	0.05600017
230	0x3cfc934e	0.03083196
231	0xbbee6e0b	-0.0072763017
232	0xbe03fea1	-0.12890102
233	0xbd551763	-0.052024256
234	0xbe048cfd	-0.12944408
235	0xbdb66726	-0.08906393
236	0xbd220172	-0.03955216
237	0xbec6e8d1	-0.388495
238	0x3db4a66c	0.08820805
239	0x3cac6d4d	0.021048212
240	0xbdee1017	-0.11624163
241	0x3e6a486f	0.22879194
242	0xbde8bed0	-0.113645196
243	0x3de08f40	0.10964823
244	0x3c74a561	0.0149320075
245	0x3b829372	0.003984862
246	0x3c385f42	0.01125318
247	0x3c7f2155	0.015571912
248	0xbc064939	-0.008196169
249	0xbd19b68a	-0.0375276
250	0xb9bfb242	-0.0003656317
251	0xba5e630d	-0.00084833876
252	0xbe4685ee	-0.19387028
253	0xbe8791dd	-0.26478472
254	0x3ca63a6d	0.020291531
255	0xbb2bb883	-0.0026202507

_mean_net.2.bias f4 [32]
0	0x3ef91a7a	0.48653013
1	0xbecd3ed6	-0.40087003
2	0xbe5c3386	-0.2150403
3	0xbd868fa3	-0.06570365
4	0x3f0cd9b2	0.55019677
5	0x3eff49bb	0.4986094
6	0xbdbea859	-0.093094535
7	0x3e7713ec	0.24128693
8	0x3e4f5906	0.20248803
9	0x3e270ece	0.16314241
10	0x3d0eb696	0.034842096
11	0xbda166fd	-0.078809716
12	0x3f4d1857	0.80115265
13	0xbe5f1f15	-0.217892
14	0xbe540b13	-0.2070735
15	0xbeba55b3	-0.36393508
16	0x3e7c12af	0.24616502
17	0xbd64191a	-0.055688
18	0xbf12aaab	-0.5729167
19	0xbe58de22	-0.21178487
20	0xbd47a174	-0.048737958
21	0xbe4cfd64	-0.20018536
22	0x3ec956d3	0.39324054
23	0x3e9226ae	0.28545135
24	0xbc769054	-0.015049059
25	0xbe1a8c30	-0.1509254
26	0xbedf43ef	-0.43606517
27	0x3eb86627	0.36015436
28	0x3ec15486	0.377598
29	0xbbc8a967	-0.00612371
30	0xbe6bf695	-0.23043282
31	0xbe20158a	-0.15633217

_mean_net.4.weight f4 [17, 32]
0	0xbe139e02	-0.14415744
1	0x3e3dcb80	0.1853466
2	0xbe099940	-0.13437366
3	0xbe5a8329	-0.21339096
4	0xbebfa532	-0.37430722
5	0xbea0a78d	-0.3137783
6	0xbe8c3dd2	-0.27390915
7	0xbf307f51	-0.6894427
8	0x3e7f1389	0.24909796
9	0x3c196ba3	0.0093640415
10	0xbe86e6ae	-0.2634787
11	0x3e33c32f	0.17554925
12	0xbeb01246	-0.34388942
13	0x3eb674fc	0.35636127
14	0xbe8262ca	-0.25465995
15	0xbf0c5d1b	-0.5482957
16	0xbf1815b6	-0.5940813
17	0x3f334f75	0.70043117
18	0xbca362bd	-0.019944543
19	0x3e816402	0.25271612
20	0xbd20b6d7	-0.03923687
21	0xbefc142b	-0.49234137
22	0x3f62960b	0.885102
23	0xbf0bd7f6	-0.54626405
24	0x3d31c13d	0.043397177
25	0xbde2e8d8	-0.11079568
26	0x3e2f484d	0.17117424
27	0xbd30d4a1	-0.04317153
28	0xbe63bffc	-0.22241205
29	0xbed06852	-0.4070459
30	0xbebea548	-0.37235475
31	0x3e0bc0de	0.13647792
32	0xbe8d3782	-0.27581412
33	0x3e8c5131	0.27405694
34	0xbed152c7	-0.40883467
35	0x3f1823cf	0.5942964
36	0x3e23e1bc	0.1600408
37	0xbe42fade	-0.1904101
38	0xbec04646	-0.37553614
39	0xbefb7244	-0.49110615
40	0x3cff60d0	0.031174093
41	0x3e914259	0.28370932
42	0xbf0e7ff7	-0.5566401
43	0xbecdaa24	-0.4016887
44	0x3d1451ff	0.03621101
45	0xbe4dbd93	-0.20091848
46	0xbe0e7d70	-0.13915038
47	0x3e828938	0.25495315
48	0xbe11029d	-0.14161153
49	0xbf19770c	-0.59947276
50	0xbebda9a7	-0.37043497
51	0xbe99fea6	-0.30077094
52	0xbe6483ac	-0.22315854
53	0xbcb26d1d	-0.021780545
54	0xbc9fac22	-0.019491259
55	0x3ddc35ad	0.10752425
56	0x3e4504c1	0.19240095
57	0xbe3264ed	-0.17421313
58	0x3e9a2def	0.3011317
59	0x3e94f1c9	0.29090717
60	0xbeab077c	-0.33404148
61	0xbe03ba1f	-0.12863968
62	0x3e78d801	0.24301149
63	0x3e4c60f8	0.19958866
64	0x3d4507d1	0.048103157
65	0xbec47e8b	-0.38377795
66	0xbef663e3	-0.48123083
67	0xbe157eef	-0.14599203
68	0xbde41342	-0.11136486
69	0xbe675c38	-0.22593772
70	0xbcccd72a	-0.025004942
71	0x3f363929	0.7118097
72	0x3e437510	0.19087625
73	0xbd63ab13	-0.05558307
74	0xbf27c9aa	-0.6554209
75	0x3e1e820e	0.154793
76	0xbeb305d5	-0.34965387
77	0x3f80cbef	1.0062236
78	0x3e826c07	0.25473043
79	0x3e063081	0.1310444
80	0xbe1650ef	-0.14679311
81	0xbeecdb83	-0.46261224
82	0x3e8f37cf	0.27972266
83	0x3e7146ed	0.23562212
84	0x3e43f255	0.19135411
85	0xbe0229ed	-0.12711306
86	0x3f10ea46	0.5660747
87	0x3ea6d9b5	0.32587972
88	0xbf8f279c	-1.1183963
89	0xbefaa967	-0.4895737
90	0xbd13f904	-0.03612615
91	0xbed8e0e3	-0.42359075
92	0xbe5f7be0	-0.21824598
93	0x3eaea822	0.3411265
94	0x3d1dc0c6	0.03851392
95	0x3ec66c07	0.38754293
96	0x3e175e84	0.14782149
97	0x3ca5d6f3	0.020244097
98	0xbe000c35	-0.12504657
99	0xbeb77acf	-0.35835883
100	0xbefdae8f	-0.4954724
101	0x3ebbf4fd	0.3671035
102	0x3e9720ea	0.295173
103	0xbe52a302	-0.20569995
104	0x3ee452ca	0.44594413
105	0xbd777bf8	-0.06042096
106	0xbf52e098	-0.8237395
107	0xbf19d99f	-0.6009769
108	0x3ecb792c	0.39740884
109	0x3dd0b862	0.10191418
110	0xbe5a1c8f	-0.21299957
111	0x3e95d945	0.29267326
112	0x3e7a6a47	0.24454604
113	0xbf297dc8	-0.6620755
114	0xbd9dae2f	-0.076992385
115	0xbe7ec343	-0.24879174
116	0x3d90e001	0.07073975
117	0xbf0350ad	-0.51294976
118	0x3f1eb6b6	0.61997545
119	0x3f44c31b	0.7686021
120	0x3ebe8d85	0.37217346
121	0x3eb142a1	0.34621146
122	0xbed6c43c	-0.4194659
123	0x3e553d6e	0.20824215
124	0x3e18dcea	0.14928022
125	0x3f31912b	0.69362134
126	0xbe8d8298	-0.27638698
127	0xbf19b2d4	-0.60038495
128	0xbe066254	-0.13123447
129	0xbefa6c0c	-0.48910558
130	0xbf6260fc	-0.88429236
131	0x3efd80b4	0.49512255
132	0xbe030b3d	-0.12797256
133	0xbf40e7af	-0.7535352
134	0xbeb82fbc	-0.35973918
135	0x3e6a1627	0.22860013
136	0xbf0b3454	-0.5437672
137	0xbe10f9b6	-0.14157757
138	0x3f0d8f2d	0.55296594
139	0x3def42f6	0.11682694
140	0x3ed6d67b	0.4196051
141	0xbf0c4577	-0.54793495
142	0x3e4821af	0.195441
143	0xbea1b48c	-0.3158306
144	0x3de6410f	0.11242878
145	0x3e62ffb3	0.22167854
146	0x3e82e82d	0.2556776
147	0x3e12df9b	0.14343111
148	0x3db97202	0.090549484
149	0xbe1593a2	-0.14607099
150	0xbe3c1109	-0.18365873
151	0xbd378d06	-0.044812225
152	0xbe73fc2f	-0.23826669
153	0xbeabb104	-0.3353349
154	0x3f215e56	0.6303457
155	0xbea2aca5	-0.31772342
156	0xbe9f85e4	-0.31156838
157	0xbed27ff2	-0.4111324
158	0x3ee8374d	0.4535469
159	0x3f040858	0.5157523
160	0xbf393b16	-0.72355783
161	0xbe683a9e	-0.2267861
162	0xbf3599d3	-0.7093784
163	0xbf64eca0	-0.8942356
164	0xbeaf8874	-0.34283793
165	0xbcdb91ae	-0.026802864
166	0x3efc28f1	0.49249986
167	0x3d2b9207	0.04188731
168	0x3efaea15	0.49006715
169	0x3de19a26	0.110157296
170	0x3d6c5f35	0.057707984
171	0x3de573dd	0.1120374
172	0x3e9f7e99	0.31151274
173	0xbdaf5d74	-0.08562747
174	0x3ea95005	0.33068863
175	0xbf7711fd	-0.9651182
176	0xbe534e74	-0.20635396
177	0x3e87b48b	0.2650493
178	0x3efa572b	0.4889463
179	0x3efc5762	0.49285418
180	0x3e9bae34	0.30406344
181	0xbd1fd65b	-0.039022785
182	0xbf2ac1c3	-0.66701907
183	0x3e5cd613	0.21566038
184	0xbe00538a	-0.12531868
185	0xbeb41297	-0.35170433
186	0xbe329397	-0.17439114
187	0x3e5556af	0.20833848
188	0xbca7efed	-0.020500148
189	0xbf6dbe08	-0.9286809
190	0xbea03b35	-0.3129517
191	0x3eee7b68	0.46578526
192	0xbe7d030c	-0.24708194
193	0x3ea2bc71	0.31784394
194	0xbf4cdc7e	-0.80023944
195	0xbe676d80	-0.22600365
196	0x3da891c5	0.08230928
197	0xbdeb38fb	-0.114854775
198	0x3e8fcc59	0.28085592
199	0x3e3b78db	0.18307821
200	0xbfa7ed7b	-1.3119348
201	0x3db2d09c	0.08731195
202	0x3f227565	0.6346038
203	0xbe528f00	-0.20562363
204	0x3eee7343	0.46572313
205	0xbc074f55	-0.00825866
206	0x3e1539f5	0.1457289
207	0x3e56411e	0.20923278
208	0x3bff1bd1	0.0077852984
209	0xbeecfe2c	-0.46287668
210	0x3ec0236b	0.37527022
211	0x3f1f3040	0.62183
212	0x3d461315	0.04835804
213	0xbef9315f	-0.4867048
214	0x3f3d9dbd	0.74068815
215	0xbe89e8e7	-0.26935503
216	0x3c90ece1	0.017691078
217	0x3e7dfcd3	0.24803476
218	0xbf9b3573	-1.2125686
219	0xbed6f8e6	-0.4198677
220	0x3ea38e59	0.3194454
221	0x3e392f5f	0.18084477
222	0x3d19762c	0.037466213
223	0xbe7c1280	-0.24616432
224	0xbd21732f	-0.03941649
225	0xbea4efaf	-0.32214114
226	0x3f5b5700	0.85679626
227	0xbde46920	-0.111528635
228	0xbe91a0f1	-0.284431
229	0xbe9ec269	-0.31007698
230	0x3f1fefaa	0.62475073
231	0x3f1a6b3f	0.60319895
232	0x3ebab0d4	0.36463034
233	0xbeecb8c1	-0.46234706
234	0xbe89d002	-0.2691651
235	0xbea671c2	-0.32508665
236	0xbe199be9	-0.15000881
237	0x3f3c3936	0.73524797
238	0xbeda5095	-0.42639604
239	0xbea49e4c	-0.3215202
240	0x3ec638b1	0.38715127
241	0x3df41b4f	0.11919271
242	0xbd9bbb65	-0.07604102
243	0x3db27845	0.08714346
244	0x3d53e81a	0.05173502
245	0xbe94144f	-0.28921744
246	0xbe9552a6	-0.29164618
247	0x3e1d9bc6	0.15391454
248	0xbdf73e04	-0.120723754
249	0x3f5843e4	0.8447859
250	0x3ef8d8a9	0.486028
251	0xbe033323	-0.12812476
252	0x3ea57f45	0.3232366
253	0x3ec9e3da	0.3943165
254	0x3d79db1b	0.06099997
255	0x3ddae755	0.10688654

_mean_net.4.bias f4 [17]
0	0x3e5300ce	0.20605776
1	0xbcfd6ea1	-0.030936541
2	0x3ebaa0ad	0.3645071
3	0xbe0e3b97	-0.13889919
4	0x3cf5c375	0.030000428
5	0x3f3d9fc7	0.74071926
6	0x3f3839e2	0.7196332
7	0x3e25406b	0.16137855
8	0xbd40e4e8	-0.047093302
9	0x3e04ce85	0.12969406
10	0x3e714717	0.23562275
11	0x3e3c0a3d	0.1836328
12	0x3ca2f7d7	0.01989357
13	0xbe4403fb	-0.19142143
14	0x3e9eddbd	0.31028548
15	0x3f1e6aed	0.61881906
16	0xbe823cda	-0.2543705
