hw1/run_logs/q2_dagger_humanoid/policy_itr_10.pt (torch, 110342 bytes, 7 tensors)

_logstd f4 [17]
0	0xbf9846fc	-1.1896663
1	0xbfa6a84a	-1.3020108
2	0xbf850d4c	-1.0394683
3	0xbf8428c1	-1.0324937
4	0xbf8af4bf	-1.085594
5	0xbf72ba19	-0.9481521
6	0xbf762ace	-0.96159065
7	0xbf8d129d	-1.1021305
8	0xbf849d50	-1.0360508
9	0xbf81efed	-1.0151345
10	0xbf7a87d7	-0.97863525
11	0xbfb993d1	-1.4498235
12	0xbfa611ba	-1.297416
13	0xbff61b55	-1.9227091
14	0xbfbc8ec8	-1.4731073
15	0xbfca1014	-1.5786157
16	0xbff6aded	-1.9271828

_mean_net.0.weight f4 [64, 376]
0	0xbec2f502	-0.3807755
1	0x3d8c1b9d	0.06841204
2	0xbf97700c	-1.1831069
3	0xc007b5b8	-2.1204662
4	0xbeb213b3	-0.34780654
5	0xbef75d6e	-0.4831347
6	0x3d86423c	0.06555602
7	0x3db0d821	0.08634973
8	0x3d5dc142	0.054139383
9	0xbfe29c78	-1.7704
10	0x3f379e97	0.71726364
11	0xbf9ac8e0	-1.2092552
12	0x3f17dd97	0.59322494
13	0xbe9f2261	-0.31080917
14	0xbf71bee4	-0.944319
15	0x3e4852fb	0.19562905
16	0x3f1eec06	0.62078893
17	0x3e772174	0.24133855
18	0x3e8caa63	0.27473745
19	0x3e83fe5c	0.25779998
20	0x3ea10f17	0.31456825
21	0x3ae548f0	0.001749305
22	0x3d38dcd3	0.04513247
23	0x3e6dbdb5	0.23216899
24	0xbe595231	-0.2122276
25	0xbe30c79c	-0.17263645
26	0xbe0ef367	-0.13960038
27	0xbe1b9cd3	-0.15196542
28	0xbd6a5759	-0.057212207
29	0xbc9e6e1d	-0.019339615
30	0x3a928199	0.0011177539
31	0xbac645e4	-0.001512703
32	0xbd8030f4	-0.06259337
33	0x3d6ba833	0.057533454
34	0xbd4789b7	-0.04871532
35	0xbca38357	-0.019960089
36	0x3cf87433	0.030328846
37	0x3cc4dca1	0.024030985
38	0xbc48ad93	-0.012248415
39	0xbd9ccabc	-0.07655856
40	0xbc3f2672	-0.011666881
41	0xbd4fb266	-0.050707243
42	0x3c8c5a62	0.017132942
43	0x3d0fa37e	0.035068028
44	0x3c4d84d9	0.01254388
45	0x3cd927eb	0.026508292
46	0xbce04173	-0.027374959
47	0x3c78803c	0.015167292
48	0xbc73fb8c	-0.014891516
49	0xbbb944e0	-0.0056539625
50	0xbd4b1432	-0.049579807
51	0xbcc96d12	-0.024588142
52	0x3ce53f26	0.027984213
53	0xbc4d62c3	-0.012535754
54	0x3d52668e	0.051367335
55	0xbce9f8cd	-0.02856102
56	0xbdec4f6f	-0.11538588
57	0x3eb7d0e7	0.35901567
58	0xc07a31ea	-3.9092965
59	0x3f3dd0f9	0.7414699
60	0x3df715f3	0.12064733
61	0x3d8a0799	0.067397304
62	0x3e433610	0.19063592
63	0x3b830d32	0.0039993757
64	0x3d7e4157	0.06207403
65	0xbe560f58	-0.2090429
66	0x3e6007a3	0.21877913
67	0x400e2032	2.220715
68	0xc0b094b8	-5.518154
69	0xbe9c4845	-0.30523887
70	0xc01d009c	-2.4531622
71	0x3f657c43	0.89642733
72	0x401b394f	2.4253728
73	0xbde60293	-0.1123096
74	0x3ddd0264	0.107914716
75	0x3d7480c7	0.059693124
76	0x3fe8e11f	1.8193702
77	0x3fd11167	1.6333436
78	0x409cedbe	4.9040213
79	0x3fd9be1f	1.7011145
80	0x407bd757	3.9350183
81	0x3fb91749	1.4460231
82	0x3facf9ee	1.3513772
83	0x3e90a8d7	0.28253815
84	0x3df85d30	0.12127149
85	0x3f8ab1e1	1.0835534
86	0x3e2357ad	0.15951414
87	0xbf4df1ed	-0.80447274
88	0x3eb5656d	0.35428944
89	0x3f61f712	0.88267624
90	0xbf64afc9	-0.89330727
91	0x3e850cbc	0.25986278
92	0xbf280f43	-0.6564829
93	0xbed58abb	-0.41707405
94	0x3d673a9f	0.05645239
95	0x3e00da64	0.1258331
96	0xbe906a88	-0.28206277
97	0xbff57f9b	-1.9179567
98	0xbea6a39a	-0.32546693
99	0x3fa46242	1.2842486
100	0xbebdee9c	-0.37096107
101	0xbeb691b3	-0.35658035
102	0xbe003300	-0.12519455
103	0xbe0c1837	-0.13681112
104	0x3d6c1e3d	0.057646025
105	0xbebad5bb	-0.36491188
106	0xbe91c2c9	-0.28468922
107	0xbf5a6620	-0.8531208
108	0x3fb1e629	1.3898364
109	0x3f99c571	1.2013379
110	0x3ea8e101	0.32984164
111	0xbe851717	-0.2599418
112	0x3f7373e1	0.9509869
113	0x3dd32fb7	0.10311835
114	0x3dc7890d	0.09742937
115	0xbf7ec61b	-0.99521035
116	0xbd9abd78	-0.075556695
117	0x3c90123a	0.017586816
118	0x3fa6da5a	1.3035386
119	0x3ecf17fa	0.4044798
120	0xc00ae6b3	-2.1703308
121	0x3fd69d26	1.6766708
122	0xbf94b0a4	-1.1616406
123	0x3e7660f1	0.24060418
124	0x3df29cf9	0.118463464
125	0xbf2876f5	-0.65806514
126	0xbec9778a	-0.39349014
127	0x3fc521e2	1.5400965
128	0x4008c9db	2.1373203
129	0x3ebbac7b	0.3665503
130	0xbfb9ec29	-1.4525195
131	0x3dd5494d	0.10414372
132	0xbf0c2876	-0.5474924
133	0x3eb24814	0.34820616
134	0x3dfc277c	0.123122185
135	0xbefa9759	-0.48943594
136	0xbeaae534	-0.33377993
137	0x3fe22c0f	1.7669696
138	0x40248fce	2.5712771
139	0xbd9e0371	-0.077155
140	0xbe157e94	-0.14599067
141	0xbef8b64c	-0.4857658
142	0x3fb53128	1.4155626
143	0x3ea288ed	0.3174509
144	0x3ddb0475	0.106942095
145	0xbf6f2142	-0.9341012
146	0xbe8efd4c	-0.27927625
147	0xbf911cfb	-1.1336969
148	0x3fd82c47	1.6888512
149	0x3f92e2c0	1.1475449
150	0xbf6977ab	-0.91198224
151	0xbcea8d04	-0.028631695
152	0x3ea3e15a	0.32007867
153	0xbe83d6a1	-0.25749686
154	0x3d2d475a	0.042304374
155	0xbee4751a	-0.4462059
156	0xbdc29338	-0.09500736
157	0xbfc2af46	-1.5209739
158	0x3fc9bffb	1.5761713
159	0x402101b0	2.515728
160	0xbf0899b0	-0.5335951
161	0xbf5cfd1b	-0.8632371
162	0xbbad1e69	-0.005283166
163	0x3e7322ec	0.2374379
164	0x3d83acab	0.06429418
165	0x3ddd2c47	0.10799461
166	0xbe41e320	-0.18934298
167	0x3fbe6ca6	1.4876907
168	0xc02b03e7	-2.6721132
169	0xbe5f193d	-0.21786971
170	0xbee16d47	-0.44028684
171	0x3e044cc2	0.12919906
172	0x3f334711	0.70030314
173	0xbddf0e99	-0.10891456
174	0x3e11dfba	0.14245501
175	0x3efafaf0	0.49019575
176	0x3e93a0e0	0.28833675
177	0x3f0d7712	0.5525981
178	0xbf09eae4	-0.5387404
179	0xbf236638	-0.6382785
180	0xbfbe8abe	-1.4886091
181	0xbea83829	-0.32855347
182	0x3f8e8ef4	1.1137376
183	0xbd66842d	-0.056278396
184	0x3d6c69d1	0.057718102
185	0x3d421aed	0.04738896
186	0xbd369dff	-0.04458427
187	0xbd24a773	-0.040198755
188	0xbae5873f	-0.001751162
189	0xbce46fa7	-0.027885271
190	0x3c972a2e	0.01845273
191	0x3d13757a	0.036000706
192	0xbdbbac8d	-0.09163771
193	0x3dd6e7f3	0.104934596
194	0x3a14c88b	0.0005675635
195	0xbd5666a2	-0.052343972
196	0xbe15b3fe	-0.14619443
197	0xbd5d2c64	-0.053997412
198	0x3ca106b1	0.019656511
199	0x3cc4acd7	0.024008198
200	0xbd110f72	-0.03541512
201	0xbe6448af	-0.22293352
202	0xbea5f609	-0.32414272
203	0x3ce705af	0.028200952
204	0x3b327cee	0.0027235108
205	0x3c3a22ba	0.0113608185
206	0xbe3b828a	-0.18311515
207	0x3e09d09b	0.13458483
208	0xbeb4df7e	-0.3532676
209	0x3cd499bc	0.025952213
210	0xbc832123	-0.016007012
211	0xbbc64703	-0.0060509457
212	0xbe8ae48c	-0.27127492
213	0x3d07265e	0.032995574
214	0x3eb4941e	0.35269254
215	0x3c9d12dc	0.019174032
216	0x3d724555	0.05914815
217	0xbb82043a	-0.003967789
218	0xbd964a60	-0.07338405
219	0x3df1f010	0.118133664
220	0xbc4dedfc	-0.012568947
221	0x3cbf219f	0.023331461
222	0xbca00756	-0.019534748
223	0xbb49d332	-0.0030796048
224	0xbcee0465	-0.02905483
225	0x3d11da65	0.035608668
226	0x3c740cd8	0.01489564
227	0x3cc234fc	0.023706906
228	0xbb90645e	-0.004406496
229	0x3ce24bb6	0.027623992
230	0x3db18f19	0.08669872
231	0x3eaa27de	0.3323354
232	0xbe1a9c30	-0.15098643
233	0xbd349f36	-0.044097148
234	0xbc60fbd3	-0.013731915
235	0xbb26642f	-0.0025389304
236	0x3c7fb07d	0.015606043
237	0xbd852f87	-0.06503206
238	0x3c3755c5	0.011189883
239	0xbd979df2	-0.074031726
240	0xbd0ed6b7	-0.034872737
241	0xbca0cb16	-0.019628089
242	0x3d962f4f	0.07333242
243	0xbdcdaa58	-0.10042256
244	0xbd41ab00	-0.04728222
245	0xbde912ce	-0.1138054
246	0xbdd8e193	-0.105899
247	0x3d09f5ed	0.0336818
248	0xbe46e0ea	-0.19421735
249	0x3def91eb	0.116977535
250	0xbd40b192	-0.047044344
251	0x3bda8fb4	0.006669963
252	0x3cd0cee7	0.025489284
253	0x3cabd9d6	0.020977896
254	0xbe09a6db	-0.13442557
255	0x3e888f48	0.26671815

_mean_net.0.bias f4 [64]
0	0x3db7a624	0.08967236
1	0xbe323894	-0.17404395
2	0xbb868748	-0.0041054823
3	0xbea94fda	-0.33068734
4	0x3d00a83a	0.031410433
5	0x3e2be4ed	0.16786547
6	0x3d6003e4	0.05469121
7	0x3e90e83f	0.2830219
8	0xbdad6aa3	-0.08467605
9	0x3e5f5db4	0.21813089
10	0xbef91c9f	-0.4865465
11	0xbea69a34	-0.32539523
12	0xbd7c6af0	-0.06162542
13	0x3fa17ae3	1.2615627
14	0x3e02f74a	0.12789646
15	0xbe6d9bca	-0.2320396
16	0x3e3c1055	0.18365605
17	0x3c14c1e6	0.009079432
18	0xbe9173bf	-0.2840862
19	0xbe8f15d0	-0.2794633
20	0xbe600a27	-0.21878873
21	0x3dc616da	0.09672327
22	0x3d1237b8	0.03569767
23	0xbf660253	-0.89847296
24	0xbd594f0d	-0.053053904
25	0x3e65da38	0.22446525
26	0xbea79112	-0.32727867
27	0xbf76eb91	-0.96453196
28	0x3d13d099	0.036087606
29	0x3d91b096	0.07113759
30	0xbcebd54c	-0.028788231
31	0xba8b7cbc	-0.0010642032
32	0xbf1b133a	-0.6057621
33	0x3e032e11	0.12810542
34	0x3d5f2c4a	0.054485597
35	0xbd409817	-0.047020044
36	0x3c622852	0.013803558
37	0x3dc82e2d	0.09774432
38	0xbdcd894d	-0.10035954
39	0xbe92e597	-0.28690788
40	0x3e9836e9	0.29729393
41	0xbd8a4a4f	-0.067524545
42	0xbca9152f	-0.020639984
43	0x3e78a8b3	0.24283104
44	0xbdabe63e	-0.083935246
45	0xbf78910f	-0.9709634
46	0x3f05d4fc	0.52278113
47	0xbdaf0db4	-0.085475355
48	0xbd48734b	-0.048938077
49	0xbd4371ef	-0.047716077
50	0xbcd8b8c3	-0.026455289
51	0xbebcf81a	-0.36908036
52	0x3e02d615	0.12776978
53	0x3f20d1a1	0.6281987
54	0x3e0131aa	0.12616602
55	0x3f08241a	0.53180087
56	0xbe8800c1	-0.26563075
57	0xbce1a9b6	-0.027546745
58	0xbd85c068	-0.06530839
59	0xbd802478	-0.06256956
60	0x3d2d0355	0.042239506
61	0xbb08bdca	-0.0020865076
62	0xbd90df27	-0.07073813
63	0xbe514447	-0.20436202

_mean_net.2.weight f4 [32, 64]
0	0xbc96dc54	-0.018415608
1	0x3cb177e2	0.02166361
2	0x3d622d86	0.055219196
3	0xbd99788f	-0.07493698
4	0xbe1a6daa	-0.15080896
5	0x3c430bb4	0.011904646
6	0x3e04fe23	0.1298757
7	0xbe678c75	-0.22612174
8	0x3de35ddd	0.111018874
9	0xbd8fefda	-0.0702817
10	0xbcc046e7	-0.023471309
11	0xbe2411d3	-0.16022424
12	0x3c49ff80	0.012328982
13	0xbf04b250	-0.51834583
14	0xbcc226a4	-0.023700066
15	0xbde108fb	-0.10988041
16	0x3d03820e	0.03210645
17	0x3b111edc	0.0022143638
18	0x3d5e93f9	0.054340336
19	0x3b203db5	0.0024450843
20	0x3d7fca40	0.06244874
21	0x3d84b459	0.06479711
22	0x3e22e8ff	0.15909193
23	0xbd2c8eb2	-0.042128272
24	0xbd55b930	-0.05217856
25	0x3e7b16ab	0.24520366
26	0x3e49a010	0.19689965
27	0x3e02d096	0.12774882
28	0xbd3e01a9	-0.046388302
29	0x3c7e7826	0.015531575
30	0x3c276e44	0.0102191605
31	0xbe773ca5	-0.24144228
32	0x3d08a36f	0.033358987
33	0x3e3882fd	0.18018718
34	0xbbf55210	-0.0074865893
35	0xbd69df15	-0.057097513
36	0xbd8a4018	-0.06750506
37	0xbdd8ab76	-0.105795786
38	0xbe2054cd	-0.15657349
39	0xbd9e2163	-0.07721212
40	0xbdf90830	-0.12159765
41	0x3e9a768b	0.30168566
42	0xbe8b92f6	-0.2726056
43	0xbd593700	-0.053030968
44	0x3d970e60	0.07375789
45	0xbe9b63a1	-0.30349448
46	0xbe10b661	-0.14132072
47	0x3c8dbf4f	0.017303137
48	0xbdf767ea	-0.12080367
49	0xbe0d14af	-0.13777421
50	0x3a9190c8	0.001110577
51	0x3d3460bf	0.044037577
52	0xbd5d866d	-0.054083277
53	0x3d84d4e5	0.06485919
54	0x3d1b0c84	0.037853733
55	0x3d1af40a	0.03783039
56	0x39b8a3be	0.00035217212
57	0xbe7c4da5	-0.24638994
58	0x3d6d04ee	0.05786603
59	0xbe30f889	-0.17282309
60	0xbdda9086	-0.10672097
61	0x3ec0df41	0.3767033
62	0x3d73a34d	0.059481908
63	0x3daae048	0.083435595
64	0x3dd0ae9d	0.10189555
65	0xbd1b6046	-0.03793361
66	0xbd926ea4	-0.07150009
67	0xbe13bc41	-0.14427282
68	0x3e16fc5a	0.14744702
69	0xbcf4316c	-0.029808722
70	0xbcbc8844	-0.023014195
71	0xbc31bc88	-0.010848172
72	0xbe252bfa	-0.16130057
73	0xbcfc5eff	-0.030807016
74	0xbe73e1c8	-0.23816597
75	0x3d86ea4f	0.065876596
76	0xbe56e55e	-0.20985934
77	0xbe9d5707	-0.3073046
78	0x3c0e113a	0.008671099
79	0x3c24924d	0.010044646
80	0x3c8ee121	0.017441334
81	0xbd1d64fe	-0.03842639
82	0xbdb33ac7	-0.08751445
83	0x3df10ecf	0.11770403
84	0x3e9b19d9	0.30293158
85	0x3c586215	0.013206978
86	0xbded1f19	-0.11578197
87	0xbdb610b8	-0.088899076
88	0xbe188c72	-0.14897326
89	0x3ec2872a	0.37993747
90	0x3cf5f931	0.03002605
91	0x3f292a7d	0.66080457
92	0x3d9e49df	0.077289335
93	0xbd2e8102	-0.0426035
94	0xbe576540	-0.21034718
95	0x3d801f50	0.062559724
96	0xbe1fdb25	-0.15610941
97	0x3d8aee10	0.06783688
98	0xbe51c414	-0.20484954
99	0x3e23e7fb	0.16006462
100	0x3ca3ea79	0.020009266
101	0x3bddbaf2	0.0067666704
102	0x3e75e397	0.240126
103	0xbba7e391	-0.0051235636
104	0x3d00b4e7	0.031422522
105	0x3d41153f	0.047139402
106	0x3e10a53c	0.14125532
107	0xbd269d04	-0.040677086
108	0x3cfa17d3	0.030528938
109	0x3d9db3d7	0.07700317
110	0x3daa35d0	0.08311045
111	0xbe056005	-0.1302491
112	0xbdf286b2	-0.11842097
113	0x3e5ab918	0.2135967
114	0x3bda0929	0.006653924
115	0x3bc21028	0.005922336
116	0xbbf59d68	-0.007495571
117	0xbd46d190	-0.048539698
118	0xbdcd64df	-0.10029005
119	0xbd0f684f	-0.035011586
120	0x3c895509	0.01676418
121	0x3e70047c	0.2343921
122	0xbd142040	-0.03616357
123	0x3d446f32	0.047957607
124	0xbd01337d	-0.031543244
125	0xbdebb713	-0.11509528
126	0xbdaf9ffb	-0.08575436
127	0xbd101c67	-0.035183337
128	0xbcad923f	-0.0211879
129	0x3d8bb6c0	0.06821966
130	0x3e4663b4	0.19373971
131	0x3d10fa8b	0.035395186
132	0xbd13ba00	-0.036066055
133	0xbc163abf	-0.00916928
134	0x3e642d0b	0.22282808
135	0x3d419665	0.047262568
136	0x3e67db10	0.2264216
137	0x3d75a2e6	0.059969805
138	0xbd228998	-0.039682
139	0x3d047653	0.032339405
140	0x3d4ca98a	0.049966373
141	0xbd2e907e	-0.042618267
142	0x3d28d932	0.04122276
143	0xbc3332dc	-0.010937419
144	0xbca9dd08	-0.020735279
145	0xbaf41d25	-0.0018624408
146	0x3d5c6a8e	0.053812556
147	0x3b9a606f	0.004711203
148	0x3de9bf46	0.11413436
149	0xbcce2fbf	-0.025169251
150	0xbd1c91da	-0.038225032
151	0x3a83375d	0.0010011006
152	0x3ca4e26e	0.020127501
153	0xbc51dbbe	-0.012808738
154	0x3da8a955	0.082354225
155	0xbeee2d35	-0.46518865
156	0xbd515b56	-0.051112495
157	0xbda6b688	-0.08140284
158	0xbd8a9935	-0.06767503
159	0xbd8ab495	-0.067727245
160	0xbbb0d5e8	-0.0053965934
161	0x3ca65b71	0.020307275
162	0xbd018a28	-0.031625897
163	0xbd25088d	-0.040291358
164	0x3c7ea119	0.015541338
165	0xbe20a492	-0.15687779
166	0xbd2953f4	-0.04133983
167	0x3d6a7fa9	0.057250652
168	0x3cbfb1f2	0.02340028
169	0x3c0b1bb8	0.008490495
170	0xbd971a38	-0.07378048
171	0xbd072297	-0.03299197
172	0x3dc34338	0.09534305
173	0x3d614aae	0.05500286
174	0xbd7fd2d0	-0.062456906
175	0xbca1f409	-0.019769685
176	0xbde164a2	-0.11005522
177	0xbe96bc9d	-0.29440776
178	0xbe3e32fd	-0.18574138
179	0xbdce905e	-0.100861296
180	0xbb83ca89	-0.004021947
181	0xbd1e035d	-0.038577426
182	0xbda49a0f	-0.08037197
183	0xbdd5ce73	-0.10439768
184	0x3c189bef	0.009314521
185	0x3d7606cf	0.060065087
186	0xbd25693f	-0.040383574
187	0x3c9eaae7	0.019368602
188	0xbd2c5e97	-0.042082395
189	0x3dbf9dd6	0.09356277
190	0x3cb4302a	0.021995623
191	0xbcd3f6ba	-0.025874484
192	0xbe4dae02	-0.2008591
193	0xbd0e2b62	-0.03470934
194	0xbce6d977	-0.028179867
195	0xbd00d317	-0.03145131
196	0xbeaa510f	-0.33264968
197	0xbd03d0c7	-0.032181527
198	0xbe7f8897	-0.24954449
199	0xbd4ec1e8	-0.050477892
200	0x3d59491c	0.05304824
201	0x3d50df29	0.050994072
202	0x3e892387	0.26784918
203	0x3dd19d72	0.102351084
204	0xba856fba	-0.0010180392
205	0xbd4c7ad8	-0.04992184
206	0xbd58b713	-0.05290897
207	0x3d01847d	0.03162049
208	0xbd9d20a4	-0.07672241
209	0x3d9bff72	0.07617082
210	0x3b34153e	0.0027478482
211	0xbc05c85d	-0.008165446
212	0xbe42ba11	-0.19016291
213	0x3dd4e1e7	0.1039465
214	0x3e6fb823	0.23410086
215	0xbd119e23	-0.0355512
216	0xbe358d49	-0.17729677
217	0xbda2536d	-0.079260685
218	0xbc470d4f	-0.012149169
219	0xbea16048	-0.3151877
220	0xbb13e24a	-0.0022565299
221	0x3bce0dcd	0.0062882663
222	0x3d0b7828	0.034050137
223	0xbc931ad4	-0.017957129
224	0x3e038b2d	0.1284606
225	0xbca24617	-0.019808812
226	0x3d7c635a	0.061618187
227	0xbcdb58cc	-0.02677574
228	0xbe9c639a	-0.3054474
229	0x3d83e205	0.06439594
230	0x3cefa524	0.02925355
231	0xbb321df5	-0.00271785
232	0xbe2aa2c3	-0.16663651
233	0xbda90c05	-0.08254246
234	0xbde9fbd4	-0.114249855
235	0xbd3e25dd	-0.046422828
236	0xbd875a0f	-0.06608974
237	0xbecc9b06	-0.39962023
238	0x3d9777c5	0.07395891
239	0x3c72040c	0.014771473
240	0xbda8d84d	-0.08244381
241	0x3e64b132	0.2233322
242	0xbdbefd1f	-0.09325623
243	0x3deb7165	0.11496238
244	0x3d1fa456	0.038975082
245	0x3d1b4474	0.03790708
246	0x3ad7c97a	0.0016463243
247	0x3c541337	0.012944034
248	0xbc5badbe	-0.013408123
249	0xbd694352	-0.056948967
250	0x3cd0ccd1	0.02548829
251	0x3bcf2071	0.006321006
252	0xbe365946	-0.17807493
253	0xbe7a20ed	-0.24426623
254	0x3cc4c88f	0.024021415
255	0x3d1ae30e	0.037814192

_mean_net.2.bias f4 [32]
0	0x3efc87e3	0.49322423
1	0xbeddf21c	-0.43348777
2	0xbe50fef7	-0.20409761
3	0xbd4e0e0b	-0.05030636
4	0x3eed3a6c	0.46333635
5	0x3efe9a6e	0.49727196
6	0xbdfe7531	-0.12424696
7	0x3e83de54	0.2575556
8	0x3e4f0377	0.20216165
9	0x3dedd1f5	0.11612312
10	0x3de7717c	0.11300942
11	0xbda582f9	-0.08081622
12	0x3f473ccf	0.7782716
13	0xbe87bce6	-0.26511306
14	0xbe700526	-0.23439464
15	0xbeb3be73	-0.3510624
16	0x3e829edc	0.25511825
17	0xbc20436d	-0.009781701
18	0xbef7afb3	-0.48376235
19	0xbe0697bb	-0.13143818
20	0xbd1284a9	-0.035771046
21	0xbe07ad0c	-0.13249606
22	0x3ecb4497	0.39700767
23	0x3e8d7efa	0.27635938
24	0x3c3184b2	0.01083486
25	0xbe7237b3	-0.2365406
26	0xbeddb536	-0.43302315
27	0x3ea68723	0.32524976
28	0x3eccf359	0.4002941
29	0xbd1caa4e	-0.038248353
30	0xbe989ade	-0.29805654
31	0xbe23f734	-0.1601227

_mean_net.4.weight f4 [17, 32]
0	0xbe4dfbe9	-0.20115627
1	0x3e0b3a92	0.13596562
2	0xbde9f33b	-0.11423346
3	0xbe473374	-0.19453222
4	0xbeb1e3c2	-0.34744078
5	0xbeab2cba	-0.3343256
6	0xbe4254f0	-0.18977714
7	0xbf392cca	-0.7233397
8	0x3e77e1c7	0.24207221
9	0xbd5c8505	-0.053837795
10	0xbec73423	-0.38906965
11	0x3e48bdc3	0.19603638
12	0xbe9213a8	-0.28530622
13	0x3eb69de7	0.35667345
14	0xbe2b0c3a	-0.16703883
15	0xbf114ed0	-0.56760883
16	0xbee5c66b	-0.44877943
17	0x3f1e3214	0.61795163
18	0xbcd1c9f1	-0.025608988
19	0x3e6ea25f	0.23304127
20	0xbd46c36b	-0.04852621
21	0xbee3dc57	-0.44504043
22	0x3f5b4b9d	0.8566225
23	0xbf1cd1a5	-0.6125739
24	0x3c28af60	0.010295719
25	0xbe7e41b4	-0.24829751
26	0x3e8a62ba	0.27028447
27	0xbd94d1df	-0.07266592
28	0xbe4c3bfa	-0.19944754
29	0xbeb54ebd	-0.35411635
30	0xbea93572	-0.33048588
31	0x3d3bff09	0.045897517
32	0xbe8e6199	-0.27808836
33	0x3e913117	0.28357765
34	0xbed6291e	-0.41828245
35	0x3f2891d4	0.65847516
36	0x3e53f688	0.20699513
37	0xbe15cceb	-0.14628951
38	0xbeaf6603	-0.34257516
39	0xbe9eb632	-0.3099838
40	0xbcb49ec3	-0.02204836
41	0x3e6aa761	0.22915412
42	0xbf15c702	-0.58506787
43	0xbef29f0f	-0.47386977
44	0xbba094e3	-0.004900561
45	0xbe7ea7b1	-0.24868657
46	0xbe40a95f	-0.1881461
47	0x3e2d3257	0.16913734
48	0xbe38169d	-0.17977376
49	0xbf22305b	-0.63355035
50	0xbeca6960	-0.3953352
51	0xbebdeab8	-0.3709314
52	0xbe514987	-0.20438205
53	0xbdf7803a	-0.12085004
54	0x3c032b9e	0.008006005
55	0x3d0eff98	0.034911722
56	0x3e52a361	0.20570137
57	0xbe5408e7	-0.20706521
58	0x3e6168de	0.2201266
59	0x3eacc45e	0.33743566
60	0xbed99772	-0.42498356
61	0xbd7335e7	-0.059377577
62	0x3e4f7ad9	0.20261706
63	0x3e42eb13	0.19034986
64	0x3de397d0	0.1111294
65	0xbeb40745	-0.35161796
66	0xbf21e58e	-0.632409
67	0xbd125fc5	-0.035735864
68	0x3c86fe2b	0.016478619
69	0xbe5537d1	-0.20822074
70	0xbd9fe102	-0.07806589
71	0x3f2dc677	0.6788096
72	0x3de285cb	0.11060675
73	0xbe086cc4	-0.13322741
74	0xbf0828b3	-0.531871
75	0x3e082e3d	0.13298889
76	0xbebd8cee	-0.37021583
77	0x3f8202e8	1.0157137
78	0x3e3fa4a4	0.18715149
79	0x3dbb915d	0.09158585
80	0xbe130a8f	-0.14359497
81	0xbf2122b7	-0.62943596
82	0x3e991212	0.298966
83	0x3e054d73	0.13017826
84	0x3df9a593	0.12189784
85	0xbd23b2c6	-0.039965414
86	0x3f26b5a5	0.6512092
87	0x3ec22c30	0.37924337
88	0xbf8d5bd6	-1.1043651
89	0xbf0c00cc	-0.54688716
90	0xbdef7ecf	-0.11694109
91	0xbeea0577	-0.45707294
92	0xbe94ec0c	-0.2908634
93	0x3e8dba5d	0.27681246
94	0xbca7d294	-0.020486154
95	0x3f00e52e	0.503497
96	0x3e5fa66a	0.21840826
97	0x3d123694	0.03569658
98	0xbde10ee9	-0.10989172
99	0xbef644ad	-0.4809927
100	0xbed473db	-0.4149464
101	0x3eaf96da	0.34294778
102	0x3eb00eb3	0.34386215
103	0xbe3c3ed8	-0.18383348
104	0x3ef3cc10	0.47616625
105	0xbd6a3f3f	-0.057189222
106	0xbf2dbd9b	-0.6786744
107	0xbefb6ad6	-0.49104947
108	0x3eb39399	0.35073546
109	0x3daac387	0.08338075
110	0xbe7bc7d4	-0.24587947
111	0x3ea39151	0.31946805
112	0x3e551bcd	0.20811386
113	0xbf1888ab	-0.5958354
114	0xbd2f703e	-0.042831652
115	0xbe871a1a	-0.263871
116	0x3da18ae3	0.07887819
117	0xbf0fc4db	-0.5615975
118	0x3f0ce46c	0.55036044
119	0x3f5430f9	0.82887226
120	0x3ebcc995	0.36872545
121	0x3e891941	0.2677708
122	0xbf01914d	-0.50612336
123	0x3dce4bc3	0.10073044
124	0x3e1e61cc	0.15466994
125	0x3f360918	0.71107626
126	0xbebb2666	-0.36552733
127	0xbf09e004	-0.53857446
128	0xbe86cab7	-0.26326534
129	0xbf0153af	-0.50518316
130	0xbf525f7c	-0.8217695
131	0x3ee8883c	0.4541644
132	0xbe0fae69	-0.14031376
133	0xbf4e536a	-0.8059603
134	0xbed12202	-0.40846258
135	0x3e8b13ef	0.27163646
136	0xbf2b8171	-0.66994387
137	0xbe46beab	-0.19408672
138	0x3efe5e51	0.49681333
139	0x3df54c62	0.119774595
140	0x3f116a1a	0.56802523
141	0xbf11d4a8	-0.5696511
142	0x3e82942b	0.25503668
143	0xbe70acba	-0.2350339
144	0x3e848142	0.25879866
145	0xbc85f01f	-0.01634985
146	0x3e897036	0.26843423
147	0x3da58e0a	0.080837324
148	0x3bfd831e	0.0077365777
149	0xbe728d3e	-0.23686692
150	0xbe20b029	-0.156922
151	0xbd736cfe	-0.059430115
152	0xbe43e4ee	-0.19130298
153	0xbeb4c9d3	-0.3531023
154	0x3f403842	0.7508584
155	0xbe769333	-0.2407959
156	0xbeac555a	-0.33658868
157	0xbec26edf	-0.37975213
158	0x3ef0d20b	0.4703525
159	0x3f0c1340	0.54716873
160	0xbf495457	-0.7864432
161	0xbe5799bd	-0.2105474
162	0xbf2ed1c0	-0.68288803
163	0xbf533d0b	-0.8251502
164	0xbecc85fb	-0.3994597
165	0x3c2ec59c	0.010667231
166	0x3ed5a5cc	0.41728055
167	0xbd8746b6	-0.06605284
168	0x3eef6f5e	0.46764654
169	0x3d8672c5	0.06564859
170	0x3d4f5d4b	0.05062608
171	0x3e8709a2	0.26374537
172	0x3ed92e21	0.42418006
173	0xbe09ae9e	-0.13445517
174	0x3ea086db	0.31352887
175	0xbf6ee790	-0.93322086
176	0xbe13092d	-0.14358969
177	0x3eb70881	0.35748675
178	0x3ed3392e	0.41254562
179	0x3ebdaafb	0.3704451
180	0x3ea242c1	0.31691554
181	0xbc91b0c7	-0.01778449
182	0xbf41fd7e	-0.75777423
183	0x3ec4bb50	0.38424158
184	0xbe18ce21	-0.14922382
185	0xbeccbe53	-0.39988956
186	0xbe15e839	-0.14639367
187	0x3ddb77be	0.107161984
188	0xbd3edb3d	-0.0465958
189	0xbf75b422	-0.95977986
190	0xbe29a6ea	-0.16567579
191	0x3f18750b	0.59553593
192	0xbeae8580	-0.34086227
193	0x3e95c312	0.2925039
194	0xbf37675d	-0.71642095
195	0xbe986d54	-0.2977091
196	0x3d969748	0.07353073
197	0xbe1345c6	-0.14382085
198	0x3e7bbd86	0.24584016
199	0x3e205576	0.15657601
200	0xbfa26090	-1.2685719
201	0x3e4436fd	0.19161601
202	0x3f4cee79	0.8005138
203	0xbe1b2c74	-0.15153676
204	0x3edb1d7b	0.4279593
205	0xbd22539a	-0.03963051
206	0x3e0e1657	0.1387571
207	0x3e40de2a	0.18834749
208	0x3e615b73	0.22007541
209	0xbf25da77	-0.64786476
210	0x3ed18c68	0.40927434
211	0x3f197d8d	0.599572
212	0x3d6d5715	0.057944376
213	0xbf0e137c	-0.5549848
214	0x3f087c17	0.53314346
215	0xbec013ed	-0.37515202
216	0x3de9fac7	0.11424785
217	0x3e2069c0	0.1566534
218	0xbf94b919	-1.1618987
219	0xbf081c77	-0.53168434
220	0x3eba8dd2	0.36436325
221	0x3de5039d	0.1118233
222	0x3e262d41	0.162282
223	0xbe3881aa	-0.18018213
224	0x3b06cce7	0.0020568909
225	0xbeb84162	-0.35987383
226	0x3f546af0	0.82975674
227	0xbe6d9218	-0.23200262
228	0xbeabd81b	-0.33563313
229	0xbe99623d	-0.29957762
230	0x3f2c238c	0.6724174
231	0x3f1afb04	0.6053927
232	0x3ee17cb3	0.4404045
233	0xbec63535	-0.3871247
234	0xbe8eaf28	-0.2786801
235	0xbe0852d7	-0.13312851
236	0xbe56f6d4	-0.20992595
237	0x3f71c00a	0.94433653
238	0xbedeae3c	-0.43492305
239	0xbea260ae	-0.31714386
240	0x3e473bd9	0.19456424
241	0x3e16dc1c	0.14732403
242	0xbd47ec88	-0.04880956
243	0x3c595578	0.013265006
244	0x3cc14fe5	0.023597667
245	0xbea879ef	-0.32905528
246	0xbe66a777	-0.2252482
247	0x3e52b03f	0.20575045
248	0xbce24e29	-0.02762516
249	0x3f5d2fe8	0.86401224
250	0x3ed32c43	0.41244707
251	0xbd1bef02	-0.038069732
252	0x3ebd8664	0.37016594
253	0x3eb9b469	0.36270455
254	0x3d9383cb	0.07202872
255	0x3d81f7dc	0.063461035

_mean_net.4.bias f4 [17]
0	0x3e747048	0.23870957
1	0x3bc7cc3b	0.006097344
2	0x3ec4807d	0.3837928
3	0xbd4eb270	-0.05046314
4	0x3db2fcb4	0.087396055
5	0x3f30e725	0.691027
6	0x3f54205b	0.8286187
7	0x3d52dc1c	0.051479444
8	0xbdefb9ef	-0.11705386
9	0x3e034659	0.12819804
10	0x3e864b67	0.26229402
11	0x3e731d0a	0.23741546
12	0x3cf42bbb	0.029806009
13	0xbe637e2d	-0.22216101
14	0x3eaae942	0.33381087
15	0x3f2178f0	0.6307516
16	0xbe9b5199	-0.30335692
