hw1/run_logs/q2_dagger_humanoid/policy_itr_9.pt (torch, 110267 bytes, 7 tensors)

_logstd f4 [17]
0	0xbf98cc36	-1.193732
1	0xbfa32a1c	-1.2747226
2	0xbf815bb1	-1.0106107
3	0xbf840f55	-1.0317179
4	0xbf886bc9	-1.0657893
5	0xbf6855f9	-0.90756184
6	0xbf671064	-0.90259385
7	0xbf89b256	-1.0757549
8	0xbf83b7c5	-1.0290457
9	0xbf7b8e2c	-0.9826381
10	0xbf79f4de	-0.9763926
11	0xbfb5201f	-1.4150428
12	0xbfa35891	-1.2761403
13	0xbff2544f	-1.8931979
14	0xbfb92f9f	-1.4467658
15	0xbfc89dfd	-1.5673214
16	0xbff68376	-1.9258869

_mean_net.0.weight f4 [64, 376]
0	0xbe97c2b5	-0.29640737
1	0x3d8bd644	0.06827977
2	0xbfa1b000	-1.2631836
3	0xc001d846	-2.0288253
4	0xbebb03d6	-0.36526364
5	0xbf0ed3ea	-0.55792105
6	0x3da07d74	0.07836428
7	0x3da24528	0.07923347
8	0xbdfec38e	-0.12439643
9	0xbfee7aef	-1.8631266
10	0x3f3fac7c	0.74872565
11	0xbf9dbade	-1.2322652
12	0x3f1aa3a9	0.60405976
13	0xbe9c37b0	-0.30511236
14	0xbf66252f	-0.8990049
15	0x3e1d4171	0.15356995
16	0x3f254905	0.64564544
17	0x3ea8d194	0.32972395
18	0x3ea6b79d	0.3256196
19	0x3e8442ab	0.25832114
20	0x3eaaf536	0.33390206
21	0x3ca004cb	0.019533535
22	0x3d657912	0.056023665
23	0x3e4ebdb7	0.20189558
24	0xbe865997	-0.26240227
25	0xbe42d2e1	-0.19025756
26	0xbe0b6780	-0.13613701
27	0xbe39880f	-0.18118308
28	0xbd82e805	-0.063919105
29	0xbbfb6c54	-0.007672826
30	0x3caeb199	0.02132492
31	0x3b4c0f8f	0.0031137203
32	0xbd6153bb	-0.055011492
33	0x3d8c7388	0.06857973
34	0xbd4c5908	-0.049889594
35	0xbcdb8bec	-0.026800118
36	0x3d1621ad	0.03665321
37	0x3c892193	0.016739642
38	0xbb90b3fb	-0.0044159866
39	0xbdb09721	-0.086225756
40	0xbcc4bcc4	-0.024015792
41	0xbd63c993	-0.055612158
42	0x3cc90570	0.024538726
43	0x3d246c93	0.040142607
44	0x3bffaf81	0.007802904
45	0x3cd927eb	0.026508292
46	0xbce04173	-0.027374959
47	0x3c78803c	0.015167292
48	0xbc73fb8c	-0.014891516
49	0xbbb944e0	-0.0056539625
50	0xbd4b1432	-0.049579807
51	0xbcc96d12	-0.024588142
52	0x3ce53f26	0.027984213
53	0xbc4d62c3	-0.012535754
54	0x3d52668e	0.051367335
55	0xbd0e821d	-0.034792054
56	0xbe09b75b	-0.13448851
57	0x3f04e3b1	0.5190993
58	0xc073f5fe	-3.8118892
59	0x3f49bda0	0.7880497
60	0x3e2ae6d0	0.1668961
61	0x3ac0e462	0.0014716501
62	0x3e763a1f	0.24045609
63	0xbb7c3a55	-0.0038486917
64	0x3d7e0975	0.062020738
65	0xbe4f63fa	-0.20252982
66	0x3e62a22b	0.22132175
67	0x400cbf0d	2.1991608
68	0xc0bcad3a	-5.896146
69	0xbea6300c	-0.32458532
70	0xc009b951	-2.1519358
71	0x3f66f775	0.9022134
72	0x401598f3	2.3374603
73	0xbde104c0	-0.10987234
74	0x3ddce683	0.10786154
75	0x3e4a3d56	0.1974996
76	0x3fd89889	1.692155
77	0x3fcc8fc2	1.5981371
78	0x407c072c	3.9379377
79	0x3fd4666b	1.6593755
80	0x409ce70f	4.9032054
81	0x3fc79519	1.5592376
82	0x3fab005c	1.3359485
83	0x3e7b3957	0.24533592
84	0x3df8414c	0.121218294
85	0x3f85759a	1.0426514
86	0x3e2de519	0.16981925
87	0xbf1aaf54	-0.6042378
88	0x3f07b153	0.5300495
89	0x3f41d0fb	0.75709504
90	0xbf637c52	-0.8886157
91	0x3e917f00	0.28417206
92	0xbf2adfda	-0.6674782
93	0xbecb2a1f	-0.39680573
94	0x3d6702c0	0.056399107
95	0x3ddbd03d	0.10733078
96	0xbe86ccee	-0.26328224
97	0xbfd56802	-1.6672366
98	0xbe71168a	-0.23543754
99	0x3f9ddf67	1.2333802
100	0xbea83ad7	-0.3285739
101	0xbe9781d8	-0.2959125
102	0xbe06d6c1	-0.1316786
103	0xbde23c4b	-0.11046656
104	0x3d6be652	0.057592697
105	0xbeb72aab	-0.3577474
106	0xbe8d1a6e	-0.27559227
107	0xbf37fcda	-0.71870196
108	0x3fb1bfa2	1.3886607
109	0x3f999a88	1.2000284
110	0x3ec46d99	0.38364866
111	0xbe3abe52	-0.18236664
112	0x3f6f4c9d	0.9347628
113	0x3e03d0ab	0.1287257
114	0x3dc76d2f	0.09737622
115	0xbf7053b9	-0.9387775
116	0xbc70d284	-0.014698628
117	0x3d9ce4ae	0.07660805
118	0x3f83fd3f	1.031166
119	0x3f0320fb	0.512222
120	0xc007c34a	-2.1212945
121	0x3fe0d7b2	1.7565825
122	0xbf968dcf	-1.1762027
123	0x3e5c4683	0.21511273
124	0x3df28118	0.11841029
125	0xbf224feb	-0.63403195
126	0xbeb8cd4c	-0.3609413
127	0x3fd4a9a2	1.6614268
128	0x3fef9fb2	1.872061
129	0x3e823876	0.254337
130	0xbfba8d55	-1.4574381
131	0x3d2abcf6	0.041684113
132	0xbf1c98e0	-0.6117077
133	0x3eb1a906	0.34699267
134	0x3dfc0b9c	0.12306902
135	0xbef3bf00	-0.4760666
136	0xbea34440	-0.31888008
137	0x3ff6bf8d	1.9277207
138	0x4019a02f	2.4004018
139	0xbe20fe85	-0.15722091
140	0xbe33b0ea	-0.17547956
141	0xbf0845bd	-0.5323141
142	0x3fa80d4f	1.3129061
143	0x3eaaaeeb	0.33336577
144	0x3ddae897	0.10688894
145	0xbf60cb4f	-0.87810224
146	0xbeb69ccf	-0.3566651
147	0xbf80abb2	-1.0052397
148	0x3fa370ec	1.2768836
149	0x3fa30b28	1.273778
150	0xbf7109b0	-0.94155407
151	0xbdfeefbf	-0.12448072
152	0x3ea7abdd	0.3274831
153	0xbe928aff	-0.2862167
154	0x3d2d0f74	0.042251065
155	0xbeb23413	-0.34805354
156	0xbe060625	-0.13088281
157	0xbfbfdef7	-1.4989918
158	0x3fd223c6	1.6417167
159	0x404147a4	3.0199976
160	0xbf2b56e8	-0.66929483
161	0xbf69fe7c	-0.9140394
162	0x3d44a92e	0.048012905
163	0x3dd4ec86	0.10396676
164	0x3d8390ce	0.06424104
165	0x3de7b0c7	0.113130145
166	0xbe53d0a8	-0.20685065
167	0x3fb5e96f	1.4211863
168	0xc0358f11	-2.836857
169	0xbeba7ecd	-0.36424866
170	0xbef301ae	-0.4746222
171	0x3e30df96	0.17272791
172	0x3f3a690a	0.72816527
173	0xbdda1089	-0.10647685
174	0x3e11d1be	0.14240167
175	0x3f0a5088	0.5402913
176	0x3e54596a	0.20737234
177	0x3f0f8fc4	0.56078744
178	0xbee7d965	-0.45283046
179	0xbf51e749	-0.8199354
180	0xbfc3c560	-1.5294609
181	0xbeb78e41	-0.3585072
182	0x3f94cef9	1.1625663
183	0xbcf97901	-0.030453207
184	0x3d6c31e9	0.057664786
185	0x3d421aed	0.04738896
186	0xbd369dff	-0.04458427
187	0xbd24a773	-0.040198755
188	0xbae5873f	-0.001751162
189	0xbce46fa7	-0.027885271
190	0x3c972a2e	0.01845273
191	0x3d103cf6	0.035214387
192	0xbda82c0c	-0.08211526
193	0x3dfaf818	0.122543514
194	0x3c8edc79	0.017439114
195	0xbd4645a3	-0.048406255
196	0xbdf192f8	-0.1179561
197	0xbd21b6dd	-0.039481033
198	0xbbe9ee56	-0.0071390076
199	0x3d31eb2d	0.04343717
200	0xbd6fa0ee	-0.058503084
201	0xbe86c90f	-0.2632527
202	0xbe9cce77	-0.3062627
203	0x3bcfbaee	0.0063394224
204	0x3b0442e8	0.002018148
205	0xbc36e9d5	-0.011164148
206	0xbe4ea635	-0.2018059
207	0x3de8311d	0.113374926
208	0xbeb20fb1	-0.34777597
209	0x3cfefdf5	0.031126956
210	0xbcaadd91	-0.020857604
211	0xbb78eeb6	-0.003798408
212	0xbe91a41a	-0.28445512
213	0x3d98c412	0.074592724
214	0x3eae20d6	0.34009427
215	0x3c5ea46a	0.013589004
216	0x3d656f14	0.056014135
217	0xbbd27690	-0.006422825
218	0xbd99250b	-0.074777685
219	0x3dfc4741	0.12318278
220	0x3b11fc3b	0.0022275585
221	0x3c9160fc	0.017746441
222	0xbcb9b3e0	-0.022668779
223	0xbbb55bf0	-0.0055346414
224	0xbcf96f2f	-0.030448524
225	0x3d2688c7	0.040657785
226	0x3cf33cf7	0.029692156
227	0x3d14c827	0.036323693
228	0xbc8c169d	-0.017100627
229	0x3cf849b2	0.030308578
230	0x3dbc7314	0.09201637
231	0x3ec698e1	0.38788512
232	0xbdbfc356	-0.09363429
233	0xbd305372	-0.04304833
234	0xbbb63fc3	-0.0055618
235	0xbac04b92	-0.0014670959
236	0x3c8917eb	0.016735038
237	0xbd94d216	-0.07266633
238	0x3c6ca7f9	0.014444345
239	0xbd95780d	-0.072982885
240	0xbcdabf8e	-0.026702669
241	0xbc980349	-0.018556254
242	0x3d987f2e	0.074461326
243	0xbddd4ce6	-0.10805683
244	0xbd34566c	-0.04402773
245	0xbe00922c	-0.1255576
246	0xbdc4e7c0	-0.09614515
247	0x3d3a8842	0.0455401
248	0xbe463300	-0.19355392
249	0x3e268f1d	0.16265531
250	0xbc28747b	-0.010281677
251	0x3c6b91e8	0.0143780485
252	0x3d0a34de	0.033741824
253	0x3cd35a17	0.025799794
254	0xbe0199df	-0.12656353
255	0x3e6b417a	0.22974196

_mean_net.0.bias f4 [64]
0	0x3db78a3f	0.08961915
1	0xbe0b4306	-0.13599786
2	0xbad38d4d	-0.0016140133
3	0xbea406a7	-0.32036325
4	0x3ce6cfb5	0.028175214
5	0x3e29a0cf	0.1656525
6	0x3d58a312	0.05288989
7	0x3e9487c4	0.2900983
8	0xbda83919	-0.082140155
9	0x3e7cc434	0.2468422
10	0xbefb131b	-0.49038014
11	0xbe956990	-0.291821
12	0xbd68fadd	-0.056879867
13	0x3f990abf	1.1956404
14	0x3ddec546	0.10877471
15	0xbe72dd84	-0.23717314
16	0x3dfe7d21	0.1242621
17	0xbbb8e699	-0.0056427238
18	0xbe80c6db	-0.25151715
19	0xbe9ceada	-0.30647928
20	0xbe570861	-0.2099929
21	0x3dcd6594	0.1002914
22	0x3d08d416	0.033405386
23	0xbf5ed828	-0.8704858
24	0xbd6578a8	-0.05602327
25	0x3e697390	0.2279799
26	0xbe9b69a3	-0.30354032
27	0xbf76ece6	-0.9645523
28	0x3d34e810	0.044166625
29	0x3d209be7	0.03921118
30	0xbcdf9123	-0.027290886
31	0xba840123	-0.001007114
32	0xbf13056f	-0.57430166
33	0x3e0751ed	0.13214846
34	0x3d58910e	0.05287271
35	0xbd3291c9	-0.043596063
36	0x3ca8f1d9	0.020623134
37	0x3db4e27c	0.08832261
38	0xbde9a4a1	-0.114083536
39	0xbe961b35	-0.29317632
40	0x3e985b5b	0.297572
41	0xbd7680e2	-0.060181506
42	0xbc7af8e2	-0.015318127
43	0x3e8d54b4	0.27603686
44	0xbda6021f	-0.08105873
45	0xbf6cb187	-0.92458385
46	0x3f013b52	0.5048114
47	0xbdc12543	-0.09430935
48	0xbd55d561	-0.052205447
49	0xbd381f3b	-0.04495166
50	0xbd0e5f55	-0.034758884
51	0xbed34fd2	-0.41271836
52	0x3e0910a0	0.13385248
53	0x3f1bfd86	0.6093372
54	0x3e084f81	0.13311578
55	0x3f11ba12	0.56924546
56	0xbe74da70	-0.23911452
57	0xbcc6d9c8	-0.024273768
58	0xbd63b039	-0.05558798
59	0xbd0d9673	-0.034567308
60	0x3d45853e	0.048222773
61	0x37bac8e8	2.2266482e-05
62	0xbd461f18	-0.048369497
63	0xbe532aae	-0.2062175

_mean_net.2.weight f4 [32, 64]
0	0xbbece6a4	-0.007229643
1	0x3ca6a6ae	0.020343151
2	0x3c1d894e	0.0096152555
3	0xbd8787ff	-0.06617736
4	0xbe60e548	-0.21962464
5	0xbcdd5d66	-0.027022075
6	0x3e04159e	0.12898871
7	0xbe64f876	-0.22360405
8	0x3d9bd21d	0.07608435
9	0xbdf30125	-0.11865453
10	0xbca9d845	-0.020733008
11	0xbe161747	-0.14657317
12	0x3d233f45	0.03985526
13	0xbf0607f2	-0.52355874
14	0xbcdbce12	-0.02683166
15	0xbdc24636	-0.09486048
16	0x3c1036e8	0.008802153
17	0x3c98983d	0.01862728
18	0x3d885d37	0.06658404
19	0xbc13dc25	-0.0090246545
20	0x3d5d48fe	0.05402469
21	0x3d8ad52c	0.067789406
22	0x3e2b4ab3	0.16727714
23	0xbd9dc0cf	-0.07702791
24	0xbd35f9a0	-0.044427514
25	0x3e856637	0.26054546
26	0x3e34f73f	0.17672442
27	0x3e17f218	0.14838445
28	0xbd5f2406	-0.054477714
29	0x3b81c80b	0.0039606146
30	0x3ccef737	0.025264366
31	0xbe6fd7a3	-0.23422103
32	0x3d095562	0.033528693
33	0x3e2231f3	0.15839367
34	0xbcb7eeba	-0.0224527
35	0xbd6549f1	-0.05597872
36	0xbd8acf08	-0.06777769
37	0xbde2dd12	-0.11077322
38	0xbe175c2f	-0.14781259
39	0xbdd00faa	-0.10159238
40	0xbdf8681b	-0.121292315
41	0x3e95c1aa	0.29249316
42	0xbea1b9d7	-0.31587097
43	0xbd49842c	-0.049198315
44	0x3dad1fc7	0.08453327
45	0xbe9b9bdb	-0.30392346
46	0xbdd5e6f8	-0.104444444
47	0x3cee445f	0.029085336
48	0xbde98744	-0.11402753
49	0xbe546b1e	-0.20743987
50	0x3c3ec177	0.011642805
51	0x3c4bd895	0.012441774
52	0xbdc5eab7	-0.09663909
53	0x3d772b12	0.06034381
54	0x3d811bdb	0.06304141
55	0x3da3676f	0.07978713
56	0x3c8646c4	0.016391166
57	0xbe5dc834	-0.21658403
58	0x3d77c5b4	0.06049128
59	0xbe2d17b6	-0.16903576
60	0xbde9a75a	-0.11408873
61	0x3ee116c5	0.43962684
62	0x3d22ebc0	0.03977561
63	0x3d89e815	0.06733719
64	0x3de25c76	0.11052792
65	0xbd367211	-0.044542376
66	0xbe1f6883	-0.15567212
67	0xbe0fdf79	-0.14050092
68	0x3e254472	0.16139391
69	0xbcd806fc	-0.026370518
70	0x3c1cacac	0.009562653
71	0xbc3cd814	-0.011526126
72	0xbe1f5e7b	-0.15563385
73	0xbd3143a3	-0.043277394
74	0xbe7ad28a	-0.24494377
75	0x3d9d8d4d	0.076929666
76	0xbe4ca005	-0.19982918
77	0xbe78b2e1	-0.24286987
78	0x3d01c571	0.031682435
79	0x3d17dd1b	0.037076097
80	0x3d0778f7	0.033074345
81	0x3bf2031c	0.0073856246
82	0xbdb2296d	-0.086993076
83	0x3df5c1eb	0.119998775
84	0x3e956d8f	0.2918515
85	0x3cd6af61	0.026206674
86	0xbde43b74	-0.11144152
87	0xbdedab1c	-0.11604902
88	0xbe43290e	-0.1905863
89	0x3ebd4b1b	0.36971363
90	0x3d16542a	0.03670136
91	0x3f1b996a	0.60780966
92	0x3d8b995b	0.068163596
93	0xbd9e3309	-0.07724578
94	0xbe637b11	-0.22214915
95	0x3d4fdbd7	0.050746765
96	0xbdf2e5d2	-0.11860241
97	0x3d6949bf	0.056955095
98	0xbe3c1f92	-0.18371418
99	0x3e0ad9ce	0.13559648
100	0x3c7bf1c0	0.015377462
101	0xbbb88022	-0.005630509
102	0x3e752d36	0.23943028
103	0xbcf01d51	-0.029310854
104	0x3919294f	0.00014606606
105	0x3d55e837	0.05222341
106	0x3dec880d	0.11549387
107	0xbd5e7545	-0.054311056
108	0x3c712e7f	0.014720558
109	0x3ddc4b69	0.10756571
110	0x3d9c4e04	0.07632068
111	0xbe056b94	-0.13029319
112	0xbe0da61f	-0.13832901
113	0x3e61a912	0.22037151
114	0xbd0bd0bf	-0.034134623
115	0x3d2cf99d	0.042230237
116	0x3c3f0371	0.011658535
117	0xbde61a4f	-0.11235487
118	0xbd9e335a	-0.07724638
119	0xbbf3bb1e	-0.0074380776
120	0xbcd4dcca	-0.025984187
121	0x3e972179	0.29517725
122	0xbc53b389	-0.0129212225
123	0x3d957691	0.07298005
124	0xbd7e43e9	-0.062076483
125	0xbdec1d73	-0.115290545
126	0xbdc8ba0c	-0.098011106
127	0xbd22b0cc	-0.039719388
128	0xbcea8e64	-0.02863235
129	0x3da4f4c0	0.08054495
130	0x3e4f488b	0.20242517
131	0x3cd7ae1f	0.026328145
132	0xbd0b6690	-0.034033358
133	0xbc5b352a	-0.0133793745
134	0x3e78f0c2	0.24310592
135	0x3d685882	0.056725033
136	0x3e708b51	0.23490645
137	0x3d63021b	0.05542193
138	0xbd0ac874	-0.033882573
139	0x3c2e7c39	0.010649734
140	0x3d77cb6b	0.06049673
141	0xbd5e3ea9	-0.054258976
142	0x3d289f8e	0.04116779
143	0xbc72c9e4	-0.014818642
144	0xbcdcd570	-0.026957244
145	0xbbf1ea99	-0.0073827025
146	0x3d669b25	0.0563003
147	0xbbe5826a	-0.007004072
148	0x3dc2fb12	0.09520544
149	0xbca5965a	-0.020213295
150	0xbd6255bf	-0.055257555
151	0x3c52feaf	0.012878104
152	0x3ce15305	0.027505407
153	0xbd0c2063	-0.034210574
154	0x3dcc825e	0.09985803
155	0xbedd198b	-0.4318355
156	0xbd2e6f91	-0.042586867
157	0xbd8138aa	-0.06309636
158	0xbda087de	-0.078384146
159	0xbd2b433b	-0.041812163
160	0x3c5cd9c7	0.013479657
161	0x3cdba913	0.02681402
162	0xbd45d934	-0.048302844
163	0xbcaa6fde	-0.020805296
164	0x3b61b9b0	0.0034442954
165	0xbe1def64	-0.15423352
166	0xbd5eb9a8	-0.054376274
167	0x3d742850	0.059608757
168	0x3c378142	0.011200251
169	0x3c9c3c62	0.019071762
170	0xbd85afc5	-0.06527666
171	0xbd2fdf97	-0.04293784
172	0x3dde24f6	0.108468935
173	0x3cc493da	0.023996282
174	0xbd9b8a98	-0.07594794
175	0xbca76740	-0.020434976
176	0xbde5e724	-0.11225727
177	0xbe994521	-0.29935554
178	0xbe37f124	-0.17963082
179	0xbdd6df86	-0.104918525
180	0xbb5428e7	-0.0032373013
181	0xbc8af3b1	-0.016961904
182	0xbda85305	-0.0821896
183	0xbde895b3	-0.11356678
184	0x3c82b641	0.015956046
185	0x3d047f6b	0.032348078
186	0xbd04f93d	-0.032464255
187	0x3a69288b	0.0008894286
188	0xbd478215	-0.04870804
189	0x3dcc1873	0.09965601
190	0x3d142046	0.03616359
191	0xbd01d33a	-0.031695582
192	0xbe26a490	-0.16273713
193	0xbcfe733f	-0.031060813
194	0xbcaa29ce	-0.020771887
195	0xbd20003e	-0.03906273
196	0xbea23bfb	-0.31686386
197	0xbd5271ff	-0.051378246
198	0xbe6d54bd	-0.23176856
199	0xbd28db24	-0.041224614
200	0x3d467260	0.04844892
201	0x3d6e4160	0.058167815
202	0x3e913776	0.28362626
203	0x3dd64877	0.1046304
204	0x3bcd290a	0.0062609958
205	0xbc87d043	-0.0165788
206	0xbd43eab5	-0.047831256
207	0x3c2a9d5a	0.010413492
208	0xbdba4b2d	-0.0909637
209	0x3d54a227	0.051912453
210	0x3c54069a	0.012941027
211	0x397f942e	0.00024373896
212	0xbe350216	-0.17676577
213	0x3ddd468e	0.10804473
214	0x3e60555c	0.21907562
215	0xbd4d1d0d	-0.050076533
216	0xbe48b3a3	-0.19599776
217	0xbd7005da	-0.05859933
218	0xbc33854a	-0.010957072
219	0xbe98610c	-0.2976154
220	0x3b6c8d2c	0.0036094887
221	0x3ca8e4f2	0.020616982
222	0x3d6b0143	0.05737425
223	0xbbc36b3d	-0.0059637115
224	0x3e050ffb	0.12994377
225	0xbc4a9416	-0.012364408
226	0x3d3ce7e9	0.046119604
227	0xbc2cdadc	-0.010550227
228	0xbe9d3577	-0.30704853
229	0x3d8f0628	0.06983596
230	0x3cf5e649	0.030017035
231	0xbbad5ff4	-0.0052909795
232	0xbe265abe	-0.16245553
233	0xbda7e0a1	-0.081971414
234	0xbdfa468e	-0.122204885
235	0xbd841f5d	-0.064512946
236	0xbd9339c8	-0.07188755
237	0xbec7cf48	-0.3902533
238	0x3d9d14e9	0.07670004
239	0x3cd61071	0.026130887
240	0xbdc04432	-0.09388007
241	0x3e5587b8	0.20852554
242	0xbdda7239	-0.106663175
243	0x3ddc720b	0.107639395
244	0x3aebebb4	0.0017999322
245	0x3cb471a7	0.02202685
246	0xba632234	-0.00086644595
247	0x3af0e41c	0.0018378529
248	0xbc4f2a6c	-0.0126443915
249	0xbd57dd25	-0.052701134
250	0x3c70fb28	0.014708318
251	0xbb321e9b	-0.0027178887
252	0xbe44c9e7	-0.19217645
253	0xbe8bc200	-0.27296448
254	0x3cd81e13	0.026381528
255	0x3bc5bc01	0.0060343747

_mean_net.2.bias f4 [32]
0	0x3ef778a7	0.48334238
1	0xbedc035d	-0.42971316
2	0xbe54f724	-0.20797402
3	0xbd7a44b0	-0.06110066
4	0x3eff7fa8	0.4990208
5	0x3f00a5ea	0.50253165
6	0xbdcd2386	-0.10016541
7	0x3e79ad5e	0.2438254
8	0x3e4ffd8f	0.20311569
9	0x3e065ccc	0.13121337
10	0x3d9cf4b2	0.076638594
11	0xbda07c4d	-0.078362085
12	0x3f49d430	0.788394
13	0xbe7da3fc	-0.24769586
14	0xbe57ea55	-0.21085484
15	0xbeba8965	-0.3643295
16	0x3e80bf9d	0.2514619
17	0xbd193745	-0.037406225
18	0xbf065efd	-0.5248869
19	0xbe370882	-0.17874339
20	0xbd0d2c2e	-0.03446596
21	0xbe231df4	-0.15929395
22	0x3eced8f2	0.4039989
23	0x3e93a237	0.28834698
24	0xbb8e8814	-0.004349718
25	0xbe4bde0c	-0.19908923
26	0xbedcfacc	-0.43160093
27	0x3eb3f107	0.35144827
28	0x3ec653ae	0.38735718
29	0xbc8456e5	-0.016154716
30	0xbe8cf0ae	-0.27527374
31	0xbe21669a	-0.15761796

_mean_net.4.weight f4 [17, 32]
0	0xbe30b253	-0.17255525
1	0x3e1d1ffc	0.15344232
2	0xbdc60b20	-0.09670091
3	0xbe44b7af	-0.19210695
4	0xbebc3a1f	-0.36763093
5	0xbea8cab3	-0.32967147
6	0xbe664eb7	-0.22490965
7	0xbf35e002	-0.71044934
8	0x3e84ad16	0.25913304
9	0xbc5a3459	-0.013318145
10	0xbe9a7f96	-0.30175465
11	0x3e40eb11	0.1883967
12	0xbe9cc325	-0.30617633
13	0x3eae1ee2	0.34007937
14	0xbe4b9f56	-0.19885
15	0xbf11f6a1	-0.5701695
16	0xbef8cb09	-0.48592404
17	0x3f2e4889	0.6807943
18	0xbd03cf08	-0.032179862
19	0x3e775ab9	0.24155702
20	0xbd6c1426	-0.057636403
21	0xbeea9d0c	-0.45822942
22	0x3f5d245d	0.8638361
23	0xbf16e091	-0.5893641
24	0x3d0e4bdb	0.03474031
25	0xbe5272c3	-0.2055159
26	0x3e839708	0.25701165
27	0xbdb5b0d4	-0.08871618
28	0xbe579dfc	-0.2105636
29	0xbebdffab	-0.37109122
30	0xbebd124e	-0.36928028
31	0x3da33f40	0.07971048
32	0xbe8c0d84	-0.27354062
33	0x3e8bd679	0.27312067
34	0xbed5f73e	-0.41790193
35	0x3f22e840	0.63635635
36	0x3e393539	0.18086709
37	0xbe41ff59	-0.18945064
38	0xbeb07252	-0.3446222
39	0xbeca5440	-0.39517403
40	0xbbecb29f	-0.0072234417
41	0x3e8ba1df	0.27271935
42	0xbf16d988	-0.58925676
43	0xbedb651b	-0.42850575
44	0x3c747b0a	0.014921913
45	0xbe688947	-0.22708617
46	0xbe2857fc	-0.16439813
47	0x3e5fa7a8	0.218413
48	0xbe353fdb	-0.1770014
49	0xbf25a7b7	-0.6470904
50	0xbec8f691	-0.39250615
51	0xbeab9237	-0.3350999
52	0xbe5bc418	-0.21461523
53	0xbd69b025	-0.05705275
54	0x3ca3cc78	0.01999496
55	0x3d8570b8	0.0651564
56	0x3e3d9ac3	0.18516068
57	0xbe343434	-0.17598039
58	0x3e907844	0.28216755
59	0x3e9c5ce1	0.3053961
60	0xbebdd25f	-0.37074563
61	0xbd83d230	-0.064365745
62	0x3e594c89	0.21220602
63	0x3e4780d7	0.19482742
64	0x3d7d5567	0.061849024
65	0xbeb17453	-0.3465906
66	0xbf11fd5f	-0.5702724
67	0xbdaa546f	-0.08316886
68	0xbd7876c5	-0.060660142
69	0xbe70cf18	-0.235165
70	0xbd38e4fe	-0.04514026
71	0x3f33a0d1	0.7016726
72	0x3e1cc8a5	0.15310915
73	0xbdc792c2	-0.09744789
74	0xbf0146ea	-0.5049883
75	0x3e248706	0.16067132
76	0xbeb57220	-0.35438633
77	0x3f7c8cde	0.98652446
78	0x3e80a39b	0.2512482
79	0x3dfe8ddf	0.124294035
80	0xbe01be97	-0.1267036
81	0xbf0d9c5f	-0.5531673
82	0x3e98c0ad	0.298345
83	0x3e1b6343	0.15174584
84	0x3e229940	0.15878773
85	0xbddb4835	-0.10707132
86	0x3f206343	0.6265146
87	0x3eb17541	0.3465977
88	0xbf8e7247	-1.1128625
89	0xbf029ff0	-0.51025295
90	0xbd817a4f	-0.06322157
91	0xbeeada3e	-0.4586963
92	0xbe829290	-0.25502443
93	0x3ea7b28c	0.32753408
94	0xbbcaa84b	-0.006184613
95	0x3ee98300	0.45607758
96	0x3e3fc78b	0.18728463
97	0x3cfe13cc	0.0310153
98	0xbdeadcf1	-0.114679225
99	0xbedea690	-0.43486452
100	0xbee5289a	-0.4475754
101	0x3ebaf81a	0.3651741
102	0x3e9c0f89	0.30480602
103	0xbe3c88e3	-0.18411593
104	0x3ef3dfd2	0.476317
105	0xbd439685	-0.04775097
106	0xbf3f7d1a	-0.74800265
107	0xbf0bbd74	-0.5458596
108	0x3eb06516	0.34452122
109	0x3df6eb84	0.1205664
110	0xbe5a1dde	-0.21300456
111	0x3e95f1e1	0.292861
112	0x3e5c7422	0.21528676
113	0xbf25a3bf	-0.6470298
114	0xbd386ab9	-0.045023654
115	0xbe879ed7	-0.26488373
116	0x3d9cad7a	0.076502755
117	0xbf10f5ab	-0.5662486
118	0x3f13657b	0.5757672
119	0x3f47b218	0.78006124
120	0x3ed176c6	0.4091093
121	0x3e986397	0.2976348
122	0xbee4b8b1	-0.44672158
123	0x3df33019	0.11874408
124	0x3e1e24da	0.15443745
125	0x3f2f4dfe	0.6847838
126	0xbeaa1fca	-0.33227378
127	0xbf16b71e	-0.58873165
128	0xbe5e51e0	-0.2171092
129	0xbf02556f	-0.5091161
130	0xbf549948	-0.8304639
131	0x3f013f72	0.50487435
132	0xbe09c226	-0.13452968
133	0xbf48c165	-0.78420097
134	0xbeca5d38	-0.39524245
135	0x3e718945	0.2358752
136	0xbf11d2cb	-0.5696227
137	0xbe2ccea6	-0.16875705
138	0x3f09561f	0.53647035
139	0x3dc40ccc	0.09572753
140	0x3f061b4f	0.5238542
141	0xbf1910e0	-0.59791374
142	0x3e6233e4	0.22090107
143	0xbe8efe5a	-0.2792843
144	0x3e656bcc	0.22404402
145	0x3db4ed70	0.0883435
146	0x3e850735	0.2598206
147	0x3de6aae0	0.112630606
148	0x3d830108	0.06396681
149	0xbe32729e	-0.17426535
150	0xbe3edef4	-0.18639737
151	0xbd5d58db	-0.054039817
152	0xbe79ad43	-0.243825
153	0xbea93f02	-0.33055884
154	0x3f334dca	0.7004057
155	0xbe89a4fd	-0.2688369
156	0xbeac7e79	-0.3369024
157	0xbecbc55f	-0.3979902
158	0x3ef3a16c	0.47584093
159	0x3f078acb	0.52946156
160	0xbf423ef3	-0.758773
161	0xbe6eafd6	-0.23309264
162	0xbf2fe52a	-0.6870905
163	0xbf5e38c8	-0.8680539
164	0xbebab568	-0.36466527
165	0x3c6c1e20	0.014411479
166	0x3ee8e2f3	0.4548565
167	0xbbcfda90	-0.0063431934
168	0x3ef701c7	0.48243544
169	0x3db54fbf	0.08853101
170	0x3d55fec8	0.05224493
171	0x3e30556b	0.17220084
172	0x3eaf2f10	0.34215593
173	0xbdc6abec	-0.0970076
174	0x3e9a3adf	0.3012304
175	0xbf73e5c7	-0.9527249
176	0xbe2cd4c2	-0.16878036
177	0x3e9d5944	0.30732167
178	0x3ee8f374	0.4549824
179	0x3ee4dc01	0.446991
180	0x3e9893a9	0.29800156
181	0xbd44e620	-0.048071027
182	0xbf3d0b10	-0.73845005
183	0x3e9b3e1c	0.30320823
184	0xbe0ce7b4	-0.13760263
185	0xbecc942c	-0.39956796
186	0xbe1f55ae	-0.15560028
187	0x3e1ff143	0.15619378
188	0xbcb58794	-0.022159375
189	0xbf759b1f	-0.9593982
190	0xbe612fe4	-0.21990925
191	0x3f0595f3	0.5218193
192	0xbea3c825	-0.31988636
193	0x3e9d666d	0.30742207
194	0xbf46bd64	-0.7763274
195	0xbe8640c7	-0.26221296
196	0x3db5105d	0.08841012
197	0xbdfc4387	-0.12317567
198	0x3e89f800	0.2694702
199	0x3e313de7	0.1730877
200	0xbfa51155	-1.2895914
201	0x3df820c6	0.12115626
202	0x3f468656	0.7754873
203	0xbe60c5fa	-0.21950522
204	0x3edd9331	0.4327636
205	0xbd538ab4	-0.05164595
206	0x3de83d50	0.113398194
207	0x3e6143c5	0.21998508
208	0x3e32adce	0.17449114
209	0xbf197218	-0.5993972
210	0x3ece6629	0.40312317
211	0x3f20218a	0.62551177
212	0x3d49f1e6	0.049302958
213	0xbf02dcda	-0.5111824
214	0x3f1fbe4c	0.62399745
215	0xbe945eb2	-0.28978497
216	0x3d9c21a9	0.07623608
217	0x3e34d4b7	0.1765927
218	0xbf991fa8	-1.1962786
219	0xbeffc196	-0.49952382
220	0x3eb2d30e	0.34926647
221	0x3e02d16a	0.12775198
222	0x3ddc0943	0.10743954
223	0xbe45f832	-0.1933296
224	0xbd22ebfd	-0.039775837
225	0xbeb0d307	-0.34536
226	0x3f60168d	0.8753441
227	0xbe2cda80	-0.16880226
228	0xbea960fc	-0.33081806
229	0xbe959730	-0.2921691
230	0x3f272559	0.65291363
231	0x3f17d96d	0.5931614
232	0x3ed7c0cc	0.4213928
233	0xbedf218b	-0.4358028
234	0xbe7be839	-0.24600305
235	0xbe5af3a2	-0.21382001
236	0xbe3cf58e	-0.18453047
237	0x3f58f0f3	0.8474266
238	0xbee09cd7	-0.4386966
239	0xbea01746	-0.31267756
240	0x3e86bf47	0.26317808
241	0x3e2a850b	0.16652314
242	0xbd812b01	-0.063070305
243	0x3d33bb52	0.043879814
244	0x3d346069	0.044037256
245	0xbe8dcce8	-0.27695394
246	0xbe8858e0	-0.26630306
247	0x3e1f4b2c	0.1555602
248	0xbd83aa17	-0.064289264
249	0x3f58961b	0.8460404
250	0x3eef1252	0.46693665
251	0xbd8f538d	-0.06998358
252	0x3eb7b366	0.35879058
253	0x3eb47ca5	0.35251346
254	0x3dc614b3	0.09671917
255	0x3d64db75	0.055873353

_mean_net.4.bias f4 [17]
0	0x3e686681	0.22695352
1	0xbc55dcc1	-0.01305312
2	0x3ec1a813	0.37823543
3	0xbdc01c91	-0.093804486
4	0x3d692209	0.056917224
5	0x3f35a06d	0.70947915
6	0x3f49a9ca	0.787747
7	0x3dd6df10	0.104917645
8	0xbdb6cc64	-0.08925703
9	0x3df3f8b6	0.11912672
10	0x3e7cfa39	0.24704827
11	0x3e4f0ec5	0.20220478
12	0x3d207e91	0.039183203
13	0xbe5cea1c	-0.2157368
14	0x3ea2fd45	0.31833854
15	0x3f218331	0.6309081
16	0xbe8e8dec	-0.27842653
